logs/exp0/weights/epoch25.pt (torch, 348934 bytes, 45 tensors)

conv_block1.0.weight f4 [32, 4, 10]
0	0x3d7dd563	0.06197108
1	0xbe13b992	-0.14426258
2	0x3e0f1478	0.13972652
3	0x3ca7938c	0.020456098
4	0x3d2023fb	0.039096814
5	0x3dfe65c1	0.12421752
6	0xba86b3d5	-0.0010276983
7	0xbdd1ffbd	-0.10253856
8	0x3e0edd0c	0.1395151
9	0xbda84f9a	-0.08218308
10	0x3da596b7	0.08085387
11	0xbd60d8da	-0.054894306
12	0x3d022aac	0.031778976
13	0x3d878022	0.06616236
14	0xbd5c1d9d	-0.05373918
15	0x3df13ed9	0.11779565
16	0x3daa0bfb	0.08303066
17	0x3d08708a	0.03331045
18	0xbc7b576f	-0.01534067
19	0xbd39bddd	-0.045347083
20	0xbdf73f12	-0.120725766
21	0x3da11caf	0.07866799
22	0x3d215a27	0.039392617
23	0xbcc3596c	-0.02384635
24	0x3d0ec2a0	0.034853578
25	0xbdbef085	-0.09323219
26	0x3d63927b	0.055559617
27	0x3db11fbd	0.08648632
28	0xbe1c8c0f	-0.15287803
29	0xbcb00ea0	-0.021491349
30	0xbe0d893f	-0.13821886
31	0x3dbdb960	0.09263873
32	0x3d1f97e8	0.03896323
33	0xbcde238a	-0.027116556
34	0xbd1d56a6	-0.038412713
35	0xbdaaf206	-0.083469436
36	0xbd82a47c	-0.06379029
37	0x3d7811a1	0.060563687
38	0xbc21249d	-0.009835389
39	0x3d1ad538	0.037800997
40	0x3b5e2ae1	0.003390007
41	0xbd7115b6	-0.058858596
42	0x3d842a6a	0.06453402
43	0xbdb49e84	-0.08819297
44	0x3d0d19c4	0.0344484
45	0x3e36c315	0.17847855
46	0xbd6de0d8	-0.058075756
47	0x3c2ec8ed	0.010668022
48	0x3e112811	0.1417544
49	0x3b119826	0.0022215932
50	0x3dbd9656	0.0925719
51	0x3da94474	0.082650095
52	0xbe0ec9d0	-0.13944173
53	0x3de26359	0.11054105
54	0xbe13e900	-0.14444351
55	0x3bfb5c02	0.0076708803
56	0xbc9ce276	-0.019150954
57	0xbd418c6a	-0.04725305
58	0xbbbc1d41	-0.005740792
59	0x3d259e61	0.040434245
60	0xbddd0070	-0.10791099
61	0xbb8c4bb5	-0.004281486
62	0xbd3a32e8	-0.045458704
63	0xbd190045	-0.037353773
64	0xbd5fb4f4	-0.05461593
65	0xbca692fa	-0.020333756
66	0xbd96137f	-0.07327937
67	0x3dc32abc	0.09529635
68	0xbdeb94ca	-0.11502989
69	0x3cf6f622	0.030146662
70	0x3ddc9c03	0.107719444
71	0x3d8f0b51	0.0698458
72	0x3d238c12	0.039928503
73	0xbd34ec0e	-0.04417043
74	0xbd0ef473	-0.034901094
75	0x3b2eb817	0.002666002
76	0xbda347e1	-0.07972694
77	0x3c200b2c	0.009768289
78	0xbd85a7f7	-0.065261774
79	0x3dbc137b	0.09183403
80	0x3d5d154a	0.05397538
81	0xbdd92197	-0.1060211
82	0xbdcf4e44	-0.1012235
83	0xbdabb358	-0.083838165
84	0x3e18e65e	0.14931628
85	0xbdb8af31	-0.0901779
86	0xbd8e0fe7	-0.06936627
87	0x3e0332fd	0.12812419
88	0xbe0af40d	-0.1356966
89	0xbc15135d	-0.009098855
90	0x3d4f0948	0.05054596
91	0x3d3bbb1c	0.04583274
92	0x3c11c6ea	0.008897522
93	0x3d953471	0.07285393
94	0xbcc81565	-0.024424264
95	0x3dc8d0f8	0.098054826
96	0x3e19ec98	0.1503166
97	0x3e052261	0.13001396
98	0x3e1ead0c	0.154957
99	0xbd459704	-0.048239723
100	0x3dacf9d6	0.0844609
101	0xbddb0d1b	-0.10695859
102	0x3d9468d6	0.07246558
103	0xbdeff58f	-0.117167585
104	0x3c867e9d	0.016417796
105	0x3dd6d05a	0.10488959
106	0x3e0a123d	0.1348352
107	0xbd44d01f	-0.048050042
108	0x3d1fbb27	0.03899684
109	0xbcd6000f	-0.026123075
110	0xbde28eb1	-0.110623725
111	0xbe0310ba	-0.1279935
112	0x3db85df9	0.09002299
113	0x3d46b554	0.04851277
114	0xbd2d9209	-0.042375598
115	0xbdd78fb9	-0.1052546
116	0x3d6a55e1	0.057210807
117	0x3c83b5f4	0.016077973
118	0xbd06836b	-0.032840174
119	0x3c4d3a72	0.0125261415
120	0x3d89c05b	0.06726142
121	0xbdb18cbe	-0.086694226
122	0xbd12de77	-0.03585669
123	0xbd0cac5d	-0.034344066
124	0xbc8c1c03	-0.0171032
125	0x3d811805	0.063034095
126	0xbd823f98	-0.06359786
127	0xbdee3fa7	-0.116332345
128	0x3d944bc0	0.07241011
129	0x3d3f30f4	0.046677545
130	0xbd117d15	-0.03551968
131	0xbe03d09b	-0.12872545
132	0xbe10ff43	-0.14159875
133	0xbe128bb0	-0.14311099
134	0xbdc90425	-0.09815244
135	0xbd98f164	-0.074679166
136	0x3d8e4fbd	0.069488026
137	0xbd26dfb6	-0.04074069
138	0xbda28b1b	-0.079366885
139	0x3d88de6f	0.06683051
140	0xbcefb5cb	-0.02926149
141	0xbc4ed127	-0.012623108
142	0x3d0e9773	0.034812402
143	0x3e11742b	0.14204471
144	0xbdbe4079	-0.09289641
145	0x3dc0fb35	0.09422914
146	0x3e0a97ff	0.13534544
147	0xbd5629ea	-0.052286066
148	0x3df54794	0.11976543
149	0x3bf30001	0.007415772
150	0x3d49f82e	0.04930895
151	0x3d6d4aef	0.05793279
152	0x3dbdb499	0.09262962
153	0x3cc992a0	0.024606049
154	0xbd4074ca	-0.04698638
155	0x3d81d660	0.06339717
156	0x3db01b3b	0.08598944
157	0x3d98655e	0.07441209
158	0x3d978346	0.07398085
159	0x3dc3a406	0.09552769
160	0xbce9f132	-0.028557394
161	0xb9926f91	-0.00027930413
162	0x3ccb8477	0.024843438
163	0xbcfb3041	-0.030662658
164	0xbc130bdc	-0.008974995
165	0x3df129ab	0.11775526
166	0xbd83286f	-0.064041965
167	0xbc8e58f9	-0.01737641
168	0x3d5397b9	0.051658366
169	0xbca8f2d0	-0.020623595
170	0x3da04508	0.07825667
171	0x3d876af4	0.066121966
172	0xbcf4083d	-0.029789085
173	0x3de2bc1b	0.110710345
174	0x3c1615d2	0.009160476
175	0xbdbb89bb	-0.091571294
176	0xba39840c	-0.00070768665
177	0x3dea6bb9	0.11446328
178	0xbe0795b5	-0.13240702
179	0x3df25ec2	0.1183448
180	0xbdc8aeb6	-0.097989485
181	0x3d7d1097	0.0617834
182	0xbe420baa	-0.18949762
183	0x3d83311d	0.06405852
184	0xbcb65943	-0.02225936
185	0x3d22b429	0.039722595
186	0xbe2e895e	-0.17044589
187	0x3dbadc24	0.0912402
188	0xbddeb5be	-0.10874508
189	0x3d721b6f	0.059108194
190	0x3d53dec8	0.051726133
191	0xbd0d120b	-0.034441035
192	0xbdc1a8ab	-0.09455999
193	0xbd18d07f	-0.037308212
194	0xbe117e56	-0.1420835
195	0x3b7909f8	0.0038000327
196	0x3db62919	0.088945575
197	0x3da1ed1c	0.07906553
198	0xbe0c8bff	-0.1372528
199	0x3da475fa	0.08030315
200	0x3da1edd0	0.07906687
201	0x3dd13012	0.10214247
202	0xbd0f50df	-0.034989234
203	0xbd6905af	-0.056890186
204	0x3d4a9d05	0.04946615
205	0xbdecfd5a	-0.115717605
206	0x3e1acbac	0.15116757
207	0x3e2c4fda	0.16827336
208	0xbe0b4b2e	-0.13602898
209	0xbd886c41	-0.06661273
210	0x3da3eeb6	0.08004515
211	0x3d032a3c	0.0320227
212	0xbe09b512	-0.13447979
213	0x3d5b2fde	0.053512447
214	0x3d6027df	0.054725524
215	0x3e0a6032	0.13513258
216	0xbd0418cb	-0.032250207
217	0xbdae4e6f	-0.08511054
218	0x3e058fd7	0.13043152
219	0xbdd5e01c	-0.10443136
220	0xbcbf06b4	-0.023318626
221	0xbd7593d6	-0.05995544
222	0x3da28c85	0.07936958
223	0xbd96635d	-0.07343171
224	0xbe223123	-0.15839057
225	0xbde3017f	-0.1108427
226	0x3c29a4fe	0.010354279
227	0xbe40b278	-0.1881808
228	0xbddfafe7	-0.109222226
229	0x3d26a190	0.04068142
230	0x3d92b760	0.07163882
231	0x3d14efa2	0.036361344
232	0xbdbb5573	-0.091471575
233	0x3d8e5090	0.0694896
234	0x3db4ed51	0.08834327
235	0xbc17f94b	-0.009275745
236	0xbd9f34a4	-0.07773712
237	0x3dc166d1	0.09443439
238	0xbb144b8e	-0.0022628042
239	0x3d66ac4c	0.05631666
240	0x3e03c14a	0.12866703
241	0x3d77bab8	0.060480803
242	0x3d42920f	0.047502574
243	0x3d4ba5f4	0.049718812
244	0xbd711ec8	-0.058867246
245	0x3e3883e1	0.18019058
246	0x3d8b4887	0.06800943
247	0x3dffdf3e	0.12493752
248	0x3deaa6ff	0.11457633
249	0x3dd71f24	0.105039865
250	0xbcb40275	-0.021973828
251	0x3d0b7be5	0.034053702
252	0x3d5dd86e	0.05416148
253	0x3b80a451	0.003925838
254	0xbdae9a40	-0.085255146
255	0xbd635f2e	-0.055510692

conv_block2.0.weight f4 [32, 32, 10]
0	0x3b8c30b7	0.004278268
1	0xbcd1f2b6	-0.025628429
2	0x3cbdb868	0.02315922
3	0xbd48cf8c	-0.049026057
4	0x3cb51b66	0.022107791
5	0x3c4adda8	0.0123819485
6	0x3c2ac39e	0.010422615
7	0x3df4cca0	0.119530916
8	0x3db2d2f3	0.087316416
9	0x3db55efe	0.08856009
10	0x3d9c8f23	0.07644489
11	0x3e023bee	0.12718174
12	0x3e0ad2f5	0.13557036
13	0x3c90cf49	0.017676966
14	0x3d1e1e64	0.0386032
15	0x3daaf35b	0.083471976
16	0x3d8e0833	0.069351576
17	0x3db5d8f1	0.08879269
18	0x3d6f4193	0.058412146
19	0xbd0461f0	-0.032319963
20	0xbcd475d4	-0.025935091
21	0x3cad6974	0.021168448
22	0xbd4cec12	-0.05002982
23	0x3cdd5339	0.027017223
24	0xbcbec796	-0.02328853
25	0x3d92ac8b	0.07161816
26	0x3d8915ca	0.06693609
27	0xbd4ca9a5	-0.049966473
28	0x3bb03b66	0.0053781746
29	0xbdb39f51	-0.087706216
30	0xbdac985b	-0.08427497
31	0x3d47d29b	0.048784833
32	0x3a600b87	0.00085466396
33	0xbd74863b	-0.059698325
34	0xbd332b20	-0.0437423
35	0x3da83b68	0.08214456
36	0xbd1af42a	-0.03783051
37	0xbd948deb	-0.07253631
38	0xbd8b0a4d	-0.06789074
39	0x3cb7c284	0.02243162
40	0x3d203d39	0.039120886
41	0x3ca6014f	0.020264296
42	0x3e00bf67	0.12573014
43	0x3dc80733	0.09766998
44	0xbd71144b	-0.058857244
45	0x3de86940	0.113482
46	0xbcb2b9ab	-0.021817049
47	0x3db4ae56	0.088223144
48	0xbbfbf645	-0.0076892697
49	0x3d7b6d13	0.06138332
50	0xbc8d0d1c	-0.017218165
51	0x3c926a20	0.01787287
52	0x3c2d55ac	0.010579508
53	0x3ddd0b2a	0.10793145
54	0xbd63b9a8	-0.055596977
55	0x3d6872be	0.05675005
56	0xbd13db44	-0.03609778
57	0x3c0b14bb	0.008488829
58	0x3dcf6132	0.101259604
59	0x3de7ecf3	0.11324491
60	0x3d19fc44	0.037594095
61	0x3d52c174	0.051454023
62	0x3db11fd5	0.086486496
63	0x3e2ca449	0.16859545
64	0x3e3d8a97	0.18509899
65	0x3d94061b	0.07227727
66	0x3d97135a	0.07376738
67	0x3e224043	0.15844826
68	0x3cb8b430	0.022546858
69	0x3d051fd5	0.03250106
70	0x3e20e498	0.15712202
71	0x3c29c42c	0.010361712
72	0x3a842765	0.0010082541
73	0x3c626501	0.0138180265
74	0x3c1bddc5	0.009513323
75	0x3da8ce64	0.08242491
76	0x3d825fa4	0.06365898
77	0x3dbdbffb	0.09265133
78	0x3deca005	0.11553959
79	0x3e0cdf0e	0.13756964
80	0x3caa5023	0.020790165
81	0x3da399ce	0.0798832
82	0x3d43e0f7	0.047821965
83	0xbb52fa58	-0.0032192674
84	0x3d4758c2	0.04866863
85	0xbd555797	-0.052085485
86	0xbceec7db	-0.029148033
87	0xbafcb5b0	-0.0019280221
88	0x3c8c2bd8	0.01711075
89	0xbd0a96bf	-0.03383517
90	0x3d0a1305	0.033709545
91	0x3caea035	0.021316627
92	0x3d6e3478	0.058155507
93	0xbd734087	-0.05938771
94	0xbdef98fd	-0.11699102
95	0xbdfc8988	-0.123309195
96	0xbdd78735	-0.105238356
97	0x3c3fb044	0.01169974
98	0xbde7f40a	-0.11325844
99	0x3d13836f	0.036014017
100	0x3d924243	0.07141545
101	0x3d906f56	0.07052486
102	0x3ddcfcc6	0.107904
103	0xbc8e8188	-0.01739575
104	0x3ddc476e	0.10755812
105	0xbd39b75e	-0.04534089
106	0x3d823be2	0.06359078
107	0x3ddedde1	0.10882164
108	0xbd5a3514	-0.053273275
109	0x3dc54fa1	0.09634329
110	0x3cd70451	0.026247175
111	0xbd994c4a	-0.07485254
112	0x3db9d874	0.09074488
113	0x3db7a99a	0.08967896
114	0x3db97897	0.09056204
115	0x3d5b3842	0.05352045
116	0xbca1d6f5	-0.01975582
117	0x3dd2fcd6	0.10302131
118	0xbd6c815f	-0.057740565
119	0xbcd927f5	-0.02650831
120	0xbdae6374	-0.08515063
121	0xbcbc2aa4	-0.022969551
122	0xbcb1c99d	-0.021702582
123	0x3d1ad9e6	0.03780546
124	0xbdcccf1c	-0.100004405
125	0xbdf7f36d	-0.12106977
126	0x3c94cf0b	0.018165132
127	0x3d2224f3	0.03958602
128	0xbc5c4001	-0.013442994
129	0xbdf9b816	-0.12193315
130	0xbde718c6	-0.11284022
131	0xbdbd3ebd	-0.09240482
132	0xbdb35c1b	-0.08757802
133	0xbdcb2948	-0.09919983
134	0xbe0de2c1	-0.13856031
135	0xbd7e5e3b	-0.062101584
136	0xbdb8690b	-0.0900441
137	0x3c546011	0.012962357
138	0xbd1a5944	-0.037682787
139	0xbe072a7f	-0.13199805
140	0x3d61872d	0.055060554
141	0x3d04ddd8	0.03243813
142	0x3db1b2dc	0.08676693
143	0x3dfadfd0	0.1224972
144	0x3db2eecc	0.08736953
145	0x3d5d3ad6	0.05401119
146	0xbd69ac06	-0.05704882
147	0x3d8c4ad9	0.068502136
148	0xbc8f59f4	-0.017498948
149	0x3dceb0ec	0.10092339
150	0x3dace494	0.08442035
151	0x3dabbc00	0.083854675
152	0xbd96d8df	-0.07365584
153	0x3cbdb909	0.02315952
154	0x3d61d05d	0.05513035
155	0x3d838ec1	0.064237125
156	0xbd4b2d30	-0.04960364
157	0x3c41705f	0.0118065765
158	0x3dc909cc	0.09816322
159	0x3cc3b761	0.023891153
160	0x3d6ff5a0	0.058583856
161	0xbd97c58c	-0.07410726
162	0xbd6cfc96	-0.057858072
163	0xbb5f2934	-0.0034051659
164	0x3decb7d2	0.115584984
165	0x3d4df33b	0.05028079
166	0x3d8b2aa8	0.067952454
167	0xbd4f4c8f	-0.05061012
168	0x3d76b95b	0.060235362
169	0xbd2966d4	-0.04135783
170	0xbc2ea187	-0.010658628
171	0x3e0776f0	0.13228965
172	0x3e16a0c3	0.14709763
173	0x3dace992	0.084429875
174	0xbc60bb44	-0.013716523
175	0x3e2184a9	0.15773262
176	0x3caae8ad	0.020862902
177	0x3d1c6e2c	0.038191006
178	0x3daae648	0.08344704
179	0xbc997bbf	-0.018735765
180	0xbc76a488	-0.015053876
181	0x3c028f5e	0.007968752
182	0xbdd15573	-0.10221376
183	0x3d2e9f7e	0.042632572
184	0x3d14437d	0.036197174
185	0xbda753ed	-0.081703044
186	0xbc179624	-0.009252105
187	0xbda3ad76	-0.079920694
188	0xbbc1f85c	-0.0059194993
189	0xbcae161d	-0.021250779
190	0xbc75ed96	-0.015010258
191	0x3dea4f9f	0.11440968
192	0xbcfea9ee	-0.031086888
193	0x3c8996a7	0.01679547
194	0xbd4bea1d	-0.049783815
195	0xbc835f04	-0.016036518
196	0x3d3b6514	0.045750692
197	0x3dda3f56	0.106566116
198	0x3b4fa180	0.0031681955
199	0x3be74117	0.00705732
200	0xbd1f0800	-0.03882599
201	0xbc79ab5e	-0.015238611
202	0x3c483ce9	0.012221553
203	0xbd392359	-0.045199726
204	0xbd31c64c	-0.043402
205	0xbd7549d4	-0.05988486
206	0xbd3c9c92	-0.046047755
207	0x3d2ac3c5	0.041690607
208	0xbc151b35	-0.009100725
209	0xbcabc48f	-0.02096775
210	0xbd0cfeb7	-0.034422603
211	0x3d93dd5f	0.072199576
212	0xbd390b3f	-0.04517674
213	0xbd22cc41	-0.039745573
214	0xbd3ba610	-0.045812666
215	0xbd3e5ce0	-0.04647529
216	0xbc2fc25e	-0.010727493
217	0x3df5f6a3	0.12009933
218	0x3c6a19f2	0.014288412
219	0xbd943536	-0.07236712
220	0x3d13b346	0.03605964
221	0x3d367198	0.044541925
222	0x3d63ae3c	0.055586085
223	0x3e09a2e5	0.13441046
224	0xbc707d33	-0.014678287
225	0xbcd67127	-0.026177002
226	0x3df1e365	0.1181095
227	0x3d7d11bc	0.06178449
228	0x3e15768d	0.14596005
229	0x3d303b3e	0.043025248
230	0x3cc03bb0	0.023465961
231	0x3d9d9312	0.07694067
232	0x3dad47c1	0.084609516
233	0x3e0f849d	0.14015432
234	0x3c5c0f84	0.013431434
235	0x3bf96737	0.007611181
236	0x3e1860b2	0.14880636
237	0x3e0f9743	0.14022546
238	0x3dfb9a9c	0.12285349
239	0x3d08c9e8	0.033395678
240	0x3d1c4eb0	0.03816098
241	0x3dcb74fe	0.09934424
242	0xbd83f034	-0.064422995
243	0xbd155619	-0.036459062
244	0xbd16bf55	-0.036803562
245	0x3d851177	0.06497472
246	0xbd9d3270	-0.07675636
247	0xbcc131b3	-0.023583269
248	0x3db3dd29	0.08782417
249	0xbacbda3c	-0.001555271
250	0xbd740860	-0.0595783
251	0xbdf3e802	-0.11909486
252	0xbcabe576	-0.020983439
253	0xbdf64273	-0.12024393
254	0xbdda7719	-0.10667247
255	0x3d2a3123	0.041550767

gru.weight_ih_l0 f4 [96, 32]
0	0x3d6bb5d0	0.057546437
1	0x3e145bf7	0.14488207
2	0x3d60b8cb	0.054863732
3	0x3ea310af	0.31848666
4	0xbaf67949	-0.0018804456
5	0xbe00948c	-0.12556666
6	0x3e824b6d	0.2544817
7	0x3bcde11e	0.0062829396
8	0xbb6664c0	-0.0035155267
9	0x3dce1f86	0.10064606
10	0x3de8b9c7	0.11363559
11	0x3e246a9b	0.16056292
12	0xbc3049b8	-0.010759763
13	0x3e5b254f	0.21400951
14	0xbd2dff74	-0.042479947
15	0x3e0b8f54	0.13628894
16	0x3d99cd3b	0.07509848
17	0x3eadb172	0.33924443
18	0xbd112457	-0.035435047
19	0x3c9578a7	0.018246008
20	0x3da0cbbe	0.07851361
21	0x3e7e0531	0.24806668
22	0xbe240cc2	-0.16020492
23	0x3e132cba	0.1437253
24	0x3d23705c	0.039902076
25	0x3e589fd2	0.21154717
26	0x3e566d24	0.20940071
27	0x3cc87970	0.024471968
28	0x3c061a93	0.008185047
29	0x3e24c5b5	0.16091044
30	0x3d148341	0.036257986
31	0x3dc6160d	0.096721746
32	0x3e5e2585	0.21694
33	0x3caaad01	0.020834448
34	0x3d903a5a	0.0704238
35	0xbe026714	-0.12734634
36	0x3e3e810e	0.18603918
37	0xbcf08996	-0.029362481
38	0x3e4d5659	0.2005247
39	0x3cee9fe2	0.029128972
40	0x3b192c83	0.0023372478
41	0xbdaf4841	-0.08558703
42	0xbe2ee10c	-0.17078036
43	0xbe15201e	-0.14563033
44	0xbe11fe4f	-0.14257167
45	0x3e0c90c5	0.137271
46	0x3d70c89b	0.058785062
47	0xbe008c7d	-0.12553592
48	0x3e4cbf7f	0.19994925
49	0x3df49395	0.119422115
50	0x3e24cbfa	0.16093436
51	0x3d46e0d6	0.048554264
52	0x3a998610	0.0011712927
53	0x3ba4983e	0.0050230315
54	0x3da23ba4	0.07921532
55	0x3e3e9d98	0.18614805
56	0x3dd630a4	0.10458496
57	0x3ddacd95	0.10683743
58	0xbc964572	-0.018343661
59	0x3e2ec299	0.1706642
60	0xbd44ebf3	-0.04807658
61	0x3e1136fb	0.1418113
62	0xbd0b7106	-0.034043334
63	0x3de9d780	0.114180565
64	0x3d2cfb0e	0.042231612
65	0x3e0a22ef	0.13489889
66	0x3d2d5db3	0.042325687
67	0x3d39371e	0.04521858
68	0x3d298f07	0.041396167
69	0xbdb00682	-0.08594991
70	0x3d5882e7	0.052859213
71	0x3e49d333	0.19709472
72	0xbd8b630d	-0.06806002
73	0x3e594a42	0.21219733
74	0x3e1718f8	0.14755619
75	0x3ddc9df4	0.10772315
76	0x3d4757cd	0.048667718
77	0x3c8f5067	0.017494394
78	0x3d9f2e7b	0.07772537
79	0x373003e9	1.0491328e-05
80	0x3e236883	0.15957837
81	0xbc911314	-0.017709292
82	0x3e0db308	0.13837826
83	0xbe1a6f9a	-0.15081635
84	0xbdca896e	-0.09889494
85	0x3bd7f4a1	0.0065904413
86	0xbd3e0012	-0.046386786
87	0xbc61c48e	-0.013779772
88	0x3e60a771	0.21938874
89	0xbd6b5555	-0.057454426
90	0xbe32d9b5	-0.17465861
91	0x3c37e6a5	0.011224424
92	0x3defb25b	0.117039405
93	0x3d3653d6	0.044513546
94	0xbe45eebd	-0.19329353
95	0x3e6f923c	0.23395628
96	0xbd92b839	-0.07164044
97	0xbd540203	-0.05175973
98	0xbdafe66e	-0.08588873
99	0xbda93709	-0.0826245
100	0xbda5a5d2	-0.08088268
101	0xbdca6b05	-0.098836936
102	0x3d71e729	0.059058342
103	0xbe154765	-0.14578016
104	0x3df0a0c8	0.117494166
105	0x3db7d049	0.08975274
106	0xbcfd6038	-0.03092967
107	0xbdc81591	-0.097697385
108	0xbe247832	-0.16061476
109	0x3dca4ff5	0.09878532
110	0xbca8885e	-0.020572837
111	0x3e155b43	0.14585595
112	0x3de5d7e3	0.11222818
113	0xbd8e1688	-0.06937891
114	0xbe401d5c	-0.187612
115	0x3e20ede1	0.15715744
116	0xbe30e6b0	-0.172755
117	0x3e123055	0.1427625
118	0xbe1af73a	-0.15133372
119	0xbd561693	-0.052267622
120	0xbdc4b17c	-0.09604165
121	0xbe0a949c	-0.13533252
122	0xbdb2d609	-0.0873223
123	0x3e14055c	0.1445517
124	0xbde8b2f1	-0.11362255
125	0x3e11cc9c	0.14238209
126	0x3de70081	0.11279393
127	0x3d40f67f	0.047110077
128	0xbe20ae6a	-0.15691534
129	0xbd9772e4	-0.073949605
130	0x3d538b47	0.051646497
131	0xbcaaf105	-0.02086688
132	0xbe10d929	-0.1414534
133	0xbdebe688	-0.1151858
134	0x3d6fb6fa	0.05852411
135	0xbd1d3983	-0.038384926
136	0xbd5265c5	-0.051366586
137	0xbe309e8e	-0.17247984
138	0x3ceeebb4	0.029165126
139	0x3c1eaa66	0.009684181
140	0x3d045bda	0.03231416
141	0x3dedb297	0.11606329
142	0x3d0ac2e3	0.033877265
143	0xbd1d9b4e	-0.03847819
144	0xbd25f7b8	-0.040519446
145	0x3d405983	0.046960365
146	0x3d338797	0.04383048
147	0x3dfbf2ec	0.12302193
148	0xbd0985cc	-0.033574864
149	0x3de7fcb2	0.11327495
150	0xbd3ee994	-0.046609476
151	0x3d6c333b	0.057666045
152	0x3ce1a898	0.027546212
153	0x3e21c717	0.15798603
154	0x3e300073	0.17187671
155	0xbe0572d9	-0.13032092
156	0xbdc40d59	-0.09572858
157	0xbce0f812	-0.02746204
158	0xbe1f2c29	-0.1554419
159	0x3da5ae6d	0.0808991
160	0x3dab5dbc	0.08367488
161	0x3e83b52b	0.25724158
162	0xbaf26cd0	-0.0018495563
163	0x3eaf2d62	0.34214312
164	0xbdb70ee8	-0.0893839
165	0xbc9116e7	-0.017711116
166	0x3dd3ab5c	0.103354186
167	0x3e4ef440	0.20210361
168	0x3c9d7768	0.019221976
169	0x3e4f2f71	0.20232941
170	0x3e2a1e7f	0.16613196
171	0x3e41ede7	0.18938409
172	0xbe002465	-0.12513883
173	0x3e3f6d99	0.18694152
174	0xbdf42728	-0.11921531
175	0xbdc679f9	-0.09691233
176	0x3eaa0f4a	0.3321479
177	0x3e838cbe	0.25693315
178	0x3dd90099	0.10595817
179	0x3e40e868	0.18838656
180	0x3e88bfa9	0.26708725
181	0x3d880cfd	0.06643102
182	0xbe457a8f	-0.19285034
183	0x3e2fa831	0.17154004
184	0xbbcf49b2	-0.006325924
185	0xbe4e84bf	-0.20167826
186	0xbe15aeeb	-0.14617507
187	0x3d8dc55b	0.06922408
188	0x3e2baecb	0.16765897
189	0x3e2a8109	0.16650786
190	0xbe1e62f1	-0.1546743
191	0x3d27ddf2	0.040983148
192	0xbde2fbd2	-0.11083187
193	0xbdd7f09d	-0.1054394
194	0xbe7b4b31	-0.24540402
195	0xbe0c9dca	-0.13732067
196	0x3d8fad89	0.07015521
197	0x3e211774	0.15731603
198	0xbdd396b9	-0.103314824
199	0xbdff0f68	-0.124541104
200	0xbe140647	-0.1445552
201	0xba5e9acc	-0.00084916945
202	0xbd4e5c98	-0.050381273
203	0xbd6c99dc	-0.05776392
204	0x3ca9e736	0.020740133
205	0xbbf2c80a	-0.0074091004
206	0x3df923f4	0.12165061
207	0x3a8c15e3	0.0010687675
208	0xbd22f691	-0.039785925
209	0xbe742427	-0.23841916
210	0xbe487cae	-0.19578812
211	0x3decc17c	0.11560342
212	0xbe8d4665	-0.2759277
213	0xbd76609b	-0.060150724
214	0x3da4e9ba	0.08052392
215	0xbe4d8b82	-0.2007275
216	0xbe9040d9	-0.28174475
217	0x3e21c60b	0.15798204
218	0x3e32841d	0.1743321
219	0xbdc9a282	-0.09845449
220	0xbe08cde3	-0.1335979
221	0xbe275f58	-0.16344965
222	0xbb708de9	-0.0036705679
223	0xbe90e29b	-0.28297886
224	0x3db1d859	0.08683843
225	0xbdbfc1eb	-0.09363159
226	0x3dd52455	0.104073204
227	0xbe04128f	-0.12897705
228	0xbe186bc5	-0.14884861
229	0xbe0cef72	-0.13763216
230	0x3d523830	0.051323116
231	0x3e2f8710	0.17141366
232	0xbd17d8b3	-0.037071895
233	0x3e40aa41	0.18814947
234	0xbdcc7cc0	-0.09984732
235	0x3d05c8fc	0.032662377
236	0xbcab0495	-0.020876208
237	0x3d96907b	0.07351776
238	0xbdd54606	-0.104137465
239	0x3dd2fb90	0.10301888
240	0x3e08b5b7	0.13350569
241	0xbd9ead41	-0.07747889
242	0x3e340d02	0.17583087
243	0x3e1d6abb	0.15372746
244	0x3dde54b6	0.10856001
245	0x3e1136c5	0.14181049
246	0x3d2fa491	0.042881552
247	0x3e53246c	0.20619363
248	0xbdcbb90b	-0.099474035
249	0x3dbf1dc2	0.09331848
250	0xbe0c72ff	-0.13715743
251	0x3d8d1293	0.068883084
252	0x3e6c9241	0.23102666
253	0xbdd4b742	-0.10386516
254	0x3d3e57fd	0.04647063
255	0xbcccb576	-0.024988871

gru.weight_hh_l0 f4 [96, 32]
0	0xbde4c5ea	-0.111705616
1	0x3daf551b	0.085611545
2	0xbdf5a260	-0.11993861
3	0xbe48d42d	-0.19612189
4	0x3e7de109	0.24792875
5	0x3c7efc0d	0.015563023
6	0x3d1bc1a5	0.03802647
7	0x3908d1c5	0.00013048116
8	0x3cca0cef	0.02466437
9	0xbe2a5ed0	-0.1663773
10	0xbe237188	-0.15961277
11	0x3dbd18ed	0.0923327
12	0xbd19248e	-0.037388377
13	0xbe841049	-0.25793675
14	0x3ca06102	0.019577507
15	0x3e01cda5	0.12676103
16	0xbda5505e	-0.080719694
17	0x3d78f64c	0.060781762
18	0x3d821ec4	0.06353524
19	0x3d15753b	0.036488753
20	0xbe17773c	-0.14791578
21	0x3e00f537	0.12593542
22	0xbd4951af	-0.049150165
23	0xbd8cd8b1	-0.06877268
24	0xbd7eaaf5	-0.062174756
25	0xbcc97e0d	-0.024596239
26	0x3d8ead80	0.06966686
27	0xbe4df6de	-0.20113704
28	0x3da80f0c	0.08205995
29	0xbe034838	-0.12820518
30	0x3d4f1def	0.050565656
31	0xbdc0a88a	-0.09407146
32	0x3dbf74d6	0.093484566
33	0x3d844bcf	0.06459772
34	0xbd6a3c26	-0.05718627
35	0x3da83bd1	0.08214534
36	0x3e39dcfc	0.18150705
37	0x3c98d33e	0.018655416
38	0x3e3e4457	0.18580757
39	0x3df6a156	0.12042491
40	0x3cf4d228	0.029885367
41	0xbcee3659	-0.02907865
42	0x3deb6f02	0.114957824
43	0x3dbd0ae2	0.09230591
44	0xbd5cb28f	-0.053881224
45	0xbe1df419	-0.15425147
46	0x3d328fa7	0.04359403
47	0xbe531a96	-0.2061561
48	0x3d5f2c5b	0.05448566
49	0xbba78541	-0.0051123207
50	0xbe02a721	-0.12759067
51	0x3e6553d6	0.22395262
52	0x3d1634be	0.036671393
53	0xbe33df93	-0.17565756
54	0xbdff5420	-0.124672174
55	0x3dec4e3e	0.11538361
56	0xbda5b0ae	-0.080903396
57	0xbd329565	-0.043599505
58	0xbdee9046	-0.11648612
59	0x3cfa5d8c	0.030562185
60	0x3e0a71a4	0.13519913
61	0x3d8ddfa0	0.06927419
62	0xbc32c9b3	-0.010912347
63	0x3dd5d447	0.10440879
64	0x3dda4396	0.10657422
65	0x3e50ffcc	0.20410079
66	0xbd5ebd96	-0.054380022
67	0xbe1559cb	-0.14585035
68	0x3d085493	0.03328378
69	0xbd0c1fab	-0.03420989
70	0x3c31d661	0.010854335
71	0xbe3a6664	-0.18203121
72	0xbc851326	-0.016244482
73	0xbb2038aa	-0.0024447837
74	0xbcea8f72	-0.028632853
75	0xbe05f666	-0.13082275
76	0xbe2a1f1b	-0.16613428
77	0xbcb30bdf	-0.021856247
78	0xbe1553d9	-0.14582767
79	0x3e4195c0	0.18904781
80	0xbd873ac1	-0.06603003
81	0x3e2f40fe	0.17114636
82	0x3bfd27c8	0.0077256896
83	0xbdae14aa	-0.08500035
84	0x3ceaa842	0.028644685
85	0xbe153099	-0.1456932
86	0xbe40c00f	-0.18823265
87	0xbd954011	-0.0728761
88	0x3d0e79d2	0.034784146
89	0x3dad546f	0.0846337
90	0xbe05b75c	-0.13058227
91	0xbe00e4c0	-0.12587261
92	0x3d86bb5a	0.06578703
93	0x3c20cbda	0.009814227
94	0x3e4687be	0.19387719
95	0x3e5bb7fd	0.21456905
96	0x3de1fddc	0.11034748
97	0xbdf20d76	-0.11818974
98	0xbdffc422	-0.12488581
99	0xbd11d73c	-0.035605654
100	0xbbca5105	-0.006174209
101	0xbd99a834	-0.07502785
102	0xbd9251ad	-0.07144485
103	0x3c956c7b	0.018240204
104	0xbe3d516b	-0.1848809
105	0x3b6386b7	0.0034717747
106	0xbddd0047	-0.107910685
107	0x3da11152	0.07864632
108	0xbe3fa724	-0.18716103
109	0xbc63dea4	-0.013908062
110	0x3e0473d9	0.12934817
111	0x3e7b9da7	0.24571858
112	0xbdbde791	-0.092726834
113	0xbe244181	-0.16040613
114	0x3e2ee3fe	0.1707916
115	0xbe028412	-0.12745693
116	0x3c5a4d1c	0.013324048
117	0x3df81c9f	0.12114834
118	0xbe180c47	-0.14848433
119	0xbc84ab10	-0.01619485
120	0x3db63912	0.08897604
121	0x3c98bc9f	0.018644629
122	0xbcdaba4a	-0.026700158
123	0x3da1f701	0.079084404
124	0xbda664fd	-0.08124731
125	0xbd9e225c	-0.07721397
126	0x3de05c1e	0.1095507
127	0xbc4269b8	-0.011866026
128	0xbe11cbf6	-0.14237961
129	0x3e4534a4	0.19258362
130	0xbe27de39	-0.16393365
131	0x3c96a587	0.018389476
132	0xb9e19d0f	-0.00043032362
133	0xbe2b0946	-0.16702756
134	0x3ceee9fa	0.029164303
135	0xbcb59909	-0.0221677
136	0x3df23bbb	0.11827799
137	0x3dac7124	0.08420017
138	0x3cb906c6	0.022586238
139	0x3d5b1efe	0.053496353
140	0xbdf5c152	-0.119997635
141	0xbcbc426e	-0.022980895
142	0xbd86268a	-0.065503195
143	0xbd183a9e	-0.037165277
144	0xbe4de572	-0.20107058
145	0xbe143eba	-0.14477053
146	0x3d563643	0.05229784
147	0xbd2365c7	-0.039891984
148	0xbe034d7c	-0.12822527
149	0xbcb20f9a	-0.021735955
150	0xbe11f377	-0.1425303
151	0x3e0354da	0.12825337
152	0xbd9c908d	-0.076447584
153	0xbdeb3761	-0.11485172
154	0xbd55c0d4	-0.05218585
155	0xbe50f045	-0.20404156
156	0x3ded5f41	0.11590434
157	0x3c44c23e	0.012009202
158	0x3e646db6	0.22307476
159	0xbdbeca72	-0.09315957
160	0xbd26cfee	-0.04072564
161	0x3e676731	0.22597958
162	0x3e06d2b9	0.13166322
163	0xbd79c297	-0.06097659
164	0x3e142663	0.14467768
165	0xbd969d01	-0.07354165
166	0x3d1c89c6	0.03821733
167	0x3e110c6a	0.14164892
168	0x3c30754e	0.010770155
169	0xbd077a01	-0.033075336
170	0x3a35cff9	0.00069355924
171	0xbdbbdad1	-0.09172595
172	0xbe2e43e0	-0.1701808
173	0x3e184a05	0.14871986
174	0x3e7f185b	0.24911635
175	0xbe2b44b6	-0.1672543
176	0xbe5043de	-0.2033839
177	0xbe05f81c	-0.13082927
178	0xbe8de296	-0.27711934
179	0xbdb71e74	-0.08941355
180	0x3dbffd24	0.093744546
181	0xbdc41178	-0.095736444
182	0xbd41844f	-0.04724532
183	0x3d8bf5c8	0.068339884
184	0x3d3966cb	0.045264047
185	0xbeb03a12	-0.34419304
186	0xbc5fc386	-0.013657456
187	0x3e515a57	0.20444618
188	0xbe6112ec	-0.21979874
189	0xbd0ab904	-0.03386785
190	0xbe874630	-0.26420736
191	0xbc7fd4ee	-0.015614731
192	0x3d68daae	0.056849174
193	0x3e143512	0.1447337
194	0xbd5a4f77	-0.05329844
195	0xbdb615e1	-0.08890892
196	0xbdfa23e6	-0.12213878
197	0x3ba904f7	0.0051580626
198	0xbe2335e0	-0.1593852
199	0xbbac8a64	-0.005265521
200	0x3e043994	0.1291259
201	0xbe4f77ff	-0.20260619
202	0xbe4c28c1	-0.19937421
203	0xbbaed098	-0.005334925
204	0x3e6cd8df	0.23129605
205	0x3df00438	0.11719555
206	0x3cb0162b	0.021494946
207	0xbda7b3e0	-0.08188605
208	0x3d761daa	0.060086884
209	0xbc25c591	-0.010117904
210	0x3e1822b7	0.14856993
211	0xbd927633	-0.07151451
212	0xbca87054	-0.020561375
213	0xbd8c1ff8	-0.06842035
214	0xbe20d02a	-0.15704408
215	0x3d855081	0.065094955
216	0x3dfd95ea	0.123821095
217	0x3e3985a4	0.18117386
218	0xbd88ca01	-0.06679154
219	0x3da0141d	0.07816336
220	0x3e207b29	0.15671982
221	0x3d84602c	0.06463656
222	0xbdcfaf0a	-0.10140808
223	0xbd88c748	-0.06678635
224	0xbd4ddd13	-0.05025966
225	0x3e0d889e	0.13821647
226	0x3c6e273d	0.014535722
227	0x3d5b8e8f	0.05360275
228	0xbde9e1d8	-0.114200294
229	0x3dc3ed39	0.09566731
230	0x3d5b86cf	0.05359536
231	0xbca06930	-0.019581407
232	0x3e0dd7a4	0.13851792
233	0x3e1deb19	0.15421714
234	0xbdbbf68b	-0.09177884
235	0xbc8a7e20	-0.016905844
236	0xbdb7ba39	-0.08971066
237	0x3e1ac030	0.15112376
238	0xbcd09b81	-0.025464775
239	0xbd83f94c	-0.06444034
240	0xbe0c8d78	-0.13725841
241	0xbb14e1d0	-0.0022717603
242	0xbe20c9d8	-0.15701997
243	0xbd13ac9b	-0.03605328
244	0xbd72ecfa	-0.05930803
245	0xbe0bae70	-0.13640761
246	0xbd7a7536	-0.061146937
247	0x3e899fe6	0.26879805
248	0xbd3c2351	-0.045932118
249	0xbe2b02cb	-0.16700284
250	0xbdcc37a5	-0.09971551
251	0x3d88a122	0.06671359
252	0xbe7418a2	-0.23837522
253	0x3d3cd5ef	0.04610246
254	0xbc8c0da7	-0.017096354
255	0xbdf5df93	-0.12005534

gru.bias_ih_l0 f4 [96]
0	0x3e1aa32b	0.15101306
1	0xbd898f36	-0.067167684
2	0x3e4cd42d	0.20002814
3	0xbdfc169f	-0.12309002
4	0x3dcef58b	0.10105427
5	0xbca8389d	-0.020534808
6	0xbe0f5eb3	-0.14000969
7	0xbcaa675e	-0.020801242
8	0x3e5cdf77	0.2156962
9	0xbd82010e	-0.063478574
10	0xbb64f7d5	-0.0034937758
11	0xbd0cb660	-0.034353614
12	0xbd98f1e4	-0.07468012
13	0x3e035d63	0.12828593
14	0xbdd7174a	-0.10502489
15	0xbcd4aec4	-0.025962241
16	0x3c668aad	0.014071149
17	0xbd97e091	-0.074158795
18	0xbc86331f	-0.016381798
19	0xbca0481d	-0.019565636
20	0x3d91f328	0.071264565
21	0xbdb5105d	-0.08841012
22	0x3e64484f	0.22293209
23	0x3dfd0ec4	0.12356332
24	0x3b5c43b8	0.00336097
25	0xbdce39f5	-0.10069648
26	0x3e0605e3	0.13088183
27	0xbccf90d0	-0.025337607
28	0x3e08ec9b	0.13371508
29	0x3e25d815	0.1619571
30	0x3d1150c0	0.0354774
31	0x3e9214b9	0.28531435
32	0xbde9ed7d	-0.114222504
33	0x3da14525	0.078745164
34	0xbd84528b	-0.06461056
35	0x3e3694ce	0.17830202
36	0x3d65ade9	0.056074057
37	0xbe0b1bbd	-0.135848
38	0x3e2bb233	0.16767196
39	0xbd82cea4	-0.0638707
40	0xbcb02337	-0.021501167
41	0x3d1863d7	0.03720459
42	0x3ea08df4	0.31358302
43	0x3e2a4598	0.1662811
44	0x3d5bfcbf	0.053707834
45	0x3d9b293a	0.07576223
46	0xbd4f428a	-0.050600566
47	0xbdf6a5be	-0.120433316
48	0x3dcf783f	0.10130357
49	0x3e59cd7b	0.21269791
50	0xbd887d55	-0.0666453
51	0x3e4726bb	0.19448368
52	0xbd0db1a2	-0.034593232
53	0xbde9f6de	-0.11424039
54	0x3d18b56f	0.037282404
55	0xbdaf9296	-0.08572881
56	0x3e19df8a	0.1502668
57	0xbda218ac	-0.07914862
58	0x3c8ca8f3	0.017170405
59	0xbe070d74	-0.13188726
60	0x3c54a273	0.012978184
61	0x3e664165	0.22485884
62	0xbdec1dbe	-0.1152911
63	0xbd7c22dd	-0.061556686
64	0xbb918089	-0.0044403714
65	0x3e22aada	0.15885487
66	0x3d015020	0.031570554
67	0xbc2b18a0	-0.010442883
68	0x3d725653	0.059164356
69	0xbe613502	-0.21992877
70	0x3dc7ef5f	0.09762453
71	0xbe59ee77	-0.21282373
72	0xbdadb01a	-0.08480854
73	0x3c9a5661	0.018840017
74	0x3e23186d	0.15927286
75	0x3e551b49	0.2081119
76	0xbc93f1ab	-0.018059572
77	0xbd8f06ca	-0.06983717
78	0x3cfad7e9	0.030620532
79	0x3d8381bb	0.064212285
80	0xbe6001e7	-0.21875726
81	0xbe1060c5	-0.14099415
82	0xbcc8f397	-0.024530215
83	0xbdd9ed98	-0.106410205
84	0xbe7291f4	-0.23688489
85	0x3dac9e02	0.08428575
86	0x3dcec19f	0.10095524
87	0xbe0527fd	-0.13003536
88	0x3c86f4b7	0.016474111
89	0xbb7be858	-0.0038438048
90	0xbd5e7e36	-0.054319583
91	0xbe21ddee	-0.15807316
92	0x3ddf634d	0.10907612
93	0xbcdb104e	-0.026741173
94	0x3dccc297	0.099980526
95	0x3df25ab7	0.11833709

gru.bias_hh_l0 f4 [96]
0	0x3b1a3174	0.0023528012
1	0x3e52a221	0.2056966
2	0x3e74cc8f	0.23906158
3	0x3d8b579f	0.06803822
4	0xbd9788cc	-0.07399139
5	0xbd2ec4dc	-0.04266821
6	0xbda08dc7	-0.07839542
7	0x3e307e4d	0.1723568
8	0xbc96e35c	-0.01841896
9	0x3e4ec683	0.20192914
10	0x3df76a10	0.12080777
11	0x3daf467f	0.08558368
12	0x3d0f700c	0.035018966
13	0x3e8cceb5	0.27501455
14	0xbdb4b700	-0.08823967
15	0x3d45fca6	0.048336647
16	0x3e4dd69d	0.201014
17	0x3d92342b	0.071388565
18	0xbc8a69cb	-0.01689615
19	0x3d02d69f	0.03194296
20	0x3e717295	0.23578866
21	0x3e434169	0.1906792
22	0x3e702114	0.23450118
23	0x3e5f4b8f	0.21806167
24	0xbd7eb23e	-0.062181704
25	0x3dc208e2	0.094743505
26	0x3d9f075c	0.077650756
27	0x3c8e6512	0.017382178
28	0xbcc99e66	-0.024611663
29	0x3d36c51e	0.04462158
30	0x3d0ce9a1	0.034402493
31	0x3e6e3e9a	0.23266068
32	0xbbce88c7	-0.006302926
33	0x3e725dde	0.2366862
34	0x3e31ba77	0.17356287
35	0x3c12a014	0.008949298
36	0x3e828026	0.25488394
37	0xbdce5bf7	-0.10076135
38	0x3d3bbb41	0.045832876
39	0xbe7ef837	-0.24899374
40	0xbda8979a	-0.08232041
41	0xbcf1be60	-0.029509723
42	0x3e6ed6ab	0.23324077
43	0x3dca460e	0.09876643
44	0x3e480921	0.19534732
45	0xbdbce627	-0.092235856
46	0xbe1522e2	-0.14564088
47	0x3dce750d	0.100809194
48	0x3d09b34d	0.03361826
49	0x3d196f17	0.03745946
50	0xbe3fea06	-0.18741617
51	0xbcb99dac	-0.022658192
52	0x3bc8088d	0.006104535
53	0xbe099176	-0.13434395
54	0xbdd48721	-0.10377336
55	0x3e142ecc	0.14470977
56	0xbe3a24e0	-0.18178129
57	0x3d990618	0.074718654
58	0xbdb08464	-0.086190015
59	0x3e000f5f	0.12505864
60	0xbd8d33a0	-0.06894612
61	0x3de25702	0.11051752
62	0xbe1f6ce9	-0.1556889
63	0x3c126df8	0.008937351
64	0xbe0be720	-0.13662386
65	0x3d464756	0.048407875
66	0xbde83958	-0.113390625
67	0xbdcf98c8	-0.101365626
68	0x3daf5a36	0.08562128
69	0x3d898448	0.06714684
70	0x3e26fc0b	0.16307084
71	0xbc361ff8	-0.01111602
72	0xbe02ce1b	-0.12773935
73	0xbddc9546	-0.10770659
74	0xbccceb54	-0.025014557
75	0x3d4ae0a6	0.049530648
76	0xbdcd2035	-0.10015909
77	0xbd19999d	-0.037500013
78	0xbe3ef072	-0.1864641
79	0x3e63524c	0.22199363
80	0xbe34d8f2	-0.17660883
81	0xbd59e056	-0.05319246
82	0x3e781784	0.2422772
83	0xbd3fcf08	-0.0468283
84	0x3d310c35	0.043224532
85	0xbdb565b4	-0.08857289
86	0xbe4b66b9	-0.19863404
87	0xbd01b276	-0.031664334
88	0x3dd53ef6	0.104123995
89	0xbdc98090	-0.098389745
90	0x3e15f74e	0.1464512
91	0xbe1713b5	-0.14753611
92	0x3e2f25ea	0.17104307
93	0xbd99def2	-0.075132266
94	0x3d62689f	0.055275556
95	0x3e0203e0	0.1269679

gru.weight_ih_l0_reverse f4 [96, 32]
0	0x3e2bec3d	0.16789337
1	0x3e1eb3c4	0.15498263
2	0xbd3ecd3b	-0.04658244
3	0x3e00665c	0.12539047
4	0x3d0dbb7e	0.034602635
5	0x3e296cd5	0.16545422
6	0x3e34022c	0.17578954
7	0xbd5f7c7a	-0.05456207
8	0x3ce52784	0.027972944
9	0x392ce9fb	0.00016490363
10	0x3d29710a	0.041367568
11	0xbdf335b9	-0.11875481
12	0xbdd0463d	-0.10169647
13	0x3e1d8d6c	0.1538598
14	0x3e24588b	0.16049401
15	0x3da405f6	0.080089495
16	0x3da38f5b	0.07986327
17	0x3e5594a1	0.20857479
18	0x3e109018	0.14117467
19	0x3dbfa705	0.09358028
20	0xbd09313d	-0.033494223
21	0x3cb129fa	0.021626461
22	0xbd470d61	-0.048596743
23	0x3d3ccb25	0.04609217
24	0xbdd53ded	-0.10412202
25	0x3dd9ba39	0.10631222
26	0x3e0008ed	0.12503405
27	0x3e505a69	0.20346989
28	0x3ca801c3	0.020508653
29	0x3db26fcd	0.087127306
30	0xbda3d9ec	-0.0800055
31	0xbdacf10a	-0.08444412
32	0xbcfde94b	-0.030995032
33	0x3c809b3e	0.015699025
34	0xbd96178b	-0.07328709
35	0xbd42258b	-0.047399085
36	0x3d79db37	0.061000075
37	0x3e54bfb2	0.20776251
38	0xbdeeaf3e	-0.116545185
39	0x3dfb0ec4	0.12258676
40	0xbd94f030	-0.07272375
41	0x3dc3428a	0.09534176
42	0xbde81331	-0.113317855
43	0x3e1a8b7c	0.15092272
44	0x3ce2faaa	0.027707417
45	0xbdc1bd86	-0.09459977
46	0x3e05fcc3	0.13084702
47	0xbc5ade7f	-0.013358711
48	0xbe132645	-0.14370067
49	0xbe30db52	-0.17271164
50	0xbe298377	-0.16554056
51	0x3d3c99ea	0.04604522
52	0xbe0c387c	-0.13693422
53	0x3e15b6eb	0.14620559
54	0x3e434953	0.1907094
55	0x3dd2a9df	0.102863066
56	0x3c467ec9	0.012115189
57	0x3c7717af	0.01508133
58	0x3d813f7c	0.06310937
59	0x3d197a01	0.037469868
60	0xbd7d8525	-0.061894555
61	0x3d2e454a	0.042546548
62	0x3dfae165	0.12250022
63	0xbe64f8c0	-0.22360516
64	0x39c64827	0.0003781926
65	0x3de209da	0.11037035
66	0x3e426f49	0.18987764
67	0xbcc07990	-0.023495466
68	0x3d8c26b0	0.068433166
69	0x3e5335f4	0.2062605
70	0x3dcf1191	0.101107724
71	0x3d10d129	0.03535572
72	0xbda0df12	-0.07855047
73	0x3e2196b5	0.15780146
74	0xbd90d716	-0.070722744
75	0x3da916f6	0.082563326
76	0xbdb78764	-0.089613706
77	0x3e67cdf9	0.22637166
78	0x3e612814	0.21987945
79	0xbddbfcb3	-0.10741558
80	0x3c8c4cc2	0.017126445
81	0x3e4469e6	0.19181022
82	0x3c4b8338	0.012421422
83	0xbd95eeeb	-0.073209606
84	0x3dda1a87	0.10649591
85	0xbbc1c70d	-0.0059136213
86	0xbcc2513f	-0.023720382
87	0xbd5478a1	-0.051872853
88	0x3cfce69d	0.030871684
89	0x3e198323	0.14991431
90	0x3e0f56d3	0.13997965
91	0xbd2174c2	-0.03941799
92	0x3e124ae0	0.14286375
93	0x3e6bc6cf	0.23025058
94	0x3dc57d00	0.096429825
95	0x3e83d550	0.25748682
96	0xbd00c69a	-0.0314394
97	0x3e1bf74b	0.15231054
98	0xbdd58ca3	-0.10427215
99	0xbd8da798	-0.069167316
100	0xbe234d61	-0.15947486
101	0xbd590073	-0.052978944
102	0xbd821298	-0.06351203
103	0x3d880499	0.06641502
104	0x3e4be98a	0.19913307
105	0xbe2a54e6	-0.16633949
106	0xbc32fdc5	-0.010924761
107	0xbdd87d2e	-0.10570751
108	0xbd699bab	-0.057033222
109	0xbe26b73b	-0.16280834
110	0xbd53b840	-0.051689386
111	0x3d0e1f04	0.034697548
112	0x3d357e2c	0.04430978
113	0xbce20b4c	-0.027593277
114	0xbe00afb1	-0.12567021
115	0x3d1bfca9	0.038082752
116	0x3b53d44f	0.003232259
117	0x3d9f37a7	0.07774287
118	0x3e039d5c	0.12852997
119	0xbe32f72c	-0.17477101
120	0x3dea78e1	0.11448837
121	0x3c254650	0.010087565
122	0x3d66ba57	0.05633005
123	0xbdc17f65	-0.09448127
124	0xbd439ce4	-0.047757044
125	0x3d5dad8f	0.054120596
126	0x3dbd865b	0.09254142
127	0xbdcef9fd	-0.10106275
128	0x3e10f865	0.14157255
129	0x3e1af9cf	0.15134357
130	0x3c0eec54	0.008723337
131	0xbdecd3bc	-0.115638226
132	0x3ddf1450	0.10892546
133	0xbe1ac198	-0.15112913
134	0xbde99189	-0.11404712
135	0x3e1ecc51	0.15507628
136	0x3e5abc2b	0.21360843
137	0x3e1aac0b	0.15104692
138	0xbdc4bdcb	-0.09606513
139	0x3e5befaa	0.21478143
140	0x3dc0edfb	0.09420391
141	0xbde159f5	-0.11003486
142	0xbe0ed040	-0.13946629
143	0x3d8d2ef7	0.068937235
144	0x3dd5f6ac	0.104474396
145	0xbd60a03d	-0.054840315
146	0x3e3b531e	0.18293425
147	0xbda54abb	-0.08070894
148	0x3db81c0e	0.08989726
149	0xbdabca50	-0.083881974
150	0x3e11292d	0.14175864
151	0x3e7aa790	0.24477983
152	0xbb8e8865	-0.0043497556
153	0x3c705e04	0.014670853
154	0x3db7eb39	0.08980412
155	0xbc6769d8	-0.014124356
156	0x3e68ef1e	0.22747466
157	0xbdd2776c	-0.10276684
158	0xbe083e02	-0.13304904
159	0xbd4ca946	-0.04996612
160	0x3d755be2	0.05990208
161	0xbe0182fe	-0.12647626
162	0x3e1fe737	0.15615545
163	0xbe19194c	-0.14951056
164	0x3cee6800	0.029102325
165	0x3d8055b1	0.06266344
166	0xbb6ada6a	-0.0035835751
167	0xbdc56bef	-0.09639727
168	0xbe4a7595	-0.19771416
169	0xbd3342b6	-0.043764792
170	0xbd32a069	-0.04361001
171	0xbe0db036	-0.1383675
172	0x3dad1b2d	0.08452449
173	0xbdd2a632	-0.102856055
174	0xbdcf0eb5	-0.10110227
175	0xbaf0adc8	-0.0018362338
176	0x3d900ca3	0.0703366
177	0xbe523538	-0.20528114
178	0x3e1f067d	0.15529819
179	0x3e1a8879	0.15091123
180	0xbdcef226	-0.1010478
181	0xbe22dc7e	-0.15904424
182	0xbe4287d2	-0.18997124
183	0xbcab9933	-0.020947075
184	0xbde92d58	-0.11385602
185	0x3d47c39c	0.048770532
186	0xbe1dd04b	-0.15411489
187	0x3d59ba3c	0.053156123
188	0x3e40252d	0.18764181
189	0x3d987df5	0.074458994
190	0xbe504f5d	-0.20342775
191	0x3d162018	0.0366517
192	0x3db6d03b	0.089264356
193	0x3d73a565	0.059483904
194	0xbc94e09c	-0.018173508
195	0xbd0a30a0	-0.03373778
196	0xbdada108	-0.0847798
197	0xbdb7331a	-0.08945294
198	0x3e1dfc39	0.15428247
199	0x3d9330ee	0.07187067
200	0xbddfae18	-0.109218776
201	0xbd1832af	-0.03715771
202	0xbe17a89d	-0.14810415
203	0xbe1bc59f	-0.15212105
204	0xbd75f393	-0.060046744
205	0xbdcc9e78	-0.09991163
206	0x3d02dd84	0.031949535
207	0xbc687c15	-0.01418974
208	0x3c916172	0.01774666
209	0xbe2d337d	-0.16914172
210	0xbd6c69bc	-0.057718024
211	0xbabcd395	-0.0014406318
212	0x3d74f891	0.059807364
213	0xbdf8332e	-0.12119137
214	0x3c99f101	0.018791677
215	0x3d57da84	0.052698627
216	0xbde00ef8	-0.10940355
217	0xbdce738a	-0.10080631
218	0x3d949c84	0.072564155
219	0xbda0551f	-0.078287356
220	0xbc888ade	-0.01666778
221	0x3cc3b1f9	0.023888575
222	0x3d032a71	0.032022897
223	0xbbce6cdd	-0.0062995986
224	0x3d9de58c	0.07709798
225	0x3e94b913	0.2904745
226	0x3dd8b73f	0.105818264
227	0x3e2aad67	0.1666771
228	0x3e204d91	0.15654589
229	0x3bf1de7c	0.0073812585
230	0x3e0f6c17	0.14006077
231	0x3e25797c	0.16159624
232	0x3e16a53f	0.14711474
233	0x3e57081c	0.20999187
234	0xbd39824c	-0.045290276
235	0x3dd0b53d	0.101908185
236	0xbd03eb1c	-0.03220664
237	0x3d3ff4f8	0.04686448
238	0x3e92018d	0.28516808
239	0xbcbeabb6	-0.023275238
240	0x3e5aac64	0.21354824
241	0x3d632bb7	0.05546161
242	0x3e44eb01	0.19230272
243	0x3e98d681	0.29851153
244	0x3e406697	0.18789135
245	0x3d924247	0.07141548
246	0x3cc77d9b	0.024351886
247	0x3e47c1fe	0.19507596
248	0x3e07a5d2	0.13246849
249	0x3d5238e1	0.051323775
250	0x3e754065	0.23950346
251	0x3e16b9ca	0.1471931
252	0x3d4a37b3	0.049369525
253	0xbd298507	-0.04138663
254	0x3d8b6c98	0.06807822
255	0x3e98316e	0.29725212

gru.weight_hh_l0_reverse f4 [96, 32]
0	0x3e556375	0.20838721
1	0x3e07a2d3	0.13245706
2	0x3d419d57	0.04726919
3	0x3e01b107	0.12665187
4	0x3e3b3f99	0.1828598
5	0xbe29d81c	-0.16586345
6	0x3c82b970	0.015957564
7	0x3da0121a	0.078159526
8	0x3bf70ccd	0.007539368
9	0xbce1ed0a	-0.02757885
10	0xbe570083	-0.20996289
11	0x3e45bfc2	0.19311431
12	0x3d8fa975	0.07014743
13	0x3d85a437	0.06525462
14	0x3d8bcf6d	0.06826673
15	0xbd37a4bb	-0.044834834
16	0xbd3412bc	-0.04396318
17	0x3e2aad68	0.16667712
18	0xbe05ed69	-0.13078846
19	0xbc65a533	-0.014016437
20	0x3d912330	0.070867896
21	0x3e07f1ff	0.13275908
22	0x3d8d50b2	0.06900157
23	0xbe4836c0	-0.19552135
24	0xbdb4fdb6	-0.08837454
25	0x3db6f6b3	0.08933773
26	0x3db6922a	0.08914597
27	0x3d947409	0.072486944
28	0xbdda93d7	-0.106727295
29	0x3e225b65	0.15855177
30	0x3e519350	0.20466352
31	0x3e1f67d9	0.15566958
32	0x3da7d432	0.0819477
33	0x3e3708c3	0.17874436
34	0xbd35ece3	-0.044415366
35	0x3e38291d	0.17984433
36	0x3e3262f4	0.1742056
37	0xbdd1748c	-0.10227308
38	0xbd609b71	-0.05483574
39	0xbced2c09	-0.028951662
40	0xbe45f861	-0.1933303
41	0x3e43454c	0.19069403
42	0xbe7123f0	-0.23548865
43	0x3d8fb095	0.07016102
44	0x3ce5d16d	0.028053964
45	0x3da3e3ae	0.08002411
46	0xbe4bfcc9	-0.19920649
47	0x3e5edb5c	0.21763366
48	0x3db111bd	0.086459614
49	0xbc00767b	-0.007840748
50	0xbe361623	-0.17781882
51	0xbe633c1e	-0.22190902
52	0xbe6cd187	-0.23126803
53	0x3e196a93	0.14982061
54	0xbd50a7e7	-0.050941374
55	0xbe34d02b	-0.17657535
56	0xbd08f29d	-0.0334345
57	0xbe1e41ea	-0.15454832
58	0x3de55cdd	0.11199353
59	0xbdb2769a	-0.08714028
60	0xbd99c2ef	-0.07507884
61	0x3dfc0479	0.123055406
62	0x3e7bc981	0.24588586
63	0x3d4e9a19	0.050439928
64	0x3d49f645	0.049307127
65	0xbe057c88	-0.13035786
66	0xbd283be1	-0.04107273
67	0xbe167dc8	-0.14696419
68	0x3d8dac06	0.069175765
69	0x3e0e191f	0.1387677
70	0xbd3ff026	-0.046859883
71	0xbc082f8e	-0.008312119
72	0xbe4366f6	-0.19082245
73	0x3dc43339	0.095800824
74	0xbe10dbd2	-0.14146355
75	0x3da8ae68	0.0823639
76	0x3dc34213	0.09534087
77	0xbe0a52a5	-0.13508089
78	0xbe40400d	-0.18774433
79	0xbda5ee6d	-0.08102117
80	0x3bd4b10f	0.0064908336
81	0xbd194eca	-0.037428655
82	0x3e05dd9c	0.13072819
83	0xbde3ae97	-0.11117285
84	0x3e02824b	0.12745015
85	0x3e511476	0.20417961
86	0xbdac8805	-0.08424381
87	0x3d289b53	0.041163754
88	0xbe266c56	-0.16252264
89	0xbe2f101d	-0.1709599
90	0xbdac4ea0	-0.08413434
91	0x3d3a7c84	0.045528904
92	0x3d9eee6b	0.07760318
93	0x3d796900	0.06089115
94	0xbdb576ea	-0.08860572
95	0xbd1a446e	-0.037662916
96	0x3e6eb591	0.2331145
97	0x3dfd20a7	0.123597436
98	0xbe579c2e	-0.21055672
99	0xbc6bdc8e	-0.014395846
100	0x3a9a4f07	0.001177282
101	0xbd2d3ab4	-0.04229231
102	0x3e51c0aa	0.20483652
103	0xbe0ae72c	-0.13564748
104	0xbe191328	-0.14948714
105	0xbc94b0bb	-0.018150678
106	0x3c1fa40e	0.0097437035
107	0x3e118fa7	0.14214955
108	0xbd545f23	-0.051848542
109	0x3e0d0bfe	0.13774106
110	0xbe81b350	-0.25332117
111	0x3d2c6ef4	0.042098
112	0x3d6f5a5e	0.05843579
113	0xbd22de8d	-0.039763022
114	0x3c871d6f	0.016493527
115	0xbde8d68b	-0.11369046
116	0x3c6ce31f	0.014458447
117	0x3d39066c	0.04517214
118	0x3cfdb59c	0.030970387
119	0x3b7b9a0f	0.0038391387
120	0x3e051422	0.12995961
121	0xbe39e1d6	-0.18152556
122	0xbe1bce97	-0.15215527
123	0xbce26c15	-0.027639428
124	0x3d4ff678	0.05077216
125	0x3e1bbc4f	0.15208553
126	0x3d339575	0.043843705
127	0x3e662abf	0.22477244
128	0x3dd7847d	0.10523317
129	0xbd95d111	-0.07315267
130	0x3dae67fe	0.08515929
131	0x3dfc3517	0.123148136
132	0xbd9ea3f6	-0.07746117
133	0xbde4859b	-0.11158296
134	0x3d92520c	0.071445554
135	0xbe5606c0	-0.20901012
136	0x3da9e3c9	0.082954
137	0x3e432587	0.19057284
138	0xbc54e6f4	-0.012994517
139	0x3b83903a	0.004014996
140	0xbe42073e	-0.18948075
141	0x3d28e502	0.041234024
142	0x3c9f00f0	0.019409627
143	0x3ce337d1	0.027736576
144	0x3e3c012b	0.1835982
145	0xbc56c2b9	-0.013107949
146	0xbdbdf3db	-0.09275027
147	0xbd48639c	-0.04892312
148	0xbca2dfac	-0.019882046
149	0x3d0620e0	0.032746196
150	0x3ce5e84e	0.028064873
151	0xbe04b31b	-0.12958948
152	0xbd87e832	-0.066360846
153	0xbc660094	-0.014038224
154	0x3d81f7c4	0.06346086
155	0xbd44d47e	-0.04805421
156	0x3cab1311	0.020883115
157	0xbd1dc1ba	-0.03851483
158	0x3dea7306	0.1144772
159	0x3d41c907	0.047310855
160	0x3e081eae	0.13292953
161	0x3d86e375	0.06586353
162	0x3ddaf277	0.10690778
163	0x3e847133	0.25867614
164	0xbd608c6c	-0.054821417
165	0x3ca1a14a	0.019730229
166	0x3dee9f59	0.11651487
167	0xbcfa3a3d	-0.030545348
168	0x3dbcd408	0.09220129
169	0x3daa669a	0.08320351
170	0xbdb1a6ad	-0.08674369
171	0x3dee8e42	0.11648227
172	0x3cf536a4	0.029933281
173	0xbdfd0512	-0.12354483
174	0xbd6abadf	-0.05730712
175	0x3e36bf41	0.17846395
176	0xbd7715cc	-0.06032352
177	0xbb87505c	-0.0041294526
178	0x3d8153a7	0.063147835
179	0xbe0d2c53	-0.1378644
180	0x3d0be895	0.034157354
181	0xbd93a57a	-0.072092965
182	0x3da58795	0.08082501
183	0xbcc56d97	-0.024100108
184	0x3d7aba9b	0.061213117
185	0x3d8a19d4	0.067432076
186	0xbe5fe253	-0.2186368
187	0x3dca1f43	0.09869244
188	0x3df092c4	0.11746743
189	0xbdb54982	-0.08851911
190	0x3e2587bb	0.16165058
191	0x3d4cc891	0.049995963
192	0x3dd8ce4f	0.10586225
193	0x3ce0e0de	0.027450975
194	0x3ccd87fb	0.025089255
195	0x3c9f27b9	0.01942812
196	0xbd131f64	-0.03591861
197	0xbe5f765f	-0.21822499
198	0x3ddf8a7a	0.10915084
199	0xbe5e7037	-0.21722494
200	0xbcaf0b8b	-0.021367809
201	0xbdbb281c	-0.0913851
202	0xbe198c17	-0.14994846
203	0x3e02160a	0.1270372
204	0xbbed5b58	-0.007243555
205	0xbe02b7e6	-0.12765464
206	0xbe6c2720	-0.230618
207	0xbdb7d623	-0.0897639
208	0x3da78812	0.0818025
209	0x3e0500d5	0.12988599
210	0xbd6451ad	-0.055741955
211	0x3d32d394	0.043658808
212	0x3c92524e	0.017861512
213	0x3e1f72b2	0.15571097
214	0xbd92d99c	-0.07170412
215	0x3d633ee5	0.055479903
216	0x3e0a8f7e	0.135313
217	0x3d69f599	0.057118986
218	0x3da98c6a	0.08278735
219	0xbc16acd7	-0.009196482
220	0xbd150b92	-0.036387987
221	0x3dd5af14	0.10433784
222	0x3d1ed5c0	0.038778067
223	0xbc37a0af	-0.011207744
224	0xbc86926b	-0.01642724
225	0x3dd51936	0.10405199
226	0x3de0df3d	0.10980079
227	0xbd73d35b	-0.059527736
228	0xbe041dd8	-0.1290201
229	0x3dd72989	0.10505969
230	0x3e408621	0.18801166
231	0x3d828a37	0.06374019
232	0xbda5153c	-0.08060691
233	0x3e289b2b	0.16465442
234	0xbe3ce1d2	-0.18445519
235	0xbbe27a88	-0.0069115795
236	0xbd5b2dfa	-0.053510644
237	0x3d38ea96	0.045145594
238	0xbdb7a42d	-0.08966861
239	0xbe252293	-0.1612647
240	0xbe0d8b91	-0.13822772
241	0xbd2b3cfb	-0.041806202
242	0xbdcfdc3a	-0.10149427
243	0x3d2da261	0.042391185
244	0xbd88c496	-0.06678121
245	0x3d0cb4b5	0.034352023
246	0xbd5e35fb	-0.0542507
247	0xbe601226	-0.21881923
248	0x3dc3645b	0.09540626
249	0x3dbfbb47	0.09361892
250	0x3d66cc70	0.05634731
251	0xbd95ae57	-0.07308643
252	0x3cb7fd21	0.022459568
253	0xbce353fc	-0.027750008
254	0x3db4d40f	0.088295095
255	0x3e02316a	0.12714162

gru.bias_ih_l0_reverse f4 [96]
0	0x3d8cc20e	0.068729505
1	0x3e3aa5a7	0.18227254
2	0x3e260fc7	0.16216956
3	0x3e087104	0.13324362
4	0x3d7115b7	0.0588586
5	0xbdfc83e2	-0.12329842
6	0xbd1ea985	-0.038735885
7	0xbd9bdf42	-0.076109424
8	0xbdf672af	-0.12033593
9	0x3e5b774d	0.21432228
10	0x3d20d66f	0.039267
11	0x3df1a4f2	0.11799039
12	0x3d3b3c1e	0.04571163
13	0x3bd8114c	0.006593859
14	0x3c371b36	0.011175921
15	0x3d5b04d8	0.053471416
16	0x3d87f3ae	0.06638275
17	0x3d83dd8e	0.064387426
18	0x3e394e1b	0.18096201
19	0xbd9f490a	-0.07777603
20	0x3d3ea57f	0.046544548
21	0x3e56d812	0.20980862
22	0xbd038de6	-0.032117747
23	0x3df8a62c	0.1214107
24	0x3d7750bb	0.060379725
25	0xbe185d09	-0.1487924
26	0x3dc28823	0.09498622
27	0xba01eee8	-0.0004956559
28	0x3d6d06ad	0.057867695
29	0xbdefb50e	-0.11704455
30	0xbd103691	-0.03520829
31	0x3e4f71fc	0.20258325
32	0xbe240715	-0.16018327
33	0x3e4b7088	0.19867146
34	0xbcccda12	-0.025006328
35	0x3db21e40	0.08697176
36	0x3e5f15d8	0.21785676
37	0xbdd8d269	-0.105870076
38	0x3e656bcb	0.22404401
39	0x3d46d7c9	0.048545633
40	0xbd4680f1	-0.04846281
41	0x3e5ceb88	0.21574223
42	0x3cfa2747	0.030536307
43	0xbca436ad	-0.020045603
44	0x3e8ebcdd	0.27878466
45	0x3da358b8	0.07975906
46	0x3e284e8d	0.16436215
47	0xbc1ce4c0	-0.009576023
48	0xbcb3149c	-0.021860413
49	0x3e082510	0.13295388
50	0xbd14a459	-0.036289547
51	0xbd80a0d7	-0.06280678
52	0x3e8b9ac6	0.2726652
53	0x3dc4248f	0.095772855
54	0xbca3ac59	-0.019979643
55	0x3e745f3a	0.23864451
56	0x3df12738	0.117750585
57	0xbc35a611	-0.011086957
58	0x3d1cc302	0.03827191
59	0xbdb29051	-0.087189324
60	0x3d8042c7	0.06262737
61	0x3e7a654b	0.24452703
62	0x3de2483d	0.110489346
63	0x3e91a8ba	0.2844904
64	0x3e68607e	0.22693059
65	0x3e271f2d	0.16320486
66	0xbdb4a9fc	-0.088214844
67	0x3e3fc578	0.18727672
68	0x3df08949	0.11744935
69	0xbd923f26	-0.07140951
70	0x3e230c63	0.15922694
71	0x3b09a6e5	0.0021004018
72	0xbe2aa146	-0.16663083
73	0x3df5c109	0.11999709
74	0xbe37bc71	-0.17942978
75	0x3d969eec	0.07354531
76	0xbd9ed76c	-0.07755932
77	0xbd7bfa1e	-0.061517827
78	0xbdcceef1	-0.10006512
79	0x3ddb845b	0.10718604
80	0x3dac5863	0.08415296
81	0x3e02693f	0.1273546
82	0xbdccad44	-0.09993985
83	0xbe23eeb4	-0.16009027
84	0xbca85c8a	-0.020551939
85	0x3d488379	0.048953507
86	0xbe5523fd	-0.2081451
87	0xbe36d58b	-0.17854898
88	0x3d43affe	0.04777526
89	0xbe34d5cd	-0.17659684
90	0x3dd947cb	0.106093965
91	0xbe277d95	-0.163565
92	0x3df5905a	0.119904235
93	0x3de8caba	0.11366792
94	0x3d5d7dec	0.054075167
95	0x3dca4fcc	0.09878501
