logs/exp0/weights/epoch50.pt (torch, 348934 bytes, 45 tensors)

conv_block1.0.weight f4 [32, 4, 10]
0	0x3cb5f406	0.022211086
1	0xbe3f4f61	-0.18682624
2	0x3e11be7e	0.14232823
3	0xbbc93b4e	-0.006141103
4	0x3bd7c2c1	0.006584496
5	0x3dec3f35	0.11535493
6	0xbd1c53f5	-0.038166005
7	0xbe0ac567	-0.13551866
8	0x3e0259b9	0.12729539
9	0xbde8bb8a	-0.11363895
10	0x3da3c7a0	0.0799706
11	0xbdaa0375	-0.083014406
12	0x3bbe2170	0.005802326
13	0x3d6b5464	0.057453528
14	0xbdc81120	-0.09768891
15	0x3dc002ad	0.0937551
16	0x3da1af49	0.07894761
17	0x3c8ac1e7	0.016938163
18	0xbd31bd0d	-0.043393183
19	0xbd4e9410	-0.050434172
20	0xbde60232	-0.112308875
21	0x3d9f3469	0.07773668
22	0x3c9c31e7	0.019066764
23	0xbce68458	-0.028139278
24	0x3d2d7509	0.04234794
25	0xbdfa77ea	-0.12229903
26	0x3d610d99	0.05494461
27	0x3da79344	0.081823856
28	0xbe3b3968	-0.18283617
29	0xbceead89	-0.029135482
30	0xbe1dd133	-0.15411834
31	0x3da635cb	0.08115729
32	0x3cfe74dc	0.031061582
33	0xbd2aa53b	-0.041661482
34	0xbd1e6160	-0.038667083
35	0xbd817eff	-0.06323051
36	0xbdb4f12d	-0.08835063
37	0x3d475d9c	0.048673257
38	0x3b4d3016	0.003130918
39	0x3cb224dd	0.021746093
40	0xbc01459b	-0.00789013
41	0xbdad3c18	-0.084587276
42	0x3d92c1a0	0.07165837
43	0xbdb96ac8	-0.0905357
44	0xbb40545d	-0.002934716
45	0x3e38cb4d	0.18046303
46	0xbdb7d5b9	-0.08976311
47	0xbc0d9685	-0.008641844
48	0x3dfc5df3	0.12322607
49	0x3d3de771	0.046363298
50	0x3db510bc	0.088410825
51	0x3da945d3	0.08265271
52	0xbe268cf7	-0.16264711
53	0x3dec08ae	0.11525093
54	0xbe29103c	-0.16510099
55	0x3c360527	0.011109627
56	0xba6bcbc5	-0.00089949026
57	0xbd7bdf15	-0.061492044
58	0xbc02d5c2	-0.007985534
59	0x3d6794a3	0.056538235
60	0xbdcb01e6	-0.099124715
61	0xbb324bdb	-0.0027205858
62	0xbd21f5ae	-0.03954094
63	0xbd526d83	-0.05137397
64	0xbcf5996a	-0.02998038
65	0xbd11c57e	-0.035588734
66	0xbda526ca	-0.08064039
67	0x3dd50f8d	0.10403357
68	0xbdf120d6	-0.11773841
69	0xbc2ff031	-0.010738418
70	0x3dd5c0e3	0.10437181
71	0x3d844ae1	0.064595945
72	0x3cd023c6	0.025407683
73	0xbd52db0a	-0.051478423
74	0xbd1c6699	-0.038183782
75	0xb9bf8615	-0.00036530258
76	0xbdc95227	-0.098301224
77	0x3ba563a8	0.0050472803
78	0xbd068c49	-0.03284863
79	0x3da6f85e	0.08152841
80	0x3d578abe	0.05262255
81	0xbde5b94e	-0.11216985
82	0xbdea58df	-0.11442732
83	0xbdbc2535	-0.09186784
84	0x3e1fa873	0.15591602
85	0xbdee3761	-0.116316564
86	0xbdacc1e0	-0.08435416
87	0x3e0a0d43	0.13481621
88	0xbe2060d1	-0.15661933
89	0xbbb91b9d	-0.0056490437
90	0x3d5aaba7	0.053386357
91	0x3d28b4dd	0.04118811
92	0x3c4476b1	0.011991189
93	0x3d715d2e	0.058926754
94	0xbcc9f734	-0.024654008
95	0x3dcf2676	0.10114758
96	0x3e090a48	0.13382828
97	0x3e02dd09	0.1277963
98	0x3e24f9b7	0.16110884
99	0xbd1c00c1	-0.038086656
100	0x3d83de75	0.06438915
101	0xbddcf094	-0.10788074
102	0x3d76b4fc	0.060231194
103	0xbde3545b	-0.11100074
104	0x3b12b138	0.0022383463
105	0x3dd91b1a	0.10600872
106	0x3e0eb5b8	0.13936508
107	0xbd93cbff	-0.072166435
108	0x3cad119a	0.021126557
109	0xbcdda7ca	-0.027057547
110	0xbde5ed1b	-0.11226865
111	0xbe042b5e	-0.12907168
112	0x3db9b885	0.090683974
113	0x3d4b6034	0.049652293
114	0xbd8b0ba2	-0.06789328
115	0xbdce9348	-0.100866854
116	0x3d7e9e76	0.06216284
117	0x3a4943d6	0.000767765
118	0xbcc58fd8	-0.024116442
119	0xbaed2572	-0.0018092825
120	0x3d4c46d6	0.049872242
121	0xbe003aa6	-0.12522373
122	0xbd5c6642	-0.05380846
123	0xbda0d73e	-0.07853554
124	0xbcebc90e	-0.028782394
125	0x3d383a1e	0.0449773
126	0xbd76e950	-0.060281098
127	0xbe0969b1	-0.13419224
128	0x3d0022ed	0.031283308
129	0x3d10e1fb	0.03537176
130	0xbd58f217	-0.05296525
131	0xbe264790	-0.16238236
132	0xbe1113fb	-0.14167778
133	0xbe0c26a4	-0.13686615
134	0xbdd2e09e	-0.102967486
135	0xbd74a1ff	-0.059724804
136	0x3d54875d	0.051886905
137	0xbd2ec136	-0.04266473
138	0xbdc1a46a	-0.094551876
139	0x3d6f8982	0.058480747
140	0xbd554f61	-0.052077655
141	0xbb00886e	-0.0019612568
142	0x3c751eb9	0.014960938
143	0x3e16b758	0.14718378
144	0xbdf04325	-0.11731557
145	0x3dacafff	0.08432006
146	0x3df09953	0.11747994
147	0xbd4a7210	-0.049425185
148	0x3e05e42e	0.13075325
149	0xbb4025b9	-0.002931936
150	0x3d8e8d22	0.06960513
151	0x3d8496a7	0.06474047
152	0x3dc38452	0.095467225
153	0x3c79a5d0	0.015237287
154	0xbd2e98b5	-0.0426261
155	0x3d7a9519	0.061177347
156	0x3dc1f154	0.09469858
157	0x3d84c6a5	0.06483201
158	0x3db23461	0.08701397
159	0x3dc7282c	0.09724459
160	0xbd2c701f	-0.042099115
161	0xbc9ca151	-0.01911989
162	0x3cac7578	0.021052107
163	0xbd5065bc	-0.05087827
164	0xbd55644e	-0.05209761
165	0x3e01dac8	0.12681115
166	0xbd9bc0f4	-0.07605162
167	0xbd7c48b5	-0.061592776
168	0x3d6e96d4	0.05824931
169	0xbd584bf0	-0.052806795
170	0x3d924b71	0.071432956
171	0x3d840450	0.06446135
172	0xbd425523	-0.047444474
173	0x3dda4bd5	0.10658995
174	0x3b1e1287	0.002411993
175	0xbe0023fc	-0.12513727
176	0x3b310890	0.002701316
177	0x3dd6ad27	0.10482245
178	0xbe0f71f4	-0.14008313
179	0x3dfb9c61	0.12285686
180	0xbdccb623	-0.09995677
181	0x3d67373e	0.056449167
182	0xbe32a453	-0.17445497
183	0x3d2eb884	0.042656437
184	0x3bf55263	0.007486628
185	0x3c5e2cbb	0.013560469
186	0xbe437bbe	-0.19090173
187	0x3dc8ad69	0.097987
188	0xbe0472ca	-0.12934414
189	0x3d339603	0.043844234
190	0x3d4a02cc	0.049319074
191	0xbd07f912	-0.033196516
192	0xbdd4ba91	-0.10387147
193	0xbc9d0b00	-0.019170284
194	0xbe2c28a7	-0.16812383
195	0x3b780982	0.0037847464
196	0x3da54edc	0.08071682
197	0x3d994dec	0.074855655
198	0xbe25806f	-0.16162275
199	0x3da62f1e	0.08114456
200	0x3d43488d	0.04767661
201	0x3ddefc53	0.10887971
202	0xbd09752a	-0.033559002
203	0xbd98ada0	-0.07454991
204	0x3d45e94f	0.048318204
205	0xbe1d87de	-0.1538386
206	0x3dff6044	0.12469533
207	0x3e24fc8c	0.16111964
208	0xbe659215	-0.22419007
209	0xbdba4da9	-0.09096844
210	0x3d56708a	0.05235342
211	0x3c3b3371	0.011425839
212	0xbe35ac49	-0.17741503
213	0x3c6b8478	0.014374845
214	0x3d0126c8	0.031531125
215	0x3df99841	0.12187243
216	0xbd25b64a	-0.040457048
217	0xbdd33280	-0.103123665
218	0x3e273fb6	0.16332898
219	0xbe0270da	-0.12738362
220	0xba0405c8	-0.0005036262
221	0xbd80b2f2	-0.06284131
222	0x3d9164cf	0.07099306
223	0xbd209cc5	-0.039212007
224	0xbe2b9503	-0.16756062
225	0xbdb671a1	-0.08908392
226	0x3c4dac42	0.0125532765
227	0xbe385f2c	-0.18005055
228	0xbe3e8e6f	-0.18609022
229	0x3d2a6e43	0.04160906
230	0x3d8cf50c	0.068826765
231	0x3ce0f3a4	0.027459927
232	0xbd857dda	-0.06518145
233	0x3d79d84b	0.06099729
234	0x3dcc7738	0.09983677
235	0xbcb4e4cc	-0.022081755
236	0xbd8b022b	-0.06787523
237	0x3daf10f7	0.08548158
238	0xbcfa1994	-0.030529775
239	0x3d6ec1f8	0.05829045
240	0x3de88b4b	0.11354693
241	0x3d95356a	0.072855785
242	0x3d1ed478	0.038776845
243	0x3d404ddb	0.04694925
244	0xbdc884fd	-0.097909905
245	0x3e416ac0	0.18888378
246	0x3d74347b	0.05962036
247	0x3e0e4238	0.13892448
248	0x3de2d963	0.110766195
249	0x3dddd3de	0.10831426
250	0xbd2a47eb	-0.041572493
251	0x3caa9835	0.020824531
252	0x3d3d0ff4	0.046157792
253	0x3beb0531	0.0071722497
254	0xbdc0cfe6	-0.094146535
255	0xbd61c73c	-0.055121645

conv_block2.0.weight f4 [32, 32, 10]
0	0xbc244f68	-0.010028698
1	0xbd1a7584	-0.037709728
2	0x3c85c84c	0.01633086
3	0xbd37b90c	-0.04485421
4	0x3cd97d7e	0.026549097
5	0x3cfad7fa	0.030620564
6	0x3c062e10	0.008189693
7	0x3e00e81a	0.1258854
8	0x3dc1168f	0.09428131
9	0x3dbd9490	0.09256852
10	0x3dae3c94	0.08507648
11	0x3df2b3a9	0.11850674
12	0x3e0de205	0.13855751
13	0x3cd65658	0.026164219
14	0x3d6a74a7	0.057240155
15	0x3dd87239	0.10568661
16	0x3d7c7dba	0.06164334
17	0x3de7d1e6	0.11319332
18	0x3d9394f1	0.07206143
19	0xbc649bea	-0.013953188
20	0xbcb87bd0	-0.022519976
21	0x3c95f9a2	0.01830751
22	0xbd293357	-0.041308727
23	0x3c882fac	0.016624294
24	0xbcceb84f	-0.02523437
25	0x3d943948	0.07237488
26	0x3d7d60cb	0.061859887
27	0xbd409f09	-0.047026668
28	0x3c993500	0.01870203
29	0xbdad2ed4	-0.084561974
30	0xbdd54680	-0.104138374
31	0x3d1c29c8	0.038125783
32	0xbc80fda5	-0.015745947
33	0xbd97a51b	-0.07404538
34	0xbd96bffe	-0.07360838
35	0x3d8eb032	0.069672
36	0xbd189c98	-0.037258714
37	0xbd913a45	-0.07091192
38	0xbd6f1e8e	-0.05837875
39	0xba8db932	-0.0010812639
40	0x3d344351	0.04400951
41	0x3bdc272c	0.006718537
42	0x3de61ab5	0.11235563
43	0x3db9c212	0.09070219
44	0xbd6df64f	-0.058096226
45	0x3e021f9e	0.12707373
46	0xbd2788be	-0.040901892
47	0x3dbe79de	0.09300588
48	0x3bd0241e	0.0063519618
49	0x3d9dcdf4	0.07705298
50	0xbca8b149	-0.020592349
51	0x3cc5c519	0.024141835
52	0x3c8f196f	0.017468182
53	0x3dcfd488	0.10147959
54	0xbd0967b6	-0.033546172
55	0x3d8afcee	0.06786524
56	0xbca6a4f7	-0.020342333
57	0x3d0f7a2c	0.03502862
58	0x3dfcddc0	0.12346983
59	0x3df16f73	0.117888354
60	0x3d5d0d09	0.05396751
61	0x3d821346	0.06351332
62	0x3de3adf5	0.11117164
63	0x3e3588ed	0.17728014
64	0x3e6cfc15	0.23143037
65	0x3dbfab04	0.093587905
66	0x3db4d321	0.08829332
67	0x3e3b57b9	0.18295182
68	0x3d15321b	0.036424737
69	0x3d69c474	0.057072118
70	0x3e3161dd	0.17322488
71	0x3cf80eec	0.030280553
72	0x3ca49649	0.020091193
73	0x3cb291a9	0.021797972
74	0x3d3bb332	0.04582519
75	0x3dbf9737	0.09355014
76	0x3daf04ce	0.08545838
77	0x3dc738b2	0.09727611
78	0x3e1014a0	0.14070368
79	0x3e295c86	0.16539201
80	0x3ccea397	0.02522449
81	0x3da33bba	0.07970376
82	0x3d1847ca	0.03717784
83	0xbc3d4c95	-0.011553903
84	0x3d94704a	0.0724798
85	0xbd5822a2	-0.052767403
86	0xbcd33d12	-0.025785957
87	0x39f08aca	0.00045879773
88	0x3cd39e1e	0.025832232
89	0xbcbb1720	-0.022838175
90	0x3cb2af48	0.021812096
91	0x3c82ab50	0.015950829
92	0x3d4f6d99	0.05064163
93	0xbd8a2450	-0.06745207
94	0xbdeece61	-0.116604574
95	0xbe01ce20	-0.12676287
96	0xbde4f5de	-0.11179708
97	0x3c0fffa5	0.008788978
98	0xbe0031b9	-0.12518968
99	0x3cab7853	0.020931398
100	0x3dae79aa	0.08519299
101	0x3dabf378	0.08396047
102	0x3df00a51	0.11720718
103	0xbc1669f5	-0.009180536
104	0x3df406df	0.11915373
105	0xbcf2fd64	-0.029661842
106	0x3daa2b9f	0.08309101
107	0x3ddd1076	0.10794155
108	0xbd793d97	-0.060849752
109	0x3de064ef	0.109567516
110	0x3beaa288	0.0071604885
111	0xbdc8c3fb	-0.09803005
112	0x3d9dfb8d	0.07713995
113	0x3d9e7bda	0.077384666
114	0x3d9c4295	0.07629887
115	0x3d4a2db5	0.049359996
116	0xbd2f8171	-0.042848054
117	0x3db51628	0.088421166
118	0xbd9f4e8a	-0.07778652
119	0xbcf7bbdb	-0.030240944
120	0xbdbbc052	-0.091675416
121	0xbcae67ee	-0.021289792
122	0xbce14e4c	-0.027503155
123	0x3d207692	0.039175577
124	0xbdcc4030	-0.0997318
125	0xbdfe9363	-0.124304555
126	0x3c7b6d6f	0.015345915
127	0x3d3c149b	0.04591809
128	0x3b00ad67	0.0019634606
129	0xbe016055	-0.12634404
130	0xbde593dc	-0.112098426
131	0xbdaa0dc4	-0.08303407
132	0xbdafb3b1	-0.08579195
133	0xbdc0ea49	-0.09419686
134	0xbe1394f6	-0.14412293
135	0xbd924ff8	-0.07144159
136	0xbdb42e46	-0.087978885
137	0x3c480807	0.012208945
138	0xbd02b24e	-0.031908326
139	0xbe12b42d	-0.14326544
140	0x3d4c883c	0.04993461
141	0x3d1c64f3	0.03818221
142	0x3da1ac53	0.07894196
143	0x3e08dd40	0.1336565
144	0x3dcdf758	0.10056943
145	0x3d79fc3d	0.06103157
146	0xbd86323f	-0.065525524
147	0x3d92d0f0	0.07168758
148	0x3b21fcd3	0.0024717345
149	0x3ddf1fa3	0.10894706
150	0x3dbee327	0.093206696
151	0x3db4f51a	0.08835812
152	0xbd9b2627	-0.07575636
153	0x3cbe5648	0.023234501
154	0x3d7aad49	0.061200414
155	0x3d8ceb4e	0.06880818
156	0xbd34374d	-0.04399805
157	0x3c771937	0.015081695
158	0x3dc624b8	0.09674972
159	0x3ccf073e	0.025272008
160	0x3d3f59b6	0.046716414
161	0xbdb53de5	-0.08849696
162	0xbda125fb	-0.07868572
163	0xbc3020ea	-0.010750035
164	0x3dd8a9ee	0.105792865
165	0x3d409314	0.047015265
166	0x3d866afd	0.06563375
167	0xbd778199	-0.06042633
168	0x3d804d84	0.06264785
169	0xbcf42c1f	-0.029806195
170	0xbba19a01	-0.004931689
171	0x3e0efa6f	0.1396272
172	0x3e24d5e7	0.16097222
173	0x3dd17bc9	0.10228688
174	0x3be48b76	0.006974633
175	0x3e2bd8f1	0.16781975
176	0x3d2498e7	0.04018488
177	0x3d444f2c	0.047927067
178	0x3db9361f	0.09043526
179	0xbba85cd0	-0.0051380172
180	0xbd0cb35b	-0.034350734
181	0xbc7392fb	-0.014866586
182	0xbdff731c	-0.12473127
183	0x3c85ac7f	0.016317604
184	0x3bf839ba	0.007575241
185	0xbdcae48d	-0.09906874
186	0xbd1c218c	-0.03811793
187	0xbdbb7dae	-0.09154831
188	0xbcbf3ccf	-0.023344425
189	0xbd26fd93	-0.04076917
190	0xbc91d598	-0.017802045
191	0x3e000703	0.12502675
192	0xbcaa312c	-0.0207754
193	0x3cfafa19	0.030636834
194	0xbd35ce7f	-0.044386383
195	0xbc727ce1	-0.014800281
196	0x3d46185e	0.048363082
197	0x3de558ef	0.11198603
198	0x3becbf1d	0.007224931
199	0x3cf26de9	0.029593425
200	0xbd3a5892	-0.045494623
201	0xbc71b094	-0.014751572
202	0x3c479dec	0.012183648
203	0xbd39126c	-0.045183584
204	0xbd1e4898	-0.03864345
205	0xbd853710	-0.06504643
206	0xbd22feae	-0.039793663
207	0x3d139c15	0.036037523
208	0xbc167f88	-0.009185679
209	0xbc8ccc83	-0.017187363
210	0xbd7ec3c7	-0.062198427
211	0x3d3aeaf7	0.045634236
212	0xbd9a75c8	-0.07541996
213	0xbd8354f5	-0.06412689
214	0xbd83b202	-0.06430437
215	0xbd841800	-0.0644989
216	0xbccdd993	-0.025128162
217	0x3dcf29a8	0.10115367
218	0xbbf097c4	-0.0073423106
219	0xbdbfc271	-0.09363259
220	0x3d09a620	0.033605695
221	0x3d196bce	0.037456326
222	0x3d45e060	0.048309684
223	0x3e0a588d	0.13510342
224	0x39abb57b	0.00032750875
225	0xbcbe5a37	-0.023236377
226	0x3dff18ca	0.124559
227	0x3d7bb08e	0.061447673
228	0x3e138f14	0.14410049
229	0x3d3557b1	0.044273082
230	0x3ca44d2e	0.020056333
231	0x3da78f2c	0.08181605
232	0x3dcf6e50	0.10128462
233	0x3e2bb236	0.16767201
234	0x3d31175a	0.04323516
235	0x3d07ee50	0.033186257
236	0x3e17b36e	0.1481454
237	0x3e2b9ca5	0.16758974
238	0x3e0dce31	0.13848187
239	0x3d4d753b	0.050160628
240	0x3d58cee9	0.0529317
241	0x3dd88ff3	0.10574331
242	0xbd8b5910	-0.06804097
243	0xbcd7a8f3	-0.026325678
244	0xbd151071	-0.036392633
245	0x3d97f4e9	0.0741976
246	0xbd9f42e4	-0.0777643
247	0xbd07d225	-0.033159394
248	0x3de54efc	0.11196706
249	0x3c0ab08b	0.008464943
250	0xbdaa751e	-0.083231196
251	0xbdf0f7cc	-0.117660135
252	0xbc4363bd	-0.011925635
253	0xbe0353c0	-0.12824917
254	0xbdd2269d	-0.10261271
255	0x3d2b9ca8	0.041897446

gru.weight_ih_l0 f4 [96, 32]
0	0x3d54fc46	0.0519984
1	0x3e0bddd6	0.13658842
2	0x3d1af9ef	0.03783601
3	0x3eb75b93	0.35812053
4	0x3c12d6b6	0.008962324
5	0xbdf53176	-0.119723246
6	0x3e8b2a25	0.2718059
7	0xbc692a70	-0.014231309
8	0x3c3c94c7	0.011510081
9	0x3db48d55	0.088160194
10	0x3e0681a4	0.13135391
11	0x3e3dcb87	0.18534671
12	0xba4cceb8	-0.0007812786
13	0x3e4f826b	0.20264594
14	0xbddf5c4e	-0.109062776
15	0x3dfac4ea	0.122445896
16	0x3deb1fd5	0.11480681
17	0x3ed3661c	0.4128884
18	0xbd840c01	-0.06447602
19	0x3b58aa4a	0.0033060485
20	0x3d5a4068	0.05328408
21	0x3e8752d9	0.26430395
22	0xbe175abf	-0.1478071
23	0x3df9de5c	0.12200615
24	0x3c7e046b	0.015503983
25	0x3e58f179	0.21185865
26	0x3e3cc7f8	0.18435657
27	0xbca58abc	-0.020207755
28	0xbc82419c	-0.015900426
29	0x3e51156e	0.20418331
30	0x3d2cdfa5	0.04220547
31	0x3da3d750	0.08000052
32	0x3e7213c9	0.2364036
33	0x3d4bf6a1	0.04979575
34	0x3db5a553	0.08869424
35	0xbe4a88ce	-0.1977875
36	0x3e4b8c47	0.1987773
37	0x3c8436ac	0.01613935
38	0x3e694d93	0.22783498
39	0x3d23138d	0.039813567
40	0x3cdee1af	0.027207224
41	0xbd879fa8	-0.06622249
42	0xbe1987ef	-0.14993261
43	0xbe054c68	-0.13017428
44	0xbdf27c9c	-0.118401736
45	0x3e1ea186	0.15491304
46	0x3d9ea76b	0.07746776
47	0xbdbcf406	-0.09226231
48	0x3e58fcae	0.2119014
49	0x3dfa96fb	0.122358285
50	0x3dec5bc0	0.115409374
51	0x3da1dd31	0.07903517
52	0x3c9bb556	0.019007366
53	0x3cef15f6	0.029185276
54	0x3db65e96	0.089047596
55	0x3e50fcb9	0.20408906
56	0x3e020b08	0.1269952
57	0x3e059598	0.13045347
58	0x3c05c6c2	0.008165063
59	0x3e4eaf66	0.20184097
60	0xbd0ac667	-0.033880617
61	0x3e2be62a	0.1678702
62	0xbb960ca3	-0.004579143
63	0x3df4b0eb	0.11947807
64	0x3d881199	0.066439815
65	0x3e16d1d5	0.14728482
66	0x3d02f7d7	0.03197464
67	0x3d8882c0	0.066655636
68	0x3d952b6b	0.07283672
69	0xbe147aaa	-0.14499918
70	0x3d89a448	0.06720787
71	0x3e4c1634	0.19930345
72	0xbda7326a	-0.081639126
73	0x3e7ce8a6	0.24698123
74	0x3e33ba20	0.1755147
75	0x3e11f0e5	0.1425205
76	0x3d8bd7a2	0.06828238
77	0x3d1cee5d	0.03831326
78	0x3d894c2a	0.0670398
79	0xbcab71ea	-0.020928342
80	0x3e2b6bdd	0.16740365
81	0x3c8efece	0.017455485
82	0x3e4917df	0.19638012
83	0xbe00b8a2	-0.12570432
84	0xbdb915a4	-0.09037331
85	0x3cce6259	0.02519338
86	0xbdadfd1b	-0.08495542
87	0xbc23603f	-0.009971677
88	0x3e6e7d9c	0.23290104
89	0xbd2feebb	-0.04295228
90	0xbe39f413	-0.18159513
91	0x3c94f75e	0.01818436
92	0x3dd79897	0.10527151
93	0x3dbef5d4	0.09324232
94	0xbe5ec3c6	-0.21754369
95	0x3e789fef	0.2427976
96	0xbd8700c8	-0.06591946
97	0xbd18be64	-0.037290946
98	0xbd908ee1	-0.07058502
99	0xbe02ce23	-0.12773947
100	0xbd972325	-0.0737975
101	0xbd2bb61c	-0.04192172
102	0x3d8e4f1d	0.069486834
103	0xbe0813a9	-0.1328875
104	0x3e1dd933	0.15414886
105	0x3dbaf31b	0.091284
106	0xbc8caa65	-0.017171094
107	0xbda35bf0	-0.0797652
108	0xbe138d09	-0.1440927
109	0x3de170ba	0.11007829
110	0x3c597856	0.013273319
111	0x3e414b94	0.18876487
112	0x3def80f7	0.1169452
113	0xbd6f8691	-0.058477942
114	0xbe792c70	-0.24333358
115	0x3e316445	0.17323406
116	0xbe2410db	-0.16022055
117	0x3e1d61bf	0.15369318
118	0xbdd4d461	-0.103920706
119	0xbd1bc3e5	-0.038028616
120	0xbdaeed01	-0.08541299
121	0xbdb143ba	-0.08655496
122	0xbd332221	-0.04373372
123	0x3e2b4d23	0.16728644
124	0xbdcbd758	-0.09953183
125	0x3e16c592	0.14723805
126	0x3e1b9116	0.15192065
127	0x3d338085	0.043823738
128	0xbdfdc64b	-0.12391337
129	0xbd225fba	-0.039642073
130	0x3d8fd6b4	0.07023373
131	0xbd074edb	-0.033034187
132	0xbdd1a68a	-0.10236843
133	0xbd876272	-0.06610574
134	0x3dc42cd2	0.09578861
135	0xbcbbb153	-0.022911703
136	0xbcb291ab	-0.021797976
137	0xbe122445	-0.14271648
138	0x3d95b6f5	0.07310287
139	0x3d71a1dd	0.058992255
140	0x3d97014c	0.07373294
141	0x3e16ef5e	0.14739749
142	0x3d4a843f	0.049442526
143	0x3ca7acd6	0.020468157
144	0xbb592752	-0.003313501
145	0x3dcf82c7	0.10132366
146	0x3d3358db	0.04378591
147	0x3e1d3310	0.1535151
148	0xbc745199	-0.0149120325
149	0x3e1ad8b7	0.15121733
150	0xbba98725	-0.005173581
151	0x3d970083	0.073731445
152	0x3d2ece82	0.04267741
153	0x3e67b6e6	0.22628364
154	0x3e688632	0.22707441
155	0xbdd512fb	-0.10404011
156	0xbda364a8	-0.07978183
157	0x3c4c509a	0.012470389
158	0xbe0422b8	-0.12903869
159	0x3db402b1	0.08789576
160	0x3dcbcdac	0.09951338
161	0x3e772acf	0.24137424
162	0xbc682ee7	-0.014171339
163	0x3ec7835a	0.389674
164	0xbdbcee52	-0.092251435
165	0xbd5518da	-0.052025653
166	0x3dd47c18	0.103752315
167	0x3e46ebf2	0.19425943
168	0xbc5b7cce	-0.013396455
169	0x3e55874f	0.20852397
170	0x3e1d8c1d	0.1538548
171	0x3e2aaa0f	0.16666435
172	0xbe0b9472	-0.13630846
173	0x3e414c0e	0.18876669
174	0xbe2ce418	-0.16883886
175	0xbe00468e	-0.12526914
176	0x3eab2f0c	0.3343433
177	0x3e83f7f9	0.25775126
178	0x3e01b581	0.12666894
179	0x3e32a268	0.17444766
180	0x3e7ee989	0.24893774
181	0x3d93860f	0.07203304
182	0xbe348579	-0.17629041
183	0x3e1f7855	0.15573247
184	0xbbce89cc	-0.0063030478
185	0xbe644e29	-0.2229544
186	0xbe2715e2	-0.16316941
187	0x3ca0f02c	0.019645773
188	0x3e241e4d	0.16027184
189	0x3e3c430a	0.18384948
190	0xbe3bde17	-0.1834644
191	0x3d550fc6	0.052016996
192	0xbe013ff1	-0.12622048
193	0xbdb41185	-0.08792404
194	0xbe8550be	-0.26038164
195	0xbe390519	-0.18068351
196	0x3df78e0b	0.120876394
197	0x3e5a822a	0.21338716
198	0xbda71a9e	-0.08159374
199	0xbe1e599a	-0.15463868
200	0xbdca0b18	-0.09865397
201	0xbc9af236	-0.018914323
202	0xbceffaa4	-0.02929432
203	0xbc3f7c13	-0.011687296
204	0x3d5e9ba9	0.054347668
205	0xbc72e19b	-0.014824296
206	0x3e094caa	0.13408151
207	0x3d5a6e4d	0.053327847
208	0xbd073763	-0.033011805
209	0xbe59e357	-0.2127813
210	0xbe8ede0c	-0.27903783
211	0x3e0e37c3	0.13888459
212	0xbe91db73	-0.2848774
213	0xbd4c1ff8	-0.049835175
214	0x3dd04fe3	0.10171487
215	0xbe5ff201	-0.21869661
216	0xbe9dd380	-0.30825424
217	0x3e41bebd	0.18920417
218	0x3e6167f4	0.22012311
219	0xbd8fdac6	-0.070241496
220	0xbe12a6bc	-0.14321417
221	0xbe3143e4	-0.17311054
222	0x3d3e66d1	0.046484772
223	0xbea73f7c	-0.32665622
224	0x3db93172	0.09042634
225	0xbda73c1a	-0.0816576
226	0x3dfb70d0	0.12277377
227	0xbe30ae7f	-0.17254065
228	0xbe15a637	-0.14614187
229	0xbdabeb90	-0.08394539
230	0x3d12b64b	0.03581838
231	0x3e3ba2a1	0.18323757
232	0xbd050e6b	-0.032484453
233	0x3e3cc45d	0.18434282
234	0xbdce8544	-0.10084012
235	0x3cf9337f	0.030420063
236	0xbca6a585	-0.020342598
237	0x3d96211b	0.07330533
238	0xbd9b5af6	-0.07585709
239	0x3e161e14	0.14659911
240	0x3e0416b0	0.1289928
241	0xbdaed7da	-0.08537264
242	0x3e2f769f	0.17135094
243	0x3e25ae78	0.16179836
244	0x3e06f03d	0.13177581
245	0x3e012120	0.12610292
246	0x3d7a7447	0.061146047
247	0x3e633542	0.22188285
248	0xbdb8a0c8	-0.090150416
249	0x3e02b695	0.12764962
250	0xbdda95db	-0.10673114
251	0x3db2d13c	0.087313145
252	0x3e7addf0	0.24498725
253	0xbdddb7e7	-0.10826092
254	0x3d7c3ea3	0.061583173
255	0xbc8a78da	-0.01690333

gru.weight_hh_l0 f4 [96, 32]
0	0xbddc30d9	-0.107515045
1	0x3da207d7	0.079116516
2	0xbe173077	-0.14764582
3	0xbe418f22	-0.18902257
4	0x3e8011b8	0.25013518
5	0x3cf2f5eb	0.029658278
6	0x3d37ec81	0.044903282
7	0x3ce4cb14	0.027928866
8	0x3b20bf42	0.002452806
9	0xbe4aff8d	-0.19824047
10	0xbe31b85b	-0.17355482
11	0x3db6bbc4	0.08922532
12	0xbca3657c	-0.019945852
13	0xbe91c4f7	-0.28470585
14	0x3d191d82	0.037381656
15	0x3e1b967b	0.15194122
16	0xbda0ba36	-0.07848017
17	0x3d10fb9e	0.03539621
18	0x3da6bbd4	0.08141294
19	0x3cc02299	0.023453997
20	0xbe007fd8	-0.12548769
21	0x3e185b05	0.14878471
22	0xbd0ffb89	-0.035151992
23	0xbda18564	-0.0788677
24	0xbd426bb2	-0.047465988
25	0xbcc3cf95	-0.023902694
26	0x3dc5b97b	0.09654518
27	0xbe3c8be2	-0.18412736
28	0x3dd17610	0.10227597
29	0xbe0f6ad1	-0.14005591
30	0x3d84f436	0.06491892
31	0xbdc1f5d7	-0.09470718
32	0x3d467dac	0.048459694
33	0x3d5e1c68	0.05422631
34	0xbc84ca5e	-0.016209777
35	0x3dd5757f	0.10422801
36	0x3e46398c	0.1935789
37	0xbc95046c	-0.018190585
38	0x3e673aa4	0.22580963
39	0x3dd9b4b5	0.1063017
40	0x3d9d02a8	0.07666522
41	0x3cdc7c95	0.026914874
42	0x3e5ad7d1	0.2137139
43	0x3ddec6da	0.10877772
44	0xbdae1811	-0.08500684
45	0xbe1978d5	-0.149875
46	0xbc08dd43	-0.008353534
47	0xbe69e10b	-0.22839753
48	0x3ddb8db9	0.10720391
49	0x3cc09929	0.023510532
50	0xbe29957a	-0.16560927
51	0x3ea02637	0.31279156
52	0x3c7fe365	0.01561818
53	0xbe5f4232	-0.21802595
54	0xbe25e2b7	-0.16199766
55	0x3e25a9f7	0.16178118
56	0xbddb5924	-0.107103616
57	0x3c5f2dd0	0.013621762
58	0xbe228fa0	-0.15875101
59	0x3c082020	0.00830844
60	0x3dcbd994	0.09953609
61	0x3de83ade	0.11339353
62	0xbd9b4fb6	-0.07583563
63	0x3dc6f9d4	0.0971562
64	0x3dd14a97	0.10219305
65	0x3e7c14ff	0.24617384
66	0xbd8b944f	-0.06815397
67	0xbe3799f4	-0.17929822
68	0x3d5044ef	0.05084699
69	0xbd32cde4	-0.043653384
70	0x3cca602b	0.02470406
71	0xbe34a66e	-0.17641613
72	0xbcdf70e9	-0.02727552
73	0xbcadd6a8	-0.02122052
74	0xbd401d2c	-0.04690282
75	0xbdecf737	-0.1157059
76	0xbe84a55a	-0.25907403
77	0xbd12bb30	-0.035823047
78	0xbe10b0c0	-0.14129925
79	0x3e40095b	0.18753569
80	0xbde0a1df	-0.109683745
81	0x3e584daf	0.21123384
82	0x3c4abd06	0.012374168
83	0xbd81007b	-0.0629892
84	0x3b731284	0.0037089894
85	0xbe2e0659	-0.16994609
86	0xbe47abf1	-0.19499184
87	0xbd771a91	-0.06032807
88	0x3ce31f36	0.027724843
89	0x3da59034	0.08084145
90	0xbdf104fd	-0.117685296
91	0xbe10457f	-0.1408901
92	0x3d3f11d7	0.046647873
93	0x3cf031dd	0.029320652
94	0x3e4accd0	0.19804692
95	0x3e6f0fa1	0.23345806
96	0x3dba92f8	0.09110063
97	0xbe1f3e3f	-0.15551089
98	0xbddbaffc	-0.10726926
99	0x3c4fa0d3	0.012672621
100	0x3c6242c3	0.013809863
101	0xbdba265d	-0.090893485
102	0xbd4ffa7f	-0.050776
103	0x3a8959e3	0.0010479059
104	0xbe2f61e9	-0.17127194
105	0x3c84d6c7	0.016215695
106	0xbd9dcd39	-0.07705159
107	0x3dc97ebf	0.09838628
108	0xbe50f5ce	-0.20406267
109	0xbd2d99f6	-0.042383157
110	0x3de7bc18	0.11315173
111	0x3e8b1353	0.2716318
112	0xbd62bc8e	-0.0553556
113	0xbe4360ac	-0.19079846
114	0x3e2fada1	0.17156078
115	0xbdd6eb17	-0.104940586
116	0x3bb65634	0.0055644754
117	0x3df089b3	0.11745014
118	0xbe298927	-0.16556226
119	0xbcd41e38	-0.025893316
120	0x3da5ffac	0.08105406
121	0x3d2330ae	0.039841346
122	0xbd24c701	-0.040228847
123	0x3d79c186	0.060975574
124	0xbda78485	-0.08179573
125	0xbdae0cb6	-0.08498518
126	0x3dce3746	0.10069136
127	0xbc0f6d62	-0.008754106
128	0xbe3c2f1a	-0.18377343
129	0x3e5a9948	0.21347535
130	0xbe18f15f	-0.14935826
131	0x3c2a0bc7	0.0103787845
132	0x3cb8f6a5	0.022578547
133	0xbe4a079f	-0.1972947
134	0x3d8ff709	0.0702954
135	0xbcea87a3	-0.02862913
136	0x3e12b4cb	0.1432678
137	0x3dd2e2be	0.10297154
138	0x3d95a68f	0.07307159
139	0x3d84bf19	0.064817615
140	0xbe134e61	-0.14385368
141	0xbd0ee870	-0.03488964
142	0xbdc113f4	-0.09427634
143	0xbd3e67c0	-0.046485662
144	0xbe5612ad	-0.20905562
145	0xbe036dac	-0.12834805
146	0x3d19fed7	0.03759655
147	0x3c200721	0.009767325
148	0xbe178cf1	-0.14799859
149	0xbd1f59be	-0.038903944
150	0xbe339b35	-0.17539676
151	0x3e163321	0.14667942
152	0xbdcafd89	-0.09911639
153	0xbd9e458c	-0.07728109
154	0xbd9a1ac9	-0.0752464
155	0xbe6bf0e7	-0.23041116
156	0x3dc43e08	0.09582144
157	0x3d20157a	0.03908298
158	0x3e581dbc	0.21105093
159	0xbda8c642	-0.0824094
160	0xbd19059d	-0.03735887
161	0x3e5d4228	0.21607268
162	0x3df2add0	0.11849558
163	0xbd83664c	-0.06415996
164	0x3e1acd44	0.15117365
165	0xbd18c89f	-0.037300702
166	0x3ccd116e	0.025032725
167	0x3e26c129	0.16284622
168	0xbc8bc177	-0.017060025
169	0xbd4302fa	-0.04761026
170	0x3ae2611e	0.0017271375
171	0xbda2c067	-0.07946854
172	0xbe1b6a6f	-0.1517732
173	0x3e089971	0.13339783
174	0x3e88aaca	0.26692802
175	0xbe198eee	-0.1499593
176	0xbe4f9476	-0.20271477
177	0xbe23a399	-0.15980376
178	0xbe83f7b6	-0.25774926
179	0xbd8b27d2	-0.067947045
180	0x3db61012	0.08889784
181	0xbd9ab497	-0.07553976
182	0xbd22ce28	-0.039747387
183	0x3d42f62d	0.047598053
184	0x3d55b99f	0.052178975
185	0xbeace32f	-0.33767077
186	0x3c2315ef	0.00995396
187	0x3e4e8446	0.20167646
188	0xbe4e87fc	-0.20169061
189	0xbd796012	-0.060882635
190	0xbe8066f9	-0.25078562
191	0xbac883c4	-0.0015298058
192	0x3d8a9a1a	0.06767674
193	0x3df1231b	0.11774274
194	0xbd2e2c5a	-0.042522766
195	0xbd8bcd09	-0.06826217
196	0xbe060a72	-0.13089922
197	0x3c7860b5	0.0151597755
198	0xbe2ce1fe	-0.16883084
199	0x3bdb19c2	0.00668642
200	0x3e0e76cf	0.1391251
201	0xbe42fb2b	-0.19041125
202	0xbe5721b4	-0.2100895
203	0xbc75c6e0	-0.015001029
204	0x3e6b9fdc	0.230102
205	0x3e00e3a1	0.12586834
206	0x3c8beaf1	0.017079802
207	0xbdb74520	-0.089487314
208	0x3d989b8d	0.07451544
209	0xbb5455c6	-0.0032399758
210	0x3e0d6ff4	0.13812238
211	0xbd75d33a	-0.060015894
212	0xbc1434d1	-0.009045796
213	0xbd9f59df	-0.077808134
214	0xbe14a9dc	-0.14517921
215	0x3d947684	0.072491676
216	0x3de587dc	0.11207554
217	0x3e4b4fe6	0.19854698
218	0xbda3a47c	-0.07990357
219	0x3db6362e	0.08897053
220	0x3e17a73f	0.14809893
221	0x3d8ade49	0.06780679
222	0xbde211af	-0.11038529
223	0xbd9ade99	-0.075619884
224	0xbd25b91a	-0.04045973
225	0x3e12a06a	0.14319006
226	0x3d4f36a7	0.05058923
227	0x3d1636eb	0.036673468
228	0xbde266c4	-0.11054757
229	0x3dde5e25	0.108578004
230	0x3d601bdd	0.054714072
231	0xbce7684c	-0.028247975
232	0x3e282794	0.16421348
233	0x3e297f2a	0.16552415
234	0xbd8c723a	-0.068577245
235	0x3be06fb6	0.0068492545
236	0xbd70ca82	-0.058786876
237	0x3e2a7c00	0.16648865
238	0xbce8e57d	-0.028429741
239	0xbdc65243	-0.09683659
240	0xbde70e1e	-0.112819895
241	0xbc749043	-0.014926973
242	0xbe21edb3	-0.15813331
243	0xbd4831b6	-0.048875533
244	0xbd45a07a	-0.048248746
245	0xbe2c50da	-0.16827717
246	0xbd408b02	-0.04700757
247	0x3e84d63d	0.259447
248	0xbd75464f	-0.059881505
249	0xbe33827a	-0.17530242
250	0xbdf9d31a	-0.121984676
251	0x3d9525a4	0.0728257
252	0xbe79d6c9	-0.2439834
253	0x3d4be223	0.049776208
254	0xbd2465f5	-0.040136296
255	0xbde7d8bc	-0.11320636

gru.bias_ih_l0 f4 [96]
0	0x3e0d231a	0.13782921
1	0xbd5c3a93	-0.0537668
2	0x3e5bdbe3	0.21470599
3	0xbdd729ff	-0.10506057
4	0x3dece186	0.11566453
5	0xbc8a3846	-0.016872536
6	0xbe19f56c	-0.15035027
7	0xbc6d9f9f	-0.014503389
8	0x3e7eda7c	0.24888033
9	0xbd1798f9	-0.03701112
10	0x3d2f72c1	0.042834047
11	0xbcfd3944	-0.030911095
12	0xbdd6b59b	-0.10483857
13	0x3e0aad4e	0.13542673
14	0xbdf318ec	-0.11869988
15	0xbcd7328f	-0.026269225
16	0x3d90db61	0.07073093
17	0xbdbced0e	-0.09224902
18	0x3c8003d0	0.015626818
19	0xbc50e2eb	-0.012749414
20	0x3dee1f33	0.116270445
21	0xbd9e7e41	-0.07738925
22	0x3e776206	0.24158487
23	0x3e0016ee	0.12508747
24	0xbc18de69	-0.00933037
25	0xbdf50dcd	-0.11965523
26	0x3e1153d4	0.14192134
27	0x3c41ab0b	0.011820565
28	0x3e1ce223	0.1532064
29	0x3e239c09	0.15977491
30	0x3d638907	0.0555506
31	0x3ea3b696	0.3197524
32	0xbe135c8a	-0.1439077
33	0x3db60ce9	0.08889181
34	0xbd6375d6	-0.0555323
35	0x3e479b20	0.19492769
36	0x3c55f7da	0.013059581
37	0xbe0e8d7a	-0.13921157
38	0x3e1f3d83	0.15550809
39	0xbd203d0d	-0.039120723
40	0x3d1dc83f	0.038521048
41	0x3d9a5426	0.07535581
42	0x3ea5933e	0.323389
43	0x3e3eded7	0.18639694
44	0x3d784769	0.060614977
45	0x3da0542e	0.07828556
46	0xbd2d9c99	-0.04238567
47	0xbdd65b76	-0.104666635
48	0x3dd60863	0.104508184
49	0x3e5b2208	0.213997
50	0xbc30f2de	-0.010800092
51	0x3e5b3b1c	0.21409267
52	0xbca64055	-0.020294348
53	0xbe02fe5e	-0.12792346
54	0x3c2f0af7	0.010683767
55	0xbd9f4316	-0.077764675
56	0x3e1bb91a	0.1520733
57	0xbd4649b3	-0.04841013
58	0x3d4fb817	0.05071267
59	0xbe06454b	-0.1311237
60	0x3ca598eb	0.020214519
61	0x3e6ffaaa	0.23435465
62	0xbdfb794a	-0.122789934
63	0xbd45802a	-0.04821793
64	0x3b6d6fe9	0.0036230034
65	0x3e291123	0.16510443
66	0x3d2de698	0.04245624
67	0xbc80df1b	-0.015731385
68	0x3d5df9ed	0.054193426
69	0xbe614776	-0.21999916
70	0x3dbcc01b	0.09216329
71	0xbe5f75d1	-0.21822287
72	0xbdc8a4b9	-0.09797043
73	0x3c48b4ab	0.012250106
74	0x3e3de8a3	0.18545775
75	0x3e5a7aab	0.21335857
76	0xbd105e0c	-0.03524594
77	0xbda07698	-0.0783512
78	0x3cdf6287	0.027268661
79	0x3d8086fc	0.06275746
80	0xbe5cedc1	-0.21575071
81	0xbe15b8ce	-0.14621279
82	0xbd0cbc2c	-0.034359142
83	0xbdd93ebb	-0.10607668
84	0xbe74c377	-0.23902689
85	0x3da8a6c0	0.0823493
86	0x3dcd36b8	0.100202024
87	0xbe041585	-0.12898834
88	0x3b61c8c1	0.0034451934
89	0xbbb0cac6	-0.005395266
90	0xbd4a5481	-0.049396995
91	0xbe264229	-0.16236176
92	0x3dde05b4	0.108409315
93	0xbceada97	-0.028668685
94	0x3dd33910	0.10313618
95	0x3dffaedd	0.124845244

gru.bias_hh_l0 f4 [96]
0	0xbc317370	-0.010830745
1	0x3e605ae0	0.21909666
2	0x3e81e9fa	0.25373822
3	0x3db0443f	0.08606767
4	0xbd733aa7	-0.059382107
5	0xbd1fc523	-0.039006364
6	0xbdb5bae9	-0.08873541
7	0x3e36f136	0.17865452
8	0x3c71ea24	0.014765296
9	0x3e69e115	0.22839768
10	0x3e2b2564	0.16713482
11	0x3db65359	0.08902616
12	0x3b9f45c6	0.0048606126
13	0x3e907663	0.28215322
14	0xbdd0b8a2	-0.10191466
15	0x3d44ba76	0.048029386
16	0x3e83ede8	0.25767446
17	0x3d5a4f3e	0.053298227
18	0x3c779a40	0.01511246
19	0x3d1ec238	0.03875944
20	0x3e8fc3f8	0.280792
21	0x3e4e8ac0	0.20170116
22	0x3e819d5e	0.25315374
23	0x3e60db2a	0.21958604
24	0xbd995715	-0.07487313
25	0x3d9b350a	0.07578476
26	0x3db5a2b3	0.08868923
27	0x3d5f6591	0.05454022
28	0xbba7c859	-0.005120319
29	0x3d2dd44c	0.04243879
30	0x3d5f21e8	0.054475695
31	0x3e88c14b	0.2670997
32	0xbd136877	-0.035988297
33	0x3e7cc1d0	0.24683309
34	0x3e3b062a	0.1826407
35	0x3cd18042	0.025573853
36	0x3e58f453	0.21186952
37	0xbdd53fb6	-0.104125425
38	0x3d09e78e	0.033668093
39	0xbe65a035	-0.22424395
40	0xbcb6aba7	-0.022298647
41	0x3c0d94b7	0.008641413
42	0x3e78e145	0.24304684
43	0x3df378f0	0.11888301
44	0x3e4f1bcd	0.20225449
45	0xbdb7bb33	-0.08971252
46	0xbe0cb95b	-0.13742582
47	0x3deebf55	0.116575874
48	0x3d16d42d	0.03682344
49	0x3d1ec0f1	0.038758222
50	0xbe06b9db	-0.13156836
51	0xbb47df35	-0.0030498032
52	0x3ca72508	0.0204034
53	0xbe17947b	-0.14802735
54	0xbe05807a	-0.13037291
55	0x3e1c5684	0.15267378
56	0xbe384b50	-0.1799748
57	0x3dd7fa52	0.10545792
58	0xbd57a52d	-0.05264776
59	0x3e00d76c	0.12582177
60	0xbd7cc346	-0.061709665
61	0x3df5c95a	0.120012954
62	0xbe271a73	-0.16318683
63	0x3cb67c0f	0.022275953
64	0xbe044e29	-0.1292044
65	0x3d4f523c	0.050615534
66	0xbdd5a533	-0.104319
67	0xbdd95ca0	-0.1061337
68	0x3da50668	0.080578625
69	0x3d894f64	0.06704596
70	0x3e1f9f62	0.15588143
71	0xbc954f8a	-0.018226404
72	0xbe0cdb1b	-0.13755457
73	0xbdedd600	-0.11613083
74	0xbc3dccf8	-0.011584513
75	0x3d5cb5e4	0.053884402
76	0xbde4ae1d	-0.11166022
77	0xbd3b4425	-0.045719285
78	0xbe42d9bc	-0.19028372
79	0x3e6386a8	0.22219336
80	0xbe30c3ec	-0.17262238
81	0xbd6b9bea	-0.057521738
82	0x3e789f6f	0.24279569
83	0xbd4a8b4b	-0.049449246
84	0x3d2b2751	0.041785542
85	0xbdbce6bd	-0.09223697
86	0xbe4b907b	-0.19879334
87	0xbcfa5c1b	-0.030561497
88	0x3dbeeaff	0.09322166
89	0xbdce8605	-0.10084156
90	0x3e1e211d	0.15442319
91	0xbe1b5268	-0.15168154
92	0x3e2ec7bb	0.17068379
93	0xbd9dc7a4	-0.07704094
94	0x3d6d9472	0.058002897
95	0x3e06dbe6	0.13169822

gru.weight_ih_l0_reverse f4 [96, 32]
0	0x3e27c350	0.163831
1	0x3e20ff38	0.15722358
2	0xbd535c90	-0.051601946
3	0x3e214f5a	0.15752926
4	0x3d6028d4	0.054726437
5	0x3e349c43	0.17637734
6	0x3e40039e	0.1875138
7	0xbd758fb7	-0.05995151
8	0x3d2e17a4	0.042503014
9	0x39f2a532	0.00046280917
10	0x3d5719a3	0.052514683
11	0xbdda9587	-0.10673051
12	0xbdb87efd	-0.09008596
13	0x3e1cba20	0.15305376
14	0x3e357a3f	0.17722414
15	0x3dd312f0	0.103063464
16	0x3d9f41de	0.07776235
17	0x3e5a5b97	0.21324001
18	0x3e17d110	0.14825845
19	0x3dd68b8c	0.10475835
20	0xbd1ae7bb	-0.03781865
21	0x3cdf4676	0.027255278
22	0xbd1fa3de	-0.038974635
23	0x3d3021e1	0.04300106
24	0xbde4c578	-0.11170477
25	0x3e15a902	0.14615253
26	0x3e1bed29	0.15227188
27	0x3e55eb38	0.2089051
28	0x3c490087	0.012268192
29	0x3dadf585	0.08494095
30	0xbd8a00d4	-0.06738439
31	0xbdc33c9d	-0.095330454
32	0xbd5aaadb	-0.053385597
33	0x3c0c6013	0.008567828
34	0xbdb32b88	-0.08748537
35	0xbe13fb35	-0.14451297
36	0x3d849eb5	0.064755835
37	0x3e8089d5	0.25105157
38	0xbdfb3c6e	-0.122673854
39	0x3dd6f1b4	0.1049532
40	0xbd7a72ac	-0.061144516
41	0x3da876f6	0.08225815
42	0xbdf135ef	-0.11777865
43	0x3e140477	0.14454828
44	0x3cc47363	0.023980802
45	0xbdf10772	-0.11768998
46	0x3e12a391	0.14320208
47	0x3cfff6a1	0.031245532
48	0xbe356e94	-0.17717963
49	0xbe4193b2	-0.18903998
50	0xbe275dae	-0.1634433
51	0x3d4589a8	0.048226982
52	0xbe1b19d6	-0.15146574
53	0x3e0870b0	0.13324237
54	0x3e52a87c	0.20572084
55	0x3dbaabe7	0.09114819
56	0xbb457db6	-0.0030134744
57	0x3d386590	0.045018733
58	0x3db2966e	0.087200984
59	0x3d27fb18	0.041010946
60	0xbd9baa20	-0.07600808
61	0x3ca22b88	0.019796148
62	0x3e01f1c5	0.12689884
63	0xbe733baf	-0.23753236
64	0x3c55c927	0.013048447
65	0x3e01890d	0.12649937
66	0x3e5b65eb	0.21425597
67	0xbd288c7e	-0.04114961
68	0x3d865782	0.065596595
69	0x3e59d56d	0.21272822
70	0x3dee4d14	0.11635795
71	0x3d774200	0.060365677
72	0xbd53b3e9	-0.051685248
73	0x3e323da7	0.17406331
74	0xbd860972	-0.0654477
75	0x3db76161	0.089541204
76	0xbda966fd	-0.082715966
77	0x3e81e9cb	0.25373682
78	0x3e7ced63	0.24699931
79	0xbde48207	-0.11157613
80	0x3caec898	0.021335885
81	0x3e47995b	0.19492094
82	0xbb2ab9ce	-0.002605069
83	0xbd63e3ee	-0.055637293
84	0x3e039bb6	0.12852368
85	0x3c025209	0.007954129
86	0x3c66106c	0.014042001
87	0xbcd48074	-0.025940157
88	0x3d794290	0.060854495
89	0x3e2c730d	0.16840763
90	0x3e1b1252	0.15143707
91	0xbc90132f	-0.017587272
92	0x3e2e65af	0.17030977
93	0x3e78c770	0.2429483
94	0x3e039db8	0.12853134
95	0x3e8e67d0	0.27813578
96	0xbcc197a2	-0.023631874
97	0x3e28000d	0.1640627
98	0xbdb93bc7	-0.09044605
99	0xbe1d239b	-0.15345614
100	0xbe1425ab	-0.14467494
101	0x3c524fca	0.012836406
102	0xbd4f7699	-0.050650213
103	0x3d990b9d	0.07472918
104	0x3e5f4955	0.21805318
105	0xbe1fbdfd	-0.15599819
106	0xb9103a57	-0.00013754643
107	0xbdd12811	-0.1021272
108	0xbd3dfc01	-0.046382908
109	0xbe1bea2a	-0.15226045
110	0xbcf74b45	-0.030187258
111	0x3dac4317	0.08411234
112	0x3d387ee9	0.045042906
113	0xbcd27da9	-0.025694685
114	0xbde69a38	-0.11259884
115	0x3d577be0	0.05260837
116	0x3c81b8cc	0.015835188
117	0x3dac33f2	0.08408345
118	0x3e25283c	0.1612863
119	0xbe243f1a	-0.16039696
120	0x3df444ce	0.11927186
121	0x3d1776c7	0.03697851
122	0x3db118d1	0.086473115
123	0xbd9cf379	-0.07663626
124	0xbd0e26dd	-0.03470503
125	0x3d599c40	0.053127527
126	0x3dda746a	0.106667355
127	0xbdba12d8	-0.090856254
128	0x3e16cf39	0.14727487
129	0x3e221df2	0.15831736
130	0x3c74564b	0.014913152
131	0xbe247861	-0.16061546
132	0x3dfc6fe0	0.12326026
133	0xbe0c2fd2	-0.13690117
134	0xbdcbea9a	-0.09956856
135	0x3e236b0e	0.15958807
136	0x3e66722f	0.22504495
137	0x3e1f05f4	0.15529615
138	0xbdaa4a44	-0.08314946
139	0x3e688579	0.22707166
140	0x3dd98aeb	0.106221996
141	0xbdc9cd55	-0.09853617
142	0xbdf594d3	-0.119912766
143	0x3daa117b	0.083041154
144	0x3de2e561	0.11078907
145	0xbd2a66ed	-0.041602064
146	0x3e04b8ee	0.1296117
147	0xbd8bf121	-0.06833101
148	0x3dc159ba	0.09440942
149	0xbd9b507b	-0.0758371
150	0x3e1b8a5a	0.15189496
151	0x3e80a2df	0.2512426
152	0xb9aa57cd	-0.00032490343
153	0x3d1d730e	0.038439803
154	0x3ddfdde3	0.109309934
155	0xbb0a0de2	-0.0021065404
156	0x3e6d1864	0.23153836
157	0xbdbf5318	-0.09342021
158	0xbdeba397	-0.11505812
159	0xbd828ee7	-0.06374913
160	0x3d8ce5d9	0.068797775
161	0xbdff2aa2	-0.124593034
162	0x3e277ec6	0.16356954
163	0xbe3462a3	-0.17615752
164	0x3ca0f44d	0.019647742
165	0x3d470f7b	0.048598748
166	0x3b630c5a	0.0034644813
167	0xbdaf8439	-0.08570141
168	0xbe6d87f6	-0.23196396
169	0xbd0a797e	-0.03380727
170	0xbd4b63c1	-0.04965568
171	0xbe1b98b0	-0.15194964
172	0x3d9e2245	0.0772138
173	0xbdc45ba0	-0.095877886
174	0xbe011abd	-0.12607856
175	0xbcf48827	-0.029850079
176	0x3dae9b04	0.08525661
177	0xbe5152a6	-0.20441684
178	0x3e380c85	0.17973526
179	0x3e1782d7	0.14796005
180	0xbdc2ffce	-0.09521447
181	0xbe24c84d	-0.16092034
182	0xbe54d92e	-0.20785972
183	0xbc3e516b	-0.011616091
184	0xbdcd5291	-0.10025514
185	0xbb8a5bbf	-0.004222363
186	0xbe603554	-0.21895343
187	0x3d3820d4	0.044953182
188	0x3e4656a8	0.19368994
189	0x3da54858	0.08070439
190	0xbe7656b7	-0.24056517
191	0x3d65dd2f	0.05611914
192	0x3dc567b7	0.09638923
193	0x3d84ceda	0.06484766
194	0xbc81b15c	-0.015831642
195	0xbcb87148	-0.022514954
196	0xbd7b0b69	-0.06129018
197	0xbdf03bf1	-0.11730183
198	0x3e2c795d	0.16843171
199	0x3d8595c3	0.065227054
200	0xbdd8d39d	-0.10587237
201	0xbced02c3	-0.028931981
202	0xbe083855	-0.13302739
203	0xbe0c15b0	-0.13680148
204	0xbd348e5d	-0.04408108
205	0xbdbd9106	-0.09256177
206	0x3d144764	0.036200896
207	0xbc471623	-0.012151274
208	0x3cd82b07	0.026387705
209	0xbe1d5004	-0.15362555
210	0xbd3a609f	-0.0455023
211	0x3c284f01	0.010272742
212	0x3d72b4ee	0.05925458
213	0xbddf9392	-0.10916819
214	0x3c1029d7	0.008799038
215	0x3d66a418	0.056308836
216	0xbddff412	-0.109352246
217	0xbda655b7	-0.081218176
218	0x3da9ae0d	0.08285151
219	0xbd8b980e	-0.068161115
220	0xbc86f543	-0.016474372
221	0x3d069575	0.032857377
222	0x3cfc909d	0.030830676
223	0xbc0da37a	-0.008644933
224	0x3e4897e9	0.19589199
225	0x3ecf6c72	0.40512425
226	0x3e6d17bd	0.23153587
227	0x3e63363e	0.2218866
228	0x3e716750	0.23574567
229	0x3dd39926	0.10331945
230	0x3e78f4bd	0.2431211
231	0x3e9ce2c2	0.30641752
232	0x3e7e2023	0.24816947
233	0x3ea3b8d9	0.31976965
234	0x3d3fc7f6	0.046821557
235	0x3e4875c9	0.19576181
236	0x3d6a06f1	0.057135526
237	0x3e265f89	0.16247381
238	0x3ecaca35	0.39607397
239	0x3d8512e6	0.06497745
240	0x3eabf490	0.33585024
241	0x3e16466d	0.14675303
242	0x3e86270f	0.26201674
243	0x3ece6cb1	0.403173
244	0x3e9f4c41	0.31112865
245	0x3e2ec303	0.17066579
246	0x3e0972fa	0.13422766
247	0x3e9fa456	0.31180066
248	0x3e85966b	0.26091322
249	0x3e19eaea	0.15031019
250	0x3eae4fd1	0.3404527
251	0x3e848fa6	0.25890845
252	0x3e365005	0.17803963
253	0x3d522b83	0.051311027
254	0x3e36401b	0.17797892
255	0x3edcbfee	0.4311518

gru.weight_hh_l0_reverse f4 [96, 32]
0	0x3e5bf976	0.2148188
1	0x3e174021	0.14770557
2	0x3d302a9e	0.043009393
3	0x3e1d7aae	0.1537883
4	0x3e3d2c58	0.18473947
5	0xbe24f0c9	-0.16107477
6	0x3c95f7cf	0.01830664
7	0x3be7a16e	0.0070688045
8	0x3b6f4a92	0.0036512953
9	0x3c803be6	0.015653562
10	0xbe68d058	-0.22735727
11	0x3e4808ba	0.19534579
12	0x3d8f5182	0.06997968
13	0x3d15d3d1	0.036578957
14	0x3d84a07c	0.064759225
15	0xbd2a1c15	-0.041530687
16	0xbda5b679	-0.080914445
17	0x3e11864b	0.14211385
18	0xbe0429d8	-0.12906587
19	0xbc854621	-0.016268792
20	0x3d8b376c	0.0679768
21	0x3df6ba6b	0.12047275
22	0x3d580fcd	0.052749444
23	0xbe877928	-0.26459622
24	0xbdebc242	-0.11511661
25	0x3db1abd8	0.08675355
26	0x3d9aad2d	0.07552562
27	0x3db0ab1e	0.08626388
28	0xbdb11550	-0.08646643
29	0x3e4842cc	0.19556731
30	0x3e7f163c	0.24910825
31	0x3e1e2a3f	0.15445803
32	0x3d8b3f1b	0.06799146
33	0x3e2b55c9	0.16731943
34	0xbcb7ca93	-0.022435462
35	0x3e3ed523	0.18635993
36	0x3e28ce33	0.16484909
37	0xbdbb6667	-0.09150391
38	0xbd853b71	-0.06505478
39	0xbe44b987	-0.19211398
40	0xbe3c3806	-0.18380746
41	0x3e9d68d0	0.30744028
42	0xbe80f315	-0.25185457
43	0x3d8f2525	0.06989507
44	0x3c9c5997	0.019085689
45	0x3d0e1d44	0.03469588
46	0xbe43ba53	-0.19114046
47	0x3e509568	0.20369494
48	0x3d9ec771	0.07752884
49	0xbd1be41c	-0.03805934
50	0xbe20d173	-0.15704899
51	0xbe509ca5	-0.20372255
52	0xbe5c3b2e	-0.2150695
53	0x3e2eb71d	0.1706204
54	0xbd49ddd8	-0.049283832
55	0xbe706709	-0.23476805
56	0xbe094138	-0.13403785
57	0xbe11492e	-0.14188072
58	0x3dafddd2	0.08587231
59	0xbd449faa	-0.04800383
60	0xbda5e718	-0.08100718
61	0x3e0c4720	0.13699007
62	0x3e90f659	0.28312948
63	0x3ca247de	0.01980966
64	0x3d8d17c8	0.068893015
65	0xbdf00e66	-0.11721496
66	0xbd3cdc71	-0.046108667
67	0xbe0dda41	-0.13852789
68	0x3da5159f	0.080607645
69	0x3e017ba8	0.12644827
70	0xbce382fe	-0.027772423
71	0x3c82c7ac	0.015964352
72	0xbe551e88	-0.20812428
73	0x3da6dcef	0.081476085
74	0xbe205b0e	-0.15659735
75	0x3d97d181	0.074130066
76	0x3db52601	0.08845139
77	0xbde79896	-0.113084
78	0xbe50d107	-0.20392238
79	0xbd7b19b4	-0.06130381
80	0x3abfb88b	0.0014627142
81	0xbd01bb1a	-0.031672575
82	0x3de4f64d	0.11179791
83	0xbe011b3d	-0.12608047
84	0x3de6ade6	0.11263637
85	0x3e4b599a	0.19858399
86	0xbdced1ce	-0.10098611
87	0x3d68b666	0.056814574
88	0xbe1492c5	-0.14509113
89	0xbe477bfe	-0.19480893
90	0xbdb1a82b	-0.086746536
91	0x3d1ed611	0.03877837
92	0x3db75a77	0.08952802
93	0x3d89b60c	0.06724176
94	0xbdd59e90	-0.10430634
95	0xbcce7c6b	-0.025205811
96	0x3e77d10c	0.24200839
97	0x3e265001	0.16241457
98	0xbe50b73d	-0.203824
99	0x3d6747cf	0.056464966
100	0x3c607695	0.013700147
101	0xbd4c559e	-0.04988634
102	0x3e5cea35	0.21573718
103	0xbe6ab955	-0.22922261
104	0xbe265fc2	-0.16247466
105	0x3cb7be99	0.022429751
106	0xbbff0d73	-0.0077835857
107	0x3e0f04e7	0.13966714
108	0xbd5bbce9	-0.053646956
109	0x3e05f92e	0.13083336
110	0xbe86dd13	-0.2634054
111	0x3d55164c	0.052023217
112	0x3bfc4728	0.007698912
113	0xbd4eb63f	-0.050466772
114	0x3c126b88	0.00893677
115	0xbdfd5533	-0.12369766
116	0xb91fd02f	-0.00015240976
117	0x3ccc6166	0.024948787
118	0x3c3016b6	0.010747602
119	0xbd0fb0bf	-0.035080668
120	0x3dc11407	0.09427648
121	0xbe465fc8	-0.19372475
122	0xbe2ce676	-0.16884789
123	0xbc48af36	-0.012248805
124	0x3db56e71	0.08858956
125	0x3e2cc044	0.16870219
126	0x3d851ca2	0.06499602
127	0x3e66b69a	0.22530594
128	0x3df38678	0.11890882
129	0xbd3975f3	-0.0452785
130	0x3d7a168b	0.061056655
131	0x3e219901	0.15781023
132	0xbd9c790b	-0.076402746
133	0xbdcf550d	-0.10123644
134	0x3da143e0	0.07874274
135	0xbe7e8e07	-0.24858867
136	0x3d918e76	0.071072504
137	0x3e56d25e	0.20978686
138	0xbcfd6fe5	-0.030937145
139	0xbc17537d	-0.009236214
140	0xbe39a2ff	-0.18128584
141	0x3d29c878	0.041450948
142	0x3c653835	0.013990452
143	0x3d25953d	0.040425528
144	0x3e1e30dd	0.15448327
145	0xbc9083db	-0.017640999
146	0xbdcd2558	-0.100168884
147	0xbd5d49e7	-0.054025557
148	0xbcf72beb	-0.030172309
149	0x3c935bce	0.017988112
150	0x3c0aa845	0.00846297
151	0xbe544ba2	-0.20731977
152	0xbd98078d	-0.07423315
153	0xbcfa74fc	-0.03057336
154	0x3d93659d	0.071971156
155	0xbd3908f0	-0.04517454
156	0x3d341727	0.043967392
157	0x3c8c79d3	0.017147934
158	0x3e3223ec	0.17396516
159	0x3d67fd8d	0.05663829
160	0x3e01908a	0.12652794
161	0x3d734671	0.05939335
162	0x3e13b29f	0.14423607
163	0x3e8334fe	0.25626367
164	0xbce7ba05	-0.028286943
165	0xbd27ec91	-0.04099709
166	0x3e060f24	0.13091713
167	0xbd101f66	-0.035186194
168	0x3db971c0	0.09054899
169	0x3dac9b02	0.08428003
170	0xbdb8988a	-0.090134695
171	0x3e2c7e9c	0.16845173
172	0x3c856d32	0.01628742
173	0xbe05a47b	-0.13051026
174	0xbd88150e	-0.06644641
175	0x3e384a0e	0.17997
176	0xbd6e5b10	-0.058192313
177	0xbc5d1c12	-0.013495462
178	0x3d59da3f	0.05318665
179	0xbe22061b	-0.15822642
180	0x3bee5205	0.007272961
181	0xbd82fbed	-0.06395707
182	0x3db7cbf7	0.0897445
183	0xbc2b4bc4	-0.010455076
184	0x3d828492	0.06372942
185	0x3da09983	0.0784178
186	0xbe694444	-0.22779948
187	0x3deaf789	0.11472995
188	0x3db84c14	0.08998886
189	0xbd7ed814	-0.062217787
190	0x3e2a851d	0.16652341
191	0x3c8e5483	0.017374283
192	0x3df138bc	0.11778399
193	0x3d6a1a1a	0.0571538
194	0x3c1815d4	0.009282548
195	0x3d849417	0.064735584
196	0xbce0db3d	-0.027448291
197	0xbe59343f	-0.21211337
198	0x3deabb26	0.11461477
199	0xbe92ce8c	-0.28673208
200	0xbd008198	-0.03137359
201	0xbd66bb20	-0.0563308
202	0xbe2d4df0	-0.16924262
203	0x3e0ac9b0	0.135535
204	0xbbaf4466	-0.00534873
205	0xbe058432	-0.1303871
206	0xbe7642ad	-0.24048872
207	0xbda6af62	-0.0813892
208	0x3cfc31ed	0.030785525
209	0x3ded8b55	0.11598841
210	0xbd7d59d3	-0.06185324
211	0x3d0f3a93	0.03496797
212	0x3b7971c0	0.0038062185
213	0x3e05d3eb	0.13069122
214	0xbdb73581	-0.08945752
215	0xbc458366	-0.012055254
216	0x3df61557	0.12015789
217	0x3d4cd564	0.050008193
218	0x3d99303f	0.07479905
219	0xbb1433da	-0.0022613914
220	0xbbbad249	-0.0057013375
221	0x3e337fab	0.1752917
222	0x3db8499f	0.08998417
223	0x3ad2faf2	0.0016096516
224	0xbc19f948	-0.009397812
225	0x3dded3b9	0.10880227
226	0x3daec647	0.08533912
227	0xbd65ec55	-0.056133587
228	0xbe02c0e1	-0.1276889
229	0x3ddc4c9e	0.10756801
230	0x3e4591f2	0.19293955
231	0x3d94dbd2	0.0726849
232	0xbdb7dbcf	-0.08977472
233	0x3e23dc64	0.16002041
234	0xbe3e3a1e	-0.18576857
235	0xbd512347	-0.051059034
236	0xbd48a78b	-0.048987906
237	0x3d8d0ecc	0.06887588
238	0xbdbbca29	-0.09169418
239	0xbe1c7da3	-0.15282302
240	0xbe13a01a	-0.14416543
241	0xbc9b2f76	-0.01894353
242	0xbddd87cb	-0.10816916
243	0x3d254e3f	0.040357824
244	0xbd90f5c9	-0.0707813
245	0x3cf87279	0.030328022
246	0xbd84364a	-0.06455667
247	0xbe8817b9	-0.265806
248	0x3dcd249c	0.10016748
249	0x3d974ccf	0.07387697
250	0x3d81b554	0.06333414
251	0xbda18e0d	-0.07888422
252	0x3cf8f063	0.030388063
253	0xbcc1e6b4	-0.023669578
254	0x3dacd4ec	0.08439049
255	0x3e09047a	0.13380614

gru.bias_ih_l0_reverse f4 [96]
0	0x3d93b2af	0.072118156
1	0x3e32cf03	0.17461781
2	0x3e383f59	0.17992915
3	0x3e16c808	0.14724743
4	0x3d8e9ee7	0.06963902
5	0xbdeeb145	-0.11654905
6	0xbd08b664	-0.033377066
7	0xbd88d4d0	-0.06681216
8	0xbdf208d8	-0.11818093
9	0x3e640730	0.22268367
10	0x3d29314c	0.04130678
11	0x3e0b0751	0.1357701
12	0x3d5d3f70	0.054015577
13	0x3afbb435	0.0019203486
14	0x3c00b471	0.007855521
15	0x3d7b36f0	0.06133169
16	0x3d951aba	0.07280488
17	0x3d9eec81	0.07759953
18	0x3e421db2	0.1895664
19	0xbda55738	-0.08073276
20	0x3cef8570	0.029238433
21	0x3e5145dd	0.20436807
22	0xbd0fb770	-0.03508705
23	0x3e21d7e3	0.1580501
24	0x3d9814ac	0.07425818
25	0xbdfbd173	-0.12295809
26	0x3de2b49b	0.11069604
27	0x3c41d14d	0.011829686
28	0x3d56293e	0.052285425
29	0xbde447b9	-0.111464925
30	0xbd1d7efe	-0.038451187
31	0x3e645ab0	0.2230022
32	0xbdd1a6b1	-0.10236872
33	0x3e4dec45	0.20109661
34	0x3cebfbe2	0.02880663
35	0x3dc78f09	0.09744079
36	0x3e79b175	0.243841
37	0xbd951020	-0.07278466
38	0x3e4b320e	0.19843313
39	0x3ddb83ca	0.10718496
40	0xbd7d3a24	-0.061823025
41	0x3e62d15b	0.22150175
42	0x3d29a452	0.041416474
43	0xbca00966	-0.019535732
44	0x3e9aae1d	0.30210963
45	0x3dc8120c	0.09769067
46	0x3e488b0e	0.19584295
47	0xbd1be514	-0.038060263
48	0x3c1348c6	0.0089895185
49	0x3e0ae7e4	0.13565022
50	0xbd17650c	-0.0369616
51	0xbd451188	-0.048112422
52	0x3e85bcd0	0.26120615
53	0x3dded8aa	0.10881169
54	0xbbcdd54a	-0.0062815296
55	0x3e71714b	0.23578374
56	0x3deb1fa1	0.11480642
57	0xbcf802d4	-0.030274786
58	0x3d32096f	0.043466028
59	0xbda8d7f8	-0.08244318
60	0x3e098949	0.13431276
61	0x3e8f7f92	0.28027016
62	0x3e02f116	0.1278728
63	0x3eb0e422	0.34549052
64	0x3e70dd0d	0.23521824
65	0x3e2adb29	0.16685165
66	0xbd9b9781	-0.075972565
67	0x3e3f2f79	0.18670453
68	0x3df2886e	0.11842428
69	0xbda3d2ff	-0.07999229
70	0x3e26b1d1	0.16278769
71	0x3b75ce82	0.0037507121
72	0xbe29ab5f	-0.16569279
73	0x3e0db85e	0.13839862
74	0xbe3cf8ec	-0.18454331
75	0x3da4e323	0.080511354
76	0xbda042a8	-0.07825214
77	0xbd745bb2	-0.05965776
78	0xbdcab103	-0.098970436
79	0x3dfad670	0.12247932
80	0x3dab7409	0.08371741
81	0x3dfcf9c9	0.1235233
82	0xbde19555	-0.11014811
83	0xbe2618ee	-0.16220447
84	0xbcd2724c	-0.025689267
85	0x3d3b6be5	0.045757193
86	0xbe5bfe9d	-0.21483846
87	0xbe36e7c1	-0.17861845
88	0x3d24e779	0.040259812
89	0xbe3e4f75	-0.18584998
90	0x3dceeb71	0.10103501
91	0xbe289045	-0.16461284
92	0x3dfcdf22	0.12347247
93	0x3df0fc4c	0.11766872
94	0x3d580822	0.05274213
95	0x3dd85815	0.10563675
