logs/exp0/weights/epoch75.pt (torch, 348934 bytes, 45 tensors)

conv_block1.0.weight f4 [32, 4, 10]
0.0003099245 -0.21042927 0.15465255 -0.028256819 -0.007945393 0.11192107 -0.04121411 -0.14437239
0.12749507 -0.13529713 0.08426372 -0.11952677 -0.011479532 0.05508851 -0.13068844 0.07426257
0.07552679 0.0018690559 -0.06813482 -0.04549251 -0.09737152 0.08557296 0.013006239 -0.025660064
0.056226306 -0.13092066 0.05190997 0.08812371 -0.19972104 -0.030812597 -0.18019995 0.08074834
0.017584976 -0.041451886 -0.042737275 -0.0398481 -0.100709796 0.04026467 0.015416116 0.014383669
-0.011678239 -0.1231135 0.074935935 -0.09880308 -0.021147097 0.18213978 -0.09822147 -0.032282
0.11660995 0.056796074 0.08000284 0.07322281 -0.17166387 0.11407177 -0.18697298 0.016315991
0.014988777 -0.06647268 -0.012762113 0.06737528 -0.08647686 0.005037792 -0.029219743 -0.057031415
-0.019668574 -0.033415105 -0.0919328 0.10835088 -0.11562604 -0.038713828 0.10197163 0.07286651
-0.0013532492 -0.050184857 -0.034008518 -0.030576969 -0.11871909 0.005451342 -0.026760127 0.07449515
0.055161837 -0.1201226 -0.13210239 -0.09911541 0.15079041 -0.1379759 -0.08658381 0.12480612
-0.17199486 -0.00078578014 0.05894228 0.036238883 0.020740658 0.04089134 -0.012101893 0.1125609
0.110841595 0.13082165 0.17062393 -0.026867868 0.03003888 -0.12816021 0.03821889 -0.13406463
0.0001311324 0.096822985 0.10955951 -0.094014294 -0.007064753 -0.06606075 -0.11623518 -0.12394426
0.091712 0.058103938 -0.09016674 -0.10514966 0.07742404 -0.0014894649 -0.023758352 -0.0068535386
0.03418183 -0.16122122 -0.08292699 -0.12295719 -0.045904312 0.02354651 -0.06323921 -0.16476291
-0.0025228453 0.02215614 -0.07431252 -0.18726647 -0.14781079 -0.13695168 -0.11821066 -0.0458256
0.031462412 -0.04022318 -0.14700025 0.05197614 -0.073092654 -0.0013410079 -0.0076106824 0.14111093
-0.13714434 0.06539727 0.099335894 -0.06635185 0.13441849 -0.018036101 0.07580736 0.061878085
0.099521875 0.014491954 -0.03481067 0.06008686 0.09700313 0.061626706 0.0940462 0.092842266
-0.042352695 -0.038017567 0.012542611 -0.06577015 -0.07232284 0.12545425 -0.086064346 -0.09522495
0.06248075 -0.073951624 0.06011736 0.052924454 -0.05849803 0.09972382 -0.0050665047 -0.16686091
-0.003937903 0.09992938 -0.13079503 0.12611996 -0.10761544 0.058993522 -0.1629527 0.031857282
0.024968425 -0.000122002006 -0.21422657 0.10292152 -0.16238396 0.022194404 0.049473673 -0.022924561
-0.10552011 -0.012012414 -0.19822384 0.009670426 0.07842957 0.066590816 -0.18906522 0.08409193
0.015216997 0.09743818 -0.057424463 -0.087808356 0.04722464 -0.18710755 0.09420083 0.16218698
-0.2726193 -0.106589064 0.039124083 0.011127765 -0.20164894 -0.011032282 0.022010712 0.120909095
-0.030662207 -0.11467273 0.18102576 -0.12668456 0.012862216 -0.06529854 0.068439364 -0.029992728
-0.16820319 -0.09208467 0.012475393 -0.1849002 -0.23010983 0.036503147 0.074213855 0.02552786
-0.039252233 0.071242474 0.09868921 -0.018807936 -0.044386413 0.081118524 -0.055251434 0.060684126
0.10545459 0.06919972 0.039319675 0.04774383 -0.11928015 0.189214 0.0565967 0.14477241
0.12999444 0.112097 -0.07160426 -0.0026190444 0.025031598 -0.004167323 -0.09947009 -0.061145574
00000000: 5d7d a239 c57a 57be 3d5d 1e3e d87a e7bc
00000010: 652d 02bc e036 e53d 20d0 28bd 5bd6 13be
00000020: 118e 023e 558b 0abe 7592 ac3d 74ca f4bd
00000030: a614 3cbc 7da4 613d 31d3 05be f916 983d
00000040: caad 9a3d 1cfb f43a 458a 8bbd 5b56 3abd
00000050: b86a c7bd e040 af3d 1f18 553c 0e35 d2bc
00000060: 8e4d 663d 1110 06be 8c9f 543d 347a b43d
00000070: ac83 4cbe b36a fcbc 5686 38be 635f a53d
00000080: 5e0e 903c 74c9 29bd 480d 2fbd c337 23bd
00000090: f040 cebd 91ec 243d e193 7c3c 7ba9 6b3c
000000a0: 1656 3fbc ee22 fcbd 0378 993d 4559 cabd
000000b0: ad3c adbc da82 3a3e 5728 c9bd 213a 04bd
000000c0: 33d1 ee3d 00a3 683d 87d8 a33d d7f5 953d
000000d0: a7c8 2fbe 769e e93d d875 3fbe 1da9 853c
000000e0: 7d93 753c d422 88bd 2e18 51bc 0dfc 893d
000000f0: c81a b1bd 1014 a53b 3e5e efbc c699 69bd
00000100: fd1f a1bc 47de 08bd 4447 bcbd 11e7 dd3d
00000110: 58cd ecbd 6492 1ebd 80d6 d03d 093b 953d
00000120: 825f b1ba a38e 4dbd 844c 0bbd 8d7c fabc
00000130: ff22 f3bd 2ca1 b23b 0e38 dbbc ea90 983d
00000140: 61f1 613d d602 f6bd d945 07be 05fd cabd
00000150: cd68 1a3e 8e49 0dbe da52 b1bd 5a9a ff3d
00000160: 6c1f 30be d0fc 4dba 766d 713d 396f 143d
00000170: 50e8 a93c ad7d 273d 0547 46bc 5486 e63d
00000180: eb00 e33d 1cf6 053e 0ab8 2e3e 011a dcbc
00000190: 1914 f63c 6e3c 03be 698b 1c3d 3d48 09be
000001a0: 9680 0939 214b c63d bd60 e03d 918a c0bd
000001b0: 727f e7bb dc4a 87bd b60c eebd 7dd6 fdbd
000001c0: 80d3 bb3d 65fe 6d3d 57a9 b8bd b458 d7bd
000001d0: 7f90 9e3d 263a c3ba e0a0 c2bc a693 e0bb
000001e0: 3f02 0c3d 2d17 25be a0d5 a9bd fbd0 fbbd
000001f0: 2906 3cbd 9ce4 c03c 8f83 81bd 9cb7 28be
00000200: 5256 25bb cb80 b53c 2a31 98bd c8c2 3fbe
00000210: b65b 17be 103d 0cbe 6e18 f2bd a0b3 3bbd
00000220: bbde 003d 10c1 24bd 3c87 16be efe4 543d
00000230: 9ab1 95bd c2c4 afba 0863 f9bb 627f 103e
00000240: 916f 0cbe 01ef 853d 9e70 cb3d 7be3 87bd
00000250: 00a5 093e 72c0 93bc e440 9b3d e073 7d3d
00000260: 20d2 cb3d a96f 6d3c a295 0ebd a41d 763d
00000270: 94a9 c63d 496c 7c3d 4b9b c03d 1624 be3d
00000280: 057a 2dbd 4fb8 1bbd 867f 4d3c 80b2 86bd
00000290: ff1d 94bd 1477 003e 8142 b0bd 4c05 c3bd
000002a0: d1eb 7f3d f373 97bd 9f3d 763d 50c7 583d
000002b0: a19b 6fbd 013c cc3d ec04 a6bb 96dd 2abe
000002c0: 8609 81bb c6a7 cc3d 22ef 05be 9725 013e
000002d0: 7c65 dcbd 31a3 713d 13dd 26be c87c 023d
000002e0: 958a cc3c 54db ffb8 365e 5bbe 85c8 d23d
000002f0: fb47 26be 0ad1 b53c e8a4 4a3d 4acc bbbc
00000300: ed1a d8bd b7cf 44bc 31fb 4abe b570 1e3c
00000310: af9f a03d c460 883d 509a 41be 6438 ac3d
00000320: b650 793c ab8d c73d ea35 6bbd ded4 b3bd
00000330: a06e 413d 1f99 3fbe 5dec c03d 5814 263e
00000340: c294 8bbe 5e4b dabd 9340 203d 3b51 363c
00000350: 0f7d 4ebe bfc0 34bc cf4f b43c 309f f73d
00000360: 4f2f fbbc 89d9 eabd d15e 393e 99b9 01be
00000370: 0bbc 523c 3ebb 85bd f029 8c3d 4fb3 f5bc
00000380: 753d 2cbe e396 bcbd 9765 4c3c 7a56 3dbe
00000390: e9a1 6bbe 5384 153d 6ffd 973d cd1f d13c
000003a0: f3c6 20bd 93e7 913d 921d ca3d 1a13 9abc
000003b0: 87ce 35bd 7821 a63d 544f 62bd eb8f 783d
000003c0: 93f8 d73d 95b8 8d3d ab0d 213d 098f 433d
000003d0: 2749 f4bd 51c1 413e f1d1 673d 383f 143e
000003e0: 431d 053e 1d93 e53d 41a5 92bd 46a4 2bbb
000003f0: 110f cd3c 0a8e 88bb f9b6 cbbd c873 7abd

conv_block2.0.weight f4 [32, 32, 10]
-0.021947868 -0.047877703 0.010860598 -0.048788898 0.02694639 0.031306375 0.0070743766 0.12617026
0.094013005 0.09903433 0.09315638 0.12125798 0.12886836 0.021390384 0.072249785 0.10555033
0.050856076 0.11427274 0.06487623 -0.0060109836 -0.014815422 0.019659465 -0.0411328 0.011612974
-0.033509355 0.06931398 0.050972845 -0.05502153 0.024128737 -0.08537364 -0.1070716 0.0384154
-0.025614675 -0.09819396 -0.08626853 0.06910329 -0.0353684 -0.06073006 -0.04056761 -0.017375002
0.05107934 0.0033789903 0.12659734 0.0914789 -0.06058046 0.15205006 -0.049310524 0.09339192
0.022045435 0.08243088 -0.008725292 0.02327843 0.016886372 0.08697829 -0.020103954 0.056588102
-0.010305196 0.05952789 0.12159176 0.115744755 0.06541412 0.06594279 0.13048252 0.1703629
0.24684012 0.08381862 0.0888287 0.18266283 0.0232004 0.07374012 0.20988794 0.05196184
0.044090733 0.04274209 0.077113986 0.10177812 0.08786787 0.08708395 0.14885737 0.16839556
0.043688454 0.08318132 0.035289362 -0.026067624 0.08807268 -0.068422295 -0.012621241 -0.014673264
0.029822575 -0.01919914 0.009024523 0.007862803 0.029301595 -0.08990734 -0.12315069 -0.13719715
-0.12648007 0.012211898 -0.13089749 0.0026571073 0.10520476 0.096282706 0.15936318 -0.0013912249
0.16067636 -0.0044149603 0.10458584 0.1026215 -0.06864225 0.11550556 0.01243026 -0.09836164
0.08306665 0.07700693 0.06585296 0.054816082 -0.043062262 0.09784236 -0.07879267 -0.029366652
-0.10408688 -0.04524533 -0.040297188 0.023613371 -0.11600852 -0.14263819 -0.002038915 0.044103973
0.00757894 -0.14703016 -0.12049323 -0.10036423 -0.09114667 -0.10425794 -0.16478181 -0.10416524
-0.08692273 -0.004036194 -0.03917291 -0.1334343 0.06426074 0.05857872 0.100240536 0.1500099
0.119129226 0.07336341 -0.053114705 0.07611037 0.020536797 0.12992029 0.10346477 0.07955744
-0.09088675 0.0072088777 0.06937987 0.059588954 -0.04898745 0.009164377 0.07729685 0.008041708
0.055397656 -0.08530661 -0.081966236 -0.0046902206 0.10653937 0.052315924 0.063410155 -0.050119087
0.07428723 -0.011708369 -0.00203797 0.14378145 0.16989185 0.115515515 0.022230495 0.1742859
0.0489042 0.053538986 0.08060822 -0.0152171 -0.043947026 -0.019762008 -0.1294379 0.0016189318
-0.022848349 -0.110901505 -0.046272133 -0.090226285 -0.022930352 -0.048646133 -0.018267335 0.14059499
0.0005022382 0.041818045 -0.048661105 -0.013210755 0.03778129 0.10516198 0.009631129 0.036455404
-0.048660237 -0.013674559 0.014952425 -0.043023936 -0.035558414 -0.06966374 -0.048626456 0.03382964
-0.0123130465 -0.020828143 -0.068451166 0.048167024 -0.06076203 -0.06972896 -0.045429524 -0.059565306
-0.020496555 0.10901522 0.008997923 -0.07993367 0.04103501 0.048016727 0.049183797 0.13137554
0.018978337 -0.013386077 0.13564242 0.07120001 0.14691032 0.046290882 0.027316133 0.0929773
0.14817454 0.20384637 0.072947346 0.058106862 0.151348 0.17393559 0.13916694 0.080913514
0.07548605 0.12069363 -0.07151912 -0.030953247 -0.04476838 0.08368794 -0.0962234 -0.04404203
0.113707595 0.0034517657 -0.11467412 -0.123481214 -0.013169929 -0.14652376 -0.10131855 0.026561549
00000000: 04cc b3bc 691b 44bd a6f0 313c ded6 47bd
00000010: adbe dc3c 1d3b 003d 2cd0 e73b c732 013e
00000020: e489 c03d 83d2 ca3d c6c8 be3d 1b56 f83d
00000030: 11f6 033e e33a af3c b2f7 933d c52a d83d
00000040: 764e 503d d407 ea3d d4dd 843d c9f7 c4bb
00000050: 62bc 72bc e30c a13c de7a 28bd 5844 3e3c
00000060: 1b41 09bd 7df4 8d3d e7c8 503d 415e 61bd
00000070: a1a9 c53c 60d8 aebd 5b48 dbbd 7759 1d3d
00000080: ded5 d1bc ea19 c9bd 8ead b0bd 0786 8d3d
00000090: 75de 10bd 15c0 78bd 392a 26bd 0556 8ebc
000000a0: 9238 513d 0d72 5d3b bca2 013e 4a59 bb3d
000000b0: 3723 78bd 03b3 1b3e d5f9 49bd 4344 bf3d
000000c0: a198 b43c 85d1 a83d 87f4 0ebc 68b2 be3c
000000d0: 4a55 8a3c ac21 b23d 0cb1 a4bc edc8 673d
000000e0: 20d7 28bc 84d3 733d 1a05 f93d 960b ed3d
000000f0: d7f7 853d 030d 873d 369d 053e 9d73 2e3e
00000100: a8c3 7c3e 19a9 ab3d d2eb b53d f70b 3b3e
00000110: c40e be3c 0f05 973d ddec 563e f0d5 543d
00000120: 7c98 343d 5412 2f3d f0ed 9d3d 0c71 d03d
00000130: 12f4 b33d 1259 b23d 116e 183e e36f 2c3e
00000140: aaf2 323d f85a aa3d 948b 103d c58b d5bc
00000150: 735f b43d fd20 8cbd 52c9 4ebc 2168 70bc
00000160: 794e f43c 8447 9dbc 98db 133c fcd2 003c
00000170: e609 f03c 5721 b8bd 6e36 fcbd 697d 0cbe
00000180: fe83 01be 6a14 483c fe09 06be dd22 2e3b
00000190: 9875 d73d de2f c53d 1a30 233e c359 b6ba
000001a0: 5888 243e 5fab 90bb 1a31 d63d 392b d23d
000001b0: 4f94 8cbd 2e8e ec3d 4aa8 4b3c d471 c9bd
000001c0: d91e aa3d cfb5 9d3d ebdd 863d d486 603d
000001d0: 0e62 30bd 9361 c83d 0d5e a1bd 5592 f0bc
000001e0: 812b d5bd 2b53 39bd aa0e 25bd d470 c13c
000001f0: e095 edbd bf0f 12be 519f 05bb 5ea6 343d
00000200: c258 f83b 138f 16be 28c5 f6bd c38b cdbd
00000210: 1bab babd 3085 d5bd 90bc 28be 9654 d5bd
00000220: 8b04 b2bd 0d42 84bb c673 20bd 00a3 08be
00000230: 239b 833d 3df0 6f3d e94a cd3d 329c 193e
00000240: 06fa f33d 8e3f 963d ce8e 59bd c1df 9b3d
00000250: c93c a83c d309 053e 56e5 d33d 03ef a23d
00000260: d522 babd 7338 ec3b 0917 8e3d 8c13 743d
00000270: 10a7 48bd 2f26 163c d04d 9e3d 5ec1 033c
00000280: a7e8 623d 3bb5 aebd eadd a7bd 6cb0 99bb
00000290: 5031 da3d 3949 563d 2fdd 813d ac49 4dbd
000002a0: e723 983d 75d4 3fbc 778f 05bb 723b 133e
000002b0: 21f8 2d3e 6693 ec3d ba1c b63c 0178 323e
000002c0: c54f 483d b24b 5b3d ec15 a53d 2551 79bc
000002d0: cc01 34bd efe3 a1bc 5e8b 04be 5632 d43a
000002e0: 762c bbbc 5420 e3bd d987 3dbd 8fc8 b8bd
000002f0: 6fd8 bbbc 2b41 47bd 61a5 95bc 22f8 0f3e
00000300: a3a8 033a 6649 2b3d de50 47bd ec71 58bc
00000310: 8ec0 1a3d 2a5f d73d e2cb 1d3c 4352 153d
00000320: f54f 47bd 420b 60bc 04fb 743c de39 30bd
00000330: b3a5 11bd ddab 8ebd 892c 47bd f390 0a3d
00000340: a9bc 49bc c89f aabc 2030 8cbd c94a 453d
00000350: 9be1 78bd 0fce 8ebd 4f14 3abd c0fa 73bd
00000360: 64e8 a7bc 5f43 df3d 066c 133c 44b4 a3bd
00000370: 5414 283d 30ad 443d f374 493d 4f87 063e
00000380: 7578 9b3c 4751 5bbc d9e5 0a3e 50d1 913d
00000390: a96f 163e 829b 3d3d 15c6 df3c e26a be3d
000003a0: 11bb 173e 1abd 503e 6b65 953d 7601 6e3d
000003b0: f8fa 1a3e 2c1c 323e c781 0e3e fcb5 a53d
000003c0: 6e98 9a3d 392e f73d 9e78 92bd aa91 fdbc
000003d0: 0c5f 37bd 9564 ab3d c610 c5bd 6a65 34bd
000003e0: 87df e83d 0537 623b 44da eabd b8e3 fcbd
000003f0: b0c6 57bc 530a 16be 1a80 cfbd 9b97 d93c

gru.weight_ih_l0 f4 [96, 32]
0.052995916 0.13372259 0.028689245 0.3853969 -0.0014372835 -0.1692655 0.2918676 -0.023454042
0.02678274 0.07749995 0.13516062 0.19264947 -0.008232875 0.19896808 -0.15594703 0.1039312
0.15527752 0.45794606 -0.089642346 -0.020326095 0.038136303 0.281808 -0.14417459 0.11073354
0.0048096925 0.19215365 0.17832252 -0.05089161 -0.026089992 0.2315592 0.05835303 0.068458244
0.24018393 0.05083372 0.04781698 -0.23540509 0.21317685 0.037560344 0.23983234 0.0030762795
0.019760177 -0.08642883 -0.13364121 -0.124103695 -0.09976201 0.14321645 0.044940457 -0.06612846
0.2260514 0.12754394 0.035482228 0.085590824 -0.017795654 0.040394828 0.020519238 0.1719193
0.08348772 0.109447055 0.03595691 0.18090473 -0.073473394 0.17406805 -0.019724127 0.069583096
0.074971996 0.14315948 0.029231656 0.086813524 0.065656155 -0.2080128 0.047470316 0.2067177
-0.11279488 0.25571123 0.17890257 0.14864862 0.059516355 0.04799317 0.035937708 -0.06729894
0.17302234 0.019465758 0.24953254 -0.12983865 -0.08306816 0.021914965 -0.13105853 -0.0057194945
0.24378057 -0.065155156 -0.20879653 0.010163329 0.09619552 0.103183575 -0.2638013 0.2444612
-0.065750055 -0.02590107 -0.055282444 -0.1816155 -0.060086515 0.006829594 0.07878335 -0.12419658
0.18577416 0.090410315 -0.0063458257 -0.06908313 -0.13497896 0.115595624 0.04467192 0.21620618
0.11715751 -0.049744025 -0.29710045 0.18913461 -0.1522863 0.15742761 -0.06163366 -0.026339581
-0.07648171 -0.05642178 -0.011571121 0.18593493 -0.08627021 0.14562033 0.18477762 0.034661718
-0.11241197 -0.012851067 0.080012485 -0.13578196 -0.07171485 -0.07579681 0.11484136 -0.02503453
1.299055e-05 -0.12777244 0.108734615 0.098148644 0.10070088 0.15701535 0.06311433 0.03756153
0.014486227 0.13109411 0.005328839 0.17767698 -0.009660369 0.17768604 0.008552861 0.08420047
0.043301858 0.2563896 0.24711937 -0.07936764 -0.0844427 0.032145668 -0.12962778 0.0713662
0.14098996 0.2781895 0.026660837 0.43631628 -0.085761875 -0.010832701 0.11989287 0.24276736
0.010375365 0.24755499 0.18409976 0.17763865 -0.09995894 0.22779961 -0.1367774 -0.07599912
0.3598894 0.29188526 0.18155466 0.2062359 0.2809768 0.100259505 -0.117317714 0.18878537
0.047317427 -0.19658267 -0.11617407 0.042534105 0.20012507 0.2202574 -0.15580554 0.10363887
-0.13633057 -0.071421325 -0.25785065 -0.24700913 0.16708457 0.25925085 -0.050851192 -0.16659333
-0.05461805 -0.020363552 -0.003996685 0.028755017 0.09141837 -0.02247135 0.16278312 0.088896886
-0.034030277 -0.20019335 -0.36783683 0.165751 -0.29390734 -0.03377146 0.12828378 -0.22666837
-0.3175727 0.21348089 0.2558209 -0.033681832 -0.14726262 -0.1774492 0.08642619 -0.36799645
0.07317279 -0.107471175 0.12053252 -0.2134208 -0.17287037 -0.048568945 0.00070904667 0.17110066
-0.05791878 0.15767719 -0.120492116 0.0049115405 -0.050806418 0.055759758 -0.06625649 0.16856298
0.108659185 -0.12023411 0.1566375 0.13883968 0.13332047 0.08416152 0.060410626 0.22469667
-0.09544777 0.12542118 -0.12344396 0.06781637 0.24616256 -0.1338514 0.05536463 -0.02682603
00000000: 3f12 593d 93ee 083e b505 eb3c be52 c53e
00000010: 3b63 bcba ef53 2dbe ac6f 953e b122 c0bc
00000020: 7a67 db3c 4bb8 9e3d 8c67 0a3e e745 453e
00000030: 2ee3 06bc 4abe 4b3e 94b0 1fbe e2d9 d43d
00000040: 1201 1f3e e877 ea3e 6896 b7bd e982 a6bc
00000050: d034 1c3d 2349 903e 81a2 13be 44c8 e23d
00000060: a09a 9d3b edc3 443e 2e9a 363e b973 50bd
00000070: aeba d5bc db1d 6d3e 9603 6f3d d633 8c3d
00000080: c7f2 753e 0537 503d bddb 433d 080e 71be
00000090: 084b 5a3e e0d8 193d 9c96 753e 689b 493b
000000a0: 18e0 a13c 9901 b1bd 3ed9 08be 142a febd
000000b0: 0650 ccbd 55a7 123e 7c13 383d 5c6e 87bd
000000c0: 057a 673e e19a 023e d055 113d 3e4a af3d
000000d0: 31c8 91bc 0c75 253d f617 a83c 9d0b 303e
000000e0: 9cfb aa3d c725 e03d 8e47 133d 173f 393e
000000f0: 3879 96bd e53e 323e 7e94 a1bc 9581 8e3d
00000100: eb8a 993d 6698 123e 3a77 ef3c 4acb b13d
00000110: bc76 863d 4f01 55be 3c70 423d cead 533e
00000120: 0101 e7bd 95ec 823e 3c32 373e 5837 183e
00000130: 6cc7 733d 7c94 443d 6b33 133d 07d4 89bd
00000140: c52c 313e a776 9f3c 7585 7f3e 6cf4 04be
00000150: a41f aabd 0387 b33c 3534 06be 996a bbbb
00000160: 9da1 793e 1170 85bd c2ce 55be 1784 263c
00000170: 2802 c53d e951 d33d f710 87be 0954 7a3e
00000180: f7a7 86bd 7b2e d4bc d86f 62bd 6af9 39be
00000190: 471d 76bd c9ca df3b 2a59 a13d c75a febd
000001a0: 953b 3e3e 0b29 b93d a5f0 cfbb 757b 8dbd
000001b0: ed37 0abe 66bd ec3d e7f9 363d 2765 5d3e
000001c0: 47f0 ef3d 64c0 4bbd 8d1d 98be 81ac 413e
000001d0: f1f0 1bbe b434 213e 9473 7cbd 1bc6 d7bc
000001e0: 71a2 9cbd 861a 67bd cd94 3dbc ba65 3e3e
000001f0: 70ae b0bd 7f1d 153e 5836 3d3e 72f9 0d3d
00000200: 3f38 e6bd 488d 52bc 96dd a33d 6d0a 0bbe
00000210: 3cdf 92bd 5c3b 9bbd f231 eb3d 3715 cdbc
00000220: fdf1 5937 c7d6 02be 41b0 de3d 2802 c93d
00000230: 433c ce3d a2c8 203e 1642 813d 1eda 193d
00000240: a457 6d3c 893d 063e 8b9d ae3b f4f0 353e
00000250: 8646 1ebc 54f3 353e 4d21 0c3c 4c71 ac3d
00000260: 4a5d 313d 7f45 833e dc0c 7d3e 808b a2bd
00000270: 4bf0 acbd 2dab 033d 25bd 04be 7128 923d
00000280: ac5f 103e db6e 8e3e d467 da3c d964 df3e
00000290: eca3 afbd a47b 31bc 658a f53d 0298 783e
000002a0: 6ffd 293c 0e7f 7d3e a684 3c3e e8e6 353e
000002b0: 46b7 ccbd 4d44 693e 600f 0cbe 6da5 9bbd
000002c0: 6c43 b83e fc71 953e 77e9 393e 812f 533e
000002d0: 31dc 8f3e db54 cd3d 4544 f0bd f450 413e
000002e0: ebcf 413d f84c 49be acec edbd 3e38 2e3d
000002f0: 96ed 4c3e 288b 613e 7d8b 1fbe 9e40 d43d
00000300: 3e9a 0bbe 5845 92bd 0005 84be f6ef 7cbe
00000310: 3818 2b3e 87bc 843e 5749 50bd 7197 2abe
00000320: 2db7 5fbd 77d1 a6bc a0f6 82bb a48f eb3c
00000330: 8e39 bb3d d615 b8bc 9eb0 263e 920f b63d
00000340: 5563 0bbd 7cff 4cbe 1c55 bcbe a1ba 293e
00000350: 067b 96be f153 0abd d35c 033e c11b 68be
00000360: e498 a2be bc9a 5a3e f5fa 823e f6f5 09bd
00000370: 03cc 16be 3eb5 35be 3700 b13d 086a bcbe
00000380: 9edb 953d d919 dcbd c1d9 f63d fb8a 5abe
00000390: ee04 31be 3bf0 46bd 51df 393a 0335 2f3e
000003a0: 3e3c 6dbd 2176 213e 92c4 f6bd fdf0 a03b
000003b0: 641a 50bd 5864 643d 7cb1 87bd c69b 2c3e
000003c0: b588 de3d 4d3d f6bd 9565 203e fd2b 0e3e
000003d0: 2985 083e e05c ac3d 2271 773d e216 663e
000003e0: 1f7a c3bd 696e 003e 30d0 fcbd 4fe3 8a3d
000003f0: 0a12 7c3e 5710 09be 06c6 623d 43c2 dbbc

gru.weight_hh_l0 f4 [96, 32]
-0.11060985 0.07641273 -0.15780893 -0.18821277 0.27989635 0.03999986 0.053670086 0.038241066
-0.011304244 -0.22615115 -0.18331786 0.08905332 -0.015324317 -0.30553675 0.04464383 0.1615509
-0.069969 0.022697276 0.09094037 0.013213559 -0.11508489 0.15826207 -0.02412192 -0.08731425
-0.044649325 -0.02836127 0.108935855 -0.17384513 0.11349465 -0.14089176 0.07557534 -0.06470702
0.016010271 0.031708278 -0.04261854 0.13022703 0.20072185 -0.017618189 0.28266445 0.13625836
0.07434046 0.026906611 0.28689855 0.13642192 -0.052859753 -0.16922945 -0.01695176 -0.19672327
0.17922416 -0.00483192 -0.15544851 0.37532893 -0.0025009888 -0.19984506 -0.16653226 0.1464308
-0.079848796 0.03641815 -0.1429912 -0.0023869942 0.11805386 0.08538038 -0.06603528 0.11187123
0.11076769 0.30129123 -0.07730111 -0.21865694 0.051748108 -0.036899865 0.011268849 -0.17381956
-0.033115774 -0.038573235 -0.089674614 -0.11389812 -0.30955333 -0.039539516 -0.12567697 0.18732926
-0.20585099 0.25454584 0.005212995 -0.09340286 -0.007208721 -0.18104492 -0.18557782 -0.03938835
0.013447294 0.067671716 -0.115066715 -0.14173988 0.038075626 0.045750357 0.1865726 0.23922808
0.0744495 -0.19034255 -0.09237225 0.05922317 0.028343702 -0.10333325 -0.03424492 -0.014836221
-0.15481466 0.03059956 -0.05786032 0.116052546 -0.18772262 -0.060218945 0.09912703 0.27812085
-0.02486799 -0.25473824 0.16323021 -0.09296563 -0.0003045508 0.10940731 -0.17938904 -0.03606544
0.07568536 0.054031227 -0.05182591 0.047314633 -0.09044715 -0.1005423 0.09598548 0.0013467345
-0.21521045 0.2047303 -0.12523583 0.02207515 0.00017031672 -0.22127463 0.0872197 -0.010171541
0.18009202 0.13671985 0.11089974 0.046707027 -0.17801902 -0.018427407 -0.12289437 -0.06229201
-0.23345214 -0.104967624 0.008821372 0.064093694 -0.14586395 -0.06298205 -0.20041396 0.18089329
-0.13156037 -0.044883035 -0.103455916 -0.23432638 0.066524096 0.07623772 0.18594684 -0.106895745
-0.04159726 0.22400554 0.11442241 -0.08629739 0.17463882 -0.013905789 0.027974682 0.1444242
-0.03465593 -0.063781895 0.020848628 -0.058510914 -0.16813417 0.11545365 0.27871248 -0.13996412
-0.202029 -0.1819646 -0.24036922 -0.0687716 0.07618945 -0.06677269 -0.04342788 0.027288781
0.050969146 -0.33377442 0.025313785 0.18800108 -0.18514396 -0.07764524 -0.23371707 0.019270191
0.06541761 0.08017363 -0.02313979 -0.04584904 -0.1414662 0.006109971 -0.1699027 0.016877394
0.15422581 -0.17253993 -0.21284473 -0.030047912 0.22143362 0.13857408 -0.008046074 -0.10167516
0.1202841 0.007242541 0.12254669 -0.037392687 0.004821812 -0.093057215 -0.15130603 0.083972365
0.09507561 0.22977488 -0.09774951 0.100747 0.13112947 0.07646372 -0.12306801 -0.08988307
-0.022427807 0.14077368 0.068348415 0.054305587 -0.14346717 0.15363902 0.028342117 0.012004052
0.19279522 0.19173323 -0.02702171 0.019133477 -0.022554077 0.20590766 -0.034332883 -0.12600437
-0.043460768 -0.06631505 -0.15942007 -0.030405408 0.0018694751 -0.17412727 -0.008788501 0.2650151
-0.040482122 -0.18938302 -0.109045915 0.10863778 -0.23433526 0.0321879 -0.07642048 -0.13235892
00000000: 6b87 e2bd 477e 9c3d aa98 21be d9ba 40be
00000010: 934e 8f3e e5d6 233d 2ad5 5b3d aaa2 1c3d
00000020: 7035 39bc 2b94 67be adb7 3bbe 9661 b63d
00000030: d812 7bbc 506f 9cbe 73dc 363d 996d 253e
00000040: e84b 8fbd a3ef b93c f23e ba3d af7d 583c
00000050: a0b1 ebbd 740f 223e 559b c5bc d0d1 b2bd
00000060: 36e2 36bd e555 e8bc c319 df3d 7504 32be
00000070: e26f e83d ee45 10be 3ec7 9a3d 1d85 84bd
00000080: f927 833c 8ae0 013d c790 2ebd 3c5a 053e
00000090: 078a 4d3e 0554 90bc 65b9 903e 5087 0b3e
000000a0: d03f 983d 416b dc3c 5ee4 923e 30b2 0b3e
000000b0: 7883 58bd 7c4a 2dbe 6bde 8abc d371 49be
000000c0: 8a86 373e 1555 9ebb e52d 1fbe 1d2b c03e
000000d0: a1e7 23bb 2fa4 4cbe 6f87 2abe f5f1 153e
000000e0: c487 a3bd 332b 153d 496c 12be 1e6f 1cbb
000000f0: 39c6 f13d e9db ae3d 813d 87bd be1c e53d
00000100: 2cda e23d d842 9a3e 0b50 9ebd 9be7 5fbe
00000110: d3f5 533d 5024 17bd faa0 383c c1fd 31be
00000120: 68a4 07bd f8fe 1dbd 53a7 b7bd 6b43 e9bd
00000130: c67d 9ebe 30f4 21bd 77b1 00be 3ed3 3f3e
00000140: 9aca 52be d553 823e c6d1 aa3b 004a bfbd
00000150: 2237 ecbb d763 39be 1d08 3ebe ae55 21bd
00000160: 0a52 5c3c 7897 8a3d 19a8 ebbd 4224 11be
00000170: 30f5 1b3d ba64 3b3d e30c 3f3e 35f8 743e
00000180: fb78 983d 28e9 42be aa2d bdbd ff93 723d
00000190: 0d31 e83c 62a0 d3bd 6744 0cbd 9f13 73bc
000001a0: bc87 1ebe eeab fa3c f1fe 6cbd f5ac ed3d
000001b0: 5c3a 40be 24a8 76bd 1d03 cb3d db65 8e3e
000001c0: f4b7 cbbc 0d6d 82be d225 273e c464 bebd
000001d0: 1eac 9fb9 f110 e03d c3b1 37be 5bb9 13bd
000001e0: ed00 9b3d d94f 5d3d 6847 54bd fdcc 413d
000001f0: 5b3c b9bd 1fe9 cdbd 0994 c43d e984 b03a
00000200: 2160 5cbe d2a4 513e d23d 00be f2d6 b43c
00000210: 0c97 3239 d195 62be 3ea0 b23d 89a6 26bc
00000220: 0b6a 383e 4a00 0c3e 671f e33d de4f 3f3d
00000230: 9e4a 36be 13f5 96bc 0bb0 fbbd e825 7fbd
00000240: 140e 6fbe 44f9 d6bd 8487 103c 8e43 833d
00000250: 5c5d 15be bcfc 80bd 5139 4dbe 173c 393e
00000260: c3b7 06be 46d7 37bd b2e0 d3bd 41f3 6fbe
00000270: c93d 883d 8622 9c3d d968 3e3e 28ec dabd
00000280: e361 2abd b561 653e 4c56 ea3d b0bc b0bd
00000290: 85d4 323e 1bd5 63bc 292b e53c f0e3 133e
000002a0: 60f3 0dbd 15a0 82bd beca aa3c 24a9 6fbd
000002b0: 5d2b 2cbe f772 ec3d 67b3 8e3e c152 0fbe
000002c0: b1e0 4ebe ee54 3abe 5923 76be 20d8 8cbd
000002d0: 3709 9c3d 1fc0 88bd 6fe1 31bd b98c df3c
000002e0: 06c5 503d 7be4 aabe db5e cf3c 5b83 403e
000002f0: 6196 3dbe 7804 9fbd 8753 6fbe 85dc 9d3c
00000300: abf9 853d 1232 a43d a88f bdbc 34cc 3bbd
00000310: 84dc 10be 2736 c83b f9fa 2dbe 7642 8a3c
00000320: 5fed 1d3e 4fae 30be f8f3 59be 0a27 f6bc
00000330: 7fbf 623e 5de6 0d3e aed3 03bc 113b d0bd
00000340: 8357 f63d d652 ed3b c2f9 fa3d 1329 19bd
00000350: 4a00 9e3b c894 bebd f8ef 1abe b4f9 ab3d
00000360: 00b7 c23d 1b4a 6b3e e530 c8bd 7154 ce3d
00000370: ce46 063e 0399 9c3d 150b fcbd 9d14 b8bd
00000380: 85ba b7bc fa26 103e 41fa 8b3d 896f 5e3d
00000390: 0fe9 12be 8c53 1d3e ba2d e83c a5ac 443c
000003a0: 1c6c 453e b755 443e a25c ddbc cfbd 9c3c
000003b0: 54c3 b8bc 75d9 523e a3a0 0cbd 4a07 01be
000003c0: eb03 32bd 2fd0 87bd 043f 23be c314 f9bc
000003d0: 2d09 f53a 6b4e 32be a5fd 0fbc 0fb0 873e
000003e0: 95d0 25bd 9fed 41be 7753 dfbd 7c7d de3d
000003f0: 95f5 6fbe 76d7 033d 5782 9cbd 1989 07be

gru.bias_ih_l0 f4 [96]
0.12850027 -0.046892226 0.21432133 -0.09274711 0.10218126 0.0010178895 -0.1649895 -0.03917001
0.28117374 -0.021791922 0.06172441 -0.01546378 -0.11385107 0.13712078 -0.13163753 -0.02898396
0.08735624 -0.09796694 0.036219373 -0.021896247 0.11711345 -0.06574834 0.25132114 0.12700464
-0.0027579241 -0.12606561 0.15551032 0.0146446815 0.17444243 0.15195641 0.071045384 0.35899082
-0.16995293 0.06916098 -0.046823975 0.2014037 0.044871878 -0.13227627 0.15786786 -0.028243305
0.049752157 0.087698326 0.32830784 0.20305288 0.07521786 0.074435696 -0.044629622 -0.08187518
0.101072386 0.21745384 0.0086094355 0.21858582 -0.03536373 -0.11566209 -0.013221537 -0.06098614
0.18980424 -0.025337853 0.054968085 -0.12496406 0.025084615 0.25081828 -0.1040694 -0.047974017
0.014289905 0.17167749 0.04116194 -0.018990189 0.045724016 -0.21299954 0.087231815 -0.2140652
-0.105377436 0.009167226 0.19262846 0.22683755 -0.032584522 -0.08684055 0.023392182 0.06125162
-0.21471189 -0.15215832 -0.040651746 -0.1109883 -0.2376969 0.0901032 0.10139219 -0.1326695
0.0020512827 0.0029145717 -0.03870265 -0.15631227 0.12197435 -0.02420754 0.099952534 0.13587989
00000000: 9395 033e 1012 40bd 0d77 5b3e 32f2 bdbd
00000010: 6944 d13d b46a 853a 02f3 28be bb70 20bd
00000020: 01f6 8f3e f984 b2bc bcd2 7c3d cb5b 7dbc
00000030: c02a e9bd 6469 0c3e fdcb 06be c56f edbc
00000040: d4e7 b23d e4a2 c8bd c45a 143d c25f b3bc
00000050: 2dd9 ef3d 11a7 86bd 2aad 803e 810d 023e
00000060: 4abe 34bb 5817 01be 193e 1f3e 3ff0 6f3c
00000070: 09a1 323e 769a 1b3e 3e80 913d a5cd b73e
00000080: 2408 2ebe 46a4 8d3d 7fca 3fbd c63c 4e3e
00000090: 93cb 373d 6e73 07be 1da8 213e 815e e7bc
000000a0: ebc8 4b3d 2e9b b33d f717 a83e 18ed 4f3e
000000b0: d20b 9a3d be71 983d 8dcd 36bd 2dae a7bd
000000c0: 0aff ce3d 38ac 5e3e 970e 0d3c f6d4 5f3e
000000d0: 8fd9 10bd 3fe0 ecbd 259f 58bc 9acc 79bd
000000e0: 0b5c 423e 5491 cfbc 3726 613d 28ed ffbd
000000f0: 407e cd3c 416b 803e 5622 d5bd 6780 44bd
00000100: 3520 6a3c 39cc 2f3e 6c99 283d 5091 9bbc
00000110: 1b49 3b3d 8d1c 5abe 98a6 b23d e833 5bbe
00000120: 20d0 d7bd 2232 163c 6540 453e 1a48 683e
00000130: 5977 05bd 75d9 b1bd f6a0 bf3c fbe2 7a3d
00000140: 6fdd 5bbe 64cf 1bbe 7282 26bd d54d e3bd
00000150: d166 73be 0788 b83d b5a6 cf3d 83da 07be
00000160: d06e 063b 6602 3f3b ac86 1ebd 5310 20be
00000170: b0cd f93d e44e c6bc eab3 cc3d 1924 0b3e

gru.bias_hh_l0 f4 [96]
-0.020159408 0.2259713 0.2533543 0.09838113 -0.07286541 -0.021115866 -0.10337554 0.15398899
0.04705726 0.24361762 0.18602481 0.10447398 -0.0041512884 0.2838475 -0.11485176 0.04531417
0.27430016 0.047580466 0.035705015 0.029612793 0.28163204 0.21334362 0.26288912 0.22150372
-0.068300776 0.06937459 0.10227911 0.057364378 0.01611635 0.034618884 0.06997036 0.30633813
-0.06203291 0.22710314 0.19134957 0.03204878 0.24368116 -0.0971897 0.0360269 -0.2133648
-0.011067295 0.020983323 0.24796446 0.13553946 0.21685757 -0.09356239 -0.13966925 0.13936667
0.0333879 0.04221631 -0.11215895 0.0014446465 0.0053341147 -0.13576514 -0.15427874 0.16945286
-0.14224385 0.12853022 -0.048392344 0.13198112 -0.056839447 0.13647616 -0.14446664 0.022519665
-0.120575964 0.05206836 -0.107908905 -0.11086315 0.07320427 0.074848525 0.14729501 -0.016895214
-0.13997652 -0.1202728 -0.009043075 0.06539076 -0.11170901 -0.05385175 -0.18948534 0.22236514
-0.17069313 -0.061745763 0.23990169 -0.05192036 0.04381015 -0.08758071 -0.19715942 -0.03357844
0.09468702 -0.08698656 0.16571748 -0.14602481 0.18101494 -0.073373266 0.05530474 0.14055261
00000000: 5825 a5bc 0565 673e a8b7 813e 0c7c c93d
00000010: 763a 95bd 2efb acbc 8eb6 d3bd 4aaf 1d3e
00000020: 1dbf 403d e676 793e 4a7d 3e3e 74f6 d53d
00000030: 8807 88bb 7654 913e 6637 ebbd 5a9b 393d
00000040: 1271 8c3e bce3 423d 6c3f 123d 8796 f23c
00000050: 1332 903e c076 5a3e 6799 863e dfd1 623e
00000060: 47e1 8bbd 4414 8e3d b677 d13d e9f6 6a3d
00000070: 7006 843c 88cc 0d3d 9f4c 8f3d 5ad8 9c3e
00000080: 3816 7ebd ba8d 683e 24f1 433e 9545 033d
00000090: 8e87 793e 650b c7bd f190 133d 4d7c 5abe
000000a0: 9a53 35bc 38e5 ab3c 65ea 7d3e dbca 0a3e
000000b0: e90f 5e3e a39d bfbd 7505 0fbe 23b6 0e3e
000000c0: c0c1 083d 02eb 2c3d 97b3 e5bd 4b5a bd3a
000000d0: ccc9 ae3b 0406 0bbe 3ffb 1dbe 0d85 2d3e
000000e0: 5fa8 11be 6d9d 033e 0d37 46bd 0f26 073e
000000f0: 7bd0 68bd 68c0 0b3e 10ef 13be 297b b83c
00000100: 88f0 f6bd a245 553d 58ff dcbd 380c e3bd
00000110: 1fec 953d 2f4a 993d 81d4 163e d567 8abc
00000120: 0156 0fbe 9651 f6bd 6829 14bc 97eb 853d
00000130: b2c7 e4bd a793 5cbd 7208 42be b0b3 633e
00000140: 2eca 2ebe 20e9 7cbd caa8 753e 72aa 54bd
00000150: 4672 333d 845d b3bd 29e4 49be 8c89 09bd
00000160: 45eb c13d 0226 b2bd d8b1 293e 8787 15be
00000170: fb5b 393e b944 96bd 3987 623d 06ed 0f3e

gru.weight_ih_l0_reverse f4 [96, 32]
0.1758602 0.17542545 -0.04883643 0.23308942 0.080801345 0.17983213 0.20488022 -0.06380659
0.053912997 0.009730819 0.074745916 -0.08711903 -0.072887495 0.16317649 0.18718873 0.12966588
0.09789489 0.22888608 0.17743199 0.12011332 -0.03508305 0.047926135 -0.04404891 0.045804087
-0.11394483 0.17677318 0.16794951 0.21609168 0.008603379 0.10029363 -0.063665494 -0.10225395
-0.062936865 0.010849743 -0.09274641 -0.14993227 0.075668685 0.29117635 -0.11648719 0.09816788
-0.046418272 0.075901486 -0.10881976 0.14650364 0.03558072 -0.122682564 0.15876816 0.08184956
-0.1866965 -0.19022802 -0.13439588 0.056499086 -0.15566143 0.13509317 0.22484413 0.09118602
-0.007214423 0.07197177 0.10967526 0.046863284 -0.08154587 0.011730312 0.1436208 -0.24487397
0.05470929 0.16729969 0.2512684 -0.06633081 0.109497026 0.24279314 0.16419026 0.099072725
-0.011517781 0.21716453 -0.018281538 0.13515927 -0.039269194 0.30062115 0.29017025 -0.07379394
0.05967601 0.23377231 -0.029082457 -0.008510208 0.16896878 0.054308824 0.06894591 0.01640739
0.10533449 0.21920228 0.19749576 0.031308576 0.21248545 0.2823815 0.17601626 0.3048259
-0.028370904 0.16498882 -0.087769784 -0.1834561 -0.13382924 0.052702855 -0.042967085 0.06659295
0.23273067 -0.16525483 0.0038575465 -0.09207383 -0.03793262 -0.15247096 -0.025246568 0.13005619
0.04500066 -0.021088276 -0.11316551 0.05651064 0.013864841 0.08772962 0.18582599 -0.16173427
0.10589241 0.054316062 0.11595861 -0.0678157 -0.040472507 0.047313526 0.12824607 -0.099589966
0.14902338 0.1575774 0.008155333 -0.1824285 0.12815148 -0.14962961 -0.096378386 0.15639009
0.2136116 0.15204334 -0.07661054 0.23246993 0.10311163 -0.093480095 -0.12289292 0.071585394
0.11160443 -0.04204262 0.0590647 -0.064026564 0.08855324 -0.06871307 0.14360598 0.25600377
-0.011475799 0.047167573 0.10507943 -0.006076813 0.2237751 -0.09068155 -0.11430105 -0.09065317
0.07302418 -0.1279271 0.16512291 -0.18873611 0.0017639443 0.029179627 0.0047728787 -0.08463418
-0.26219928 -0.033021178 -0.058959678 -0.165009 0.06896367 -0.09463221 -0.15521823 -0.07189511
0.09431801 -0.20597899 0.18049064 0.13886246 -0.09724988 -0.16758338 -0.23389211 -0.011333358
-0.0994023 -0.039491687 -0.27738896 0.030161604 0.19164932 0.08350981 -0.27204064 0.06791294
0.09132007 0.061838202 -0.02546364 -0.004209362 -0.05767525 -0.16999297 0.16197565 0.0488703
-0.1195264 -0.028523263 -0.13081539 -0.13851184 -0.046541404 -0.096991025 0.0236432 -0.03492051
0.020213053 -0.15893425 -0.023695325 0.009637899 0.04989026 -0.106627196 -0.008533255 0.050316364
-0.12248357 -0.07646575 0.06754233 -0.077252075 -0.029528068 0.03036384 0.01626978 -0.022656128
0.24761777 0.42316028 0.2604249 0.29271615 0.22888026 0.0740929 0.2521283 0.36544853
0.26821882 0.34288654 0.058560796 0.20439702 0.056251157 0.20318055 0.3984152 0.040157896
0.38159102 0.15225852 0.28696603 0.4152521 0.354756 0.18533824 0.12725167 0.34729162
0.30382 0.15822366 0.3371583 0.2799619 0.20561191 0.08192413 0.16655898 0.48870137
00000000: b214 343e bba2 333e b508 48bd feae 6e3e
00000010: 2d7b a53d ea25 383e 1fcc 513e 08ad 82bd
00000020: e0d3 5c3d 036e 1f3c 6314 993d 766b b2bd
00000030: 0a46 95bd bd17 273e 67ae 3f3e 22c7 043e
00000040: 1e7d c83d 1d61 6a3e bbb0 353e f9fd f53d
00000050: 3fb3 0fbd 324e 443d a16c 34bd 119d 3b3d
00000060: e85b e9bd 0704 353e f5fa 2b3e 2347 5d3e
00000070: 30f5 0c3c bf66 cd3d 0e63 82bd 856a d1bd
00000080: 0be5 80bd 1fc3 313c d4f1 bdbd d887 19be
00000090: 2ff8 9a3d 1115 953e d690 eebd 3e0c c93d
000000a0: 1621 3ebd 3d72 9b3d e5dc debd 0d05 163e
000000b0: 17bd 113d ff40 fbbd 1f94 223e bea0 a73d
000000c0: 5e2d 3fbe 22cb 42be 139f 09be 966b 673d
000000d0: b665 1fbe dd55 0a3e 8a3d 663e bcbf ba3d
000000e0: f766 ecbb ef65 933d 6c9d e03d b7f3 3f3d
000000f0: 8501 a7bd 7f30 403c 5511 133e 3ec0 7abe
00000100: d916 603d 9c50 2b3e 40a6 803e 73d8 87bd
00000110: fa3f e03d c49e 783e 7e21 283e a4e6 ca3d
00000120: 13b5 3cbc 6160 5e3e 2ac3 95bc 3167 0a3e
00000130: bcd8 20bd 04eb 993e 3291 943e 4721 97bd
00000140: d56e 743d 0262 6f3e 553e eebc 666e 0bbc
00000150: 2706 2d3e ee72 5e3d 8333 8d3d ca68 863c
00000160: 9cb9 d73d 9076 603e 543c 4a3e 6c3d 003d
00000170: c995 593e 4f94 903e 9b3d 343e 2412 9c3e
00000180: 196a e8bc d4f2 283e a5c0 b3bd eadb 3bbe
00000190: 880a 09be f3de 573d 41fe 2fbd e261 883d
000001a0: f350 6e3e 9038 29be e4ce 7c3b 3491 bcbd
000001b0: 3c5f 1bbd 5921 1cbe e4d1 cebc 732d 053e
000001c0: 9d52 383d 52c1 acbc 52c3 e7bd b377 673d
000001d0: 5c29 633c 96ab b33d 2b49 3e3e ab9d 25be
000001e0: 1fde d83d 857a 5e3d b57b ed3d f5e2 8abd
000001f0: 80c6 25bd d4cb 413d f052 033e d3f5 cbbd
00000200: 9699 183e f85b 213e f29d 053c 89ce 3abe
00000210: 243a 033e 8138 19be 0862 c5bd b924 203e
00000220: 00bd 5a3e 40b1 1b3e fde5 9cbd 990c 6e3e
00000230: 312c d33d 7e72 bfbd 49af fbbd 5d9b 923d
00000240: dd90 e43d e234 2cbd d4ed 713d 5c20 83bd
00000250: 675b b53d 70b9 8cbd 720d 133e ed12 833e
00000260: fd04 3cbc c932 413d e233 d73d 0120 c7bb
00000270: 4d25 653e 40b7 b9bd ab16 eabd 5fa8 b9bd
00000280: b48d 953d 52ff 02be fb15 293e 0a44 41be
00000290: 2634 e73a 1d0a ef3c cf65 9c3b af54 adbd
000002a0: fc3e 86be 3741 07bd b47f 71bd 1ff8 28be
000002b0: d33c 8d3d 88ce c1bd 87f1 1ebe be3d 93bd
000002c0: cd29 c13d 28ec 52be 8ad2 383e f631 0e3e
000002d0: f22a c7bd fa9a 2bbe 6a81 6fbe 8caf 39bc
000002e0: 6f93 cbbd 09c2 21bd ed05 8ebe 7815 f73c
000002f0: b83f 443e 3107 ab3d e948 8bbe f115 8b3d
00000300: 0406 bb3d 0e4a 7d3d 2099 d0bc b0ee 89bb
00000310: e23c 6cbd a312 2ebe f2dc 253e 392c 483d
00000320: 42ca f4bd 9ea9 e9bc 78f4 05be 0cd6 0dbe
00000330: 33a2 3ebd 3ba3 c6bd 62af c13c cf08 0fbd
00000340: d895 a53c a9bf 22be b31c c2bc 47e8 1d3c
00000350: bb59 4c3d 5c5f dabd 11cf 0bbc 8818 4e3d
00000360: aad8 fabd 139a 9cbd a253 8a3d 5636 9ebd
00000370: d9e4 f1bc 96bd f83c 3448 853c 5899 b9bc
00000380: 838f 7d3e 77a8 d83e 6a56 853e e4de 953e
00000390: 965f 6a3e 05be 973d f616 813e 121c bb3e
000003a0: fa53 893e d38e af3e 72dd 6f3d 744d 513e
000003b0: 9d67 663d 900e 503e 14fd cb3e 9b7c 243d
000003c0: e65f c33e a8e9 1b3e 36ed 923e ec9b d43e
000003d0: 94a2 b53e 4fc9 3d3e 434e 023e 35d0 b13e
000003e0: 4c8e 9b3e 6205 223e 03a0 ac3e 2b57 8f3e
000003f0: ee8b 523e d7c7 a73d 708e 2a3e 1137 fa3e

gru.weight_hh_l0_reverse f4 [96, 32]
0.21118616 0.14824338 0.037266813 0.16117954 0.18272276 -0.15285079 0.015699737 -0.036543276
-0.0030254866 0.05868314 -0.22826368 0.19944505 0.07936808 0.017575221 0.06380652 -0.04212675
-0.09139783 0.14113067 -0.12912509 -0.012348753 0.07089909 0.12320673 0.039810993 -0.31024998
-0.13742326 0.08618068 0.07738615 0.09934622 -0.083246596 0.21124399 0.26738808 0.14622872
0.05615747 0.15665832 -0.02566743 0.1803841 0.1536684 -0.08135492 -0.074916124 -0.27519992
-0.18194276 0.36899045 -0.24886617 0.062251143 0.029264439 0.019955315 -0.18524688 0.19515453
0.0832377 -0.049744003 -0.14791743 -0.18912572 -0.19970454 0.18811423 -0.050854295 -0.27429184
-0.18676901 -0.1358018 0.09010005 -0.018014142 -0.0901979 0.13174006 0.29620442 0.0016471994
0.090559326 -0.09778694 -0.046155524 -0.12191288 0.097722836 0.1108755 -0.007042879 0.04251717
-0.23182178 0.058972985 -0.17454189 0.071906865 0.07675676 -0.07585291 -0.22446652 -0.03682819
-0.014318068 0.009150621 0.087350495 -0.14421137 0.092209354 0.18189253 -0.12266629 0.069071434
-0.12331854 -0.22576027 -0.09520753 0.01650234 0.108238004 0.08434541 -0.13405883 -0.004160431
0.23373082 0.17311697 -0.21946698 0.08577322 0.0043099923 -0.039242607 0.20668527 -0.29843342
-0.1698714 0.06423493 -0.0061479094 0.13631679 -0.043679956 0.13070594 -0.25657436 0.047999103
-0.008467742 -0.055985935 0.012560193 -0.11472667 0.006243903 0.0124590825 0.0018230432 -0.07906869
0.07302934 -0.19875543 -0.15785336 -0.014781356 0.09708022 0.17036517 0.09012938 0.21031092
0.12020461 -0.033770267 0.032394093 0.17381318 -0.08622569 -0.09486243 0.07900794 -0.25007457
0.061516188 0.20099227 -0.027894033 -0.0055510057 -0.18353494 0.05087861 0.017888788 0.04502846
0.13467202 -0.016844574 -0.10422172 -0.05243042 -0.032994673 0.0057327813 0.0045807017 -0.23041205
-0.06162847 -0.033570047 0.08666579 -0.06313734 0.04623436 0.060297865 0.21024801 0.06678998
0.100679964 0.020832155 0.17906548 0.22030208 -0.008753452 -0.0831366 0.134789 -0.030908223
0.098500796 0.07958751 -0.092792295 0.22503988 0.009761232 -0.13657846 -0.065992124 0.17266442
-0.024923587 -0.006614681 0.0509845 -0.1520397 -0.0036808217 -0.040813074 0.11241897 0.016898915
0.062781826 0.101157986 -0.20115134 0.11370849 0.023942828 -0.059598137 0.1665473 -0.020022675
0.11380473 0.062174685 -0.020864036 0.08102058 -0.04058534 -0.20503545 0.10897425 -0.3177769
-0.030987851 -0.045930147 -0.15406537 0.1560059 -0.016549759 -0.13862823 -0.23888963 -0.08635025
0.003885232 0.10239598 -0.06032846 0.038184512 0.006962492 0.11633097 -0.08960629 -0.036806375
0.12407692 0.055886034 0.07947889 -0.00852265 0.002169996 0.22652604 0.12828654 -0.0023959237
0.0008896381 0.11742331 0.08634339 -0.048250057 -0.11871122 0.09765483 0.20393015 0.08863078
-0.10084201 0.1490377 -0.19195612 -0.04932258 -0.0558042 0.09336041 -0.10118773 -0.14158605
-0.15336727 -0.0008908587 -0.120264985 0.030032685 -0.08209431 0.020381454 -0.07507915 -0.25152293
0.113409065 0.060839403 0.056747627 -0.08869458 0.040900197 -0.023525244 0.023062205 0.1451754
00000000: 2f41 583e 1dcd 173e 16a5 183d 400c 253e
00000010: ad1b 3b3e eb84 1cbe bc9c 803c 67ae 15bd
00000020: 3e47 46bb bb5d 703d f4bd 69be 533b 4c3e
00000030: bb8b a23d e9f9 8f3c feac 823d 198d 2cbd
00000040: c92e bbbd 8f84 103e 5e39 04be 6d52 4abc
00000050: 8b33 913d cf53 fc3d da10 233d 16d9 9ebe
00000060: afb8 0cbe 7f7f b03d a17c 9e3d 0876 cb3d
00000070: 317d aabd 5850 583e 17e7 883e fbbc 153e
00000080: 6005 663d 0a6b 203e 8144 d2bc 9cb6 383e
00000090: 405b 1d3e 699d a6bd a06d 99bd 01e7 8cbe
000000a0: 344f 3abe 51ec bc3e c6d6 7ebe 0efb 7e3d
000000b0: fabb ef3c 5479 a33c 5cb1 3dbe 97d6 473e
000000c0: 8778 aa3d 5ec0 4bbd ab77 17be 2caa 41be
000000d0: 597f 4cbe 04a1 403e 984c 50bd fb6f 8cbe
000000e0: 6040 3fbe a10f 0bbe 6086 b83d 6592 93bc
000000f0: adb9 b8bd dee6 063e 1ba8 973e d7e6 d73a
00000100: 2b77 b93d 8544 c8bd 930d 3dbd 76ad f9bd
00000110: e922 c83d b212 e33d f3c7 e6bb 7c26 2e3d
00000120: b062 6dbe a88d 713d 1cbb 32be e843 933d
00000130: a632 9d3d c558 9bbd 8dda 65be 28d9 16bd
00000140: 5496 6abc 7cec 153c d1e4 b23d 25ac 13be
00000150: 42d8 bc3d 0942 3a3e 7738 fbbd 5375 8d3d
00000160: 6e8e fcbd b32d 67be 2afc c2bd ea2f 873c
00000170: e3ab dd3d 49bd ac3d b846 09be 3a54 88bb
00000180: 2257 6f3e 9345 313e f4bb 60be dfa9 af3d
00000190: d63a 8d3b dbbc 20bd 4ea5 533e 44cc 98be
000001a0: c5f2 2dbe 9a8d 833d 6774 c9bb a196 0b3e
000001b0: c1e9 32bd c7d7 053e b75d 83be b59a 443d
000001c0: 49bc 0abc 8251 65bd 45c9 4d3c d1f5 eabd
000001d0: a899 cc3b 2e21 4c3c 2ef3 ee3a c4ee a1bd
000001e0: 6890 953d 8b86 4bbe 50a4 21be 802d 72bc
000001f0: ffd1 c63d 3574 2e3e c195 b83d bf5b 573e
00000200: d62d f63d b152 0abd abaf 043d 15fc 313e
00000210: 1897 b0bd 3c47 c2bd eace a13d c609 80be
00000220: 66f8 7b3d ebd0 4d3e 0782 e4bc 36e5 b5bb
00000230: 95f0 3bbe 1766 503d 828b 923c c36f 383d
00000240: 76e7 093e a2fd 89bc 3272 d5bd 48c1 56bd
00000250: 6c25 07bd 0eda bb3b b619 963b 23f1 6bbe
00000260: 226e 7cbd bf80 09bd d57d b13d 264e 81bd
00000270: 3e60 3d3d e5fa 763d 414b 573e 2fc9 883d
00000280: 4c31 ce3d 32a8 aa3c f15c 373e de96 613e
00000290: a46a 0fbc 8643 aabd 2106 0a3e 3e33 fdbc
000002a0: c9ba c93d c7fe a23d e309 bebd db70 663e
000002b0: 93ed 1f3c 39db 0bbe e126 87bd f1ce 303e
000002c0: 8d2c ccbc f7bf d8bb 20d5 503d 4cb0 1bbe
000002d0: f139 71bb 9c2b 27bd eb3b e63d 986f 8a3c
000002e0: c293 803d eb2b cf3d 9efa 4dbe ffdf e83d
000002f0: c023 c43c 2d1d 74bd 608b 2a3e 9806 a4bc
00000300: 7412 e93d e2aa 7e3d 0eeb aabc 1eee a53d
00000310: d03c 26bd d0f4 51be e42d df3d a7b3 a2be
00000320: 3cda fdbc 4021 3cbd 50c3 1dbe 03c0 1f3e
00000330: 5c93 87bc 8ff4 0dbe 7c9f 74be 66d8 b0bd
00000340: 609f 7e3b fcb4 d13d fa1a 77bd 5d67 1c3d
00000350: 9e25 e43b ee3e ee3d 8183 b7bd 48c2 16bd
00000360: 0a1c fe3d c1e8 643d d4c5 a23d 96a2 0bbc
00000370: 7e36 0e3b 71f6 673e 8c5d 033e ee04 1dbb
00000380: 9a36 693a a27b f03d ced4 b03d daa1 45bd
00000390: de1e f3bd 41ff c73d 11d3 503e 0e84 b53d
000003a0: 4186 cebd 579d 183e 2590 44be 7906 4abd
000003b0: f292 64bd be33 bf3d 833b cfbd effb 10be
000003c0: 4f0c 1dbe 8488 69ba 7d4d f6bd 1b07 f63c
000003d0: 1021 a8bd 02f7 a63c 19c3 99bd 9dc7 80be
000003e0: 0343 e83d bd32 793d 3370 683d 81a5 b5bd
000003f0: f786 273d 03b8 c0bc f3ec bc3c dca8 143e

gru.bias_ih_l0_reverse f4 [96]
0.078513496 0.17360952 0.20485912 0.14926428 0.07508753 -0.11168603 -0.04041162 -0.055899054
-0.1042086 0.2275168 0.043015994 0.15551005 0.05748688 -0.0107717775 0.006908307 0.071699865
0.09238887 0.07557929 0.2175389 -0.08273805 0.027127553 0.18352753 -0.024271155 0.1963546
0.073089875 -0.09700288 0.12884085 -0.030093024 0.033442054 -0.10476218 -0.038580935 0.22739974
-0.08026918 0.21491215 0.06699485 0.11468817 0.26054874 -0.045586944 0.19774158 0.13559185
-0.010710412 0.24225193 0.020806782 -0.023226757 0.31615794 0.11752684 0.18913622 -0.019577697
0.022498345 0.12729938 -0.025718909 -0.011336465 0.259874 0.116616465 -0.0067771794 0.23898816
0.11446361 -0.020057278 0.04383101 -0.08962821 0.14453584 0.3021467 0.1469106 0.35062593
0.24635753 0.17105497 -0.057129886 0.18559545 0.123468705 -0.085971504 0.1667794 0.004572786
-0.15768039 0.14506668 -0.18267109 0.09194316 -0.08071147 -0.069323115 -0.104776 0.13056551
0.08187074 0.13429418 -0.1141289 -0.16429454 -0.030431319 0.05305217 -0.22105458 -0.17743225
0.033529416 -0.1899181 0.097393185 -0.16455841 0.12901917 0.11301491 0.052253883 0.10102471
00000000: afcb a03d b2c6 313e 97c6 513e bcd8 183e
00000010: 7ec7 993d a5bb e4bd a886 25bd 68f6 64bd
00000020: 526b d5bd 2afa 683e 8a31 303d 073e 1f3e
00000030: 5d77 6b3d 1c7c 30bc 145f e23b 61d7 923d
00000040: 6036 bd3d 51c9 9a3d 84c2 5e3e 9172 a9bd
00000050: 9a3a de3c a4ee 3b3e 4dd4 c6bc 2e11 493e
00000060: 25b0 953d 72a9 c6bd dbee 033e a585 f6bc
00000070: 89fa 083d 8e8d d6bd 0b07 1ebd 7adb 683e
00000080: 2b64 a4bd ee11 5c3e 9934 893d a2e1 ea3d
00000090: a566 853e 60b9 3abd c57c 4a3e 97d8 0a3e
000000a0: b97a 2fbc e410 783e fc72 aa3c 0a46 bebc
000000b0: 74df a13e e9b1 f03d edac 413e 6861 a0bc
000000c0: 734e b83c c55a 023e 76b0 d2bc 95bc 39bc
000000d0: 340e 853e 9dd4 ee3d 1a13 debb 50b9 743e
000000e0: e66b ea3d 294f a4bc 2588 333d ff8e b7bd
000000f0: 3401 143e f9b2 9a3e bb6f 163e 3e85 b33e
00000100: 2645 7c3e 0929 2f3e 0701 6abd bc0c 3e3e
00000110: 29dd fc3d d411 b0bd 38c8 2a3e 4fd7 953b
00000120: f876 21be 5c8c 143e 210e 3bbe b24c bc3d
00000130: 0e4c a5bd 47f9 8dbd cd94 d6bd f7b2 053e
00000140: d9ab a73d 6a84 093e 6abc e9bd d43c 28be
00000150: 1a4b f9bc 3b4d 593d 225c 62be cdb0 35be
00000160: 2456 093d e479 42be 1476 c73d 0082 28be
00000170: 9a1d 043e 5c74 e73d 2b08 563d 0be6 ce3d

gru.bias_hh_l0_reverse f4 [96]
0.22085956 0.11472855 0.02669393 0.1055019 0.042770736 0.009935476 0.1555873 -0.052040294
-0.012747119 0.04200081 0.04224006 0.042774886 0.16367365 0.04246138 -0.03134711 0.1639673
0.17608286 0.023388661 0.04102771 0.24880165 0.027604545 -0.019340498 0.093717664 -0.03149598
0.043479595 0.15183741 -0.011101682 0.016360834 0.00063733035 0.15135649 -0.015895015 0.225749
-0.08379477 -0.07352886 0.30392584 0.26219597 0.024626914 -0.08712342 0.06027693 0.15491296
-0.1582062 0.13189773 -0.08788859 -0.16859375 0.041284475 0.13985789 0.03579551 0.11825941
0.17393221 0.12401939 0.010504616 0.28639606 0.24082382 0.08868286 0.18465178 -0.02931138
-0.086495996 -0.1309102 0.080340296 -0.07115585 0.043375805 0.3125858 0.14907797 0.24596058
-0.06506144 0.09302599 0.03859207 0.007974117 0.14236464 -0.1861405 -0.03722549 -0.052055974
-0.09598011 -0.1315721 -0.0083672 -0.046814095 0.012958669 0.14532705 -0.07705751 -0.015583705
-0.01195562 -0.14351907 -0.026295613 -0.20098375 -0.18505725 -0.12200991 -0.03652544 0.07499532
0.064828955 0.051456466 -0.053822517 0.006467185 0.10217845 0.10520727 0.15298261 -0.014813613
00000000: 0229 623e cdf6 ea3d 3bad da3c 6111 d83d
00000010: 5e30 2f3d 68c8 223c 4752 1f3e 3428 55bd
00000020: 4bd9 50bc 0b09 2c3d ea03 2d3d b834 2f3d
00000030: 119a 273e fceb 2d3d d465 00bd 0be7 273e
00000040: 114f 343e 9499 bf3c ac0c 283d dcc5 7e3e
00000050: ed22 e23c f76f 9ebc 0cef bf3d ee01 01bd
00000060: a917 323d 447b 1b3e d4e3 35bc 2807 863c
00000070: 8412 273a 32fd 1a3e 4336 82bc bf2a 673e
00000080: 989c abbd 4d96 96bd 2b9c 9b3e 8d3e 863e
00000090: 62be c93c c36d b2bd f1e4 763d 81a1 1e3e
000000a0: ce00 22be 3310 073e effe b3bd d7a3 2cbe
000000b0: e919 293d e836 0f3e 509e 123d fd31 f23d
000000c0: 491b 323e e1fd fd3d 8e1b 2c3c 81a2 923e
000000d0: 859a 763e 5c9f b53d 5b15 3d3e 6b1e f0bc
000000e0: d024 b1bd 530d 06be 7489 a43d 29ba 91bd
000000f0: d4aa 313d 3f0b a03e e5a7 183e 17dd 7b3e
00000100: ef3e 85bd 6984 be3d b812 1e3d dfa5 023c
00000110: 09c8 113e 9d9b 3ebe c179 18bd a538 55bd
00000120: 3891 c4bd d6ba 06be 9516 09bc 23c0 3fbd
00000130: 9950 543c 9dd0 143e 54d0 9dbd cc52 7fbc
00000140: 81e1 43bc aaf6 12be e669 d7bc afce 4dbe
00000150: a67f 3dbe 55e0 f9bd b39b 15bd 2597 993d
00000160: 0bc5 843d 04c4 523d 0075 5cbd aeea d33b
00000170: ef42 d13d e976 d73d 79a7 1c3e ccb4 72bc
