logs/exp0/weights/epoch35.pt (torch, 348934 bytes, 45 tensors)

conv_block1.0.weight f4 [32, 4, 10]
000000 29 bc 44 3d 3b da 26 be 9f 62 10 3e 86 7e 40 3c
       0.048031006 -0.16294186 0.14100121 0.011748916
000010 f1 d6 ec 3c 5c 89 f6 3d 0c 89 a4 bc 76 69 ee bd
       0.028911086 0.12037918 -0.02008488 -0.11641209
000020 5f 32 09 3e ba 14 bf bd 54 be 9f 3d 78 e9 80 bd
       0.13398121 -0.09330125 0.07799974 -0.06294531
000030 41 72 ba 3c 1a 28 7c 3d 48 cc 92 bd 97 00 e0 3d
       0.022759559 0.06156168 -0.0716787 0.109376125
000040 34 42 a6 3d a0 9b d3 3c 6a bf cc bc f3 34 48 bd
       0.08118096 0.025831044 -0.024993617 -0.04887862
000050 82 16 f1 bd 8c 55 a0 3d 8c 51 f4 3c a5 f9 cc bc
       -0.11771871 0.07828817 0.02982404 -0.025021384
000060 dc b2 13 3d eb 7e d7 bd 83 35 65 3d 76 19 ad 3d
       0.036059245 -0.105222546 0.055959236 0.08452122
000070 eb f7 27 be d8 34 cd bc d8 be 17 be fe 72 ac 3d
       -0.16403167 -0.025049612 -0.14818895 0.084203705
000080 c2 ae 07 3d ff ff 1a bd 19 d3 2a bd 96 02 a5 bd
       0.033125646 -0.037841793 -0.041705225 -0.08057134
000090 8f 0a 9a bd ba 3c 5b 3d e4 c8 01 bc c0 4c f2 3c
       -0.07521545 0.05352471 -0.007921431 0.029577613
0000a0 58 51 d2 b9 fd 41 83 bd 8b 87 8b 3d cb 65 ac bd
       -0.00040114927 -0.06409071 0.06812962 -0.08417853
0000b0 9f f8 ab 3c bb f0 37 3e 76 82 93 bd b5 9e 37 3c
       0.020992575 0.17962925 -0.07202618 0.011207272
0000c0 54 a1 06 3e ef f1 c1 3c 79 2c b4 3d d2 09 a8 3d
       0.1314748 0.023674933 0.08797545 0.08204998
0000d0 1e 82 18 be 22 30 e5 3d ff a4 1f be 50 b4 11 3c
       -0.14893386 0.11190821 -0.15590285 0.0088930875
0000e0 88 ad 46 bc 87 46 74 bd d3 5a e2 bb 51 dc 3c 3d
       -0.012126334 -0.059637573 -0.0069077997 0.046108548
0000f0 97 29 d4 bd 6f 0b 3f bb 74 8b 35 bd 43 44 31 bd
       -0.10359495 -0.0029151102 -0.044322446 -0.04327799
000100 5c 68 37 bd 08 cf f3 bc d1 f2 9d bd ad a1 cb 3d
       -0.04477726 -0.029761806 -0.07712329 0.099429466
000110 31 1b f1 bd 5f 0c 85 3c c0 f7 d7 3d 5e 4f 6e 3d
       -0.117727645 0.01624125 0.105453014 0.05818116
000120 6b 88 f7 3c e7 8c 61 bd b6 d9 2c bd d8 ec b4 ba
       0.030216416 -0.055066016 -0.042199813 -0.0013803495
000130 de 38 bc bd 2e 64 81 ba d2 dc 57 bd 14 58 a5 3d
       -0.09190534 -0.0009871775 -0.052700825 0.0807344
000140 50 48 4d 3d 3d e2 e0 bd 9c 8b df bd c6 35 b9 bd
       0.05011779 -0.109806515 -0.109153 -0.090434596
000150 06 1a 1a 3e 1a f5 d6 bd 37 7e 9e bd fe da 05 3e
       0.1504899 -0.10495968 -0.07738917 0.1307182
000160 82 53 15 be 19 86 37 bc 04 ea 56 3d 34 b2 2c 3d
       -0.14582637 -0.011201405 0.05246927 0.042162135
000170 4e fe 0a 3c 1d 65 84 3d 80 07 d5 bc 46 b0 c8 3d
       0.0084834825 0.06464598 -0.026004553 0.097992465
000180 c9 4e 13 3e 82 0a 03 3e 15 d7 1f 3e 88 b8 49 bd
       0.14385523 0.12796977 0.15609391 -0.04924825
000190 85 8f 9d 3d 3b 96 d7 bd 75 9c 93 3d 04 8d e5 bd
       0.0769339 -0.10526701 0.07207576 -0.11208537
0001a0 86 c8 62 3c 78 d5 dd 3d 34 e2 10 3e c7 ee 5e bd
       0.013841754 0.108317316 0.1414879 -0.054426935
0001b0 bd 06 09 3d 05 f2 9f bc 67 be e5 bd 2a 2f 06 be
       0.03345369 -0.019524584 -0.11217957 -0.13103929
0001c0 ff be b2 3d 7c ae 46 3d 12 f6 60 bd 58 7a d8 bd
       0.08727836 0.048506245 -0.05492217 -0.1057021
0001d0 24 45 5c 3d 47 e0 e5 3b d6 ea fc bc 5c 2d b2 3b
       0.053776875 0.0070152613 -0.030873697 0.005437536
0001e0 2c a9 73 3d 32 a3 c9 bd e7 6a 30 bd c6 33 4b bd
       0.059487507 -0.0984558 -0.0430707 -0.049609922
0001f0 6a a7 bc bc f7 ab 61 3d dc 94 7b bd 8e 80 fe bd
       -0.023029048 0.05509564 -0.06142126 -0.124268636
000200 3c 6c 5f 3d 8a a2 25 3d 9a e2 21 bd 9c d4 11 be
       0.05454658 0.040438212 -0.039522745 -0.1424126
000210 17 52 12 be 46 a4 0f be 84 ba c7 bd af b0 8b bd
       -0.14289127 -0.14027509 -0.09752372 -0.06820809
000220 e1 f5 83 3d 1d 4c 2b bd 87 c4 a8 bd 21 99 86 3d
       0.06443382 -0.041820634 -0.082406096 0.06572176
000230 cf 3a 1b bd 43 5f 12 bc bd 51 f0 3c 15 04 14 3e
       -0.03789788 -0.008933845 0.02933585 0.14454682
000240 01 7f c7 bd 0d 10 bb 3d 66 11 04 3e 5a 45 49 bd
       -0.09741021 0.09133921 0.12897262 -0.049138404
000250 91 66 01 3e 01 93 b5 3b eb 70 76 3d 44 5b 7f 3d
       0.12636782 0.005541206 0.06016628 0.062342897
000260 42 99 c2 3d 21 af af 3c 49 ca 38 bd a0 14 85 3d
       0.09501888 0.021445813 -0.04511479 0.064980745
000270 be 8e b8 3d ab 65 93 3d 7d 2e a5 3d d1 77 c6 3d
       0.09011601 0.07197126 0.080655076 0.09690822
000280 4f 97 12 bd 50 3f 15 bc 23 94 c8 3c c8 ad 23 bd
       -0.03578883 -0.009109333 0.0244847 -0.039960653
000290 8a f6 dc bc 50 20 fb 3d 1e d2 8e bd e6 3b 12 bd
       -0.026973028 0.122620225 -0.069736704 -0.035701655
0002a0 b4 5b 60 3d 41 65 0f bd 58 36 9a 3d 9d 41 82 3d
       0.054774955 -0.035008673 0.075298965 0.06360171
0002b0 07 08 1d bd 76 7f da 3d 13 80 a4 3b 73 3e da bd
       -0.038337734 0.106688425 0.0050201504 -0.106564425
0002c0 ce 2f 8b ba 47 c6 df 3d 4c c7 11 be f7 19 f5 3d
       -0.0010619105 0.1092649 -0.14236182 0.11967843
0002d0 78 fc c3 bd 4b 77 74 3d 01 cf 3c be ea 0e 65 3d
       -0.09569639 0.05968408 -0.1843834 0.055922426
0002e0 49 cc 30 bc ca 5b ed 3c 7b 62 37 be 03 72 c0 3d
       -0.010790893 0.028974432 -0.17908661 0.09396746
0002f0 35 b7 e7 bd 6b ea 58 3d 8a 0d 40 3d 1e 6b 17 bd
       -0.11314241 0.052957933 0.04688791 -0.03696739
000300 a8 5c d2 bd 89 a4 f6 bc f0 f9 20 be 83 d4 b6 38
       -0.10271579 -0.030107753 -0.15720344 8.71802e-05
000310 80 a8 ad 3d 27 d3 97 3d e9 49 1a be ad c7 a0 3d
       0.084794044 0.07413321 -0.15067257 0.07850585
000320 22 2f 90 3d 2e 8e d8 3d dd 9a f5 bc 6c 99 89 bd
       0.0704024 0.105739936 -0.029981071 -0.06718716
000330 ee 45 47 3d 5e 66 13 be 04 cd 0c 3e 4d 8f 29 3e
       0.048650675 -0.14394519 0.13750082 0.16558571
000340 c8 c5 32 be b4 61 a3 bd 20 0c 85 3d 1a 5d 85 3c
       -0.1745826 -0.0797762 0.06496453 0.016279746
000350 f9 1e 24 be 89 b9 09 3d 86 f2 2a 3d 29 5f fe 3d
       -0.1602744 0.033624206 0.041735195 0.12420494
000360 ab 96 36 bd 53 d5 d1 bd 5a 66 10 3e f5 d1 f9 bd
       -0.044577282 -0.102457665 0.14101544 -0.12198249
000370 e9 fa 70 bc 10 cf 64 bd f8 88 99 3d f6 bf 69 bd
       -0.014708259 -0.055861533 0.07496828 -0.057067834
000380 30 e2 26 be 13 7a c6 bd bd 6b 4f 3c 10 78 3c be
       -0.16297221 -0.096912526 0.012659964 -0.18405175
000390 f2 f0 08 be 5c 97 29 3d 48 37 7f 3d 6a 93 c7 3c
       -0.13373163 0.041404113 0.06230858 0.024362285
0003a0 07 50 ad bd d2 47 7d 3d fb 46 ba 3d 2f bc 69 bc
       -0.0846253 0.06183607 0.0909557 -0.014266058
0003b0 ba 6d 9c bd 3a 66 b8 3d 04 4f c1 bc 4d a4 60 3d
       -0.07638116 0.09003873 -0.023597248 0.05484419
0003c0 97 1d f9 3d 86 60 8f 3d 3f 33 2e 3d db a1 42 3d
       0.12163847 0.07000832 0.04252934 0.04751764
0003d0 4e 02 9b bd c8 c9 3d 3e f9 6a 8d 3d 01 94 0a 3e
       -0.07568799 0.18534005 0.06905169 0.13533022
0003e0 b4 2d e5 3d 09 91 dd 3d 52 66 e7 bc 7c 1f fe 3c
       0.11190358 0.10818679 -0.028247032 0.031020872
0003f0 3c c9 56 3d 90 a1 d0 3b 45 b4 ba bd 5d c0 53 bd
       0.052438006 0.006366916 -0.09116415 -0.051697124

conv_block2.0.weight f4 [32, 32, 10]
000000 eb 68 9f ba 58 35 df bc d3 a9 94 3c 37 64 3c bd
       -0.0012162005 -0.027247116 0.018147385 -0.04599401
000010 76 e1 c6 3c 3c 34 8e 3c 87 50 59 3c 03 7b f9 3d
       0.02427743 0.017358892 0.013263828 0.12181666
000020 0e 65 b9 3d 77 cc be 3d 96 4e 9f 3d 62 c2 fc 3d
       0.09052478 0.09316342 0.07778661 0.12341763
000030 e3 0d 0c 3e 9b 85 86 3c 57 f1 21 3d 32 ed c3 3d
       0.13677172 0.01642113 0.0395368 0.09566726
000040 a3 d1 8e 3d 78 2a c9 3d 46 f2 82 3d 73 b8 b9 bc
       0.06973579 0.098225534 0.06393866 -0.02267096
000050 4c ca e0 bc 24 08 90 3c 5e 41 48 bd ce fb b6 3c
       -0.027440213 0.017582007 -0.048890464 0.022336867
000060 76 c2 d4 bc 38 52 8b 3d 33 e6 80 3d 26 e7 51 bd
       -0.025971632 0.06802791 0.06293907 -0.05124583
000070 7c 9c ee 3b 87 f4 b3 bd 46 55 c1 bd 1c 18 29 3d
       0.007281838 -0.08786874 -0.09440093 0.041282758
000080 45 da 13 bc c8 c2 86 bd 7a cc 6c bd 6b b2 97 3d
       -0.0090242075 -0.0658012 -0.05781219 0.074070774
000090 60 10 13 bd 77 54 97 bd ff 20 80 bd 8b fc 61 3c
       -0.03590429 -0.07389157 -0.062562935 0.013793121
0000a0 69 f0 3f 3d 71 b9 7b 3c 80 ab f1 3d 3c 4c c5 3d
       0.046860132 0.015364037 0.11800289 0.09633681
0000b0 a8 50 81 bd 1c e0 f5 3d 10 1a da bc 31 81 b4 3d
       -0.06314212 0.12005636 -0.026623756 0.08813704
0000c0 be 9a 45 bb 4a ba 87 3d df 05 db bc 2a 21 87 3c
       -0.0030152048 0.06627329 -0.026736198 0.016495306
0000d0 1d 85 05 3c a3 ac da 3d 37 85 3f bd e3 b7 6b 3d
       0.008149412 0.10677459 -0.046757903 0.057548415
0000e0 5d 37 00 bd 88 63 66 3c 13 a8 e2 3d d0 65 e5 3d
       -0.0313028 0.014061816 0.11067214 0.1120106
0000f0 de 37 3d 3d 03 62 76 3d 5a 48 cb 3d 0c cf 34 3e
       0.046195857 0.060152065 0.09925909 0.17657107
000100 a8 f1 52 3e 9f ed a8 3d 89 11 a6 3d 6e 29 30 3e
       0.20599997 0.082484476 0.08108813 0.17203304
000110 fe 5e f4 3c 0b 1a 43 3d 35 51 21 3e 45 d9 bd 3c
       0.029830452 0.04763226 0.15753634 0.023174891
000120 91 3a bf 3b b8 f8 8d 3c f6 46 e4 3c 5d ac b1 3d
       0.005835839 0.017330512 0.027865868 0.08675454
000130 f2 33 96 3d 73 83 cb 3d 65 07 04 3e d9 91 20 3e
       0.073341265 0.09937181 0.12893446 0.15680636
000140 d5 69 91 3c ce 8a ae 3d 86 dc 27 3d ca 4c 66 bb
       0.01775066 0.08522569 0.040981792 -0.0035140985
000150 af e0 62 3d 63 ff 4f bd e7 e8 c5 bc 66 40 11 3a
       0.055390056 -0.050780665 -0.024158908 0.0005540907
000160 74 75 a6 3c 75 ba dd bc f4 6d 07 3d d5 a7 a2 3c
       0.020319678 -0.027066449 0.033063844 0.01985542
000170 44 8d 67 3d 74 fe 75 bd 41 5d ec bd ac 95 ff bd
       0.056531206 -0.06005712 -0.11541224 -0.124797195
000180 ec 1b dd bd bb 20 32 3c ff ad f4 bd 33 4e 06 3d
       -0.10796341 0.010872061 -0.119472496 0.03278942
000190 4d 59 9e 3d 12 3c 98 3d 25 54 dc 3d e1 b1 8e bc
       0.077318765 0.074333325 0.10758237 -0.017418804
0001a0 5f b6 df 3d d5 3c 16 bd bd c0 83 3d 78 98 e6 3d
       0.109234564 -0.036679108 0.06433246 0.1125955
0001b0 9b f1 62 bd 6f 90 d0 3d e2 0f 5f 3c 36 5b b8 bd
       -0.055406194 0.101837985 0.013614627 -0.09001772
0001c0 10 a7 9a 3d 1a 6a 9f 3d 82 6e a3 3d 9e aa 50 3d
       0.07551396 0.07783909 0.07980062 0.050943963
0001d0 a0 ad 06 bd 7c 15 c6 3d 93 90 89 bd 7f 09 ee bc
       -0.032880425 0.096720666 -0.067170285 -0.029057262
0001e0 35 4b ad bd 76 11 a8 bc 78 1f c0 bc 75 d6 2e 3d
       -0.0846161 -0.020516139 -0.023452505 0.04268499
0001f0 43 34 ca bd be c7 f4 bd 6e 6a 87 3c fa 93 34 3d
       -0.098732494 -0.1195216 0.016530242 0.044086434
000200 b1 9a 1d bc cd a0 ff bd 35 7d df bd ce f3 af bd
       -0.009619401 -0.12481842 -0.10912553 -0.08591424
000210 1a 47 aa bd 92 84 c3 bd 4c 0c 0c be a1 b8 89 bd
       -0.08314343 -0.0954677 -0.13676566 -0.06724668
000220 a6 c8 b2 bd 2d 92 69 3c e4 f0 1c bd eb 3c 0b be
       -0.08729677 0.014256042 -0.03831567 -0.13597457
000230 4b 86 51 3d e5 4a ff 3c 9c 4a a5 3d f3 55 f7 3d
       0.051153462 0.031163642 0.08070871 0.120769404
000240 f4 c4 b8 3d d2 e3 68 3d d4 92 7a bd 3f 8a 91 3d
       0.09021941 0.05685789 -0.061175182 0.071064465
000250 81 ac 5b bc 58 4c d3 3d df d2 b9 3d 4e b9 b4 3d
       -0.013407827 0.10317296 0.090734236 0.088244066
000260 cd 3b 9b bd a3 2d bb 3c 95 f7 69 3d f5 2d 84 3d
       -0.075797655 0.02284891 0.05712088 0.06454078
000270 45 1a 49 bd 5f bf 5c 3c 50 2d c9 3d 5d 2c e9 3c
       -0.04909732 0.013473361 0.09823096 0.028463537
000280 3e f9 44 3d 0e ae af bd 6b da 91 bd b4 da 58 bc
       0.04808926 -0.0857812 -0.07121738 -0.013235737
000290 00 2e da 3d 72 e7 46 3d ca 70 7d 3d 52 92 67 bd
       0.10653305 0.048560567 0.061875142 -0.056536026
0002a0 08 a6 6d 3d 35 5e 21 bd 64 fe 5c bb 0f 56 0c 3e
       0.058019668 -0.039396483 -0.0033720965 0.13704704
0002b0 53 2f 1d 3e eb 36 c9 3d 23 7a 30 bb ea 7d 25 3e
       0.15350084 0.09824928 -0.0026928268 0.16161314
0002c0 e3 aa 0c 3d f7 b6 43 3d 2d a7 b8 3d 20 5f 30 bc
       0.034342658 0.04778191 0.09016261 -0.010764867
0002d0 6a c2 ff bc ec bc a4 bb 40 a9 ee bd 2f dc ea 3c
       -0.031220634 -0.005027404 -0.116533756 0.028669445
0002e0 d4 b9 c2 3c 43 1d bb bd b9 34 d0 bc 57 15 b8 bd
       0.02377025 -0.091364406 -0.025415765 -0.08988445
0002f0 e7 27 7a bc 83 14 03 bd 57 d3 6f bc b4 73 ef 3d
       -0.0152683025 -0.032001983 -0.01463779 0.116919905
000300 e6 80 d1 bc f7 8c a4 3c 77 f4 4a bd 32 0c 83 bc
       -0.025574159 0.020086749 -0.049549546 -0.015997026
000310 e1 4b 39 3d b2 4a e1 3d 6d e7 a9 3b 18 69 5b 3c
       0.04523838 0.11000575 0.005185059 0.0133917555
000320 ae b8 2c bd a7 cc 89 bc 80 62 27 3c 6f 5a 37 bd
       -0.04216831 -0.016821219 0.010216355 -0.04476398
000330 3c 56 34 bd 4e 0f 7b bd 50 8e 33 bd 56 fb 24 3d
       -0.044027552 -0.061293893 -0.04383689 0.040278755
000340 f7 0e 1d bc 96 85 a5 bc 2d b8 5e bd 22 63 61 3d
       -0.009586087 -0.0202053 -0.054374862 0.05502618
000350 e6 ac 83 bd 46 7d 5b bd 72 0b 6a bd 06 7d 79 bd
       -0.06429462 -0.053586267 -0.05713982 -0.060910247
000360 c4 94 aa bc 8a 48 e2 3d 98 ae 9b 3a 6a 05 ac bd
       -0.02082289 0.11048992 0.0011877595 -0.0839947
000370 e4 48 0c 3d 76 fa 27 3d d1 b5 4f 3d 73 f2 05 3e
       0.0342492 0.041010343 0.050710503 0.13080768
000380 2f c9 39 bc e7 9a e0 bc e7 a5 f4 3d ac 99 79 3d
       -0.01133947 -0.027417613 0.11945706 0.06093757
000390 1f f9 11 3e 93 b9 23 3d 12 04 de 3c de 9e a5 3d
       0.14255188 0.0399719 0.02710155 0.08086942
0003a0 2c 73 ad 3d 1a a3 1a 3e f0 cd ac 3c b2 24 91 3c
       0.08469233 0.15101281 0.021094292 0.017717693
0003b0 26 e7 1f 3e d7 2b 1a 3e a2 72 04 3e e1 94 21 3d
       0.1561552 0.15055786 0.12934354 0.039448623
0003c0 e3 59 34 3d 77 05 cf 3d 0a 8c 88 bd ed d7 ff bc
       0.044031035 0.10108464 -0.06667335 -0.031230891
0003d0 eb 72 14 bd 9c c1 8b 3d 88 5e 9a bd 10 a2 d1 bc
       -0.036242407 0.068240374 -0.07537562 -0.025589973
0003e0 37 54 c4 3d 29 95 38 3b 72 62 85 bd d4 63 ee bd
       0.09586375 0.0028165078 -0.065129176 -0.116401345
0003f0 7e 41 8d bc 7f 2a f6 bd e2 d0 d3 bd 19 32 1d 3d
       -0.017243143 -0.12019824 -0.103425756 0.038377855

gru.weight_ih_l0 f4 [96, 32]
000000 5d 8e 5f 3d 35 a9 0b 3e c0 4b 28 3d b1 ac ad 3e
       0.054579128 0.13638766 0.041087866 0.33920816
000010 55 2b b8 3c a6 35 06 be 47 08 83 3e 1b 7b 03 bc
       0.0224816 -0.13106403 0.25592253 -0.008024956
000020 d3 06 8b 3b bb 57 bb 3d 07 a4 03 3e e8 bf 43 3e
       0.004242757 0.09147593 0.1285554 0.19116175
000030 9d 6a b8 b9 63 e4 51 3e 24 15 aa bd c0 89 07 3e
       -0.00035174648 0.20497279 -0.083048135 0.13236141
000040 bb d6 bb 3d 72 7c be 3e 26 35 54 bd 6b 0e 04 3c
       0.09171816 0.3720432 -0.0518085 0.008060078
000050 ef e4 78 3d 93 7e 7f 3e aa 1b 25 be 41 e5 07 3e
       0.060765203 0.24950628 -0.16123834 0.13271047
000060 97 1b be 3c 74 31 67 3e 4c 96 4d 3e 95 21 97 bb
       0.023206515 0.22577459 0.20076865 -0.0046121576
000070 5e 64 f8 bb 66 a8 3a 3e d4 33 1d 3d f1 ee af 3d
       -0.007580324 0.18228301 0.038379505 0.08590496
000080 b1 c9 72 3e 3c 5c 1d 3d 2a 11 b0 3d 9d 61 1e be
       0.23709752 0.03841804 0.08597024 -0.15466924
000090 d4 fe 4a 3e ff a1 44 bc d9 cc 62 3e 8c bf 35 3d
       0.19823772 -0.0120015135 0.22148456 0.044372126
0000a0 74 02 79 3c e2 6e 8d bd b9 e7 1f be 2e 11 09 be
       0.015198339 -0.06905915 -0.15615739 -0.1338546
0000b0 85 cd 03 be 9a a2 1e 3e 09 33 92 3d e3 9e e6 bd
       -0.12871368 0.15491715 0.071386404 -0.11260774
0000c0 32 3d 59 3e 61 f1 02 3e 96 1d 16 3e 6a 2f 8b 3d
       0.2121475 0.12787391 0.14659724 0.06796153
0000d0 b9 95 91 3c 41 4f bb 3c 8a 68 b7 3d 9a 56 51 3e
       0.017771589 0.02286494 0.08955486 0.20443192
0000e0 f7 15 01 3e a0 1c f9 3d 29 91 cf bb 44 e7 41 3e
       0.12606035 0.12163663 -0.006334443 0.18935877
0000f0 e7 7e 08 bd 97 41 24 3e f3 33 9f bc ce 14 03 3e
       -0.03332415 0.16040646 -0.019433951 0.12800905
000100 0c 2c 43 3d 71 dc 0a 3e 08 3c 03 3d 65 82 54 3d
       0.04764943 0.13560654 0.032039672 0.051882166
000110 a9 ed 62 3d ff 9c ea bd 94 a4 79 3d 13 5f 48 3e
       0.05540243 -0.11455726 0.06094797 0.19567518
000120 db 9a a1 bd f1 cd 67 3e 0f 5c 20 3e 0f cf ff 3d
       -0.078908645 0.22637154 0.15660118 0.12490665
000130 fe 65 70 3d 40 71 a0 3c c3 f6 8d 3d 59 24 13 bc
       0.058691017 0.019585252 0.06931832 -0.008980834
000140 ac c3 1f 3e e6 e8 a1 ba f9 67 25 3e bc 8e 0e be
       0.15601987 -0.0012352734 0.16152944 -0.13921636
000150 e4 30 d0 bd 60 70 44 3c 27 67 87 bd dd a3 6e bc
       -0.10165575 0.011989683 -0.066114716 -0.014565435
000160 a1 62 60 3e 2a 70 52 bd 74 6d 37 be 68 0e 18 3c
       0.21912624 -0.0513765 -0.17912847 0.0092807785
000170 d5 43 dc 3d 5c 5f 8a 3d 59 a7 51 be 23 38 71 3e
       0.107551254 0.067564696 -0.20473994 0.2355657
000180 0b 68 90 bd 97 e7 43 bd db b3 a5 bd 0b 57 da bd
       -0.070510946 -0.047828283 -0.08090945 -0.106611334
000190 1d a5 a1 bd 29 68 8c bd 32 82 80 3d 7a 1f 13 be
       -0.07892821 -0.068558045 0.06274833 -0.14367476
0001a0 fd 8a 08 3e b6 c3 b3 3d a2 64 d2 bc 59 43 bd bd
       0.1333427 0.08777563 -0.025682751 -0.09241361
0001b0 a7 4a 1d be 24 67 d0 3d 90 46 d0 bb a5 a4 2c 3e
       -0.15360509 0.101759225 -0.006356068 0.16859682
0001c0 26 dc e6 3d 4b fa 89 bd ea c5 55 be 5b bd 26 3e
       0.11272459 -0.06737193 -0.2087628 0.16283171
0001d0 f4 61 2e be 53 7e 15 3e 72 a2 06 be 7d e3 44 bd
       -0.17029554 0.1459897 -0.13147905 -0.048068512
0001e0 dc e1 be bd 93 20 e7 bd 7f 88 86 bd 7f 7e 1c 3e
       -0.09320423 -0.1128551 -0.06569003 0.1528263
0001f0 67 78 dd bd 7b 15 13 3e 3d c9 04 3e f5 f1 2d 3d
       -0.108139805 0.14363663 0.12967391 0.042467076
000200 c8 d8 0f be e1 ea 64 bd e3 a3 7c 3d 7a 40 26 bc
       -0.14047539 -0.05588806 0.061679732 -0.010147208
000210 f7 39 f6 bd 53 a6 bb bd 87 8c a3 3d 85 40 fb bc
       -0.12022775 -0.09162583 0.07985788 -0.030670414
000220 a7 05 00 bd 4c ba 20 be 88 51 53 3d 2e ad 0c 3d
       -0.03125539 -0.15696067 0.051591426 0.034344845
000230 83 07 63 3d 52 97 05 3e 23 a8 2a 3d 68 e3 4b bc
       0.055427086 0.13046005 0.041664254 -0.012444355
000240 f6 fc c3 bc e6 28 98 3d 9f 1b 2e 3d a4 91 11 3e
       -0.023924332 0.07429676 0.04250681 0.14215714
000250 67 6f c1 bc d6 a6 07 3e 96 e5 b9 bc 28 42 8c 3d
       -0.023612691 0.13247237 -0.022692483 0.06848556
000260 08 d5 15 3d 63 84 47 3e 1c 9b 4e 3e 0b 88 e9 bd
       0.036580116 0.19484095 0.20176357 -0.11402901
000270 77 4b af bd 82 88 cc bb a6 72 0c be 79 2f aa 3d
       -0.08559316 -0.006241859 -0.1371561 0.08309836
000280 4f 28 a6 3d 77 c9 73 3e 5a 65 c6 bc 8c ff b7 3e
       0.08113157 0.23807321 -0.02421825 0.35937154
000290 46 87 bb bd 99 60 d7 bc af 36 ca 3d 6c 03 39 3e
       -0.09156661 -0.026291179 0.09873711 0.18067712
0002a0 e8 e3 84 3a 11 3b 42 3e b0 93 1d 3e aa 45 37 3e
       0.0010138722 0.18967845 0.1538837 0.17897668
0002b0 84 5a 09 be 70 a0 30 3e 2d 42 1d be 79 d6 e1 bd
       -0.13413435 0.17248702 -0.15357275 -0.110272355
0002c0 3a e1 a3 3e 14 27 83 3e 42 72 d0 3d bf bc 2c 3e
       0.32007772 0.25615752 0.10178043 0.16868876
0002d0 da df 78 3e 54 b5 6a 3d bf d4 48 be d7 53 13 3e
       0.24304143 0.057301834 -0.19612406 0.14387451
0002e0 99 75 bb bc 39 4b 58 be af fa 1e be 12 37 c5 3c
       -0.022883223 -0.21122445 -0.15525316 0.024074111
0002f0 4a 20 16 3e 44 f2 2d 3e 30 5b 33 be 98 9e 05 3d
       0.14660755 0.16986948 -0.17515254 0.03262195
000300 29 65 e7 bd 62 46 c1 bd 52 e4 7c be a0 3e 16 be
       -0.11298592 -0.094372526 -0.24696472 -0.14672327
000310 a8 d4 b4 3d f1 e8 43 3e 17 2e c2 bd a8 ed 09 be
       0.088296235 0.19131829 -0.09481447 -0.13469565
000320 ea 75 f0 bd 0e c0 27 bc 9e 94 18 bd 50 db 16 bd
       -0.1174124 -0.0102386605 -0.037251107 -0.036830246
000330 4a 0d 13 3d 79 63 19 bc 2b 2b 09 3e 15 f4 03 3d
       0.035901345 -0.009362095 0.13395374 0.032215197
000340 ee 31 f9 bc 26 5f 68 be 63 56 63 be a6 3c 02 3e
       -0.030419316 -0.22692546 -0.22200923 0.12718448
000350 0d aa 8d be d6 80 52 bd d9 92 d3 3d 8e 24 54 be
       -0.276688 -0.0513924 0.10330743 -0.2071707
000360 8b 75 93 be fa cf 3c 3e 58 cf 4f 3e 69 21 aa bd
       -0.28800616 0.18438712 0.20293939 -0.08307154
000370 e0 65 07 be bf 28 30 be d4 58 c9 3c d5 aa 99 be
       -0.13222456 -0.17203043 0.02457849 -0.30013147
000380 d6 fb b8 3d 05 1d ac bd e3 e3 eb 3d 6a 06 1a be
       0.09032409 -0.084039725 0.11518075 -0.1504151
000390 1c ae 10 be 10 64 f2 bd 3b 13 33 3d cc 37 36 3e
       -0.14128917 -0.11835492 0.04371951 0.17794722
0003a0 89 65 fe bc 04 9b 40 3e c1 1e c6 bd d1 4a 0b 3d
       -0.031054275 0.18809134 -0.096738346 0.034006897
0003b0 d2 f0 72 bc 37 4a 9f 3d f3 9f b2 bd ba 86 f5 3d
       -0.014827924 0.07777827 -0.08721914 0.11988588
0003c0 58 63 04 3e 07 6c a2 bd 03 9c 36 3e e2 79 26 3e
       0.12928522 -0.07930761 0.17832951 0.16257432
0003d0 04 60 f6 3d cf ff 0e 3e af 9a 46 3d 6c 37 5c 3e
       0.12030032 0.1396477 0.04848736 0.21505517
0003e0 f3 54 b8 bd c7 af e0 3d a7 da ef bd 97 9a ab 3d
       -0.09000578 0.10971027 -0.117116265 0.08379095
0003f0 49 88 77 3e 80 8d d8 bd f3 78 63 3d 0f 0c b8 bc
       0.24173082 -0.10573864 0.055535268 -0.022466687

gru.weight_hh_l0 f4 [96, 32]
000000 16 04 e2 bd 6c 65 a2 3d 12 bb 0f be ec c4 3e be
       -0.110359356 0.07929501 -0.14036205 -0.18629807
000010 4c b7 77 3e 3c a3 b5 3c 2a 83 4a 3d 00 55 a6 3c
       0.24191016 0.022172563 0.049441494 0.020304203
000020 55 64 27 3c 75 be 32 be c6 42 2b be 9b 7c a9 3d
       0.010216792 -0.17455466 -0.16724691 0.0827572
000030 42 ba e1 bc b8 e4 8a be 91 08 f7 3c 64 f7 14 3e
       -0.027554635 -0.27127624 0.030155452 0.14547497
000040 03 e7 a2 bd cd 5f 3e 3d 1f 5d 94 3d cd 26 15 3d
       -0.07954218 0.04647808 0.07244324 0.036413956
000050 8b f8 0b be fb 48 11 3e 1f 1b 2f bd 1e 6a 93 bd
       -0.1366903 0.14187996 -0.042750474 -0.071979746
000060 da 65 4a bd 4f 3f 92 bc a0 3f b1 3d f4 ed 44 be
       -0.04941354 -0.017852454 0.08654714 -0.19231397
000070 c2 c5 bf 3d 0f 92 0c be 82 37 5c 3d 26 1f d6 bd
       0.09363891 -0.13727592 0.053763874 -0.1045516
000080 63 98 8b 3d 94 cd 8c 3d 1b 49 04 bd 8c 4a aa 3d
       0.06816175 0.068751484 -0.03229628 0.08315
000090 58 80 46 3e cf ff 87 bb 46 e7 50 3e ee b0 d6 3d
       0.19384897 -0.004150368 0.20400724 0.104829654
0000a0 66 90 5c 3d bf 12 be ba e2 17 26 3e 11 a1 c7 3d
       0.053848647 -0.0014501436 0.16220048 0.09747518
0000b0 e8 f6 a4 bd 35 fe 19 be 42 19 83 3c 73 da 62 be
       -0.08054906 -0.15038379 0.016003255 -0.22153644
0000c0 78 3f 88 3d 6b 19 91 3c 55 fa 15 be fa ab 85 3e
       0.06652731 0.017712316 -0.14646275 0.2610777
0000d0 67 58 a2 3c 74 85 4c be 5e d0 17 be 4a c8 12 3e
       0.019817544 -0.19972783 -0.1482558 0.14334217
0000e0 8f fe c8 bd a0 19 7b bc 4c 0a 10 be 0f 17 67 3c
       -0.09814178 -0.015325934 -0.14066428 0.014104619
0000f0 04 b8 e7 3d 16 34 c6 3d dd 84 31 bd 94 69 d3 3d
       0.11314395 0.09677903 -0.0433396 0.10322872
000100 ce 4e e3 3d 7b 08 5f 3e c4 70 52 bd cb 7d 1b be
       0.11099015 0.21780579 -0.051377073 -0.15184705
000110 ea 31 00 3d f8 b4 13 bd b5 49 4c 3c 7f 17 2d be
       0.0312976 -0.036061257 0.012468745 -0.16903494
000120 66 04 63 bc 81 d0 c8 39 94 5d 08 bd 9d f2 0a be
       -0.013856029 0.0003830232 -0.033292368 -0.13569112
000130 15 c2 5a be a1 72 8a bc 9e 15 15 be 63 fc 34 3e
       -0.21363099 -0.016900362 -0.14559028 0.17674403
000140 4b a9 89 bd e5 39 49 3e 00 a5 be 3a 8f da 61 bd
       -0.06721743 0.19650991 0.0014545023 -0.055140074
000150 59 5b ec 3c 1f 69 2b be 0e a2 3f be d8 57 69 bd
       0.028852152 -0.1673932 -0.18714163 -0.05696854
000160 76 63 d3 3c 84 c7 a7 3d 6c 62 06 be 5e d6 fd bd
       0.025804263 0.081923515 -0.13123482 -0.12394403
000170 49 cf 44 3d eb 24 0b 3d b8 ae 3c 3e 0b 6d 56 3e
       0.048049245 0.033970755 0.18426025 0.20940034
000180 73 be d5 3d f8 b0 08 be 1a d5 f0 bd ca 7e 7a bc
       0.10436716 -0.13348758 -0.11759396 -0.015289018
000190 cc 69 a5 b8 12 b6 a4 bd 52 89 85 bd 8e 82 45 3c
       -7.887519e-05 -0.0804254 -0.065203324 0.012055052
0001a0 f3 64 37 be 48 87 1d 3c 21 67 c3 bd 69 51 ac 3d
       -0.17909603 0.009614773 -0.09541155 0.08413965
0001b0 59 58 4e be fc 14 bf bc 7a 04 fc 3d 5a 03 83 3e
       -0.2015089 -0.023325436 0.12305541 0.25588495
0001c0 68 32 a1 bd 3d 96 2b be a5 a0 2e 3e 25 f8 f3 bd
       -0.07870942 -0.1675653 0.17053469 -0.11912564
0001d0 22 b8 3b 3c 1f 79 f7 3d c7 96 1d be c5 bc 9f bc
       0.011457475 0.12083649 -0.15389548 -0.019499192
0001e0 98 3c af 3d 20 6c e1 3c c9 94 07 bd 61 13 96 3d
       0.08556479 0.027517378 -0.033100877 0.07327915
0001f0 45 c3 a3 bd 55 b6 a0 bd 22 a5 d7 3d e3 44 53 bc
       -0.07996229 -0.07847277 0.105295435 -0.012894842
000200 94 f0 29 be 7e a1 50 3e f8 da 1f be 51 6e 68 3c
       -0.1659568 0.20374104 -0.15610874 0.014186458
000210 fd ce 76 3c ec c8 3c be 14 54 55 3d 33 12 f4 bc
       0.015063998 -0.1843602 0.052082136 -0.029793834
000220 a6 bd 04 3e 48 5b bc 3d 82 4f 50 3d 2b 44 7f 3d
       0.1296297 0.09197098 0.050857075 0.06232087
000230 df e3 08 be 3e f1 f9 bc a7 25 a7 bd b5 6b 21 bd
       -0.13368176 -0.030510541 -0.081614785 -0.039409358
000240 9d d5 4d be e2 fe 0b be 0b dd 46 3d 2e 0b 83 bc
       -0.20101018 -0.13671449 0.048550647 -0.015996542
000250 c2 67 11 be 45 08 e8 bc c1 e1 25 be d4 73 0a 3e
       -0.14199737 -0.028324256 -0.161994 0.13520747
000260 de fa ab bd ea bd be bd ac b5 80 bd f5 9c 62 be
       -0.083974585 -0.09313567 -0.06284651 -0.22130187
000270 0d eb db 3d 96 fd cd 3c 2e ba 60 3e 39 0e af bd
       0.10738192 0.025145333 0.21946022 -0.08547635
000280 67 20 0b bd 64 76 5a 3e d7 d3 02 3e b7 25 40 bd
       -0.03396645 0.21334225 0.12776123 -0.046910968
000290 fd 6e 09 3e 68 04 48 bd 2f 02 06 3d 4f 3a 2a 3e
       0.13421245 -0.048832327 0.032716926 0.16623805
0002a0 a8 5b 8e 3b 36 77 e3 bc 61 5c 61 bc 0a db cb bd
       0.0043444224 -0.027766805 -0.013754935 -0.09953888
0002b0 8a 0e 22 be ef aa 1a 3e 4b c2 83 3e 4f ad 26 be
       -0.15825859 0.15104268 0.2573417 -0.1627705
0002c0 f2 be 4a be de c8 07 be 0b 12 8f be 6a ed 9c bd
       -0.19799402 -0.13260219 -0.27943453 -0.07662471
0002d0 f1 15 d1 3d 5e d9 b9 bd 10 01 14 bd 40 d5 91 3d
       0.10209263 -0.090746626 -0.036133826 0.07120752
0002e0 fc 6c 3b 3d d9 b3 a9 be b5 bc 34 bc 45 cf 5b 3e
       0.045758232 -0.33145025 -0.011031319 0.21465786
0002f0 ad 45 62 be 7b f3 1e bd bc 02 8a be de 5f b7 bc
       -0.22096892 -0.03880642 -0.2695521 -0.02238458
000300 fc 66 74 3d 2c 00 0a 3e aa 32 50 bd 68 60 a6 bd
       0.059668526 0.13476628 -0.050829567 -0.08123857
000310 06 d9 fd bd ac f7 05 3c 54 70 25 be 0b 67 17 bb
       -0.123949096 0.008176725 -0.16156131 -0.002310219
000320 ef 86 06 3e 0a 37 4c be b8 ea 4e be ed 5e f0 bb
       0.1313741 -0.1994287 -0.20206726 -0.007335535
000330 7d a3 6e 3e f8 5b f3 3d 10 3e b6 3c b7 95 a9 bd
       0.23304553 0.11882776 0.02224639 -0.08280509
000340 5d 0b 82 3d 8e 18 1d bc 22 c3 15 3e 49 cf 8d bd
       0.063498236 -0.009588374 0.14625219 -0.06924302
000350 65 b2 8f bc b3 86 8f bd 0f 12 1d be e9 6a 87 3d
       -0.01754112 -0.07008114 -0.1533892 0.06612188
000360 53 e6 f7 3d ab 0e 42 3e 5c 0a 90 bd ae 54 a5 3d
       0.12104478 0.18950908 -0.07033226 0.08072792
000370 e0 63 1f 3e a3 9d 82 3d b8 56 d3 bd 4e 68 8c bd
       0.15565443 0.06377723 -0.10319275 -0.06855832
000380 81 57 48 bd ea 53 17 3e d4 e6 0b 3d df d0 25 3d
       -0.048911575 0.14778104 0.03415568 0.040482398
000390 2b da da bd 21 42 c7 3d 41 18 59 3d 67 dd 1e bd
       -0.106861435 0.0972941 0.053001646 -0.038785364
0003a0 18 31 1a 3e f2 e3 1e 3e 1a 60 b3 bd 72 67 03 bb
       0.1505779 0.15516642 -0.08758564 -0.0020050672
0003b0 b5 76 a3 bd 89 74 1b 3e 9c e4 e2 bc 9a cc a0 bd
       -0.07981626 0.15181173 -0.0276969 -0.07851525
0003c0 a9 81 10 be a7 8f 9b 3a 81 23 22 be 45 7e 56 bd
       -0.14111961 0.0011868373 -0.15833856 -0.052366514
0003d0 92 3f 83 bd 59 f1 1b be 39 25 6d bd e6 ab 86 3e
       -0.064086094 -0.15228786 -0.057896826 0.26303023
0003e0 7d 67 6a bd 6b 0f 2d be c3 a2 f1 bd 71 b8 7f 3d
       -0.0572276 -0.16900413 -0.117986225 0.062431756
0003f0 54 c8 79 be 97 64 6c 3d e6 2d 9a bc 87 ac de bd
       -0.24392825 0.057713117 -0.018820714 -0.10872751

gru.bias_ih_l0 f4 [96]
000000 fb 6e 13 3e 3b f7 61 bd 4d e5 4a 3e 50 e7 f0 bd
       0.14397804 -0.055167418 0.19814034 -0.11762869
000010 52 ce e8 3d 15 74 ff bc 81 74 11 be 8c 8c 58 bc
       0.113674775 -0.031183282 -0.14204599 -0.013217103
000020 f8 e7 5b 3e 3b b1 60 bd 51 36 2e 3c 54 90 07 bd
       0.21475208 -0.05485652 0.010633067 -0.033096626
000030 37 8f bf bd 32 ba 06 3e 89 9f e0 bd ca 01 c7 bc
       -0.09353488 0.13156965 -0.10967929 -0.024292845
000040 5d e7 6e 3d d9 bb ac bd fa 1f 0a 3a fb 87 33 bc
       0.058326114 -0.084342666 0.0005269047 -0.010957713
000050 be 2a c9 3d 1f fc ab bd 66 ef 70 3e e1 7c f6 3d
       0.098226056 -0.08397698 0.23528823 0.120355375
000060 80 df f5 ba 80 7c de bd 05 12 07 3e a1 f9 05 3b
       -0.0018758625 -0.1086359 0.13190468 0.002044298
000070 c8 88 11 3e 75 0a 24 3e 01 7a 3e 3d 27 ba 99 3e
       0.14212334 0.16019614 0.04650307 0.30024835
000080 a5 4e f9 bd 12 60 b8 3d 4d 99 7f bd cb da 3c 3e
       -0.121732034 0.09002699 -0.06240206 0.18442838
000090 fd a6 01 3d d0 c8 07 be 4c a5 21 3e dd 3d 54 bd
       0.031653393 -0.13260198 0.15785712 -0.05181681
0000a0 4e ec 13 bc c5 ed 4b 3d af 65 a2 3e 47 94 2e 3e
       -0.009028507 0.0497873 0.31718203 0.17048751
0000b0 06 3e 62 3d 09 62 94 3d 1f 3d 39 bd 0c 05 f2 bd
       0.05523493 0.07245261 -0.045224305 -0.11817369
0000c0 81 30 de 3d fc 7e 5c 3e 91 5c 4d bd 9f f2 5a 3e
       0.10849095 0.21532816 -0.050137106 0.21381615
0000d0 f4 de c8 bc 55 f3 05 be ee 1f d4 3c 55 72 a9 bd
       -0.024520375 -0.13081105 0.025894132 -0.0827376
0000e0 56 81 14 3e d1 0a 87 bd 00 52 02 3d f3 ca 04 be
       0.14502463 -0.0659386 0.031816483 -0.12968044
0000f0 f4 47 99 3c 81 49 6b 3e 81 9e f3 bd 18 be 5f bd
       0.018711068 0.22977258 -0.118954666 -0.054624647
000100 1c 32 35 bb 99 2d 22 3e 94 08 1e 3d 35 4f 59 bc
       -0.0027648276 0.15837707 0.0385824 -0.013263513
000110 fb d7 6b 3d 99 a5 63 be db 15 c4 3d c6 a1 5e be
       0.057579022 -0.22231139 0.09574481 -0.21741399
000120 a3 f8 a5 bd 1b 2a 88 3c bf 5e 2e 3e 30 6d 56 3e
       -0.08104064 0.01662164 0.1702833 0.20940089
000130 df f3 fc bc 2d 71 96 bd 6d 98 f3 3c af 99 84 3d
       -0.030878006 -0.07345805 0.029735768 0.06474625
000140 5f 86 5b be 91 3c 13 be 91 c6 db bc 70 3f da bd
       -0.21437977 -0.14378573 -0.026828082 -0.10656631
000150 3e dc 73 be b6 94 ac 3d f8 1e c7 3d 94 47 06 be
       -0.23814484 0.08426802 0.09722704 -0.13113242
000160 d0 ec 42 3c 8c c2 14 ba 2f ef 61 bd 28 eb 25 be
       0.011897281 -0.00056747417 -0.055159744 -0.16202986
000170 20 5a dd 3d d0 cf ef bc ad 2c d7 3d 58 d2 f6 3d
       0.108082056 -0.029273897 0.10506568 0.12051839

gru.bias_hh_l0 f4 [96]
000000 11 69 99 bb cf eb 5e 3e af dd 72 3e ee 86 96 3d
       -0.0046817143 0.21769641 0.23717378 0.073499545
000010 11 60 7b bd d9 62 5a bd 43 b9 a4 bd 4c 42 38 3e
       -0.061370913 -0.053316925 -0.08043148 0.1799404
000020 9c 9e 9e bc d8 9a 57 3e 58 2c 0a 3e c6 d9 b1 3d
       -0.01936274 0.21055162 0.13493478 0.08684115
000030 5a 6a 84 3c 21 7d 8e 3e 3f 3f be bd 1f d3 4c 3d
       0.016163994 0.2782984 -0.09289407 0.05000603
000040 e5 27 7b 3e 60 b1 7a 3d d4 98 52 37 a9 18 26 3d
       0.24526937 0.061204314 1.25525585e-05 0.04055086
000050 20 87 86 3e aa cb 47 3e 2b c8 7c 3e a6 02 5c 3e
       0.26274967 0.19511285 0.24685733 0.21485385
000060 bb 12 8a bd 57 c6 b1 3d 70 1f a1 3d 66 5a 37 3d
       -0.06741854 0.086804084 0.07867324 0.044763945
000070 5a bd 84 bc 4c 8e 2f 3d e2 12 3a 3d b5 89 7d 3e
       -0.016203571 0.042860314 0.045428164 0.24759562
000080 97 4f 62 bc 4a eb 7d 3e 51 fd 33 3e 8c fd 76 3c
       -0.013812921 0.24796787 0.17577101 0.015075099
000090 99 fe 6b 3e 6b b6 c7 bd cf 86 13 3d 76 a0 72 be
       0.2304634 -0.0975159 0.036017235 -0.23694023
0000a0 81 0c 8f bd af aa 8a bc e1 85 72 3e 26 e3 d2 3d
       -0.06984807 -0.016927091 0.23683883 0.102972314
0000b0 84 99 49 3e 58 ad c3 bd 72 a1 0f be bf 15 d3 3d
       0.19687468 -0.09554547 -0.1402643 0.10306882
0000c0 1c 24 27 3d 8a 34 24 3d 3c 02 2f be b9 fd 59 bb
       0.04080592 0.040089168 -0.17090696 -0.0033262803
0000d0 6a 86 84 3c 72 89 1a be cb d9 eb bd e4 3e 17 3e
       0.016177375 -0.15091494 -0.1151615 0.14770085
0000e0 14 83 3f be f3 13 b4 3d 7d 85 92 bd e8 51 02 3e
       -0.18702346 0.087928675 -0.07154367 0.12726557
0000f0 e8 75 81 bd 6b 67 ec 3d 34 2d 23 be b8 00 82 3c
       -0.06321317 0.11543163 -0.15935212 0.015869483
000100 49 27 0a be 66 bb 44 3d 10 28 dc bd b1 34 cf bd
       -0.13491549 0.04803028 -0.10749829 -0.10117472
000110 65 86 ac 3d 79 39 86 3d 95 b4 25 3e eb 2f 6b bc
       0.08424071 0.06553931 0.16182168 -0.014354686
000120 21 3d ff bd b4 75 e3 bd da 20 a6 bc 37 e2 4f 3d
       -0.12462831 -0.111064345 -0.020279337 0.050752845
000130 c7 e9 dd bd a1 e2 27 bd e3 8b 41 be e9 47 64 3e
       -0.10835605 -0.040987615 -0.18901019 0.22293057
000140 12 4f 30 be 38 22 64 bd 3b 53 7b 3e 1a a8 46 bd
       -0.17217663 -0.055696696 0.24543469 -0.048500158
000150 88 81 2d 3d 10 e1 b5 bd 77 7e 4e be 30 68 06 bd
       0.04235986 -0.08880818 -0.2016543 -0.032814205
000160 3b 18 ce 3d 9f 65 c6 bd 38 41 16 3e fd e7 1a be
       0.10063215 -0.096873514 0.14673316 -0.15127559
000170 fa d4 2e 3e 75 da 9f bd db 09 75 3d 54 dc 03 3e
       0.17073432 -0.07805339 0.059823852 0.12877017

gru.weight_ih_l0_reverse f4 [96, 32]
000000 e9 a4 2c 3e 6c c5 1f 3e 01 ed 41 bd b4 b8 0d 3e
       0.16859783 0.15602654 -0.047345165 0.1383999
000010 07 18 33 3d 39 e2 2b 3e 24 9e 39 3e 72 4e 5d bd
       0.043724086 0.16785516 0.18126732 -0.05402989
000020 5f 78 0c 3d 8d 43 61 3b ae de 3d 3d f4 0c e6 bd
       0.034294482 0.0034372539 0.046354942 -0.11232939
000030 82 2e c2 bd 45 f1 1f 3e ec c1 28 3e 24 70 b5 3d
       -0.09481527 0.15619381 0.16480225 0.0885928
000040 05 42 a7 3d f9 6d 5a 3e af c7 13 3e 14 16 ca 3d
       0.08166889 0.21331014 0.14431642 0.09867492
000050 f9 a2 0a bd c0 d5 ce 3c c6 59 3f bd c4 29 3d 3d
       -0.03384683 0.025248408 -0.046716474 0.04618241
000060 31 a6 d8 bd c6 3c f7 3d 1e 0f 0d 3e 23 5b 52 3e
       -0.105785735 0.120721385 0.13775298 0.20542578
000070 da b6 99 3c 41 4a b7 3d cd 1d 9b bd 83 a2 b2 bd
       0.018763948 0.0894971 -0.075740434 -0.08722403
000080 8d b4 23 bd 07 71 45 3c 8f 4d a6 bd d1 41 ce bd
       -0.03996711 0.012050874 -0.08120262 -0.10071147
000090 47 45 82 3d 9c 95 5f 3e f8 87 f5 bd 93 9e e6 3d
       0.0636087 0.21834415 -0.119888246 0.112607144
0000a0 ea 09 8c bd 0c 44 b8 3d 10 1f eb bd 75 7f 18 3e
       -0.068378285 0.08997354 -0.11480534 0.14892371
0000b0 a5 7f dc 3c 73 24 d6 bd 31 fa 09 3e ee 52 e8 b8
       0.026916334 -0.10456171 0.13474347 -0.00011078069
0000c0 65 96 22 be 84 4d 38 be e0 c9 32 be a9 3e 40 3d
       -0.15877683 -0.1799832 -0.17459822 0.046934757
0000d0 d4 3b 14 be 92 bb 11 3e 4e da 44 3e 1b c7 c5 3d
       -0.14475948 0.14231709 0.19223902 0.09657117
0000e0 6b 08 93 3b 31 44 d8 3c 84 69 97 3d de 8f 19 3d
       0.0044870875 0.026399704 0.073931724 0.037490718
0000f0 9d 36 8e bd 43 3c 0c 3d 6d 9b fa 3d 0b 90 6f be
       -0.069440104 0.034237158 0.12236676 -0.23394792
000100 7c e6 0f 3c a7 36 f4 3d 80 3e 4d 3e 07 5f d2 bc
       0.008782979 0.119244866 0.20043373 -0.025680078
000110 3d 11 8e 3d 2d 02 5b 3e 9c c6 df 3d 1c 38 3d 3d
       0.06936882 0.21387549 0.109265536 0.04619609
000120 48 54 89 bd 20 1b 2a 3e cd cd 83 bd fb 9f b4 3d
       -0.067055285 0.1661191 -0.06435738 0.08819576
000130 f8 1f ae bd 6a 6a 75 3e 9d b5 6c 3e 47 90 d6 bd
       -0.08502191 0.23966375 0.23116155 -0.104767375
000140 0a ab c0 3c ca 35 49 3e 39 ba e3 3b e1 72 84 bd
       0.023519058 0.19649425 0.0069496897 -0.06467224
000150 fa c0 ef 3d 29 26 c1 3a 05 cb 3b bc b4 ff 22 bd
       0.11706729 0.0014736104 -0.011461978 -0.03979464
000160 4b fd 30 3d dd 39 21 3e a0 7e 14 3e b5 f0 f4 bc
       0.04321031 0.1574473 0.14501429 -0.029899934
000170 d3 f9 1e 3e c8 82 74 3e 97 4f e0 3d 0b 6d 89 3e
       0.15524988 0.23878014 0.109526806 0.26841006
000180 bc ca b5 bc d1 c2 25 3e 9d 91 bf bd e8 77 d3 bd
       -0.022191398 0.16187598 -0.093539454 -0.10325605
000190 de 1d 18 be fb a2 c2 bc 9f 02 62 bd ca 6c 99 3d
       -0.14855143 -0.023759356 -0.05517828 0.07491453
0001a0 cc f3 56 3e 75 4a 20 be 0e 44 22 bb 50 54 cc bd
       0.20991439 -0.15653403 -0.0024759802 -0.09977019
0001b0 7b 67 43 bd 60 20 1d be 97 1a 16 bd f8 df 6e 3d
       -0.04770611 -0.15344381 -0.03664645 0.058319062
0001c0 93 32 4b 3d 1e 2c be bc c7 cc ee bd 54 14 48 3d
       0.04960878 -0.023214396 -0.11660152 0.04884751
0001d0 aa 57 56 3c 7e 87 af 3d c7 7f 13 3e 5c a1 26 be
       0.013082424 0.08570765 0.14404212 -0.16272491
0001e0 2f 1c f9 3d 21 4f da 3c 3b e0 95 3d 20 3a a9 bd
       0.12163579 0.02664906 0.07318159 -0.082630396
0001f0 d9 55 18 bd ad 57 70 3d ef 1e cf 3d 9f f3 ba bd
       -0.037191246 0.058677364 0.10113322 -0.09128498
000200 a1 78 14 3e 87 07 1d 3e a0 b5 36 3c 55 db 11 be
       0.14499141 0.15334903 0.011151701 -0.14243825
000210 8a 46 ed 3d ca b0 18 be fd 54 df bd ab ae 20 3e
       0.1158572 -0.1491119 -0.10904882 0.1569163
000220 7d 3b 60 3e 0c 4e 1c 3e ac a5 b8 bd 33 9c 62 3e
       0.21897693 0.15264148 -0.090159744 0.22129898
000230 78 db d1 3d ea 58 d7 bd be 21 08 be 55 f8 9a 3d
       0.102469385 -0.10515006 -0.13294122 0.07566897
000240 0e 91 da 3d 77 7d 44 bd 7b 55 1f 3e 76 0f 9b bd
       0.10672198 -0.047971215 0.15559952 -0.07571308
000250 68 22 bb 3d 8c 23 a6 bd 31 64 11 3e f7 38 7b 3e
       0.09137422 -0.08112249 0.14198376 0.24533449
000260 39 ac 93 bb 6e 02 d3 3c 07 a8 cc 3d c0 8f 1b bc
       -0.0045066145 0.025757995 0.09992986 -0.009494722
000270 a2 c3 6a 3e 39 47 c9 bd ba 55 02 be f6 20 69 bd
       0.2292619 -0.09828038 -0.12728015 -0.0569162
000280 23 83 80 3d 48 37 00 be 36 1f 23 3e d8 42 1e be
       0.06275012 -0.12521088 0.15929875 -0.15455186
000290 cc 8c e9 3c ca 93 6f 3d 20 f1 dd ba a3 2b bd bd
       0.02850952 0.058490552 -0.0016932823 -0.09236839
0002a0 ea 44 55 be 28 a4 21 bd ce cd 38 bd 76 24 11 be
       -0.2082707 -0.039463192 -0.045118146 -0.14174065
0002b0 bc 44 a8 3d 04 3d cc bd 43 47 de bd 9e 1c 31 bc
       0.08216235 -0.09972575 -0.10853436 -0.0108100455
0002c0 2f 10 9a 3d 78 cd 51 be 5b 79 27 3e 45 0a 1a 3e
       0.07522618 -0.20488536 0.16354887 0.1504298
0002d0 8f 01 c7 bd f9 54 23 be de 23 4b be 54 b8 90 bc
       -0.09717094 -0.15950383 -0.19837901 -0.01766602
0002e0 59 b9 df bd 00 e1 f7 3c 9e 9b 2f be bb 2b 52 3d
       -0.10924024 0.030258656 -0.17149207 0.051311236
0002f0 65 da 41 3e 89 35 9a 3d 4a 51 5c be 74 da 30 3d
       0.18930967 0.07529742 -0.21515384 0.043177083
000300 68 8f c4 3d 7f 5a 85 3d 9c 1f 4b bc 0a 77 ff bc
       0.09597665 0.065114014 -0.012397673 -0.031184692
000310 83 3e 90 bd 7c a5 c8 bd 53 8b 27 3e f3 89 96 3d
       -0.07043173 -0.09797189 0.16361742 0.073505305
000320 c0 91 d4 bd da 80 ef bc 5a 3d 0d be 6b f9 0f be
       -0.10379362 -0.029236246 -0.13792935 -0.14059989
000330 ec 97 45 bd 2f 8d bd bd 86 91 16 3d 07 14 09 bc
       -0.048240587 -0.09255444 0.036759876 -0.008366591
000340 48 95 d1 3c 07 9b 21 be eb 7a 5d bd 35 46 fe 3b
       0.025583878 -0.15781794 -0.0540723 0.007759834
000350 f7 cd 81 3d e4 db e6 bd e4 61 95 3c 17 ce 6a 3d
       0.06338113 -0.112724096 0.018235154 0.05732545
000360 fc 1e d9 bd a7 9c b7 bd 56 14 a3 3d 5a a9 90 bd
       -0.10601613 -0.08965426 0.07962863 -0.07063551
000370 ef 04 50 bc 43 bf 05 3d b5 0b 10 3d a6 22 90 bb
       -0.012696489 0.032653105 0.035167415 -0.0043986617
000380 4a 89 13 3e ef dd b9 3e ca 9f 37 3e 15 e4 59 3e
       0.1440784 0.36302134 0.17932048 0.21278413
000390 8a 4e 5c 3e 4e 47 b0 3d d7 77 55 3e f5 73 70 3e
       0.21514335 0.0860735 0.20846497 0.23481734
0003a0 46 f9 5d 3e 89 a5 8c 3e 51 07 a4 3c b6 35 2b 3e
       0.21677122 0.27470043 0.02002302 0.16719708
0003b0 48 05 07 3d 9c 18 ee 3d 94 ee b8 3e 2b 98 37 3d
       0.03296402 0.116257876 0.3611952 0.044822853
0003c0 52 5a 8f 3e 9d 5e e8 3d a7 d6 74 3e 65 c8 bb 3e
       0.27998596 0.11346171 0.23910008 0.36676326
0003d0 fc b0 84 3e 6e 7b 0c 3e e3 bb cd 3d 40 ec 84 3e
       0.25916278 0.1371896 0.10045602 0.25961494
0003e0 3d 7d 52 3e a7 34 fc 3d bb 72 9c 3e 54 3b 60 3e
       0.20555587 0.1231473 0.30556282 0.21897632
0003f0 77 17 00 3e 15 9c 9e 3c e4 3c 10 3e 93 62 bc 3e
       0.12508951 0.019361535 0.14085728 0.36793956

gru.weight_hh_l0_reverse f4 [96, 32]
000000 61 ac 5b 3e 65 d7 11 3e db 85 5d 3d b3 cc 10 3e
       0.21452476 0.14242323 0.054082733 0.14140587
000010 c9 93 41 3e fc c8 2c be ce 63 a7 3c ca 27 5a 3d
       0.18904032 -0.16873544 0.020433333 0.053260602
000020 8f 98 59 3b 71 18 26 bc a4 3a 65 be c9 1e 4c 3e
       0.0033202504 -0.010137663 -0.22385651 0.19933619
000030 e2 63 86 3d 09 a8 51 3d 42 62 80 3d af 79 25 bd
       0.0656202 0.05118564 0.06268741 -0.04039925
000040 be ad 69 bd 59 c2 1f 3e 3a 50 08 be f9 a8 9a bc
       -0.05705046 0.15601481 -0.13311854 -0.0188794
000050 98 cf 84 3d bd 18 03 3e 11 36 76 3d fe 27 62 be
       0.06484908 0.12802406 0.060110155 -0.22085568
000060 b2 2e ca bd 6c 70 b2 3d 1e 8d a2 3d 4b 5d 9e 3d
       -0.09872188 0.08712849 0.07937072 0.07732638
000070 b2 d8 c1 bd d2 a7 30 3e 63 c8 67 3e aa d9 23 3e
       -0.094651595 0.17251518 0.22635035 0.16001001
000080 60 53 9d 3d aa a9 33 3e fc 90 e9 bc 38 c0 3e 3e
       0.07681918 0.1754519 -0.028511517 0.18628013
000090 b2 2e 30 3e 0d 0c ca bd 8c e0 6f bd 40 de d5 bd
       0.17205313 -0.0986558 -0.058563754 -0.104427814
0000a0 99 1d 43 be e1 9d 80 3e f6 93 7e be 05 0a 93 3d
       -0.1905426 0.25120452 -0.2486113 0.071796454
0000b0 ab 53 ad 3c 09 28 66 3d 43 ef 49 be d5 30 59 3e
       0.02115806 0.056190524 -0.19720177 0.21210034
0000c0 91 00 b7 3d aa c8 93 bc c2 f8 2d be f4 5c 5b be
       0.08935655 -0.01804002 -0.16989425 -0.21422178
0000d0 00 91 67 be ed 7a 24 3e fa e7 4c bd 6d ec 4d be
       -0.22613907 0.16062517 -0.050025918 -0.2010972
0000e0 7d 70 a2 bd 56 0c 18 be af 2b cd 3d 73 93 97 bd
       -0.07931612 -0.14848456 0.100180976 -0.074011706
0000f0 f1 d4 9a bd 1b 31 06 3e 64 ca 87 3e a7 cf 21 3d
       -0.075601466 0.1310467 0.265216 0.039504673
000100 58 af 63 3d 15 0d 03 be 81 d9 40 bd 67 d2 16 be
       0.055587143 -0.12797959 -0.047082428 -0.147287
000110 61 12 91 3d 01 73 0b 3e 87 20 25 bd 5e 8e d9 ba
       0.070835836 0.1361809 -0.040314224 -0.0016598215
000120 90 8a 49 be c4 2d c0 3d a1 4d 16 be 03 f5 9b 3d
       -0.19681764 0.09383729 -0.1467805 0.07615092
000130 a7 9c c6 3d 65 c4 00 be aa 65 45 be 14 24 98 bd
       0.09697848 -0.12574919 -0.19277063 -0.07428756
000140 66 a7 21 3c 59 de f0 bc 77 3c fe 3d f8 63 eb bd
       0.009866571 -0.029402899 0.124138765 -0.11493677
000150 e1 8d fd 3d 16 d5 54 3e 53 3e b8 bd 27 93 40 3d
       0.12380577 0.20784411 -0.089962624 0.047015335
000160 d4 5b 23 be aa 6c 38 be 4c 19 a5 bd 01 52 49 3d
       -0.15952998 -0.18010202 -0.080614656 0.04915047
000170 a8 de a0 3d 4a f3 69 3d 0f 30 cf bd 0e 55 12 bd
       0.07854968 0.057116784 -0.10116588 -0.035725646
000180 09 43 7a 3e 02 10 1a 3e 8a 41 4d be f4 be fd 3c
       0.24439634 0.15045169 -0.20044532 0.030974843
000190 d7 da 61 3c 4a f0 4e bd a7 a6 5c 3e 6d cf 2c be
       0.013785086 -0.050522126 0.21547948 -0.16876002
0001a0 2a c6 24 be c1 44 d0 3b 6b 77 b1 bb 34 18 0f 3e
       -0.16091219 0.0063558524 -0.005415847 0.13974077
0001b0 2e 56 62 bd 62 3e 0a 3e 4d e8 86 be 7d e6 56 3d
       -0.05525797 0.1350036 -0.26349106 0.052465905
0001c0 12 63 0e 3d 63 11 2c bd 2c 55 f6 3b 37 1c 00 be
       0.03476245 -0.04200877 0.0075174775 -0.12510763
0001d0 de a7 ae 39 b7 b5 19 3d 69 00 8e 3c 7d 53 31 bc
       0.00033312937 0.037526812 0.01733418 -0.010823128
0001e0 84 59 e4 3d a5 5b 43 be 4e ec 28 be ae dc 88 bc
       0.11149886 -0.19077928 -0.16496393 -0.01670679
0001f0 f2 3b 9e 3d bd 2c 22 3e fb 20 53 3d 90 d5 70 3e
       0.077262774 0.15837379 0.051545125 0.23518968
000200 35 d7 e5 3d 2e 55 6d bd f7 e5 9c 3d 95 60 11 3e
       0.11222688 -0.05794256 0.0766105 0.14197
000210 05 6b 9b bd 53 46 dc bd fb ff 98 3d ca 65 6a be
       -0.07588772 -0.10755601 0.074706994 -0.22890392
000220 e6 ff 9c 3d 37 99 50 3e 8d ee c7 bc 47 49 f9 ba
       0.07665996 0.20370947 -0.024405742 -0.0019019031
000230 a8 c7 3e be 85 18 20 3d a1 4a 81 3c 29 0d 09 3d
       -0.1863085 0.039085884 0.015782656 0.033459816
000240 e9 01 2f 3e 0a 95 74 bc b0 42 c4 bd 98 78 53 bd
       0.17090572 -0.014928112 -0.09583032 -0.05162868
000250 fc fe d1 bc 58 f0 d8 3c 3b ec 97 3c 1f 00 2d be
       -0.025634281 0.026481792 0.01854526 -0.16894577
000260 f9 dc 97 bd b4 49 ae bc 89 fe 87 3d 5f 23 3c bd
       -0.07415194 -0.021275379 0.066403456 -0.04593217
000270 15 b8 0b 3d 0b d7 48 bc 86 8c 1a 3e 6c 34 59 3d
       0.0341111 -0.0122583015 0.15092668 0.05302851
000280 34 5a 0b 3e 94 bd a3 3d 4d c8 f7 3d af 80 8f 3e
       0.13608629 0.079951435 0.12098751 0.28027865
000290 9b ca 37 bd 11 0b 8d bb 7a 87 fc 3d 3d b0 08 bd
       -0.044870954 -0.0043042977 0.123305276 -0.0333712
0002a0 ec 0a b9 3d cb f6 b8 3d 2c 4f b6 bd cf 59 08 3e
       0.09035286 0.09031447 -0.089018196 0.1331551
0002b0 a4 eb b2 3c 3a d9 01 be 5c a1 7b bd 22 fa 39 3e
       0.021840878 -0.12680522 -0.06143318 0.18161824
0002c0 d6 02 9b bd c4 36 4b bc 55 87 72 3d d9 7a 1a be
       -0.075689 -0.012403194 0.059211094 -0.15085925
0002d0 31 91 9b 3c ff fe 9e bd b4 43 a3 3d ae 47 f4 bc
       0.018990131 -0.077634804 0.07971898 -0.029819336
0002e0 2e 08 7e 3d 04 b1 8e 3d e9 56 6b be ed a3 d6 3d
       0.06201952 0.06967357 -0.22982372 0.10480485
0002f0 ce 51 03 3e 4a 1f 8f bd 97 68 2d 3e 03 24 42 3d
       0.12824175 -0.0698839 0.16934429 0.047397625
000300 24 3a ee 3d 81 b9 42 3d 8b 1e b2 3c 0e 23 41 3d
       0.11632183 0.04754019 0.02174308 0.04715257
000310 6a 9c de bc e6 5e 5f be b4 f3 ec 3d e9 a1 7c be
       -0.027174193 -0.21813545 0.1156992 -0.24671139
000320 9d 64 f5 bc d6 2b 8a bd de 5a 2b be bc 1a 02 3e
       -0.029955203 -0.06746642 -0.16733882 0.12705511
000330 65 77 b5 bb ef 0c 03 be 1b 26 74 be 26 fa a5 bd
       -0.0055379146 -0.12797903 -0.23842661 -0.08104353
000340 b3 aa 70 3d a7 31 01 3e 72 af 7d bd cb 8c 13 3d
       0.05875654 0.12616597 -0.061934896 0.036022943
000350 8e 69 d7 3b 87 47 14 3e c8 98 ac bd 4c 8b b8 3c
       0.0065738624 0.1448041 -0.08427578 0.02252736
000360 df c6 fc 3d f2 c3 4e 3d 0d 3d a0 3d dd b1 53 bb
       0.12342619 0.050479837 0.078241445 -0.003230206
000370 e3 a2 80 bc aa 35 0a 3e 8c 09 87 3d cc 4c 93 3a
       -0.01570267 0.13497034 0.06593618 0.0011238097
000380 7a 67 84 bc 08 9d d2 3d b9 60 b4 3d 3f 6d 7b bd
       -0.016162623 0.102838576 0.08807511 -0.061383482
000390 d2 be 07 be e6 e0 e4 3d 21 fd 3e 3e d5 98 82 3d
       -0.13256386 0.111757085 0.18651249 0.06376807
0003a0 6d fe a8 bd ad d6 29 3e 50 1f 3a be 5a 84 2a bd
       -0.08251653 0.16585799 -0.18176007 -0.041630127
0003b0 c1 80 3c bd 7a 53 61 3d 5e 4a b1 bd d0 0d 24 be
       -0.046021227 0.05501125 -0.086567625 -0.16020894
0003c0 fa 84 0d be 18 47 c7 bc d3 db ce bd 66 1c 3b 3d
       -0.13820258 -0.024325892 -0.10100522 0.04568138
0003d0 c0 29 84 bd ac d3 12 3d 43 f3 68 bd 06 f4 89 be
       -0.06453276 0.035846397 -0.056872617 -0.26943988
0003e0 f1 4a bf 3d 26 7e ad 3d 40 04 85 3d d8 6a 95 bd
       0.09340466 0.084713265 0.06494951 -0.072957695
0003f0 d8 b8 bf 3c 8f 55 e5 bc 55 36 b8 3d 48 03 02 3e
       0.02340357 -0.0279949 0.08994738 0.12696564

gru.bias_ih_l0_reverse f4 [96]
000000 df 6f 92 3d f9 6d 37 3e 09 6e 2c 3e f2 a9 13 3e
       0.07150244 0.17913045 0.1683885 0.14420298
000010 20 cf 81 3d 7d 74 f7 bd 8b fe 05 bd 45 15 98 bd
       0.06338334 -0.12082765 -0.032713454 -0.07425932
000020 1a e6 ed bd 06 2a 5f 3e ae 9b 38 3d c7 81 fd 3d
       -0.11616154 0.21793374 0.045070343 0.12378269
000030 01 8e 50 3d 91 fe ce 3b 92 d5 39 3c 0c 4d 60 3d
       0.050916675 0.006316968 0.011342423 0.054760978
000040 b0 ef 8b 3d da 78 9a 3d b2 5b 3c 3e 02 51 a2 bd
       0.06832826 0.07542582 0.18394354 -0.07925607
000050 c0 23 20 3d 1a 96 55 3e 60 e8 04 bd f9 3d 0a 3e
       0.039096594 0.2085804 -0.032448173 0.13500203
000060 7a 2e 8e 3d 1b de 11 be 14 85 c8 3d 8e 67 8f 3c
       0.069424585 -0.14244883 0.09791008 0.017505433
000070 44 26 7b 3d a9 13 e9 bd a7 8c 10 bd 7d e8 5e 3e
       0.06131579 -0.11380703 -0.035290387 0.21768375
000080 ed 06 0f be 17 6d 4d 3e 23 56 18 3c 12 65 bb 3d
       -0.13967486 0.20061146 0.00929788 0.09150137
000090 8e 18 68 3e 04 71 c0 bd 8e c5 59 3e 44 67 b9 3d
       0.22665617 -0.09396556 0.21266767 0.090528995
0000a0 12 32 7f bd 55 3f 5e 3e 7d d4 2b 3d 1d 96 85 bc
       -0.06230361 0.21703847 0.04195069 -0.016306931
0000b0 e6 04 99 3e d0 81 b9 3d 2f 68 34 3e c5 5c 0a bd
       0.2988655 0.09057963 0.17617868 -0.03377988
0000c0 0e 94 97 bb d2 b3 13 3e 54 1a 3b bd 1f de 67 bd
       -0.004625804 0.14424065 -0.045679405 -0.056608316
0000d0 78 15 87 3e 92 ae db 3d 96 00 4e bc 33 cd 72 3e
       0.26383567 0.10726656 -0.012573382 0.2371109
0000e0 36 e0 e9 3d fb 82 c4 bc 32 be 38 3d 2e 27 b4 bd
       0.11419718 -0.023988238 0.04510326 -0.087965354
0000f0 3f b2 da 3d 7b 13 87 3e c9 94 ef 3d 6e 2c a6 3e
       0.10678529 0.2638205 0.116983004 0.32455772
000100 b3 80 6a 3e a4 e2 27 3e 9e 19 b1 bd a4 b7 3f 3e
       0.22900657 0.1639505 -0.08647464 0.18722397
000110 cf 71 ed 3d 0e f3 96 bd ac 9c 24 3e dc 9b 69 3b
       0.11593973 -0.07370578 0.1607539 0.0035645878
000120 4a 90 2c be ab 86 06 3e a2 9b 41 be 24 f7 98 3d
       -0.16851917 0.13137309 -0.18907025 0.07469013
000130 f7 4b 9c bd 70 84 6f bd 29 77 c9 bd e3 47 e7 3d
       -0.07631677 -0.05847591 -0.09837181 0.11293008
000140 b1 63 aa 3d db 18 00 3e 13 06 d4 bd eb 32 25 be
       0.08319796 0.12509482 -0.10352721 -0.16132705
000150 32 23 b6 bc 91 1d 3c 3d 4d 8e 57 be 51 3c 38 be
       -0.02223358 0.045926634 -0.21050377 -0.17991759
000160 db c6 32 3d c9 66 3a be c1 00 d9 3d 8c 0d 26 be
       0.043646675 -0.18203272 0.10595847 -0.16216105
000170 38 72 f8 3d d1 81 f1 3d ae 05 60 3d 6f 40 cf 3d
       0.121311605 0.11792339 0.054692917 0.101197116
