logs/exp0/weights/epoch100.pt (torch, 348934 bytes, 45 tensors)

conv_block1.0.weight f4 [32, 4, 10]
00000000: b651 98bc dc59 5bbe 9847 2d3e 54b4 1ebd
00000010: 051b c5bc e3a4 ea3d fd26 23bd 3b7d 2bbe
00000020: 2aee 073e f98e 09be a6b8 ae3d c476 20be
00000030: a0cf dabc e21d 603d 6e62 25be 641b 613d
00000040: 166f 893d f4c1 47bc 9f59 c1bd aa10 2abd
00000050: 12cb a3bd 176f b53d 3515 de3b b4ac b1bc
00000060: 1d39 8f3d 385a 00be 9782 563d 92e4 c63d
00000070: 7184 63be b84f 18bd cbfb 45be 8af4 b23d
00000080: 66d6 a43b 7f53 43bd 7eef 2abd d9dd 00bd
00000090: 40f2 cebd b82e 223d b716 d63c d1b6 173c
000000a0: d03d 99bc e4c0 09be c099 af3d 99b5 00be
000000b0: c4b5 c4bc 919f 3a3e d112 f4bd 9737 1ebd
000000c0: 6e23 db3d 2cde 8a3d 2915 a13d a63c 783d
000000d0: 959d 36be 765a f33d 2fe9 50be 1f40 9e3c
000000e0: 1724 f73c 3d4c 96bd ffc3 8abc f3ec 753d
000000f0: 5ca2 b4bd abef ce3b 99a9 89bc 3e30 7bbd
00000100: c121 93bc 620f e3bc 0896 c4bd 3547 dc3d
00000110: 3e79 d1bd a79f 4fbd b845 d23d 0962 aa3d
00000120: ad5e 43bd a222 45bd 9b7a 06bd 4142 66bd
00000130: 861e 09be 9a18 143c e8ec c7bc 67fd 9a3d
00000140: f095 803d 7b27 05be 1214 1fbe f895 e3bd
00000150: 2d6f 0f3e 17fb 38be 34d2 9dbd 2699 de3d
00000160: 6401 26be ffc4 e038 483b 773d 2455 da3c
00000170: 4ff6 ff3c e2fa d03c c392 123c d45b 073e
00000180: f04b aa3d 1483 013e 5ea0 393e df50 d1bc
00000190: 7c45 35bc de5c 06be 5cf9 1b3c c3c1 34be
000001a0: 8b53 f1bb 0532 b03d 0cd1 ae3d 2296 debd
000001b0: 62da 32bd 3845 babd 512a 01be 7fcd 01be
000001c0: b002 c33d af42 963d a749 e3bd 1b47 e4bd
000001d0: f312 b63d 6fa8 c23b 4c97 0dbd 8c50 99bc
000001e0: 18b9 dd3c a85c 24be 504e dcbd 7d0f 23be
000001f0: 90df 58bd ce31 ad3c 9630 9bbd aeb1 4ebe
00000200: 08ba c1bc e6bc d73c ef78 b6bd fe04 58be
00000210: 74d9 26be 1d0c 03be 6d71 03be 53ec a8bc
00000220: 97d6 d23c 27db 00bd 593f 5bbe 1669 5b3d
00000230: 454e a5bd a990 81bb 1789 61bc 2039 0f3e
00000240: 86e2 0fbe bd40 3e3d cd13 c83d 00cf a0bd
00000250: a38a 113e 7add 9abc 31ea a43d 4fe4 793d
00000260: 003b db3d bc10 983c 85cd f8bc be08 663d
00000270: bf98 cf3d 01e4 8a3d 3d71 d03d 527f af3d
00000280: 16ed 38bd 0a5a 31bd dde6 473c 888d a1bd
00000290: 4ff4 aebd bb64 fc3d 5300 d0bd 9d4e d3bd
000002a0: 2135 8b3d dfe4 c7bd e2dd 473d dd7d 3a3d
000002b0: bf26 94bd a42e cd3d 65e1 2dbc 69fb 56be
000002c0: 8c27 35bc 0b90 db3d fd9a 04be e963 0d3e
000002d0: cacf dcbd 9a1b 7c3d 1fa5 26be 6b86 9a3c
000002e0: c286 273d 6a63 4fbb cf9e 70be ac40 ca3d
000002f0: 028a 36be 9444 cdbb 9afb 683d 5cfe 8fbc
00000300: 27ee ccbd 5ed6 9cba 5a5c 60be 613b a23c
00000310: 692c ae3d af8b 763d 2788 59be 5065 bd3d
00000320: b3ad c2bb bc7c a33d 64b3 92bd 5fe9 c0bd
00000330: aa3c 253d 7f75 5fbe 8f69 8a3d cb64 273e
00000340: 76db 95be f973 d8bd 3244 073d 9d14 c83c
00000350: c7e8 40be 26e1 e7bc c4a3 be3c 01f3 063e
00000360: 150b e8bb 00b4 febd 6b31 4a3e effa 09be
00000370: 2d89 8e3c a14f 79bd bdc3 653d a034 0ebd
00000380: 0da6 25be 9339 cfbd 78a6 35b9 717d 3bbe
00000390: 171b 91be 385a 143d 1868 ad3d 48e2 8a3c
000003a0: 11dd 81bc 8584 b93d 39fa bf3d 11f5 c9bc
000003b0: 7feb 16bc 9ec0 a13d a6f3 9fbd dd7e 7a3d
000003c0: 7bb2 b83d 50a4 853d b81c 273d 49d4 623d
000003d0: 76fa 02be deb8 433e 79cf 4e3d 891c 143e
000003e0: 94b3 1f3e 3b22 f23d d316 e2bd 4a4c 01bb
000003f0: 1b2d 993c 74b4 61bb 9e18 c9bd 692c 8bbd
-0.01859365 -0.21420997 0.16921842 -0.038746193 -0.024060735 0.11457231 -0.039832104 -0.1674699
0.13274446 -0.13433446 0.08531313 -0.15670305 -0.026710331 0.054716 -0.16150829 0.054957762
0.06710641 -0.012192238 -0.09440922 -0.0415198 -0.07997717 0.08859079 0.0067774304 -0.021688797
0.06993315 -0.12534416 0.052370634 0.09711565 -0.22218491 -0.0371854 -0.19334333 0.087380484
0.005030441 -0.04768705 -0.041732304 -0.03146157 -0.10104799 0.039595336 0.026133878 0.009259895
-0.018706232 -0.13452488 0.08574247 -0.12569274 -0.024012454 0.18224932 -0.119176514 -0.038627233
0.10700117 0.06780657 0.07865364 0.060604714 -0.1783355 0.118824884 -0.20401452 0.019317685
0.030168576 -0.0733876 -0.016939161 0.060040426 -0.0882003 0.0063151917 -0.016804503 -0.061325304
-0.017960431 -0.027717296 -0.09598929 0.10755769 -0.10228203 -0.050689366 0.10267204 0.0831948
-0.04769771 -0.04812873 -0.03283177 -0.05621553 -0.1339055 0.009039069 -0.024404958 0.07567864
0.06278598 -0.13003342 -0.15535 -0.11112589 0.14007254 -0.18064533 -0.07706109 0.108690545
-0.16211468 0.00010717846 0.06035927 0.026651926 0.031245379 0.025510255 0.0089461235 0.13218623
0.08315265 0.12647659 0.18127581 -0.025551258 -0.01106393 -0.13121364 0.009519901 -0.17652039
-0.0073646954 0.086032905 0.08535966 -0.10868479 -0.043665297 -0.09095234 -0.12613799 -0.12676047
0.09521997 0.07336938 -0.110980324 -0.11146375 0.08890333 0.005940489 -0.034568116 -0.018715166
0.027065799 -0.1605097 -0.107571244 -0.15923877 -0.05294758 0.021141913 -0.075776264 -0.20184967
-0.023648277 0.026335191 -0.08909785 -0.21095654 -0.1629389 -0.1279759 -0.12836237 -0.0206205
0.02573709 -0.031459 -0.21410884 0.053567015 -0.08071569 -0.0039540124 -0.013765595 0.13986635
-0.14051256 0.046448458 0.09769402 -0.07851982 0.14213042 -0.018904436 0.08052481 0.061008748
0.10704613 0.018562667 -0.030371437 0.05616068 0.10136556 0.067817695 0.101778485 0.08569206
-0.045147978 -0.04329876 0.012201038 -0.07888323 -0.08542692 0.123239 -0.10156312 -0.10317729
0.06797243 -0.097604506 0.04879559 0.04553019 -0.07233953 0.100186616 -0.01061282 -0.20994343
-0.011056792 0.107208334 -0.12949748 0.13807644 -0.1078182 0.06154976 -0.16273926 0.018862924
0.0409 -0.0031644949 -0.2349808 0.098756164 -0.17826083 -0.0062642787 0.05688057 -0.017577343
-0.100063615 -0.0011965742 -0.2191023 0.019803705 0.08504564 0.060191806 -0.21243344 0.092478395
-0.0059411167 0.079827756 -0.07163122 -0.09419512 0.040341057 -0.21822165 0.06758415 0.16347043
-0.29268998 -0.10568995 0.03302402 0.024423892 -0.18838798 -0.028305601 0.023271449 0.13178636
-0.007081399 -0.12436676 0.19745414 -0.1347463 0.017399395 -0.060866956 0.056094874 -0.034718156
-0.16176625 -0.10118403 -0.0001732352 -0.18309571 -0.2834098 0.03621885 0.0846712 0.016953602
-0.015852483 0.09058479 0.09373898 -0.02465299 -0.00921142 0.07898067 -0.07810144 0.061156143
0.090184174 0.06525481 0.040798873 0.055378232 -0.12790856 0.1911349 0.05049083 0.1446401
0.15595847 0.11822935 -0.110395096 -0.001972931 0.018698266 -0.0034439834 -0.098191485 -0.0679558

conv_block2.0.weight f4 [32, 32, 10]
00000000: 0456 0dbd 3292 7dbd 7345 83bc 1962 8fbd
00000010: 4efe c1ba 1408 043d ed53 1e3c 9898 f73d
00000020: ccf6 c43d 261b ad3d 0ba7 ae3d b2a7 003e
00000030: d159 d73d 664f 7e3c 3847 923d 55f6 d53d
00000040: bee0 403d b220 f73d 87fb 333d b9a2 81bb
00000050: 2105 803b 9d4c be3c ee6b debc b1ce 783c
00000060: 3ddb 2cbd 3deb 9e3d 375f 3a3d 9408 50bd
00000070: 6143 093d 7184 a0bd ea67 00be 3db2 0f3d
00000080: 373f 34bd 3bc4 dfbd c15a c0bd c387 833d
00000090: ba0a 21bd 6bc7 5abd 5b57 86bc a56a 0bbd
000000a0: 268c 833d 109d ae3c 69dd 0d3e 19e9 cd3d
000000b0: 9767 91bd a54c 353e a3e0 6dbd d20e 073e
000000c0: ab06 f33c 9624 b43d ed4a efbb 822a c13c
000000d0: c775 9b3c 26a1 853d 2b37 cdbb bec9 283d
000000e0: 4b22 b9bb db7d ae3d 0d13 023e 5a7a f13d
000000f0: d182 893d f851 603d 013b 113e bbb0 203e
00000100: ea5f 813e 64fd 843d 9d1b c33d 05c2 2e3e
00000110: b14d 95b8 7196 9b3d 4b52 703e afbe 923d
00000120: f1fc 5a3d 25d6 8c3d eaf2 ce3d 0c97 cc3d
00000130: 2f2d a53d 79ad ae3d 5dc6 1b3e 87e6 203e
00000140: 33d6 a83d 6d89 ce3d 2942 2d3d d094 46bd
00000150: f755 c43d 4538 babd 2bc6 e13b 7c8c 39bc
00000160: b7bb a83c 47a2 10bc 69db 60bc 44ce 89bc
00000170: 3991 363b 7061 ebbd 5003 07be 7a66 18be
00000180: cab9 0fbe 5b5d 3a3c e039 10be b695 e2bc
00000190: 5e03 043e 6b43 133e 25ac 563e 8ebd 853c
000001a0: baf2 423e 01bb 8d3c c6de 0c3e aa0f d63d
000001b0: 5467 8bbd 9999 0b3e 9410 a43c 1d22 d3bd
000001c0: 4470 c43d 7230 af3d 96cd 953d 2dbb 803d
000001d0: f59e 54bd 3a8a d03d fb91 87bd 66e9 d9bc
000001e0: 44c6 efbd 5019 99bd 5d8f 7ebd 335e 0a3b
000001f0: 6ab6 03be 37ea 20be 193a 93bc 7993 253d
00000200: 4648 543b ab2d 2ebe d709 f0bd 9594 ffbd
00000210: fb45 b6bd 26e1 fabd 9f08 29be 6bba 06be
00000220: 7b09 9cbd 4a4f 89bc b85b 22bd 6fba 05be
00000230: 8e23 943d 5cef aa3d 0c2f 023e b7a3 203e
00000240: 5f40 0a3e afbe bd3d 4288 23bd 6b80 d43d
00000250: b250 4a3d 25e0 163e a66f f33d 0340 983d
00000260: 8130 b5bd 972e bbbb 2df8 a53d 8104 873d
00000270: f927 5ebd c71f a03c 76f5 853d c44f c4bc
00000280: 8e43 9e3d 291e 84bd d8d7 93bd 8e2c 5f3c
00000290: 8593 ed3d 654f 313d 34fc 8a3d 46e9 59bd
000002a0: 8a91 ae3d 444e 543c 7298 cfb9 1260 153e
000002b0: f97c 2f3e f600 f43d 73a2 1d3d ef40 313e
000002c0: d62f 0c3d 68e1 5d3d 5e12 803d 7a26 c0bc
000002d0: 6b35 56bd 1205 45bc f803 0abe a8ee 2abc
000002e0: b582 f3bc f049 f1bd c793 72bd 0016 acbd
000002f0: dc85 c8bc cf7e 61bd d58e 943a e80f 223e
00000300: e207 623c 8b1f 713d 149f 7ebd bacb e3bc
00000310: a573 e93c e860 dd3d c558 bb3c 5c35 403d
00000320: 5f9e 37bd 0496 79bb 5eb5 043d 0c17 cbbc
00000330: 9287 ccbc 243a 6dbd 1229 28bd afe1 263d
00000340: 5271 87b8 5470 acbb bd8b 7abd e3c4 713d
00000350: d6b6 3bbd 6337 88bd 7cf1 02bd 6d76 43bd
00000360: 9b86 a9bc d6ac f13d f176 f43c 9545 98bd
00000370: 27be 523d 0547 573d d870 6e3d 6b30 0d3e
00000380: cbdf 0b3d c87d e1bb 3d68 0e3e b4ce 973d
00000390: 6c6a 153e 58fa 3a3d cb11 b53c 5ae1 ba3d
000003a0: 5780 3e3e 0821 603e 97a6 b13d 6ee7 8b3d
000003b0: 0e1e 123e cb70 383e 5b3b 063e 1710 c63d
000003c0: dc1f ff3d 77b8 013e cd3c 8cbd 2d8c 13bd
000003d0: 172b 3bbd 3a7b c53d d321 bebd 76a4 32bd
000003e0: 1eb4 f23d 0db1 ab3c 9d63 00be 650d ffbd
000003f0: 67e1 fcbc 9cac 20be 92d9 ccbd f3ac c13c
-0.03450586 -0.061907 -0.016024327 -0.070011325 -0.001480052 0.032234266 0.009663564 0.12089652
0.09617385 0.08452444 0.08527955 0.1256397 0.10515178 0.01552186 0.0714249 0.10447375
0.04708933 0.12066783 0.043941047 -0.0039561656 0.0039068614 0.023229891 -0.027151074 0.015185998
-0.04220127 0.07759712 0.04550096 -0.05078943 0.033511523 -0.07837761 -0.1253964 0.03508209
-0.0440056 -0.109261 -0.0939231 0.06422379 -0.03931687 -0.053412836 -0.016399076 -0.03403725
0.064232156 0.021315128 0.13853993 0.100542255 -0.07099836 0.17705019 -0.05807556 0.13189247
0.029666265 0.08796041 -0.007302633 0.02357984 0.018977059 0.06524877 -0.00626268 0.04120802
-0.00564984 0.08520099 0.1270258 0.11790915 0.067144044 0.05476567 0.14182664 0.15692417
0.2526849 0.06493643 0.09526751 0.170662 -7.119345e-05 0.07597054 0.23468892 0.07165276
0.05346388 0.06876782 0.10104926 0.099897474 0.08065259 0.08529181 0.15212388 0.15712939
0.0824398 0.10084806 0.042299423 -0.048481762 0.09586709 -0.09092764 0.0068900785 -0.011324998
0.020597322 -0.008827752 -0.013724186 -0.016821988 0.0027857556 -0.11493194 -0.13184857 -0.14882842
-0.14035717 0.011374797 -0.14084578 -0.027659278 0.1289191 0.14381187 0.20964105 0.016325738
0.19037905 0.017301084 0.13756856 0.104522064 -0.06806818 0.13632812 0.020027436 -0.10309241
0.095917255 0.08554162 0.07314603 0.06285701 -0.051909406 0.101826146 -0.066196404 -0.02660055
-0.11707738 -0.07475531 -0.06214844 0.0021113276 -0.12862554 -0.15714346 -0.017972039 0.040423844
0.003239171 -0.17009608 -0.11720627 -0.12479512 -0.089000665 -0.12249975 -0.16507195 -0.1315705
-0.07618996 -0.01676144 -0.03963825 -0.130594 0.07233344 0.083464354 0.1271326 0.15687452
0.13501118 0.09264886 -0.039924867 0.10376056 0.049393363 0.14733942 0.118865296 0.07434084
-0.08847142 -0.005712341 0.081039764 0.06592656 -0.05423734 0.019546403 0.065409586 -0.023963816
0.07727729 -0.06451065 -0.07218903 0.0136214625 0.11600403 0.043288607 0.06786385 -0.053200983
0.08523853 0.012958113 -0.00039595697 0.14587429 0.17137517 0.11914246 0.038485 0.17309926
0.034225307 0.054170042 0.06253503 -0.023455847 -0.052297037 -0.012025135 -0.13478076 -0.010432877
-0.029725412 -0.117816806 -0.059222963 -0.08402634 -0.024477892 -0.055052575 0.0011334071 0.1582638
0.013795825 0.058867972 -0.062163427 -0.027807105 0.028497526 0.10809499 0.022869477 0.046925887
-0.04482877 -0.00380838 0.032399528 -0.024791263 -0.024966989 -0.057916775 -0.041054793 0.040742572
-6.458409e-05 -0.005262414 -0.06116842 0.059025656 -0.045828663 -0.06651189 -0.03196858 -0.04772036
-0.020694068 0.11800544 0.029841872 -0.07435147 0.051450875 0.052557964 0.058213085 0.13788001
0.034148972 -0.0068814494 0.13906951 0.07412472 0.14591378 0.045648903 0.02210321 0.09125014
0.18603645 0.218876 0.086743526 0.06831251 0.14269277 0.18011777 0.1310858 0.09671038
0.124572486 0.12668024 -0.06847534 -0.036022354 -0.04569539 0.09642644 -0.09283795 -0.043613873
0.11850761 0.020958448 -0.12538 -0.12453727 -0.030869199 -0.15690845 -0.10002436 0.023642039

gru.weight_ih_l0 f4 [96, 32]
00000000: 1f9f 783d 7dfb 033e f2e7 d53c 2af0 d73e
00000010: 0716 3ebc b03f 31be c02c a03e 306d bfbc
00000020: eef6 183d 5492 993d d371 013e 4729 563e
00000030: dfe8 3abc 3bce 4c3e 2c17 32be c563 c23d
00000040: f1ec 2f3e b6a8 fb3e a586 b4bd eb54 1ebd
00000050: 1655 093d a35a 943e ee0f 0ebe 5a9e d83d
00000060: 1d97 f53b 7cea 2d3e 274d 5a3e 23b4 88bd
00000070: f9b4 e9bc 8fd3 753e a6b0 9a3d d552 8a3d
00000080: 2d24 803e 4340 a23d 3a82 873c d1d2 72be
00000090: fef3 893e b5b6 033d 4b74 773e 33e0 aebc
000000a0: a3d7 c03c 9c18 b6bd 8dc0 b7bd 1d06 afbd
000000b0: 8c58 65bd 35f1 153e 5aee d23c 3f12 b7bc
000000c0: 7e2c 843e a846 103e 6cad 93bc c2af ef3d
000000d0: c8cf a1bc 267e 8d3d a299 2cbd 28e7 123e
000000e0: 2485 653d 47b7 f83d 54e4 263d 904a 413e
000000f0: c85e cdbd dd7c 523e 942c 56bd c011 323d
00000100: 4a3e ba3d dc4b fc3d eab1 d63c 3d9f aa3d
00000110: 126e fb3c b739 98be 1baf 3b3c 4301 5c3e
00000120: 4b30 25be 8d6e 843e 1b6c 1f3e b63c fe3d
00000130: 941f fa3c 9b0e 4b3d c275 3bbc c768 1dbe
00000140: 43a1 2a3e 63db 49ba 0922 843e 1c6b 1cbe
00000150: 7cdf 9dbd 34c1 8a3b 6625 40be 7e97 013c
00000160: 5d59 7e3e 6b19 d9bd c5e1 87be f8ba 96bc
00000170: 9393 c73d 111e cc3d b851 b1be 8f3c 703e
00000180: cab1 98bd 3d88 81bc de75 15bd eb39 4ebe
00000190: 42fd 4abd 411a 713d 66a6 b73d 6bfc efbd
000001a0: 130d 623e b14a ab3d 623e c2ba 275e 7ebd
000001b0: 8036 04be 5d51 ea3d e637 953d 570d 783e
000001c0: 3e08 f63d bf2e 34bd cb29 9ebe 37bd 4d3e
000001d0: a43a 10be 5d5f 1c3e c3ea 8abc 2999 3cbc
000001e0: 6e39 82bd 087d e5bc 2f32 953c b31e 533e
000001f0: 530f 99bd 8f5d 113e 7b58 653e dea6 e83c
00000200: 6768 f9bd 4d1e 123c d172 683d e3d2 59be
00000210: 366d 40bd 5b4f 0cbe 8768 d73d 8f7b 8fbd
00000220: bfaf 9c3c d896 11be ecff 0c3e e347 113e
00000230: 0fea f43d 3465 183e 2285 5c3d dc93 09bc
00000240: a0df 883c 17a0 2c3e 88a3 8abd cc7a 3f3e
00000250: 6da7 02bd 78c2 3d3e 0cfb 023c 8acf 5d3d
00000260: 96e6 5d3c 91d4 893e 83cb 7f3e 403e 63bd
00000270: 1a07 f2bd f323 1d3d a793 22be 38ed d73c
00000280: 94ae 3f3e 06f2 993e a00f 583d d994 e83e
00000290: e874 91bd b624 0f3d b032 173e 6f65 943e
000002a0: 7da2 5d3d 175b 983e 6c45 6c3e 66d7 553e
000002b0: 4b47 74bd 136f 8c3e 191b 11be 157d 65bd
000002c0: 7f3e ca3e ad2a ad3e 4cc5 553e 83e2 6b3e
000002d0: 9e86 a23e b135 183e ed81 acbd 49aa 6b3e
000002e0: 724d b63d 899d 45be d4c2 5dbd 8a82 813d
000002f0: 7d8f 6a3e ad0f 8c3e 2f38 e7bd 98a3 063e
00000300: c36b 11be 9438 58bd 1af7 6fbe 6723 98be
00000310: 12eb 4b3e 4ef1 b13e 50e1 64bc 9139 18be
00000320: c605 2c3c a43c aabc 183f 883c 142c 773d
00000330: 9813 f53d 6441 f7bc 00b2 533e f307 153e
00000340: 3483 08bd e653 36be db25 e4be 995b 463e
00000350: 5450 91be fef0 84bc 3817 553e 1e85 5bbe
00000360: 90f0 96be a1ad 793e b02f a53e d8b0 c13b
00000370: f757 02be 9cef 36be cb9a 2f3e fb68 bcbe
00000380: 7aa8 843d dbf2 fbbd 175a 043e 22c4 73be
00000390: 1ef9 43be 29c5 1abd 9dd6 d9bc 17d0 323e
000003a0: fcdc 9cbd 967c 1e3e 968c 12be 567f c3bc
000003b0: 0c52 a6bd bf41 2a3d a57e 0cbd 6e4f 3b3e
000003c0: 6595 db3d 826f 11be 75cf 343e b206 033e
000003d0: df4a 143e cefa 4f3d 78f5 813d b659 603e
000003e0: 8615 bcbd be43 083e 859e 13be d62c 6e3d
000003f0: 897e 7f3e cd38 12be d8a0 4d3d d73c 4fbc
0.060698625 0.12888904 0.026111577 0.42175418 -0.011601931 -0.17309451 0.31284142 -0.023367494
0.037344866 0.07498613 0.12641077 0.20914184 -0.01140806 0.20000546 -0.17391652 0.09491686
0.1718023 0.49152154 -0.08814744 -0.038655203 0.03352841 0.289754 -0.13873264 0.10577078
0.0074948207 0.1698398 0.21318494 -0.06674983 -0.028528677 0.24006484 0.07553224 0.0675408
0.250276 0.07922413 0.016541589 -0.23713233 0.26943964 0.032156665 0.24165456 -0.02134714
0.023540324 -0.088914126 -0.08972273 -0.08546088 -0.055992648 0.14642794 0.02574842 -0.022347568
0.25815195 0.14089453 -0.01802703 0.11703445 -0.019752398 0.069088265 -0.042138703 0.14345992
0.056035176 0.121443324 0.040745094 0.188761 -0.10027844 0.20555444 -0.052288607 0.04347396
0.09093912 0.123191565 0.026207883 0.083311535 0.030692134 -0.29731533 0.011455323 0.21484856
-0.16131704 0.25865594 0.15568583 0.124139234 0.030532636 0.049574476 -0.01144165 -0.15372
0.16663079 -0.00077002327 0.25807217 -0.15275234 -0.07708642 0.0042344574 -0.18764266 0.007909654
0.24838777 -0.10600551 -0.26539436 -0.0183997 0.097449444 0.09966672 -0.3463266 0.23460601
-0.074557856 -0.015812034 -0.03648936 -0.20139281 -0.04955793 0.05886293 0.08967285 -0.11718067
0.220753 0.08363856 -0.0014819617 -0.06210151 -0.12911415 0.114413 0.072860524 0.24223839
0.12013291 -0.043989893 -0.3089126 0.20091711 -0.1408487 0.15270753 -0.016957646 -0.011511126
-0.0635861 -0.028013721 0.018212406 0.2061718 -0.07473626 0.14195846 0.22397034 0.028399881
-0.12178116 0.008918357 0.056750122 -0.21271853 -0.04697915 -0.13702147 0.10517984 -0.07005989
0.019126771 -0.14217699 0.13769501 0.14187579 0.11958706 0.14882356 0.053837903 -0.008397069
0.016708195 0.16857944 -0.06769472 0.18699187 -0.03189795 0.18531215 0.007994425 0.054153003
0.0135437455 0.26919988 0.24979977 -0.055479288 -0.11817761 0.038364362 -0.15876637 0.026358232
0.1871894 0.30067462 0.052749276 0.45426062 -0.07102376 0.03494712 0.1476543 0.28983638
0.05411004 0.29756996 0.23073357 0.20882949 -0.059638303 0.27428493 -0.14170493 -0.05602749
0.39500806 0.33821622 0.20876044 0.23035626 0.3174333 0.14864232 -0.08423219 0.23014177
0.0890149 -0.19298376 -0.05414088 0.063237265 0.22906299 0.2735571 -0.11290013 0.13148344
-0.14201264 -0.052788332 -0.23434106 -0.2971451 0.19913891 0.34754413 -0.013969734 -0.1486571
0.010499423 -0.020780869 0.016631648 0.06034477 0.11966628 -0.030182548 0.2067337 0.14553814
-0.03332825 -0.17805442 -0.4456013 0.19370879 -0.28381598 -0.016228195 0.20809639 -0.21437499
-0.2948041 0.2438264 0.32262945 0.005910974 -0.12728868 -0.17864841 0.17148893 -0.36798844
0.06477447 -0.123021804 0.12924992 -0.23805287 -0.19138 -0.037785683 -0.026591593 0.17462192
-0.07659337 0.15477213 -0.14311442 -0.02386443 -0.08121118 0.041566607 -0.034300465 0.18292019
0.10721854 -0.14202693 0.17657264 0.12795523 0.14481686 0.050776295 0.063456476 0.21909222
-0.09183793 0.13307092 -0.14415939 0.058148228 0.24950613 -0.1427948 0.05020222 -0.012648783

gru.weight_hh_l0 f4 [96, 32]
00000000: dd73 ffbd 15a9 a73d 15bd 22be fe7e 43be
00000010: 91ac 8e3e 8e7a 213d f446 663d 39b8 303d
00000020: 6288 4ebc 92b1 6dbe edd1 38be 5133 923d
00000030: adef b8bc e230 9ebe e1a1 2b3d c204 293e
00000040: 6060 91bd 266b d83c 297f be3d 035e e83c
00000050: 48de e7bd 0dee 223e 96e4 c0bc 8f8b aabd
00000060: c02a 43bd 6b6a e6bc 8ef3 e23d 24b4 2ebe
00000070: 78da ef3d 0d51 f2bd 4410 9e3d fc07 8abd
00000080: 0fe0 60bd 01b5 cb3c de74 56bd fe04 103e
00000090: 3020 543e 2a52 5cbd 2416 b53e a255 1b3e
000000a0: 516b a03d 654d ed3c cf32 b03e 8d9c 1a3e
000000b0: ce87 21bd 5f67 3dbe 3792 40bd 1a28 31be
000000c0: dc50 5b3e ca60 b3bb 67e7 23be 3853 d33e
000000d0: 0bdb a4bc 9973 4abe 7417 51be 234e 113e
000000e0: a597 98bd 47c7 813d 527d 12be 11aa 3dbc
000000f0: 128f e43d cebe 843d 9d6e 87bd a35f ff3d
00000100: 7705 013e 01a3 b03e e555 9bbd 70d6 71be
00000110: 3514 073d 9457 9fbc 0d83 5cbc 0e8d 20be
00000120: 2b7c cabc 79a6 17bd 386b f1bd fec8 00be
00000130: 22af b2be d5a0 c4bc 6cc3 dabd 1456 2c3e
00000140: 6939 85be e67c 973e 5af3 2dbc 315c b3bd
00000150: ff5f 553b a1fb 49be 8de7 2bbe 69ba 59bc
00000160: 08a5 94bb c0e8 4e3d 0f06 f4bd 6926 02be
00000170: a17b ff3c 836b b43d 897c 243e 061a 5f3e
00000180: 6497 713d 2009 66be d438 97bd 7cd2 ce3d
00000190: 4e9f 0f3d 4bfe e9bd 96c7 a0bc fcdb 26bd
000001a0: 0c5f 08be b806 453d 51f7 38bd 7d90 0d3e
000001b0: b2dd 18be dd5f a1bd 7330 af3d 444b 8b3e
000001c0: 9277 3c3c cfc5 a6be b656 1c3e 0c2d cebd
000001d0: 4d68 a63a f85d d53d faaa 44be d406 3abd
000001e0: ce05 a33d c146 823d 97fd 82bd b34b 0f3d
000001f0: 03a1 c9bd f60c 0fbe c981 c33d c9a4 a93c
00000200: 8fe2 80be 3a4b 3a3e 7a39 fbbd cf5d 1f3d
00000210: 6d11 86bc d8f7 63be 481e e63d 1c3e 163d
00000220: 173d 453e c8ad 193e a321 103e 45cb 1a3d
00000230: b90c 5dbe 3c0c 74bc eda6 03be 1501 62bd
00000240: 30d4 7cbe f75e cebd 7941 c7b9 dfe0 eb3d
00000250: 61f5 10be 78be 8cbd a84e 54be 63bb 463e
00000260: 0dcb 14be e7ba 11bd 63d9 e3bd cb3f 68be
00000270: 702e 643d 2d35 c53d 631e 363e 5332 f4bd
00000280: 7034 5abd d1bb 603e 8464 f53d bf17 b0bd
00000290: 8afe 363e c026 803c 35c4 0b3d 4bdd 183e
000002a0: 66c2 11bd 1577 83bd 4272 153d 2821 63bd
000002b0: 35fb 40be d0f0 e73d 46fa 903e d392 12be
000002c0: 011e 1abe 56b6 42be 8719 73be f146 5dbd
000002d0: 54d1 9d3d eb63 8abd 7271 62bd 14d8 c53c
000002e0: 1510 433d 85cc a3be 843d e33c 0ff4 423e
000002f0: 7c75 3abe fdae 95bd d59e 6ebe fd0f af3c
00000300: aed9 ad3c 3862 1c3d ccc4 e439 92de e4bc
00000310: 9f55 15be 0288 09bd 6611 0ebe 19d7 d9bb
00000320: 1c85 2d3e 100a 1fbe 7981 3cbe 268f 07bd
00000330: d270 603e dc6f 113e f3e0 50bd d3c5 d9bd
00000340: 4e93 253e 91eb bdbb db23 e53d 48d5 dbbc
00000350: b793 783b 662f d0bd 65bf 43be 8d2d b83d
00000360: 2cc5 b03d 05f4 8b3e 6473 e9bd 2767 bb3d
00000370: 522d f03d 4eb8 a63d f9f7 02be 75e5 c7bd
00000380: 0d80 653c 089e 233e 7f79 f93d c7ae 7c3d
00000390: e5b4 25be 3ef7 3b3e f573 26bc 9f8b bb3b
000003a0: 6eaa 4a3e caca 4a3e a870 91bc 02cf 093d
000003b0: c6b5 2ebc 5517 643e 9fba 25bd 6f7f 2abe
000003c0: 0404 fbbb 8559 aebd c5a3 16be ae57 6dbd
000003d0: baab 2c3d 577c 39be 5b82 bc3c 1f36 893e
000003e0: 87a2 0bbd de54 51be b59d c6bd 1eac 003e
000003f0: 1a4b 6ebe ea6a 203d 9ef3 9dbd 5e54 0fbe
-0.12473271 0.08186547 -0.15892442 -0.19091412 0.27866033 0.039423518 0.05622001 0.04314444
-0.012605758 -0.23212269 -0.1804883 0.07138694 -0.022575224 -0.3089667 0.041902427 0.16505721
-0.0709846 0.02641828 0.093015976 0.02836514 -0.11321694 0.15911122 -0.023546498 -0.083274
-0.04764819 -0.028126916 0.110816106 -0.17060906 0.117115915 -0.118318655 0.07717946 -0.06739804
-0.05490118 0.024866583 -0.052357547 0.14064404 0.20715404 -0.053789295 0.35368454 0.15169385
0.07832969 0.028967569 0.34413764 0.15098782 -0.039436154 -0.18496464 -0.04701444 -0.17300454
0.21417564 -0.0054741846 -0.16006242 0.41274428 -0.02012398 -0.1977066 -0.20419103 0.14189963
-0.07450799 0.06336837 -0.14305618 -0.0115761915 0.11160101 0.064817056 -0.06612895 0.12469413
0.12599741 0.34499362 -0.075847425 -0.23616958 0.032978255 -0.01945094 -0.013458979 -0.15678808
-0.024717411 -0.037023995 -0.117880285 -0.12576672 -0.3489924 -0.024002472 -0.10681805 0.16829711
-0.26020363 0.29587477 -0.010617102 -0.087578185 0.0032558439 -0.19724895 -0.16787548 -0.013289073
-0.004536275 0.050514936 -0.11915218 -0.12709965 0.03118688 0.08809569 0.16063131 0.21787271
0.058982268 -0.22464418 -0.07383886 0.100987405 0.035064034 -0.11425456 -0.01962642 -0.040737137
-0.13317508 0.04810211 -0.045157734 0.13824649 -0.1492832 -0.078796126 0.08554163 0.2720586
0.011503117 -0.3257279 0.15267453 -0.10067186 0.0012695879 0.10418314 -0.19205847 -0.045416668
0.079600915 0.063611515 -0.06396025 0.0349843 -0.09845164 -0.13969788 0.09546239 0.020708458
-0.2517285 0.18192759 -0.12266822 0.038907822 -0.016365731 -0.22262514 0.112362444 0.036680326
0.19261585 0.15007699 0.14075331 0.03779151 -0.21586885 -0.014895495 -0.12856646 -0.055176813
-0.24690318 -0.10076707 -0.0003800502 0.115175 -0.14156105 -0.068722665 -0.2073313 0.1940742
-0.14530583 -0.035578635 -0.111254476 -0.22680585 0.05570835 0.09629283 0.17785029 -0.11923661
-0.053272665 0.21946646 0.119820625 -0.08598279 0.17870536 0.015643477 0.034122664 0.14928167
-0.035585783 -0.064191975 0.036485918 -0.055451542 -0.18845828 0.11325228 0.28315943 -0.14313821
-0.15050508 -0.19014868 -0.23740207 -0.054022733 0.07705942 -0.06757339 -0.05528397 0.024150886
0.04762276 -0.31991974 0.027739294 0.19038413 -0.18208879 -0.07308767 -0.23302777 0.021369928
0.021221962 0.038179606 0.00043634174 -0.027938161 -0.14583443 -0.033576973 -0.13873824 -0.006647956
0.16945308 -0.15531182 -0.18408765 -0.0330955 0.21918038 0.14202827 -0.05099578 -0.10633435
0.16169474 -0.005795904 0.111884795 -0.026835099 0.0037929842 -0.101652905 -0.1911598 0.08993063
0.086313576 0.2733461 -0.11398962 0.09150534 0.11727394 0.08140622 -0.12789907 -0.09760562
0.0140075805 0.15978253 0.12181377 0.06169012 -0.16182287 0.18356034 -0.010159482 0.0057234312
0.19791576 0.1980392 -0.017753914 0.033644684 -0.010663455 0.22274525 -0.04046118 -0.16650175
-0.007660391 -0.08513168 -0.1471091 -0.057944946 0.04215596 -0.18113838 0.023011377 0.26799104
-0.034090545 -0.2044253 -0.09698049 0.12565657 -0.23270836 0.03916446 -0.07712482 -0.13997027

gru.bias_ih_l0 f4 [96]
00000000: 4ea8 033e d118 32bd c99c 4f3e eb5f a0bd
00000010: a74f b73d 8986 683a 2a10 25be 537a 4dbd
00000020: b4c7 963e ea0b 3fbc 4ac5 733d 9ba1 f039
00000030: 8810 fbbd 3ed7 0c3e df13 0fbe b2fe 03bd
00000040: b489 943d 1cfb c2bd be68 513d 8562 a9bc
00000050: 18d2 ee3d 429d 55bd e231 8d3e 1b5e 003e
00000060: 7d43 1e3c 5513 0fbe 94cd 243e 7061 543c
00000070: 6291 473e 90ec 213e 0a73 b03d 0b92 cc3e
00000080: b8ab 23be c496 813d f440 c0bc 3728 533e
00000090: 217f 863d 470a 0dbe 8c5c 323e 38d3 b9bb
000000a0: 2992 5d3d 40b7 b83d 75d8 a73e 62e7 613e
000000b0: 35a4 af3d c039 8a3d 7435 63bd afd8 90bd
000000c0: 7f1c d33d 749a 643e f137 323c 6d72 683e
000000d0: 2e68 57bd 8060 debd 7685 dd3b e35a 56bd
000000e0: 81b1 633e 7a15 99ba 3de6 793d 8c43 02be
000000f0: 6c15 8b3c b860 873e 46b1 edbd 58a4 5abd
00000100: f487 533c c12f 303e 733d 213d f146 c0bc
00000110: 6291 3d3d 761b 53be 9bcd ad3d 1bb6 55be
00000120: b9ab e5bd fe3e 0e3b d314 433e 5f10 743e
00000130: b739 e4bc b0d1 c0bd 4c35 ce3c 7899 773d
00000140: ef25 61be 35cf 1fbe ed48 2bbd eee9 e5bd
00000150: 9542 73be 46cd c93d a885 ca3d 1859 07be
00000160: d35b bb3b ccec dc3b 4578 f3bc 3288 19be
00000170: c142 0f3e 72a5 9ebc dc6b d33d 4986 163e
0.12857172 -0.043480698 0.20274653 -0.07830795 0.08950739 0.0008870145 -0.16119447 -0.050165486
0.29449236 -0.011660555 0.05951432 0.00045896773 -0.122590125 0.13753983 -0.13972424 -0.03222532
0.07252827 -0.095205516 0.05112528 -0.02067686 0.11661166 -0.052151926 0.2757712 0.12535898
0.009659645 -0.13972218 0.16094047 0.012962684 0.19489053 0.15812898 0.08615692 0.39955172
-0.15983474 0.063275844 -0.023468472 0.2062081 0.06567217 -0.13773452 0.17418116 -0.005670931
0.054094467 0.09019327 0.3278233 0.22060922 0.08576242 0.06749296 -0.0554709 -0.07072579
0.103081696 0.22324544 0.010877595 0.226999 -0.052589588 -0.1085825 0.0067602945 -0.05233277
0.22235681 -0.0011679374 0.061010588 -0.1272108 0.016977988 0.26440978 -0.11606078 -0.053379387
0.012910832 0.17205717 0.039365243 -0.023471327 0.046281226 -0.20615944 0.08486482 -0.20870249
-0.11214394 0.0021705027 0.19050913 0.2383437 -0.027859552 -0.09414995 0.025171898 0.060449094
-0.21987127 -0.15606387 -0.041817594 -0.11226259 -0.23755868 0.09853606 0.09888774 -0.1321758
0.0057177334 0.0067420956 -0.029720435 -0.1499336 0.13990308 -0.019366 0.10323307 0.14699663

gru.bias_hh_l0 f4 [96]
00000000: 6690 a4bc a0e3 6a3e 5d95 773e 530e e73d
00000010: 382f afbd 8a0d aebc 49f0 cbbd 4b6d 123e
00000020: 784b 773d 5aeb 813e 393a 3c3e 7b92 f63d
00000030: ba30 53bc 988b 913e 53c6 fbbd a154 2c3d
00000040: 3ed9 843e 8d33 4e3d 664d 4f3d c493 fc3c
00000050: 4af0 8f3e 4163 683e 1f1e 933e 8822 613e
00000060: 76e6 64bd 2939 643d e796 dc3d d112 643d
00000070: 92c5 153d 1715 273d 6b3f ae3d c09c b13e
00000080: 24a4 54bd e986 623e 58db 5b3e 58f4 163d
00000090: 156a 873e 8c39 d2bd 2b63 563d 1a5f 43be
000000a0: f55c dcbb bd54 c03c b36b 7d3e 25c5 1c3e
000000b0: 3adc 683e a1d5 cdbd 7e1f 1abe 8c20 1a3e
000000c0: c9fc 103d 8da4 443d 190e e1bd 8784 213c
000000d0: 4fd4 42bc efc5 03be dc84 09be bb61 363e
000000e0: 00a6 e0bd 695d 1c3e 0777 2dbd 2bd9 043e
000000f0: 8202 85bd 65ab 193e 9836 20be 9b33 8c3c
00000100: 25fc f9bd 9ed5 543d 2938 e8bd df05 ecbd
00000110: ed62 993d d9c1 ad3d a753 1b3e 1270 8bbc
00000120: d6dc 12be 55a5 02be cd9c 57bc c3ca 993d
00000130: 0f71 dcbd 6153 79bd 0435 3bbe d5bb 643e
00000140: e5e4 30be cbed 81bd 3b9a 753e feb4 4ebd
00000150: fa84 383d 9ce5 a6bd cd21 4abe 143c 04bd
00000160: b109 db3d 0c80 a2bd 1fcf 323e 2fb7 0fbe
00000170: 79f4 473e 1f96 8dbd 7a48 6e3d 30a0 193e
-0.020088386 0.22938395 0.24178071 0.11282029 -0.08553928 -0.02124669 -0.0995794 0.14299504
0.060374707 0.25374871 0.18381585 0.12039658 -0.012890035 0.28426814 -0.12293687 0.042072896
0.25946993 0.05034213 0.050610922 0.030832179 0.28113014 0.22694112 0.28733918 0.21985829
-0.055883847 0.055718575 0.1077097 0.055682007 0.03656537 0.040791597 0.0850819 0.34689903
-0.05191435 0.22121777 0.21470392 0.036854118 0.26448122 -0.102648824 0.052340668 -0.19079247
-0.0067249485 0.023477906 0.24748115 0.1530958 0.2274026 -0.10050512 -0.15051076 0.15051478
0.035397325 0.04800849 -0.10989017 0.009858257 -0.011891439 -0.12868474 -0.13429588 0.17810719
-0.10969162 0.15270008 -0.04234984 0.12973468 -0.06494619 0.15006788 -0.15645826 0.017114451
-0.12206296 0.051961534 -0.11338837 -0.11524557 0.07489572 0.08484239 0.1516863 -0.017021213
-0.14342055 -0.12758382 -0.013159943 0.07509377 -0.10763752 -0.060870532 -0.18281943 0.22337277
-0.17274816 -0.063441835 0.23984616 -0.050465576 0.04504869 -0.08149263 -0.19739456 -0.032283857
0.10695208 -0.07934579 0.17461823 -0.14034723 0.19526853 -0.06913399 0.058174588 0.15002513

gru.weight_ih_l0_reverse f4 [96, 32]
00000000: e50b 4b3e 8f78 493e be84 21bd 2de7 9d3e
00000010: 1ae6 ca3d 96ec 2c3e 62bd 5b3e c263 71bd
00000020: 254f 6d3d 3bb2 c03c 42c0 cd3d 705c 88bd
00000030: a676 5bbd 0816 443e ddeb 403e ae8e 253e
00000040: e9e4 073e 3a9c 7e3e 3275 5e3e b87b 083e
00000050: 5704 a2bc bcda 8e3d c249 82bd c332 803d
00000060: 83f7 dfbd e881 4c3e 14ab 313e ee13 633e
00000070: 3093 9e3c 4ce2 fc3d ceb2 94bd 7f31 a3bd
00000080: 52f5 8cbd bd1e 5e3c bb40 cabd efe3 11be
00000090: 26cb ab3d b98f 9c3e af69 eabd 3d38 b13d
000000a0: 6e89 0cbd e17d 883d 3b0b c7bd 6afa 1e3e
000000b0: c13a 433d 6f55 04be 7ab6 233e 8440 e63d
000000c0: 279b 3fbe c16a 41be d258 f0bd 70a8 843d
000000d0: 524b 26be 09f1 0e3e e832 673e 54b2 b23d
000000e0: 08f2 91bc 21c9 c23d 55a7 003e 392c 633d
000000f0: feaa b9bd 2e78 313c 2922 1c3e 4377 82be
00000100: 0edd 0f3e 6b75 753e e917 9f3e 2178 3cbd
00000110: 998a 3c3e 269d 833e 9873 7e3e 38e4 383e
00000120: c825 013d f3bb 9c3e 02b9 813d 9a3e 523e
00000130: 4729 333d e976 cd3e dd47 b73e aa97 27bd
00000140: 3de9 0f3e c7e6 993e 4865 f6bb 97a5 8f3d
00000150: dab2 7c3e a95d 103e 54be fc3d 8d4b d63d
00000160: 7d84 363e 15a7 8d3e cb6d 803e 9ba9 b43d
00000170: 8e5f 923e 5ae9 bd3e d8d1 5b3e b66a bf3e
00000180: a3e9 26bd f901 233e 4c82 b1bd aad3 44be
00000190: d15e 0cbe b951 8d3d fbb7 23bd 847f 463d
000001a0: aa86 7c3e 0f83 3cbe 4c5f 523b bac1 acbd
000001b0: 121b 21bd 5907 22be a7a6 04bd 3db1 1b3e
000001c0: e54c 2d3d 3e7c 9cbc e305 fbbd 339a 693d
000001d0: 1f31 2b3b b943 a83d d3b1 4f3e b1be 2ebe
000001e0: 7108 bb3d ac85 7a3d 1db1 063e 5ad3 80bd
000001f0: 49a2 44bd 2250 263d 7665 1c3e 12c5 edbd
00000200: 5435 2b3e b65b 2d3e 8b00 f33b 22f8 3bbe
00000210: 8e17 0e3e a6ab 35be 31fe b7bd 2eb6 1f3e
00000220: d71c 503e c7b1 2c3e aaf8 68bd 59aa 743e
00000230: ef2a e73d aed5 98bd 4d69 fdbd dd59 1d3d
00000240: 6e32 003e f79f 13bd ca65 c1bc 22e7 49bd
00000250: f43c c13d c627 5ebd 8d1c fd3d 6028 8c3e
00000260: 630b 22bc aabb 6d3d ab19 c03d 96a8 09bb
00000270: f54d 683e 3431 92bd 2bc8 fcbd de1e d4bd
00000280: 7b12 913d 54a9 06be cf20 2e3e d68d 30be
00000290: a7ec 97bc 4115 11ba 5a8c 153c 0277 a9bd
000002a0: 8053 8dbe a5d7 0abd d930 8abd 0e6a 35be
000002b0: ff9b 6a3d e36f bebd 1d09 27be fd62 dabd
000002c0: 592d c03d 238b 5abe ecae 3e3e ba33 093e
000002d0: 8dcb c5bd 748a 33be b3fc 70be fe2f 31bc
000002e0: 3ef8 c4bd aec7 55bd 3d7c a7be 7f0b cc3c
000002f0: e5fe 463e 5b51 a93d 2eba 8cbe 5bb1 8c3d
00000300: 54d2 bc3d f648 893d b7ff dbbc 7c82 2bbb
00000310: ac05 4dbd 5d89 52be 449d 193e e439 1f3d
00000320: bfca f7bd 339a a9bc d7a4 ebbd 6afc 07be
00000330: 38a0 24bd e37b c0bd fe5d e13c de33 53bd
00000340: f96a 8d3c 9fef 27be 6277 bcbc 09ab 963c
00000350: 6d7a 583d e3d0 cfbd 94be a9bc 08ca 603d
00000360: dc2d 04be 9f53 63bd 1006 763d d683 91bd
00000370: 726e 0cbd 4641 113d 2011 2c3c 0b24 14bd
00000380: 2c00 973e 6eb4 dc3e 10e8 853e b5b7 c13e
00000390: 029a 4e3e c8e3 ba3c c797 733e 03fd cc3e
000003a0: 02d1 853e c4de ad3e 3717 303d 860a 4c3e
000003b0: 7e84 223d a98e 643e 7c66 be3e dafa f9bb
000003c0: 4029 dd3e 3c1d 2a3e 630d 9f3e d908 cf3e
000003d0: b7e9 bd3e 405f 3a3e bfc9 ac3d d5b6 ba3e
000003e0: 73cb 9c3e 949c 103e 2324 9d3e a77a 8e3e
000003f0: c0c8 5f3e 0c58 cb3d e0c2 083e 7645 113f
0.19828756 0.19674896 -0.039433233 0.30840436 0.0990717 0.16887125 0.21458963 -0.058933027
0.057936806 0.023522487 0.10046436 -0.06658256 -0.05357995 0.19149029 0.18839975 0.16167709
0.13270916 0.24864283 0.21724394 0.13328445 -0.01977746 0.06975314 -0.063617244 0.06259682
-0.10935881 0.1997143 0.17350417 0.22175571 0.019357294 0.1234785 -0.07260667 -0.07968425
-0.06882729 0.013557133 -0.098756276 -0.14247106 0.08388357 0.30578402 -0.11445939 0.08653305
-0.03431075 0.066646345 -0.09718939 0.15525213 0.047663454 -0.12923215 0.15987578 0.11242774
-0.1871153 -0.1888838 -0.11735691 0.064774394 -0.1623967 0.13959135 0.22578013 0.0872542
-0.017815605 0.095110185 0.12563832 0.055462096 -0.09065817 0.010831876 0.15247406 -0.25481614
0.1404917 0.23970573 0.3107293 -0.046013 0.18412246 0.25705832 0.24848783 0.18055809
0.03153017 0.30612144 0.063341156 0.20531693 0.043740537 0.40129784 0.35797015 -0.040916122
0.14053817 0.30058882 -0.007519398 0.07014006 0.24677601 0.14098229 0.1234099 0.10463629
0.17823978 0.27666536 0.25083765 0.08821412 0.28588527 0.37092096 0.21466768 0.373861
-0.040750157 0.15918721 -0.0866743 -0.19221368 -0.13708045 0.06900353 -0.03997038 0.048461452
0.24660745 -0.1840937 0.0032100258 -0.08435388 -0.039332457 -0.15823115 -0.032385495 0.1520433
0.04230966 -0.019102212 -0.12256982 0.05703182 0.0026121808 0.08216042 0.20282678 -0.1706493
0.091324694 0.061162636 0.13153501 -0.06290312 -0.04800633 0.040603764 0.1527308 -0.11609854
0.16719562 0.16929516 0.007415836 -0.18356374 0.13876173 -0.1774126 -0.0898403 0.1559684
0.20323502 0.16864692 -0.05687777 0.23893107 0.11287486 -0.07462631 -0.123736 0.03841578
0.12519237 -0.036041226 -0.023608107 -0.04929269 0.09435454 -0.05423715 0.12358961 0.27374554
-0.00989041 0.0580403 0.09379896 -0.0021005026 0.22685988 -0.07138291 -0.123428665 -0.1035745
0.07083603 -0.13150531 0.17004703 -0.17241606 -0.018545462 -0.0005534478 0.009127701 -0.08274652
-0.27602768 -0.03389706 -0.06747598 -0.17716238 0.057277676 -0.092986844 -0.1631207 -0.10663412
0.093836494 -0.21342139 0.18621415 0.13398638 -0.09657965 -0.17533284 -0.23533897 -0.010814665
-0.09617661 -0.052192383 -0.32711974 0.024907826 0.19433172 0.082674704 -0.27485794 0.06869765
0.092198044 0.06703369 -0.026855333 -0.0026170304 -0.050054237 -0.20560212 0.15001398 0.03887357
-0.120992176 -0.02070341 -0.1150605 -0.13279882 -0.04019186 -0.093986295 0.02751064 -0.051563136
0.017262923 -0.16400002 -0.023006145 0.018392103 0.05285113 -0.10147264 -0.020720758 0.054880172
-0.12908119 -0.05549967 0.060064375 -0.07105224 -0.034285016 0.03546264 0.01050213 -0.036167186
0.2949232 0.43106407 0.26153612 0.3783547 0.20175937 0.022813693 0.23788367 0.40036783
0.26136023 0.3395902 0.04299089 0.1992589 0.039677136 0.22320046 0.37187564 -0.007628781
0.43195534 0.16612715 0.310649 0.40436438 0.37092373 0.18200397 0.084369175 0.36467615
0.3062397 0.1412223 0.30691633 0.2782795 0.21853924 0.09928903 0.13355589 0.56746614

gru.weight_hh_l0_reverse f4 [96, 32]
00000000: 8e2c 573e cb54 103e ff94 7c3d 054c 233e
00000010: d619 433e 31ad 21be b47b 883c aaad 58bd
00000020: 6986 26bc cb4a bc3d 3b04 6ebe 6309 6a3e
00000030: 1a1a ab3d d05b c8bb 7f6c 673d b587 2cbd
00000040: 2f10 acbd 64b5 143e a3f4 03be 59d4 5abc
00000050: a0da 903d 445f 093e 0a8f 093d c35f a5be
00000060: b573 1abe ed3e c83d 64c5 963d b3a4 e33d
00000070: e432 b6bd 115d 5b3e 4e4e 863e a045 0c3e
00000080: 617f 323d dc0d 103e 309e cabc 56b2 2f3e
00000090: a060 113e 179b 96bd 1c3c b3bd 1b2c a5be
000000a0: 0105 3abe a049 d43e 602a 78be 719a 863d
000000b0: bba1 0a3d c638 403c fc9d 38be 9bce 3e3e
000000c0: b774 da3d d584 80bd 4b40 0cbe 0a19 32be
000000d0: 7bfe 39be 6d20 5a3e 93a8 4abd 5d42 a0be
000000e0: 2bcb 6bbe 5ee1 02be b51d d73d d317 233c
000000f0: d02c dabd 982a f43d 7da4 9b3e 831a 5ebc
00000100: 39af c03d 7433 c6bd 0b2b 57bd 274d fabd
00000110: 3ee9 cc3d bb2c de3d 7ba7 66bb 5f0d 3a3d
00000120: 635e 73be 96a6 673d 94d2 34be b08b 8b3d
00000130: a7a9 a43d 228d 54bd 6d09 6cbe 0257 fcbc
00000140: c8f6 2abc 4728 a53d 4be1 a53d feb3 15be
00000150: fe25 b53d 6166 3d3e 01ae 03be 6751 8d3d
00000160: 2353 fabd 7b60 72be 3639 bcbd e7b0 7b3c
00000170: 9d69 da3d ff7f 933d 299e 15be 4fe9 deba
00000180: 68ba 663e 527e 343e ea94 80be f251 d63d
00000190: c380 44bc a9b4 bdbc 6ecd 443e ecf2 acbe
000001a0: e154 2dbe 0f33 e83d 3cd7 3ebb 5af4 033e
000001b0: d5ea f7bc b570 153e 284c 7dbe 2c0a 313d
000001c0: 09a0 57bc 6dca 86bd 7c9e a03c 39d9 d0bd
000001d0: 3241 963c 5ab1 6bbb 7a46 07bb 81a4 02be
000001e0: 1107 8a3d be0b 4bbe bf9f 0dbe 6dc8 98bc
000001f0: f8b4 b03d 1731 243e 6a86 e53d 0725 473e
00000200: 8deb fc3d e776 cfbc f1b7 103b 981c 3d3e
00000210: baa6 cabd 7881 c2bd 9a57 a53d 0951 80be
00000220: c214 4e3d 78b2 433e fa42 e1bc 0f49 833b
00000230: 606f 35be e8d4 a33d 376d 853c d545 513d
00000240: a86c 083e 1ed8 0bbc 642a e3bd bab3 39bd
00000250: 82f3 0dbd 33a5 0a3c 49a0 0e3c 0b75 6bbe
00000260: edaa 5dbd 21bf 03bd 453a e33d b6bc 8fbd
00000270: 25d0 0f3d d095 973d 1982 683e 9733 a03d
00000280: 0a9b bf3d ac34 3b3c 640f 593e 85e1 533e
00000290: 0521 7a3b 41e2 e2bd 6f2d 143e 4cc3 a3bc
000002a0: 199d d83d a066 863d 1b16 c3bd 6bee 833e
000002b0: c8b1 f23b c4c3 04be 5c2c 88bd 733f 313e
000002c0: a778 dbba 26a8 7abb ea89 463d 2d2e 16be
000002d0: 3ce5 4abc aa62 08bd 478d 013e 84e2 4b3d
000002e0: 5081 983d d527 ea3d 5c43 3abe 01b7 d53d
000002f0: a84a 83bc e4ff 79bd c6f7 2e3e 2601 0fbd
00000300: 2cf3 e93d 71a9 873d 0ba3 70bd 0145 c23d
00000310: a05e 53bd 79c3 4cbe 4288 d83d a271 a9be
00000320: 515b 13bd 6bd2 3dbd 8461 13be d12f 2d3e
00000330: a804 96bc 0d8b 08be ac09 77be f9ee b2bd
00000340: e1eb 32bc abd4 ce3d 8351 7abd 1fd0 2e3d
00000350: a0bd 613c 097b ed3d 519d babd 8c7f 38bd
00000360: 3fb1 fc3d b19a 6f3d bad5 bd3d 9953 07bc
00000370: 3fc5 d73b b748 853e 6734 223e 518d 62ba
00000380: a861 243b 4901 f03d b293 a53d 75ea 45bd
00000390: 09b5 eabd 4a57 b63d 3a25 573e 04ff c63d
000003a0: 0dee d2bd db86 133e fc55 44be 70d0 17bd
000003b0: 3d17 73bd 11b2 dd3d 65ef d8bd 47bd 0ebe
000003c0: e726 1ebe 3509 22ba c7e8 00be 4955 c93c
000003d0: defd b1bd 6ac6 803c 392c 95bd 24f3 75be
000003e0: c260 f73d f824 7d3d eb59 563d 411b b7bd
000003f0: 1d6b 2e3d 4de5 2bbd 1c56 a83a 8b56 173e
0.2101309 0.14094846 0.06166553 0.15946968 0.19052824 -0.15788724 0.016660549 -0.052899994
-0.010163882 0.09193953 -0.23243801 0.22855143 0.08354588 -0.0061144605 0.056499954 -0.042121608
-0.08401524 0.1452232 -0.1288629 -0.013356292 0.070729494 0.13415247 0.03358368 -0.32299623
-0.15083201 0.09777627 0.07361868 0.11115398 -0.08896425 0.21422221 0.26231617 0.13698435
0.04357851 0.14067787 -0.024733633 0.17157874 0.14197016 -0.073538 -0.08751699 -0.32260212
-0.18165971 0.4146242 -0.24234915 0.06572426 0.033845644 0.011732286 -0.18029016 0.18633501
0.10666793 -0.06275336 -0.13696401 -0.17392364 -0.18163483 0.21301432 -0.04947717 -0.3130063
-0.23026721 -0.12781283 0.10503713 0.009954411 -0.106530786 0.119221866 0.30398932 -0.013556126
0.09408421 -0.09677783 -0.052531283 -0.12221747 0.10005425 0.108483754 -0.003519504 0.045422908
-0.23766474 0.056555353 -0.17658454 0.06813753 0.08040171 -0.051892407 -0.2305047 -0.030803207
-0.010434814 0.08064323 0.08099612 -0.14619443 0.08845137 0.18496086 -0.12859346 0.06900292
-0.12222888 -0.23669617 -0.091905996 0.015362001 0.106646754 0.07202148 -0.14611115 -0.0017006787
0.22532046 0.17626312 -0.25113612 0.104648486 -0.01199359 -0.023157435 0.1921899 -0.33779085
-0.1692691 0.11337864 -0.002911999 0.12886181 -0.030263344 0.14593776 -0.24736083 0.04322259
-0.013160714 -0.065815784 0.019606821 -0.10197682 0.018341634 -0.0035963864 -0.0020641373 -0.12758066
0.06739629 -0.19828698 -0.1383047 -0.018650258 0.08628267 0.16034351 0.11207278 0.19447719
0.12349615 -0.025325252 0.0022082294 0.18467939 -0.09895082 -0.094973505 0.08073349 -0.25061825
0.050312765 0.19111049 -0.027497757 0.004006512 -0.17718267 0.07999593 0.01628743 0.051091988
0.13322699 -0.008535413 -0.1109207 -0.045337416 -0.034656055 0.008462238 0.008705207 -0.22993867
-0.054118086 -0.032164697 0.110950984 -0.07018416 0.03511061 0.07401621 0.22705878 0.0782234
0.09355743 0.011426132 0.21197277 0.20691498 0.0038166654 -0.11078311 0.14470457 -0.019990586
0.10576839 0.06562543 -0.09525701 0.25767836 0.007406447 -0.12965304 -0.06649086 0.1730936
-0.0016744331 -0.0038247197 0.04847137 -0.14666052 -0.012383755 -0.03329722 0.1265155 0.04977657
0.074465394 0.114333786 -0.18189758 0.10435296 -0.01602681 -0.061035052 0.17086706 -0.034913205
0.114233345 0.06624115 -0.05874924 0.09485818 -0.051603913 -0.19996442 0.10572864 -0.33094507
-0.035975758 -0.04634325 -0.14392668 0.16912772 -0.018312767 -0.13334294 -0.24124783 -0.08736987
-0.010920496 0.10099157 -0.061112892 0.04267895 0.01377812 0.11595733 -0.09112037 -0.045043513
0.123384945 0.058497135 0.09269281 -0.008259677 0.006584793 0.2603204 0.15840302 -0.00086422736
0.0025082622 0.11718995 0.08084811 -0.0483193 -0.11460311 0.08903368 0.21010295 0.09716609
-0.10299311 0.14406912 -0.19173425 -0.037064016 -0.059348334 0.10824979 -0.10592536 -0.13939391
-0.15444528 -0.00061811815 -0.12588798 0.0245768 -0.086909994 0.015719611 -0.072838254 -0.24018532
0.12079002 0.061802834 0.052331846 -0.08940745 0.04258262 -0.041966725 0.0012843045 0.14779107

gru.bias_ih_l0_reverse f4 [96]
00000000: 3819 ae3d f851 2f3e 6bbd 5a3e 163d 183e
00000010: 4c74 aa3d 9a43 d7bd d003 35bd daa0 60bd
00000020: 3368 d7bd b4aa 623e e146 843d 1c6f 2e3e
00000030: 3be3 883d b1cb 9cbc 77d4 353c 83a8 b33d
00000040: 3054 a23d 5531 c63d e769 6d3e 5fad aebd
00000050: 890e 243d ea9e 2b3e 78fd ff3a cef8 5a3e
00000060: f523 9c3d df1a 9fbd e57d 123e 1e4b fcbc
00000070: 7334 a83c f06a adbd 2998 20bd f6ee 603e
00000080: af41 aebd 35d2 5f3e ba76 ac3d 197e 0a3e
00000090: c7c6 8b3e 1de3 65bd d806 523e 810f 1d3e
000000a0: 2d93 fb3b 06c5 893e 3b0f e9bb 9a67 36bc
000000b0: 4d27 ac3e 7b96 0a3e 4936 453e 5cb5 9dbb
000000c0: 371d 0c3d 6227 073e 5d2d 163a 687d d23b
000000d0: d0df 853e 2b5f ff3d 71ef cbba 091e 7b3e
000000e0: ba96 113e b1f1 a53a e8c2 5d3d f813 b4bd
000000f0: 8ab4 1c3e 768a a33e a9fe 213e bb5b b63e
00000100: 1081 833e 6408 333e 79c4 42bd fb2c 3f3e
00000110: c918 043e 88fc bbbd 114d 2e3e 50c8 ab3b
00000120: 8da7 29be 101b 1e3e 3792 3dbe 0311 d93d
00000130: 5f64 aebd db8d 99bd 24c0 e6bd 5085 0b3e
00000140: f364 a83d a19d 0f3e d162 fcbd e617 27be
00000150: 10a1 1abd 6750 683d f1f0 65be d84d 36be
00000160: 3520 003d 66b4 47be 31ef c43d 5d60 2bbe
00000170: 7856 083e c18d e73d 0913 613d f40e c33d
0.08500904 0.17121112 0.2136132 0.14867052 0.08322963 -0.10510941 -0.04419309 -0.0548409
-0.10517921 0.2213543 0.064588316 0.17034572 0.06683966 -0.019140096 0.011098019 0.087723754
0.07926214 0.09677378 0.2318493 -0.08529162 0.040052924 0.1675984 0.0019530496 0.21383974
0.07624046 -0.07768797 0.14305837 -0.030797537 0.020532822 -0.08467662 -0.03920761 0.21966156
-0.08508622 0.21857531 0.08421083 0.13524665 0.27300093 -0.056124795 0.20510423 0.15337946
0.007677457 0.2690813 -0.0071124113 -0.011133099 0.33623734 0.13533966 0.1925899 -0.0048128795
0.03420755 0.13198617 0.00057288056 0.006423641 0.26147318 0.12469324 -0.001555903 0.24523176
0.14217654 0.0012660531 0.054140955 -0.08792871 0.15303245 0.31941575 0.15819801 0.3561686
0.25684404 0.1748367 -0.047550652 0.18669502 0.1290008 -0.09179026 0.17021586 0.005242385
-0.16567822 0.15440011 -0.18512808 0.10598948 -0.08515238 -0.0749776 -0.11267117 0.13625073
0.082223795 0.14024974 -0.12323535 -0.1631771 -0.037751257 0.056717303 -0.22455193 -0.17803133
0.031280715 -0.1950241 0.09615935 -0.16735978 0.13314235 0.11306334 0.054949794 0.095243365

gru.bias_hh_l0_reverse f4 [96]
00000000: 64cf 683e 1b0d e63d c030 113d cada d63d
00000010: 508a 503d 2844 873c 4473 1b3e a6d2 50bd
00000020: cfbc 60bc cbca 123d 0bb0 823d c7f8 6b3d
00000030: c52d 313e 38a5 0b3d fa78 debc bf4f 383e
00000040: f6dd 263e 639c 363d eeaa 623d 4128 7c3e
00000050: a802 263d 4877 10bd ffa3 f53d d88c 65bc
00000060: 70ff 3e3d d242 2f3e 1d2c 4c3b ac41 803c
00000070: de10 49bc 688e 2f3e d558 87bc 3b3e 5f3e
00000080: 1c7a b5bd a915 8fbd c56c a43e 00c5 903e
00000090: 9fdd 173d c302 c8bd ec86 8a3d 6bd8 303e
000000a0: d92c 0fbe 5589 223e c22c edbd d141 20be
000000b0: 9255 7b3d 4074 213e 0dc2 203d 4637 083e
000000c0: b018 3e3e b0cb 033e 0db8 163d a4ba 9b3e
000000d0: 303e 783e ea29 c63d 496e 423e 56f8 bcbc
000000e0: 79c6 70bd e46e e0bd 12a7 b93d 223f 8ebd
000000f0: 2278 543d bce2 a83e d336 243e 18c5 803e
00000100: 7f92 61bd 4d64 c73d cd17 3c3d 2389 173c
00000110: 7d28 163e 4fca 48be fb20 00bd 8311 52bd
00000120: 076f d2bd 94b7 fabd ce8d 59bc ac39 0fbd
00000130: 2563 de3b 3edd 0d3e 5929 a5bd dbd7 23bc
00000140: 6d36 3bbc 18ea 0dbe 2aa0 f2bc 3401 4dbe
00000150: 449d 43be 4c21 f3bd 68a9 21bd ab48 963d
00000160: 5830 843d d417 353d 81f0 5dbd 8c76 9f3b
00000170: ff78 db3d c2c6 d73d d207 233e 9c9d 5fbc
0.22735363 0.112329684 0.035446882 0.104909495 0.050913155 0.016511992 0.15180689 -0.05098214
-0.0137168905 0.03583793 0.06381234 0.0576103 0.17302616 0.03409311 -0.027157295 0.1799917
0.16295609 0.044582736 0.055338793 0.2462473 0.040529877 -0.035270005 0.119941704 -0.014010631
0.046630323 0.17115334 0.0031154223 0.015656315 -0.012272088 0.17144167 -0.01652185 0.21801083
-0.08861181 -0.06986553 0.32114235 0.282753 0.03707659 -0.09766152 0.067640156 0.17270057
-0.13981952 0.158727 -0.115808025 -0.15650107 0.061360903 0.15767002 0.03924756 0.13302335
0.18564105 0.1287067 0.03679662 0.30415833 0.24242473 0.09675963 0.18987383 -0.023067635
-0.05878303 -0.10958651 0.09065069 -0.069456354 0.05187238 0.32985485 0.16036539 0.2515037
-0.05507135 0.09735928 0.045921136 0.009249005 0.14663883 -0.19608425 -0.031281453 -0.05128623
-0.10275083 -0.12242046 -0.013278438 -0.03496711 0.0067867213 0.13853928 -0.08064527 -0.010000194
-0.01142655 -0.13858831 -0.029617388 -0.2001999 -0.19102961 -0.11871585 -0.0394682 0.07338079
0.06454533 0.044212177 -0.05418444 0.004866427 0.107164375 0.10535957 0.15920952 -0.013648417
