logs/exp0/weights/epoch90.pt (torch, 348934 bytes, 45 tensors)

conv_block1.0.weight f4 [32, 4, 10]
-0.013047878 -0.21518731 0.16250095 -0.036760423 -0.016811943 0.1125799 -0.040838253 -0.15988341
0.12949322 -0.1369756 0.0855217 -0.14134626 -0.020198207 0.054769028 -0.1497807 0.06327685
0.072687134 -0.006030489 -0.08339154 -0.04458614 -0.086717665 0.087908946 0.009068538 -0.024097815
0.062951796 -0.12789768 0.04936517 0.09264574 -0.21192612 -0.03364839 -0.18946017 0.083434775
0.009374773 -0.044657107 -0.041691605 -0.03645209 -0.10304645 0.04037685 0.02226221 0.011764034
-0.015820187 -0.13154204 0.081011735 -0.11654868 -0.028313374 0.18111162 -0.11364092 -0.037194505
0.10859357 0.059175886 0.07738081 0.065829344 -0.17692828 0.11300946 -0.19550811 0.01804774
0.025829896 -0.07177849 -0.014238506 0.06441293 -0.08601279 0.004998014 -0.022261148 -0.05756782
-0.019270187 -0.028869333 -0.095770806 0.10699191 -0.11012504 -0.048405293 0.09937658 0.07606229
-0.031505976 -0.04774337 -0.03270552 -0.052614506 -0.13256954 0.006087728 -0.026972715 0.074292794
0.059116516 -0.12510177 -0.14393494 -0.10398216 0.14494193 -0.15937479 -0.08551626 0.11337421
-0.17200333 0.002369964 0.05846279 0.031319503 0.029772943 0.031335916 0.0026276547 0.12305006
0.09500751 0.1286256 0.17757542 -0.024305303 0.0034729969 -0.1375433 0.019895464 -0.16089179
-0.0058075017 0.0892717 0.09279343 -0.10109637 -0.031214261 -0.08802493 -0.120108284 -0.12479996
0.09145589 0.065264165 -0.10617338 -0.10952817 0.084427536 0.0012067899 -0.029489418 -0.016461782
0.029836599 -0.16225709 -0.102913916 -0.14359081 -0.05270407 0.021803929 -0.07488061 -0.185568
-0.01652666 0.02321256 -0.08582288 -0.1996898 -0.15399481 -0.1316242 -0.12481015 -0.03379252
0.026818732 -0.03764413 -0.192889 0.050420314 -0.077322856 -0.005443151 -0.011566388 0.13997228
-0.13971043 0.053800147 0.09848174 -0.072829716 0.1395944 -0.018688196 0.077798665 0.061391026
0.10408954 0.014592201 -0.030897198 0.057486173 0.10016689 0.06480556 0.098112985 0.08899487
-0.043471836 -0.039701466 0.012081675 -0.075342126 -0.08012267 0.12519424 -0.09759969 -0.10422281
0.06713081 -0.08605239 0.051475957 0.048236143 -0.06629999 0.10238184 -0.010448968 -0.19451533
-0.0085251145 0.104058355 -0.13173006 0.13326418 -0.11014967 0.059738897 -0.16078338 0.021057833
0.036434297 -0.0038243367 -0.22119847 0.10082927 -0.17656623 0.0036946412 0.05589777 -0.019400526
-0.103055276 -0.0047936914 -0.21187979 0.0154923415 0.082413405 0.06368091 -0.20139517 0.0895332
0.0037092234 0.08450682 -0.06496154 -0.08961042 0.04440382 -0.21087235 0.07887465 0.16357918
-0.29488984 -0.1073474 0.035385158 0.02209705 -0.19274825 -0.021011122 0.023666715 0.12721069
-0.013446234 -0.12103106 0.19298035 -0.1295838 0.013615429 -0.06375282 0.06257388 -0.031092351
-0.1629763 -0.09279749 0.00608662 -0.18587376 -0.25831562 0.037357748 0.08509014 0.023987953
-0.026465813 0.08189551 0.095320165 -0.021066584 -0.025907302 0.08347496 -0.06852786 0.06204237
0.09762238 0.06565209 0.039523017 0.051137038 -0.12640877 0.1897806 0.055739507 0.14525084
0.14428496 0.11784454 -0.09081028 -0.004440903 0.020168206 -0.006436767 -0.09798636 -0.06960215
00000000: c4c6 55bc 105a 5cbe a666 263e 1992 16bd
00000010: 33b9 89bc 4a90 e63d 0346 27bd 7ab8 23be
00000020: df99 043e 5543 0cbe 0026 af3d 13bd 10be
00000030: b676 a5bc 7d55 603d 1d60 19be 4b97 813d
00000040: fedc 943d 699b c5bb 2fc9 aabd f59f 36bd
00000050: 0899 b1bd 9b09 b43d 3594 143c c868 c5bc
00000060: dfec 803d 9cf7 02be 2233 4a3d 0dbd bd3d
00000070: 2903 59be e5d2 09bd d901 42be dadf aa3d
00000080: a698 193c 5fea 36bd d1c4 2abd c94e 15bd
00000090: 040a d3bd 3262 253d 3d5f b63c efbd 403c
000000a0: 5699 81bc f5b2 06be 7be9 a53d 13b1 eebd
000000b0: 73f1 e7bc 5375 393e 92bc e8bd 4459 18bd
000000c0: 4e66 de3d 6a62 723d d579 9e3d 89d1 863d
000000d0: b02c 35be 8171 e73d 4733 48be dbd8 933c
000000e0: 3899 d33c 9a00 93bd 9f48 69bc edea 833d
000000f0: 7927 b0bd 61c6 a33b 035d b6bc 3ccc 6bbd
00000100: 83dc 9dbc 617f ecbc 7c23 c4bd 931e db3d
00000110: 3d89 e1bd a144 46bd f385 cb3d 8cc6 9b3d
00000120: 690c 01bd 8d8e 43bd 39f6 05bd 4f82 57bd
00000130: 4fc0 07be 907b c73b e2f5 dcbc d226 983d
00000140: 2924 723d ae1a 00be ae63 13be 99f4 d4bd
00000150: a86b 143e 2533 23be 2623 afbd bd30 e83d
00000160: a421 30be 6651 1b3b ae76 6f3d e148 003d
00000170: 63e6 f33c 175a 003d bb34 2c3b ab01 fc3d
00000180: 4c93 c23d 6eb6 033e 55d6 353e ea1b c7bc
00000190: 389b 633b 27d8 0cbe d0fb a23c d1c0 24be
000001a0: db4c bebb 15d4 b63d 7b0a be3d 9d0b cfbd
000001b0: 0db5 ffbc 6a46 b4bd 55fb f5bd 1f97 ffbd
000001c0: 3a4d bb3d 38a9 853d 6e71 d9bd 4e50 e0bd
000001d0: 58e8 ac3d 262d 9e3a cb93 f1bc dcda 86bc
000001e0: e26b f43c b926 26be 88c4 d2bd 7809 13be
000001f0: 39e0 57bd 279e b23c 015b 99bd 8a05 3ebe
00000200: eb62 87bc 4428 be3c e8c3 afbd 7c7b 4cbe
00000210: d1b0 1dbe 7fc8 06be 779c ffbd 076a 0abd
00000220: f5b2 db3c bb30 1abd b284 45be 8885 4e3d
00000230: 725b 9ebd 765c b2bb f380 3dbc e554 0f3e
00000240: 4010 0fbe 8b5d 5c3d cbb0 c93d bf27 95bd
00000250: d6f1 0e3e fd17 99bc e854 9f3d 2875 7b3d
00000260: e62c d53d 2114 6f3c 1f1c fdbc 9f76 6b3d
00000270: 4c24 cd3d c7b8 843d 76ef c83d f142 b63d
00000280: 860f 32bd 019e 22bd 38f2 453c f94c 9abd
00000290: 5b17 a4bd eb32 003e 59e2 c7bd c572 d5bd
000002a0: e17b 893d 3c3c b0bd 74d8 523d 4393 453d
000002b0: 4ac8 87bd 92ad d13d 2632 2bbc 072f 47be
000002c0: ecac 0bbc 8c1c d53d 3fe4 06be 6876 083e
000002d0: 2696 e1bd c6b0 743d 66a4 24be 7a81 ac3c
000002e0: 213c 153d b9a1 7abb da81 62be 947f ce3d
000002f0: c7cd 34be cb21 723b 0ff5 643d daed 9ebc
00000300: a50e d3bd 6614 9dbb 04f7 58be 97d3 7d3c
00000310: 5cc8 a83d 236b 823d 893a 4ebe 2f5d b73d
00000320: 7116 733b e911 ad3d 8e0a 85bd ab85 b7bd
00000330: c8e0 353d ecee 57be 0889 a13d 4d81 273e
00000340: cdfb 96be f4d8 dbbd 07f0 103d df04 b53c
00000350: cc5f 45be 841f acbc b3e0 c13c 8543 023e
00000360: 984d 5cbc 22df f7bd a49c 453e 9eb1 04be
00000370: 4013 5f3c d790 82bd bc26 803d 63b5 febc
00000380: 42e3 26be 9c0c bebd 4572 c73b b155 3ebe
00000390: f241 84be 7004 193d bd43 ae3d 6282 c43c
000003a0: d5ce d8bc d5b8 a73d 3837 c33d d493 acbc
000003b0: 8d3b d4bc ebf4 aa3d 5658 8cbd 2420 7e3d
000003c0: 3eee c73d 9a74 863d e3e2 213d 1275 513d
000003d0: 4d71 01be d855 423e 1c4f 643d a3bc 143e
000003e0: 70bf 133e 7a58 f13d bdfa b9bd ff84 91bb
000003f0: cb37 a53c 84eb d2bb 13ad c8bd 928b 8ebd

conv_block2.0.weight f4 [32, 32, 10]
-0.03275731 -0.057048276 -0.004846084 -0.06483402 0.0056964546 0.02931918 0.006597819 0.1205071
0.100427754 0.09437937 0.08840929 0.12569489 0.118887864 0.014483961 0.064621225 0.09948025
0.042470045 0.11643833 0.05683748 -0.007344231 -0.0035025117 0.023711335 -0.033323843 0.01071024
-0.039790474 0.07163795 0.051588673 -0.055589095 0.026738126 -0.08362645 -0.11984801 0.036381412
-0.037938893 -0.107387565 -0.08995856 0.067480914 -0.036429606 -0.058779325 -0.030091655 -0.031631608
0.060126137 0.010766146 0.13141528 0.09918358 -0.07209422 0.16045502 -0.05637668 0.114308365
0.029343113 0.08695451 -0.0058149425 0.023893625 0.01982149 0.07644851 -0.013740395 0.053457968
-0.0040017664 0.0751139 0.12649807 0.115732506 0.06924301 0.061061617 0.13780823 0.16020668
0.25297263 0.08045721 0.09209204 0.17482702 0.012321389 0.07733181 0.21875177 0.06282813
0.049103677 0.05696163 0.092455134 0.09909679 0.08055164 0.086394176 0.14911765 0.16095223
0.06748821 0.087315634 0.03985485 -0.0392513 0.09256971 -0.08472533 -0.0009631113 -0.013296203
0.016832897 -0.011858437 -0.0014362016 -0.009415413 0.013190044 -0.103332445 -0.12764311 -0.14751813
-0.13334039 0.009476691 -0.13726465 -0.011849223 0.12567759 0.12358503 0.18408154 0.014948884
0.17786708 0.010611477 0.12737523 0.10616322 -0.06303819 0.12946929 0.017361889 -0.09736549
0.08687004 0.079632655 0.07087786 0.053288836 -0.05083454 0.10254058 -0.068640344 -0.031375412
-0.11043823 -0.060365718 -0.053833447 0.015939603 -0.12580167 -0.1515934 -0.0066064005 0.042786162
0.007818726 -0.15506972 -0.12088044 -0.11214498 -0.0913291 -0.116273634 -0.16900854 -0.12188805
-0.0784794 -0.0061380873 -0.03965083 -0.13040814 0.06208813 0.07397257 0.11230145 0.15088637
0.12450776 0.082367234 -0.04914316 0.08885945 0.03383025 0.1377686 0.109087124 0.072835915
-0.09102878 0.0019647602 0.07787642 0.06383844 -0.050257184 0.014109492 0.069967456 -0.011166625
0.06658251 -0.07374015 -0.077949956 0.0027829509 0.1089291 0.043243732 0.06923831 -0.051240813
0.07781754 -0.0010571986 -0.0004632487 0.14277712 0.17300507 0.12012254 0.036367122 0.17425174
0.036854833 0.054021753 0.069790706 -0.02199539 -0.04832239 -0.015009983 -0.1370917 -0.005520307
-0.028524065 -0.113973334 -0.05501752 -0.08557379 -0.020943224 -0.055157278 -0.011255549 0.15068887
0.006008614 0.056459766 -0.058885418 -0.020036662 0.027927173 0.10648114 0.018197639 0.041101526
-0.04622849 -0.005754953 0.024323964 -0.03205467 -0.031895474 -0.06124566 -0.04167622 0.036362655
-0.0027692085 -0.009910914 -0.06712592 0.057336792 -0.05269096 -0.066273496 -0.03813069 -0.05335236
-0.02340977 0.11230975 0.018924516 -0.07784598 0.047193695 0.053123686 0.050611723 0.13539666
0.028461017 -0.012037305 0.13823617 0.06952966 0.14895846 0.04604852 0.020321216 0.09240192
0.17152059 0.21715894 0.07479136 0.06406002 0.14773735 0.16931726 0.13525212 0.087223135
0.103254355 0.12542678 -0.06628452 -0.030892704 -0.04363701 0.09026702 -0.09233484 -0.044127688
0.11267621 0.019247353 -0.12096259 -0.12022885 -0.0233785 -0.1574418 -0.095933616 0.020348573
00000000: 872c 06bd 74ab 69bd e6cb 9ebb b3c7 84bd
00000010: 53a9 ba3b c72e f03c 8432 d83b 6dcc f63d
00000020: 11ad cd3d f949 c13d ee0f b53d 29b6 003e
00000030: 7b7b f33d 234e 6d3c 2258 843d 4dbc cb3d
00000040: 12f5 2d3d 3877 ee3d 6bce 683d e0a7 f0bb
00000050: 658a 65bb 463e c23c 957e 08bd 017a 2f3c
00000060: 56fb 22bd ebb6 923d a54e 533d 64b1 63bd
00000070: ea09 db3c 5844 abbd e072 f5bd ad04 153d
00000080: d065 1bbd 03ee dbbd 323c b8bd 6f33 8a3d
00000090: 3637 15bd 97c2 70bd c682 f6bc 2590 01bd
000000a0: d346 763d 7d64 303c ba91 063e c320 cb3d
000000b0: 22a6 93bd 524e 243e 3ceb 66bd 811a ea3d
000000c0: f860 f03c 3515 b23d 468b bebb 90bc c33c
000000d0: ad60 a23c 0991 9c3d 651f 61bc bef6 5a3d
000000e0: 4021 83bb 51d5 993d b688 013e 2a05 ed3d
000000f0: 47cf 8d3d bf1b 7a3d 9a1d 0d3e 380d 243e
00000100: a185 813e c0c6 a43d c09a bc3d db05 333e
00000110: a7df 493c 2460 9e3d 7700 603e 09ac 803d
00000120: f020 493d 9950 693d 1e59 bd3d 42f3 ca3d
00000130: 42f8 a43d 6eef b03d 4cb2 183e a9d0 243e
00000140: 4237 8a3d 8ad2 b23d d73e 233d f9c5 20bd
00000150: 3095 bd3d 7984 adbd 4e79 7cba 51d8 59bc
00000160: 25e5 893c e449 42bc ee3e bcba 1b43 1abc
00000170: 0e1b 583c f69f d3bd e0b4 02be fe0e 17be
00000180: 628a 08be 1f44 1b3c 1b8f 0cbe 3e23 42bc
00000190: a0b1 003e 261a fd3d df7f 3c3e 2aec 743c
000001a0: ca22 363e c3db 2d3c a76e 023e 1a6c d93d
000001b0: 2b1a 81bd 9993 043e 853a 8e3c 8f67 c7bd
000001c0: ebe8 b13d 7216 a33d 6928 913d 6545 5a3d
000001d0: e137 50bd cc00 d23d 4f93 8cbd 8183 00bd
000001e0: 702d e2bd 0b42 77bd 7680 5cbd c593 823c
000001f0: 27d2 00be 4d3b 1bbe 817a d8bb 8b40 2f3d
00000200: 1d1a 003c 99ca 1ebe 2a90 f7bd 44ac e5bd
00000210: c00a bbbd df20 eebd 9310 2dbe 71a0 f9bd
00000220: cfb9 a0bd 0222 c9bb e968 22bd b689 05be
00000230: 1f50 7e3d ee7e 973d 4dfe e53d f581 1a3e
00000240: edfd fe3d 27b0 a83d 574a 49bd f1fb b53d
00000250: 9791 0a3d 3613 0d3e 1269 df3d ff2a 953d
00000260: 4c6d babd 35c3 003b ac7d 9f3d babd 823d
00000270: 7ada 4dbd 802b 673c 194b 8f3d 38f4 36bc
00000280: 695c 883d 1305 97bd 3aa4 9fbd 2b62 363b
00000290: 3816 df3d 5720 313d d1cc 8d3d e3e1 51bd
000002a0: cd5e 9f3d b391 8aba 30e0 f2b9 2a34 123e
000002b0: 3e28 313e ce02 f63d b1f5 143d 0c6f 323e
000002c0: 18f5 163d ea45 5d3d 6eee 8e3d ad2f b4bc
000002d0: b3ed 45bd 6fec 75bc c461 0cbe b1e3 b4bb
000002e0: 4dab e9bc da6a e9bd 0d5a 61bd 5041 afbd
000002f0: 2091 abbc 99ec 61bd 3269 38bc 2f4e 1a3e
00000300: e8e3 c43b 5b42 673d d631 71bd ed23 a4bc
00000310: 87c7 e43c c912 da3d 3713 953c 135a 283d
00000320: 165a 3dbd 0b94 bcbb 0d43 c73c c24b 03bd
00000330: d4a4 02bd bbdc 7abd afb4 2abd 02f1 143d
00000340: 9c7b 35bb 6361 22bc 5079 89bd fcd9 6a3d
00000350: 7ad2 57bd 66ba 87bd ed2e 1cbd 0188 5abd
00000360: d9c5 bfbc a702 e63d 9607 9b3c b76d 9fbd
00000370: 2d4e 413d 3998 593d 3d4e 4f3d 6ca5 0a3e
00000380: 1427 e93c 1e38 45bc c88d 0d3e 9165 8e3d
00000390: 9188 183e 5f9d 3c3d ae78 a63c 383d bd3d
000003a0: 18a3 2f3e ea5e 5e3e 362c 993d e631 833d
000003b0: 7648 173e 8161 2d3e 887f 0a3e 0ba2 b23d
000003c0: 0577 d33d e16f 003e 2ec0 87bd b212 fdbc
000003d0: b9bc 32bd eadd b83d 0c1a bdbd 3cbf 34bd
000003e0: c9c2 e63d a0ac 9d3c 3cbb f7bd 8b3a f6bd
000003f0: 4584 bfbc 6c38 21be d878 c4bd 0db2 a63c

gru.weight_ih_l0 f4 [96, 32]
0.05836857 0.12820359 0.025627349 0.40671906 -0.011494772 -0.18022972 0.30221412 -0.025650205
0.032663714 0.07418267 0.12698638 0.20012508 -0.011005536 0.19696517 -0.16812788 0.09861702
0.16500443 0.4774511 -0.08908786 -0.03318451 0.034272674 0.28323638 -0.14369021 0.10562288
0.0035097566 0.17324667 0.19796023 -0.065335296 -0.029829485 0.2374 0.07180042 0.0672919
0.2510237 0.06560844 0.027558032 -0.23546274 0.24312894 0.028757857 0.24190731 -0.016074017
0.013878432 -0.090575606 -0.10991244 -0.10552546 -0.079220615 0.14377771 0.027308812 -0.042657588
0.25061855 0.13659163 0.0016451083 0.10053616 -0.023746293 0.053691283 -0.0260145 0.14902036
0.061740506 0.106419556 0.033859376 0.18014967 -0.09278666 0.18760046 -0.04378463 0.055221368
0.08341109 0.13267747 0.02429564 0.08584546 0.04279944 -0.2534615 0.026015516 0.21227092
-0.13843055 0.2630334 0.16822706 0.1373724 0.043855555 0.0498641 0.009529413 -0.11519686
0.16714756 0.008671213 0.2516839 -0.14385347 -0.07968762 0.015923098 -0.16891247 0.0007534716
0.24382049 -0.08797538 -0.240613 -0.006664564 0.096081145 0.10260953 -0.30925184 0.23517872
-0.06943913 -0.018040473 -0.045776796 -0.1966979 -0.05125892 0.034232814 0.084476806 -0.12121104
0.20648377 0.08676767 -0.001905536 -0.064477436 -0.13013838 0.11407702 0.06077095 0.23081003
0.119353026 -0.046934463 -0.30772403 0.19633266 -0.14481962 0.15577845 -0.036299232 -0.01749465
-0.06941327 -0.040191628 0.0067653004 0.19767758 -0.08136231 0.14411892 0.20565651 0.028648196
-0.11854747 -0.0008014798 0.060563426 -0.18845756 -0.05362073 -0.10917898 0.11028277 -0.054162517
0.010394688 -0.13850553 0.12726532 0.12258788 0.114629194 0.14727269 0.05575121 0.017605983
0.013218868 0.15022387 -0.04176318 0.18616171 -0.023986557 0.18310794 0.006128734 0.06529078
0.019973297 0.26505467 0.2544012 -0.06425704 -0.10742806 0.03467607 -0.14108811 0.040896352
0.16756998 0.2916321 0.03661357 0.45310768 -0.07750122 0.024825774 0.1400471 0.26749653
0.0386629 0.27934334 0.21472491 0.19621517 -0.070627876 0.2589359 -0.1442632 -0.058578257
0.38155073 0.32433876 0.19750284 0.22766891 0.30276567 0.1358409 -0.09860647 0.2099545
0.0719253 -0.1956785 -0.073604435 0.048763696 0.21188107 0.25017694 -0.13444392 0.12178997
-0.13760492 -0.057058204 -0.24352206 -0.28015006 0.19038332 0.30912906 -0.02561239 -0.15660742
-0.01566996 -0.019598892 0.012509481 0.051719908 0.11089205 -0.025302373 0.18980147 0.121920526
-0.03090707 -0.18720551 -0.416735 0.18510817 -0.28476325 -0.021481223 0.17341565 -0.21936595
-0.30466077 0.23206043 0.29270086 -0.010415888 -0.13514085 -0.17143746 0.13178799 -0.36392662
0.06700309 -0.117651775 0.12788768 -0.22676204 -0.18112215 -0.046439078 -0.013211737 0.17004223
-0.06907753 0.15479057 -0.13414994 -0.012297398 -0.06671133 0.047972504 -0.042286742 0.17853548
0.10431891 -0.1349503 0.16646025 0.13280417 0.13946134 0.0602275 0.059517816 0.21735474
-0.09299435 0.13011327 -0.13370755 0.060393665 0.2430528 -0.14210276 0.051361572 -0.016801158
00000000: e213 6f3d cd47 033e 72f0 d13c 7b3d d03e
00000010: 9154 3cbc 248e 38be cfbb 9a3e 6120 d2bc
00000020: 63ca 053d 15ed 973d b808 023e 97ed 4c3e
00000030: 9050 34bc 3db1 493e b729 2cbe b8f7 c93d
00000040: ecf6 283e 7874 f43e b273 b6bd 7bec 07bd
00000050: 8161 0c3d 5c04 913e 8723 13be cf50 d83d
00000060: f203 663b 9367 313e 16b6 4a3e 83ce 85bd
00000070: f75c f4bc fc18 733e 190c 933d 56d0 893d
00000080: 2e86 803e b85d 863d 62c1 e13c 251d 71be
00000090: cbf6 783e 9995 eb3c 8db6 773e a8ad 83bc
000000a0: 5d62 633c b47f b9bd c619 e1bd bb1d d8bd
000000b0: 6b3e a2bd 773a 133e bbb6 df3c b9b9 2ebd
000000c0: 1351 803e adde 0b3e ada0 d73a e7e5 cd3d
000000d0: 9687 c2bc 64eb 5b3d 5c1c d5bc cb98 183e
000000e0: 9de3 7c3d 7ff2 d93d 21b0 0a3d 2879 383e
000000f0: ef06 bebd 561a 403e 8357 33bd cd2f 623d
00000100: 6fd3 aa3d 9adc 073e a607 c73c bfcf af3d
00000110: 774e 2f3d b5c5 81be 7e1e d53c 8c5d 593e
00000120: bdc0 0dbe 50ac 863e b743 2c3e 5aab 0c3e
00000130: e2a1 333d 4c3e 4c3d 4121 1c3c 55ec ebbd
00000140: bb28 2b3e b411 0e3c b6dc 803e 534e 13be
00000150: 4333 a3bd 2871 823c 64f7 2cbe a084 453a
00000160: 14ac 793e 702c b4bd 4163 76be 6a62 dabb
00000170: 31c6 c43d f224 d23d 4256 9ebe b1d2 703e
00000180: 1a36 8ebd 9dc9 93bc 7380 3bbd 2d6b 49be
00000190: e0f4 51bd b537 0c3d 2d02 ad3d 7e3d f8bd
000001a0: 7b70 533e 40b3 b13d 2ec3 f9ba bf0c 84bd
000001b0: ff42 05be 36a1 e93d f6ea 783d 7759 6c3e
000001c0: 5c6f f43d 5a3e 40bd 018e 9dbe 6e0b 493e
000001d0: 984b 14be 6384 1f3e 81ae 14bd f150 8fbc
000001e0: 8b28 8ebd fa9f 24bd 74af dd3b fe6b 4a3e
000001f0: 48a1 a6bd e993 133e 9f97 523e 9faf ea3c
00000200: 04c9 f2bd 661a 52ba 5b11 783d 05fb 40be
00000210: 69a1 5bbd 3b99 dfbd efdb e13d 84d9 5dbd
00000220: 7b4e 2a3c 65d4 0dbe d751 023e 5b0f fb3d
00000230: b6c2 ea3d a7ce 163e 615b 643d 6c3a 903c
00000240: f393 583c 49d4 193e de0f 2bbd 2da1 3e3e
00000250: 757f c4bc a680 3b3e 8cd3 c83b 2cb7 853d
00000260: 0a9f a33c 3fb5 873e e040 823e 3299 83bd
00000270: 3e03 dcbd 7f08 0e3d 6779 10be ef82 273d
00000280: 7797 2b3e cd50 953e 1cf8 153d bbfd e73e
00000290: f6b8 9ebd 6c5f cb3c 8268 0f3e 4ef5 883e
000002a0: fd5c 1e3d 1706 8f3e d9e0 5b3e a1ec 483e
000002b0: 59a5 90bd 3f93 843e bbb9 13be c1ef 6fbd
000002c0: 9e5a c33e bb0f a63e 2f3e 4a3e 0a22 693e
000002d0: 1a04 9b3e e019 0b3e 30f2 c9bd 50fe 563e
000002e0: 924d 933d f25f 48be ecbd 96bd 71bc 473d
000002f0: 5af7 583e 3117 803e abab 09be 056d f93d
00000300: 4ee8 0cbe ddb5 69bd d95d 79be d46f 8fbe
00000310: d8f3 423e 2a46 9e3e 13d1 d1bc b25d 20be
00000320: 4a5e 80bc db8d a0bc 91f4 4c3c 41d8 533d
00000330: 5f1b e33d ec46 cfbc 515b 423e 78b1 f93d
00000340: d330 fdbc cdb2 3fbe 4a5e d5be ff8c 3d3e
00000350: 7dcc 91be 64f9 afbc df93 313e 78a1 60be
00000360: 7ffc 9bbe 40a1 6d3e e3dc 953e 67a7 2abc
00000370: 5d62 0abe 4d8d 2fbe 6ef3 063e 9754 babe
00000380: eb38 893d 6af3 f0bd fdf4 023e 4f34 68be
00000390: 1678 39be e736 3ebd 0b76 58bc 8d1f 2e3e
000003a0: 8578 8dbd 6b81 1e3e 9a5e 09be 077b 49bc
000003b0: f39f 88bd d17e 443d dd34 2dbd 01d2 363e
000003c0: 27a5 d53d 6930 0abe 8e74 2a3e d1fd 073e
000003d0: f4ce 0e3e 1cb1 763d f4c8 733d 3e92 5e3e
000003e0: d273 bebd 6a3c 053e a2ea 08be 595f 773d
000003f0: d5e2 783e 6383 11be 8360 523d 95a2 89bc

gru.weight_hh_l0 f4 [96, 32]
-0.11848965 0.078750156 -0.16033687 -0.18875235 0.28114966 0.040766772 0.053114124 0.04349197
-0.013508516 -0.23224343 -0.18316507 0.07764701 -0.018302198 -0.307247 0.04370566 0.16512646
-0.069170184 0.023961231 0.09365006 0.020202613 -0.11309667 0.16024382 -0.022322485 -0.08611208
-0.04532512 -0.029035866 0.1116413 -0.17061707 0.1166673 -0.130618 0.07817897 -0.06417446
-0.018179068 0.026303437 -0.04961002 0.13919796 0.20275253 -0.031113317 0.32149783 0.1500301
0.07694198 0.029192893 0.31611863 0.14393452 -0.042434305 -0.1762868 -0.028943958 -0.18333325
0.20279206 -0.008182404 -0.15827344 0.40205002 -0.009942147 -0.198337 -0.18035759 0.14449021
-0.07610624 0.047708046 -0.1422225 -0.004920475 0.115734614 0.072532885 -0.06706702 0.117916256
0.11856468 0.32888666 -0.07592821 -0.23181704 0.041487835 -0.028286338 -0.00369009 -0.16749027
-0.026861774 -0.03788824 -0.108476155 -0.12106848 -0.33258563 -0.031789728 -0.117259346 0.17777191
-0.25352696 0.27925524 -0.005874559 -0.09599052 -0.0027940169 -0.18952441 -0.17611793 -0.024116565
0.0029683495 0.05948564 -0.11895827 -0.13429059 0.033127833 0.06630837 0.17138065 0.22819957
0.065153405 -0.21077807 -0.08171615 0.08413553 0.03401654 -0.10981904 -0.025320139 -0.029837003
-0.143339 0.03951783 -0.050563604 0.12851067 -0.16841936 -0.0722056 0.09128607 0.2772733
-0.0064153946 -0.29704002 0.15730602 -0.09537768 -0.00032832098 0.1065214 -0.18663253 -0.04334695
0.07707587 0.059938885 -0.058815114 0.03989913 -0.09491601 -0.12175063 0.09483434 0.013095301
-0.23489262 0.18866491 -0.12224714 0.033763595 -0.011333078 -0.22344588 0.10077223 0.018201323
0.18977873 0.14664206 0.12768264 0.03928218 -0.20205168 -0.014574936 -0.12969248 -0.05849563
-0.243243 -0.10167667 0.0017671576 0.09355604 -0.14293115 -0.06778637 -0.20450379 0.19056183
-0.14098212 -0.035974767 -0.109574415 -0.22955316 0.058099627 0.08687597 0.17990173 -0.11679571
-0.0489736 0.22136667 0.115459934 -0.08773636 0.17893663 -0.00130985 0.033940215 0.14655235
-0.03651388 -0.0649428 0.034234326 -0.055376727 -0.18032067 0.11281223 0.28250608 -0.13966602
-0.1762463 -0.18743062 -0.23755148 -0.060192898 0.0752021 -0.06645921 -0.051277835 0.02405751
0.049627766 -0.32070562 0.02772933 0.1876867 -0.18251814 -0.078945324 -0.23224692 0.021933328
0.040204503 0.057868857 -0.010165892 -0.036349744 -0.14291173 -0.017533818 -0.15302789 0.005173159
0.16276759 -0.16320564 -0.19624268 -0.031565763 0.21970212 0.14010654 -0.032928985 -0.10475949
0.15112913 0.0018459373 0.116373256 -0.032166924 0.0044578332 -0.09801046 -0.17520063 0.08665659
0.08955246 0.25654823 -0.10710334 0.09648948 0.12319719 0.079198346 -0.1259185 -0.09364199
0.00042749324 0.14949633 0.10164463 0.059079524 -0.15454346 0.17569879 0.004897077 0.009722126
0.19697969 0.19805424 -0.020162214 0.029028041 -0.014217561 0.21781205 -0.03842458 -0.15031062
-0.01825069 -0.08098837 -0.15427284 -0.046789974 0.030939542 -0.18300614 0.013488027 0.26760834
-0.037835836 -0.20296976 -0.101544924 0.12203846 -0.23394625 0.034439947 -0.08289941 -0.13720208
00000000: b4aa f2bd c347 a13d 592f 24be 4c48 41be
00000010: d9f2 8f3e 0ffb 263d 328e 593d a324 323d
00000020: d352 5dbc 39d1 6dbe a08f 3bbe 6505 9f3d
00000030: 7eee 95bc 7b4f 9dbe b504 333d e916 293e
00000040: 19a9 8dbd 584a c43c 9acb bf3d f37f a53c
00000050: 3a9f e7bd f516 243e a5dd b6bc 885b b0bd
00000060: d5a6 39bd a0dc edbc 32a4 e43d 3eb6 2ebe
00000070: 44ef ee3d bac0 05be 4c1c a03d e66d 83bd
00000080: 45ec 94bc 4e7a d73c e033 4bbd e989 0e3e
00000090: 5c9e 4f3e 5be1 febc 5d9b a43e 7ea1 193e
000000a0: c293 9d3d ef25 ef3c 4dda a13e 9263 133e
000000b0: 98cf 2dbd 8784 34be e11b edbc b6bb 3bbe
000000c0: b9a8 4f3e 7d0f 06bc 6f12 22be 80d9 cd3e
000000d0: 63e4 22bc db18 4bbe a9af 38be 3ef5 133e
000000e0: 97dd 9bbd 8369 433d c6a2 11be f03b a1bb
000000f0: 4506 ed3d 1f8c 943d 6f5a 89bd 147e f13d
00000100: 0ad2 f23d d563 a83e 4080 9bbd 7261 6dbe
00000110: 26ef 293d c0b8 e7bc 70d5 71bb 9282 2bbe
00000120: 390d dcbc b330 1bbd bf28 debd c0f2 f7bd
00000130: aa48 aabe f235 02bd ab25 f0bd d709 363e
00000140: 49ce 81be 8bfa 8e3e 5f7f c0bb ae96 c4bd
00000150: d31b 37bb b012 42be 4258 34be 1a90 c5bc
00000160: a488 423b 37a7 733d 65a0 f3bd 7983 09be
00000170: 0db1 073d afcc 873d 697e 2f3e 26ad 693e
00000180: 266f 853d 35d6 57be cc5a a7bd 404f ac3d
00000190: ed54 0b3d cee8 e0bd 2e6c cfbc bb6c f4bc
000001a0: 75c7 12be 73dd 213d c81b 4fbd 4d98 033e
000001b0: 2076 2cbe 88e0 93bd 31f4 ba3d c4f6 8d3e
000001c0: 3b38 d2bb a115 98be d414 213e 6055 c3bd
000001d0: 7f22 acb9 e427 da3d 991c 3fbe 928c 31bd
000001e0: f4d9 9d3d 7a82 753d 1ee8 70bd 456d 233d
000001f0: 5363 c2bd 6558 f9bd 8238 c23d ac8d 563c
00000200: b187 70be 6031 413e b55c fabd b24b 0a3d
00000210: 60ae 39bc ffce 64be ac61 ce3d f11a 953c
00000220: 5b55 423e 5629 163e 3dbf 023e 5ae6 203d
00000230: a3e6 4ebe b6cb 6ebc 1bce 04be 1d99 6fbd
00000240: b114 79be dc3b d0bd f89f e73a 4f9a bf3d
00000250: 8b5c 12be 95d3 8abd 7169 51be a422 433e
00000260: 9e5d 10be 475a 13bd 8d68 e0bd fc0f 6bbe
00000270: e0f9 6d3d 07ec b13d 2938 383e 9732 efbd
00000280: 8b98 48bd f2ad 623e 4276 ec3d 1faf b3bd
00000290: 2a3b 373e 46af abba e504 0b3d d211 163e
000002a0: 948f 15bd bb00 85bd 4b39 0c3d b5d2 62bd
000002b0: fba5 38be 190a e73d a3a4 903e 9c04 0fbe
000002c0: e979 34be d0ed 3fbe b240 73be d48c 76bd
000002d0: 8f03 9a3d c41b 88bd b508 52bd 4114 c53c
000002e0: 7c46 4b3d 8733 a4be 9f28 e33c f130 403e
000002f0: 09e6 3abe 16ae a1bd 23d2 6dbe 86ad b33c
00000300: 7aad 243d e507 6d3d d78e 26bc 78e3 14bd
00000310: 7457 12be 15a3 8fbc 58b3 1cbe 9a83 a93b
00000320: 8cac 263e 611f 27be d7f3 48be 1a4b 01bd
00000330: 98f9 603e 1778 0f3e 8be0 06bd 258c d6bd
00000340: 98c1 1a3e 61f3 f13a 1a55 ee3d 77c1 03bd
00000350: 0413 923b b5b9 c8bd cb67 33be 0379 b13d
00000360: 4867 b73d 4a5a 833e ff58 dbbd 479c c53d
00000370: cf4e fc3d be32 a23d c7f0 00be 5fc7 bfbd
00000380: 2c21 e039 9115 193e 0f2b d03d 5ffd 713d
00000390: a440 1ebe 62ea 333e a977 a03b 8d49 1f3c
000003a0: 0bb5 493e bbce 4a3e 3a2b a5bc 37cc ed3c
000003b0: c6f0 68bc 1f0a 5f3e 1863 1dbd 07eb 19be
000003c0: 7982 95bc 3bdd a5bd b3f9 1dbe d8a6 3fbd
000003d0: ec74 fd3c f665 3bbe e3fc 5c3c f603 893e
000003e0: c0f9 1abd 4ed7 4fbe c9f6 cfbd 4def f93d
000003f0: 9b8f 6fbe e710 0d3d 2ac7 a9bd b47e 0cbe

gru.bias_ih_l0 f4 [96]
0.12664261 -0.046706926 0.20762935 -0.08447003 0.09341941 0.0026136718 -0.16369665 -0.045398466
0.2908565 -0.014741361 0.06263581 -0.0064227227 -0.118448675 0.13387805 -0.13661209 -0.032556277
0.07367351 -0.09512114 0.04639117 -0.021906039 0.11874978 -0.05602223 0.2651403 0.12711875
0.008432276 -0.13398358 0.15871494 0.0139441965 0.18490265 0.15504667 0.07934851 0.38323843
-0.17400956 0.06477572 -0.035185035 0.20221761 0.06582534 -0.13727953 0.17427084 -0.014613757
0.051932286 0.089656755 0.32885993 0.21376036 0.080626644 0.06667895 -0.050647173 -0.07471148
0.10255404 0.22195053 0.008726179 0.22451437 -0.043032102 -0.11322784 -0.0023987426 -0.056416705
0.21331252 -0.0058904863 0.05325321 -0.12849407 0.01913944 0.2608494 -0.10559318 -0.051393315
0.014400168 0.17290035 0.040940512 -0.022038506 0.04611098 -0.20643644 0.08801128 -0.21040706
-0.10875511 0.0056850496 0.19117427 0.23561065 -0.028895516 -0.0915833 0.02417157 0.05959443
-0.220255 -0.15410043 -0.041482303 -0.11236011 -0.23768912 0.09626687 0.099546365 -0.13266984
0.0066089532 0.003065979 -0.033946753 -0.15342651 0.13112248 -0.020672902 0.10210123 0.14349833
00000000: 9aae 013e c34f 3fbd ca9c 543e a0fe acbd
00000010: ad52 bf3d 234a 2b3b 18a0 27be bef3 39bd
00000020: 25eb 943e c085 71bc 3447 803d b475 d2bb
00000030: 3895 f2bd 5417 093e 0ae4 0bbe bb59 05bd
00000040: 23e2 963d dfce c2bd ab04 3e3d 4b74 b3bc
00000050: 1633 f33d 9177 65bd 78c0 873e 6b2b 023e
00000060: 8727 0a3c fe32 09be 2b86 223e 3376 643c
00000070: 1f57 3d3e 8ec4 1e3e 7981 a23d d437 c43e
00000080: 902f 32be 22a9 843d 2f1e 10bd 2212 4f3e
00000090: 70cf 863d 0193 0cbe 0e74 323e 8a6e 6fbc
000000a0: f3b6 543d f69d b73d 5460 a83e ffe3 5a3e
000000b0: 951f a53d f98e 883d 6973 4fbd 5502 99bd
000000c0: da07 d23d 0047 633e 3ff8 0e3c 18e7 653e
000000d0: 6e42 30bd ffe3 e7bd 3934 1dbb 3415 67bd
000000e0: 996e 5a3e fb04 c1bb 0a20 5a3d f393 03be
000000f0: 51ca 9c3c 0d8e 853e 3d41 d8bd cc81 52bd
00000100: afee 6b3c ca0c 313e 3db1 273d 198a b4bc
00000110: dede 3c3d 1364 53be 423f b43d f374 57be
00000120: 00bb debd a749 ba3b 30c3 433e eb43 713e
00000130: 4ab6 ecbc 0690 bbbd 7503 c63c 4a19 743d
00000140: 878a 61be 81cc 1dbe 59e9 29bd 0f1d e6bd
00000150: c764 73be 9127 c53d f7de cb3d 9ada 07be
00000160: eb8f d83b 98ee 483b c00b 0bbd d71b 1dbe
00000170: f944 063e 385a a9bc 731a d13d 3af1 123e

gru.bias_hh_l0 f4 [96]
-0.022016473 0.22615737 0.24666366 0.106658205 -0.081627265 -0.019520093 -0.10208125 0.14776202
0.056739904 0.25066805 0.18693651 0.11351551 -0.008748538 0.28060788 -0.11982583 0.041741908
0.2606153 0.050426263 0.045876812 0.029602984 0.283267 0.22306997 0.27670828 0.22161773
-0.057110917 0.061457075 0.10548466 0.05666366 0.026577236 0.03770915 0.07827349 0.33058575
-0.06608882 0.22271709 0.20298785 0.03286348 0.2646342 -0.10219334 0.052429833 -0.19973527
-0.008887217 0.022941656 0.24851882 0.14624694 0.22226644 -0.101319134 -0.14568703 0.1465297
0.03486967 0.04671363 -0.112041935 0.007373642 -0.002334163 -0.13333017 -0.14345455 0.1740226
-0.11873585 0.14797747 -0.05010722 0.1284514 -0.06278455 0.14650714 -0.14599022 0.019100439
-0.12069096 0.053097796 -0.109703414 -0.11423838 0.074323446 0.08279065 0.14975731 -0.016001223
-0.14121903 -0.123947755 -0.011220203 0.073131196 -0.1086313 -0.058500692 -0.18588658 0.22192179
-0.17350294 -0.06244103 0.2397855 -0.05137768 0.044362564 -0.08325494 -0.19761041 -0.03303226
0.10452266 -0.08313022 0.17035332 -0.14361094 0.18752316 -0.069942966 0.057244916 0.14712618
00000000: e45b b4bc cc95 673e 6695 7c3e 9e6f da3d
00000010: 322c a7bd 9ae8 9fbc f90f d1bd ed4e 173e
00000020: 1a68 683d 9057 803e 496c 3f3e d27a e83d
00000030: 0756 0fbc d6ab 8f3e 3f67 f5bd 90f9 2a3d
00000040: 5e6f 853e c58b 4e3d 53e9 3b3d f581 f23c
00000050: 5f08 913e 746c 643e b5ac 8d3e c2ef 623e
00000060: 23ed 69bd 6aba 7b3d 5708 d83d 2718 683d
00000070: 81b8 d93c e974 1a3d da4d a03d 8942 a93e
00000080: 9359 87bd f30f 643e 0cdc 4f3e db9b 063d
00000090: 227e 873e be4a d1bd aac0 563d 6787 4cbe
000000a0: b19b 11bc 24f0 bb3c b87b 7e3e c2c1 153e
000000b0: d099 633e 6880 cfbd fb2e 15be e20b 163e
000000c0: 80d3 0e3d cb56 3f3d 3e76 e5bd 989e f13b
000000d0: c2f8 18bb b487 08be c0e5 12be fb32 323e
000000e0: c82b f3bd 6887 173e 3a3d 4dbd c488 033e
000000f0: 3095 80bd f805 163e 767e 15be 8678 9c3c
00000100: d22c f7bd 137d 593d 2fac e0bd d0f5 e9bd
00000110: e436 983d 258e a93d fb59 193e ff14 83bc
00000120: b99b 10be 52d8 fdbd f1d4 37bc cfc5 953d
00000130: 167a debd 6c9e 6fbd 0d59 3ebe 773f 633e
00000140: c1aa 31be 2ac2 7fbd 558a 753e 6771 52bd
00000150: 85b5 353d 9181 aabd 625a 4abe d64c 07bd
00000160: fa0f d63d 2d40 aabd 1a71 2e3e bf0e 13be
00000170: 1206 403e 423e 8fbd a579 6a3d 3fa8 163e

gru.weight_ih_l0_reverse f4 [96, 32]
0.18763918 0.18666969 -0.044344373 0.28527567 0.091893025 0.18017296 0.21184134 -0.061739206
0.05933369 0.014569812 0.089801185 -0.074471734 -0.061348706 0.17804044 0.18769127 0.1547474
0.116932996 0.24066304 0.199684 0.12861231 -0.028501596 0.060384244 -0.051458016 0.05385545
-0.114519455 0.19094722 0.17214243 0.22085077 0.012182493 0.113200195 -0.062700644 -0.09105521
-0.067056805 0.012764116 -0.09444637 -0.14533162 0.082096316 0.30600333 -0.114045225 0.08991742
-0.03811889 0.06955717 -0.100433335 0.15189055 0.043019332 -0.12579554 0.16012293 0.106978245
-0.1872692 -0.19030152 -0.12224949 0.06290916 -0.15870956 0.13848764 0.22994539 0.089367285
-0.013356417 0.08579854 0.12230978 0.053478666 -0.08787848 0.0126273455 0.15260796 -0.2512675
0.11452349 0.21435359 0.29602173 -0.053366277 0.15842643 0.25361305 0.22391969 0.14979225
0.021707892 0.27401537 0.035647437 0.18207644 0.014266831 0.36727187 0.33443964 -0.051972628
0.117896914 0.28266066 -0.018374786 0.04412806 0.22127889 0.1114895 0.10606014 0.072937354
0.15595755 0.25632542 0.2336448 0.07311937 0.26317254 0.34334132 0.20310439 0.34877646
-0.034243774 0.16366114 -0.08658616 -0.18848525 -0.13266344 0.0669034 -0.036519505 0.05684486
0.24536823 -0.17451325 0.008391626 -0.08464118 -0.036210276 -0.15370007 -0.027031887 0.14963219
0.04623133 -0.018300835 -0.11828138 0.06011925 0.009509154 0.088035695 0.20070766 -0.16517706
0.09799482 0.059872434 0.1286867 -0.06132039 -0.0451326 0.04541231 0.14739387 -0.10818545
0.15859693 0.16208042 0.00727336 -0.18379503 0.13244921 -0.16215704 -0.09145357 0.15283184
0.20740546 0.15934484 -0.06675693 0.23714535 0.106283456 -0.08412811 -0.12591271 0.048918825
0.11805633 -0.037721306 0.008922589 -0.057384204 0.09038897 -0.06231655 0.129913 0.26537365
-0.012775396 0.050705273 0.097008996 -0.0055904314 0.22248031 -0.07925901 -0.120137855 -0.10148495
0.0720245 -0.1303721 0.16678584 -0.18698272 -0.012192512 0.013226072 0.009733951 -0.08452091
-0.27497378 -0.035033897 -0.06493447 -0.17282206 0.061561186 -0.09303573 -0.16333638 -0.10147476
0.094656505 -0.20957103 0.18304038 0.13378453 -0.09878703 -0.17298143 -0.23807988 -0.012502352
-0.098302566 -0.053233314 -0.31000516 0.024887402 0.19078064 0.08412288 -0.27905592 0.06831222
0.092435 0.06422362 -0.026612604 0.0012828365 -0.05297678 -0.19060756 0.15918851 0.042363323
-0.119031385 -0.024481775 -0.12096133 -0.13370216 -0.042491104 -0.09535477 0.024940839 -0.045948822
0.01988172 -0.15853898 -0.018912818 0.016117746 0.050879665 -0.10245098 -0.016057394 0.052367173
-0.12757231 -0.06396845 0.06586088 -0.07386445 -0.034085423 0.035790388 0.015387408 -0.030428208
0.27805072 0.42976376 0.2634594 0.3524307 0.21508157 0.046421524 0.24911161 0.3969681
0.26606348 0.34538463 0.052883424 0.20016848 0.046525728 0.21580656 0.38411427 0.01405718
0.41223618 0.16114599 0.28607237 0.40971518 0.36586595 0.18297653 0.10857326 0.35963222
0.31212088 0.14792474 0.32331192 0.28553998 0.21700165 0.09353354 0.14838417 0.5359933
00000000: 7c24 403e 5726 3f3e 72a2 35bd a70f 923e
00000010: 6932 bc3d 437f 383e f0ec 583e 40e2 7cbd
00000020: e207 733d 39b6 6e3c afe9 b73d a384 98bd
00000030: c848 7bbd 3c50 363e 2432 403e 1a76 1e3e
00000040: 917a ef3d 5f70 763e f679 4c3e f2b2 033e
00000050: 2e7c e9bc 7855 773d a4c5 52bd 8897 5c3d
00000060: 2d89 eabd ab87 433e 1b46 303e b426 623e
00000070: 1499 473c 81d5 e73d 3269 80bd 277b babd
00000080: 1455 89bd 9520 513c 196d c1bd d0d1 14be
00000090: 1d22 a83d 78ac 9c3e 8b90 e9bd a026 b83d
000000a0: 8e22 1cbd fd73 8e3d feaf cdbd 3289 1b3e
000000b0: 0a35 303d 8cd0 00be 44f7 233e 6917 db3d
000000c0: 7fc3 3fbe 67de 42be f15d fabd 85d6 803d
000000d0: c284 22be b4cf 0d3e ce76 6b3e 3206 b73d
000000e0: e0d4 5abc 25b7 af3d 8d7d fa3d 720c 5b3d
000000f0: a2f9 b3bd ede2 4e3c 4345 1c3e 22a6 80be
00000100: 4b8b ea3d 827f 5b3e 2990 973e 9996 5abd
00000110: 8a3a 223e 92d9 813e 344b 653e 2463 193e
00000120: c0d4 b13c be4b 8c3e 0c03 123d 3f72 3a3e
00000130: 6dbf 693c 0f0b bc3e ac3b ab3e 40e1 54bd
00000140: f073 f13d e6b8 903e b886 96bc a0bf 343d
00000150: ef96 623e 9b54 e43d 0f36 d93d 2e60 953d
00000160: 56b3 1f3e 163d 833e 9540 6f3e 9cbf 953d
00000170: 8dbe 863e 6fca af3e 99fa 4f3e d492 b23e
00000180: 3343 0cbd c996 273e 1654 b1bd 4702 41be
00000190: edd8 07be a604 893d 7a95 15bd 28d6 683d
000001a0: cf41 7b3e 9ab3 32be 087d 093c 5b58 adbd
000001b0: 3a51 14bd 8d63 1dbe fa71 ddbc 2e39 193e
000001c0: 105d 3d3d a2eb 95bc 823d f2bd 9a3f 763d
000001d0: 48cc 1b3c 0f4c b43d 4f86 4d3e 2d24 29be
000001e0: 82b1 c83d cc3c 753d 72c6 033e 172b 7bbd
000001f0: f6dc 38bd 4202 3a3d 6bee 163e 5590 ddbd
00000200: 3c67 223e 69f8 253e 5e55 ee3b c434 3cbe
00000210: c4a0 073e 7f0c 26be 024c bbbd f37f 1c3e
00000220: 1962 543e 4b2b 233e dbb7 88bd 3bd6 723e
00000230: 24ab d93d 5c4b acbd 43ef 00be 1b5f 483d
00000240: 84c7 f13d a881 1abd 0d30 123c b30b 6bbd
00000250: da1d b93d a43f 7fbd ea07 053e 0edf 873e
00000260: e54f 51bc 55b0 4f3d a7ac c63d f02f b7bb
00000270: e1d1 633e 8c52 a2bd d60a f6bd 57d7 cfbd
00000280: 9581 933d 4480 05be e8c9 2a3e 6678 3fbe
00000290: 1ac3 47bc 2bb2 583c 267b 1f3c 4d19 adbd
000002a0: 5dc9 8cbe b47f 0fbd 5dfc 84bd 44f8 30be
000002b0: 9527 7c3d 8489 bebd a741 27be 00d2 cfbd
000002c0: 45db c13d ca99 56be f06e 3b3e d0fe 083e
000002d0: db50 cabd 0b22 31be 36cb 73be aad6 4cbc
000002e0: db52 c9bd 2d0b 5abd ffb8 9ebe aae0 cb3c
000002f0: 005c 433e 9e48 ac3d 6be0 8ebe 47e7 8b3d
00000300: 904e bd3d ac87 833d ad02 dabc da24 a83a
00000310: 2efe 58bd a12e 43be 5002 233e 2a85 2d3d
00000320: bac6 f3bd 018e c8bc 93ba f7bd 38e9 08be
00000330: 270b 2ebd 5d49 c3bd bb50 cc3c d534 3cbd
00000340: fdde a23c 0b58 22be 0eef 9abc 5d09 843c
00000350: 3267 503d d2d1 d1bd cc8a 83bc f67e 563d
00000360: 51a2 02be e401 83bd 12e2 863d 3f46 97bd
00000370: 289d 0bbd f198 123d 781b 7c3c 9444 f9bc
00000380: aa5c 8e3e ff09 dc3e 27e4 863e cc71 b43e
00000390: 583e 5c3e 7f24 3e3d 1d17 7f3e 673f cb3e
000003a0: 7939 883e 41d6 b03e 4a9c 583d f7f8 4c3e
000003b0: c391 3e3d 65fc 5c3e a0aa c43e 1650 663c
000003c0: 9f10 d33e 7403 253e 1478 923e 30c6 d13e
000003d0: c852 bb3e 335e 3b3e a85b de3d b721 b83e
000003e0: 4fce 9f3e 9579 173e 2489 a53e 4c32 923e
000003f0: ae35 5e3e 838e bf3d 05f2 173e db36 093f

gru.weight_hh_l0_reverse f4 [96, 32]
0.21011165 0.14464208 0.04899155 0.1607813 0.18420307 -0.15194206 0.014329183 -0.050903987
-0.00542576 0.08406319 -0.2295887 0.21281703 0.08368495 0.00038824105 0.061946698 -0.043306768
-0.089448825 0.14207157 -0.1273075 -0.011453531 0.07235034 0.12944749 0.03391129 -0.32318535
-0.14811479 0.092189655 0.07637419 0.10848375 -0.08515838 0.21554561 0.26976907 0.13971274
0.04831948 0.14713216 -0.026902104 0.17482395 0.14498805 -0.07437503 -0.082981355 -0.3090153
-0.18146162 0.40170938 -0.24487752 0.061548 0.034635395 0.013754063 -0.18172203 0.18938053
0.094521016 -0.056913063 -0.14078812 -0.17908648 -0.18831275 0.20438047 -0.051065136 -0.30114594
-0.21728085 -0.13131577 0.09952521 0.001180078 -0.09864075 0.12601301 0.30291972 -0.008093659
0.09522407 -0.09517353 -0.04865513 -0.1201753 0.10144407 0.10702413 -0.002277816 0.04648855
-0.2381264 0.055331483 -0.17897435 0.07048832 0.077641785 -0.056657247 -0.23099369 -0.030316291
-0.013106485 0.061515804 0.080474235 -0.14767875 0.08737055 0.18229695 -0.12910983 0.0707557
-0.12066327 -0.23575841 -0.09483897 0.013847124 0.109069824 0.0762452 -0.14627196 -0.0004225185
0.22919388 0.17540005 -0.23546739 0.09634541 -0.0056410325 -0.028959878 0.19868867 -0.33322954
-0.17105761 0.10647208 -0.0060614967 0.12872966 -0.03188068 0.13753772 -0.2519085 0.046314403
-0.0101048425 -0.05869519 0.01655144 -0.10683618 0.013340533 0.008301817 -0.004308466 -0.115074225
0.060637698 -0.20042545 -0.14604504 -0.0138296 0.092797935 0.16421448 0.10385479 0.19954619
0.11994002 -0.030294394 0.01694145 0.17980543 -0.09600802 -0.09396702 0.079452485 -0.25548044
0.057397913 0.20428361 -0.02736672 0.00061386515 -0.18013218 0.06294794 0.018925989 0.04661856
0.13345873 -0.01404181 -0.10559398 -0.0465045 -0.033118483 0.008159896 0.005524543 -0.2344225
-0.060238775 -0.030649899 0.10224473 -0.06533839 0.038255822 0.07173603 0.22379614 0.06799283
0.09479461 0.013240863 0.20395139 0.21054904 0.0010103837 -0.10148408 0.14125858 -0.026108796
0.10251665 0.075406276 -0.09442419 0.25228938 0.0068594045 -0.13459773 -0.06674767 0.17239241
-0.009017624 -0.005390078 0.049437393 -0.1502941 -0.011434298 -0.03498605 0.12253045 0.037292518
0.06850793 0.11093681 -0.1902264 0.10669842 -0.0038034988 -0.059238143 0.1675056 -0.031352587
0.11399808 0.06470113 -0.04279036 0.09000865 -0.05020949 -0.19878142 0.10540646 -0.3309783
-0.034312934 -0.03863691 -0.14750645 0.16382192 -0.01566731 -0.1383054 -0.23912418 -0.08704165
-0.0067035533 0.10204957 -0.060336623 0.04238833 0.011111683 0.11578229 -0.09232601 -0.047514573
0.120834984 0.056492392 0.08845833 -0.008171101 0.0060216775 0.2506838 0.14780408 -0.0025088696
0.0013678771 0.11725459 0.08239898 -0.048557 -0.11726884 0.094311595 0.20645913 0.093039736
-0.101955615 0.14711255 -0.19082 -0.04558285 -0.056668334 0.102192216 -0.10249652 -0.14050981
-0.1539418 0.0034703996 -0.12277219 0.02770922 -0.084564544 0.018104203 -0.07468573 -0.24687204
0.11701933 0.060520135 0.05530344 -0.08911584 0.042177837 -0.03217633 0.011947475 0.14651564
00000000: 8227 573e 0e1d 143e 5dab 483d daa3 243e
00000010: bb9f 3c3e b396 1bbe f3c4 6a3c b380 50bd
00000020: 93ca b1bb 5229 ac3d 4d19 6bbe b5ec 593e
00000030: 0463 ab3d d58c cb39 d2bb 7d3d 7062 31bd
00000040: f230 b7bd 367b 113e e65c 02be 97a7 3bbc
00000050: 6a2c 943d e28d 043e 91e6 0a3d 8d78 a5be
00000060: 67ab 17be eecd bc3d 126a 9c3d ba2c de3d
00000070: 8467 aebd fdb7 5c3e 2c1f 8a3e db10 0f3e
00000080: a6ea 453d d0a9 163e cd61 dcbc 0d05 333e
00000090: bf77 143e f051 98bd 21f2 a9bd 4137 9ebe
000000a0: 13d1 39be daac cd3e 2cc1 7abe c119 7c3d
000000b0: d8dd 0d3d b958 613c 5715 3abe f8ec 413e
000000c0: 3c94 c13d ac1d 69bd c32a 10be 7262 37be
000000d0: 0fd5 40be 1d49 513e ad29 51bd cd2f 9abe
000000e0: df7e 5ebe a477 06be e0d3 cb3d d9ac 9a3a
000000f0: 2904 cabd 8e09 013e 4b18 9b3e 449b 04bc
00000100: d604 c33d 57ea c2bd 9a4a 47bd 781e f6bd
00000110: e9c1 cf3d 782f db3d 6947 15bb c76a 3e3d
00000120: 68d7 73be 44a3 623d 0d45 37be 2e5c 903d
00000130: a802 9f3d 6e11 68bd 9c89 6cbe df59 f8bc
00000140: 95bc 56bc fff7 7b3d adcf a43d 1939 17be
00000150: 55ef b23d 0dac 3a3e 5e35 04be 5de8 903d
00000160: 4e1e f7bd a76a 71be ef3a c2bd 0cdf 623c
00000170: 0060 df3d 7226 9c3d 51c8 15be 7985 ddb9
00000180: cdb1 6a3e 129c 333e 5d1e 71be be50 c53d
00000190: 69d8 b8bb 443d edbc 0b75 4b3e 109d aabe
000001a0: ba29 2fbe 090e da3d 859f c6bb b5d1 033e
000001b0: 5195 02bd b0d6 0c3e 27fa 80be 2cb4 3d3d
000001c0: c88e 25bc 5e6a 70bd e396 873c edcc dabd
000001d0: 4092 5a3c 5804 083c 082e 8dbb 09ac ebbd
000001e0: 3c5f 783d 543c 4dbe d58c 15be 8c95 62bc
000001f0: d80c be3d d727 283e d2b1 d43d d655 4c3e
00000200: 1da3 f53d f32b f8bc ccc8 8a3c ea1e 383e
00000210: da9f c4bd c871 c0bd fcb7 a23d 55ce 82be
00000220: 131a 6b3d b92f 513e 2c30 e0bc cbeb 203a
00000230: 9274 38be d9ea 803d ad0a 9b3c 1af3 3e3d
00000240: 68a9 083e 9f0f 66bc a841 d8bd 817b 3ebd
00000250: 3fa7 07bd 16b1 053c 3a07 b53b 740c 70be
00000260: efbc 76bd 7f15 fbbc af65 d13d 22d0 85bd
00000270: 23b2 1c3d 57ea 923d d12a 653e d33f 8b3d
00000280: ad23 c23d 34f0 583c a2d8 503e 2b9a 573e
00000290: da6e 843a e3d6 cfbd 17a6 103e 1de2 d5bc
000002a0: 40f4 d13d 9b6e 9a3d 7861 c1bd 132c 813e
000002b0: dbc4 e03b fdd3 09be 01b3 88bd a387 303e
000002c0: a8be 13bc 409f b0bb dd7e 4a3d b2e6 19be
000002d0: ec56 3bbc 884d 0fbd 3ff1 fa3d 0ac0 183d
000002e0: e34d 8c3d d732 e33d b6ca 42be b484 da3d
000002f0: 1f44 79bb b2a3 72bd 9786 2b3e 926b 00bd
00000300: d377 e93d 0782 843d f244 2fbd 7556 b83d
00000310: 77a8 4dbd 5b8d 4bbe 58df d73d fd75 a9be
00000320: b88b 0cbd bd41 1ebd ee0b 17be efc0 273e
00000330: bb58 80bc ee9f 0dbe f8dc 74be e542 b2bd
00000340: 7ba9 dbbb 5dff d03d 8923 77bd 639f 2d3d
00000350: c70d 363c 441f ed3d 6b15 bdbd a49e 42bd
00000360: 5578 f73d 9164 673d a429 b53d 15e0 05bc
00000370: 7e51 c53b a159 803e f459 173e d96b 24bb
00000380: 574a b33a 2d23 f03d ccc0 a83d b4e3 46bd
00000390: a52a f0bd 7026 c13d 066a 533e 9e8b be3d
000003a0: 1bce d0bd aca4 163e 5166 43be 15b5 3abd
000003b0: 0e1d 68bd 274a d13d b2e9 d1bd cee1 0fbe
000003c0: eba2 1dbe a56f 633b fc6f fbbd 72fe e23c
000003d0: 2d30 adbd 444f 943c d5f4 98bd 06cc 7cbe
000003e0: d5a7 ef3d f6e3 773d dc85 623d 5e82 b6bd
000003f0: abc2 2c3d 54cb 03bd 58bf 433c 3208 163e

gru.bias_ih_l0_reverse f4 [96]
0.08181632 0.17218965 0.21357092 0.15175997 0.07987681 -0.10743952 -0.041801263 -0.05523596
-0.10722257 0.22682385 0.05326106 0.16390777 0.065597065 -0.017909793 0.009791 0.07980968
0.090435125 0.09084667 0.22691989 -0.0832279 0.03322036 0.17339672 -0.010637754 0.20742424
0.0751682 -0.08941971 0.14160728 -0.033901878 0.027523227 -0.08887576 -0.0380131 0.22382233
-0.083941825 0.21557759 0.08060937 0.12509646 0.26988804 -0.056161795 0.2001574 0.1462226
0.0024214087 0.2542752 0.0048615453 -0.015351637 0.32926884 0.12798142 0.1859259 -0.009163325
0.029567318 0.13171673 -0.011944508 -0.00078395713 0.26057348 0.11698632 -0.0053462065 0.2435763
0.12543657 -0.016058216 0.051347617 -0.08927525 0.1519212 0.3149819 0.15667723 0.34973985
0.2527041 0.17221813 -0.050943457 0.18571495 0.12618586 -0.089715116 0.16921164 0.0059450637
-0.16383608 0.15001133 -0.18517901 0.10015921 -0.083872885 -0.074409954 -0.10975885 0.13438459
0.0830706 0.13783255 -0.120671235 -0.16455302 -0.03457641 0.05397226 -0.22284774 -0.17759879
0.031981308 -0.19275175 0.095257714 -0.16670647 0.13128321 0.11302703 0.052992344 0.09678211
00000000: 518f a73d 7c52 303e 56b2 5a3e f766 1b3e
00000010: 7496 a33d 4009 dcbd cd37 2bbd 1a3f 62bd
00000020: 8297 dbbd 8344 683e 4528 5a3d 70d7 273e
00000030: c157 863d 8fb7 92bc 6e6a 203c 4273 a33d
00000040: 0d36 b93d d20d ba3d b05d 683e 6473 aabd
00000050: 1212 083d e98e 313e f949 2ebc 0567 543e
00000060: c9f1 993d ae21 b7bd 8001 113e b2dc 0abd
00000070: 6478 e13c 7f04 b6bd a0b3 1bbd ae31 653e
00000080: b1e9 abbd 5fc0 5c3e 8616 a53d 4919 003e
00000090: c42e 8a3e e909 66bd 10f6 4c3e 61bb 153e
000000a0: 7fb0 1e3b 5c30 823e 994d 9f3b 6f85 7bbc
000000b0: ed95 a83e 900d 033e 5c63 3e3e c521 16bc
000000c0: 2937 f23c c0e0 063e e6b2 43bc 7982 4dba
000000d0: e369 853e 8696 ef3d 3b2f afbb 116c 793e
000000e0: 7272 003e 858c 83bc e151 523d f1d5 b6bd
000000f0: 3b91 1b3e 4f45 a13e ff6f 203e 1a11 b33e
00000100: 6f62 813e f359 303e 16aa 50bd 0f2c 3e3e
00000110: de36 013e 8fbc b7bd d145 2d3e cfce c23b
00000120: a5c4 27be 929c 193e 919f 3dbe 4620 cd3d
00000130: 8cc5 abbd 3f64 98bd 3fc9 e0bd 1d9c 093e
00000140: eb20 aa3d fa23 0d3e 7b22 f7bd 9680 28be
00000150: fe9f 0dbd 0412 5d3d 3332 64be 75dc 35be
00000160: d5fe 023d b760 45be 7a16 c33d 1ab5 2abe
00000170: 1b6f 063e b77a e73d 800e 593d b335 c63d

gru.bias_hh_l0_reverse f4 [96]
0.22416174 0.1133088 0.035404462 0.10799717 0.04756042 0.014182026 0.1541983 -0.0513772
-0.015760364 0.041307833 0.052485127 0.051172987 0.17178388 0.03532337 -0.028464368 0.17207746
0.1741287 0.03865567 0.05040893 0.24831167 0.03369731 -0.02947221 0.10735113 -0.020427216
0.04555826 0.15942101 0.0016645767 0.0125520425 -0.0052815215 0.16724274 -0.015326977 0.22217159
-0.08746742 -0.07286323 0.31754124 0.27260432 0.033963725 -0.097698666 0.06269241 0.16554372
-0.14507447 0.14392033 -0.103833936 -0.16071926 0.054392893 0.15031178 0.032584496 0.12867384
0.1810009 0.12843716 0.024279099 0.29695106 0.24152438 0.089052714 0.1860833 -0.024722941
-0.07552303 -0.12691092 0.08785735 -0.07080289 0.050761316 0.325421 0.1588446 0.24507415
-0.05894672 0.09469969 0.042923857 0.008318908 0.1440869 -0.19279265 -0.033402715 -0.05049242
-0.10152927 -0.1267075 -0.012493132 -0.039664812 0.00846381 0.13980412 -0.07973635 -0.011976188
-0.010672162 -0.14041893 -0.029065117 -0.20139982 -0.18828079 -0.12134108 -0.0379453 0.07412792
0.064363316 0.04697666 -0.05530497 0.0047169216 0.10482686 0.10512577 0.1550954 -0.014251833
00000000: a88a 653e 720e e83d 4504 113d 9f2d dd3d
00000010: b7ce 423d ba5b 683c 29e6 1d3e e670 52bd
00000020: e11b 81bc 6732 293d a5fa 563d c49a 513d
00000030: 1de8 2f3e 3daf 103d 1b2e e9bc 1335 303e
00000040: cb4e 323e 6855 1e3d 9879 4e3d 6a45 7e3e
00000050: 3106 0a3d b46f f1bc e9da db3d fa56 a7bc
00000060: 4c9b 3a3d 433f 233e ed2d da3a 15a7 4d3c
00000070: 9d10 adbb ae41 2b3e 001e 7bbc f380 633e
00000080: 1e22 b3bd 5139 95bd c494 a23e cb92 8b3e
00000090: 8c1d 0b3d 3d16 c8bd e164 803d 4b84 293e
000000a0: 678e 14be da5f 133e e3a6 d4bd 9793 24be
000000b0: 15cb 5e3d 55eb 193e 5277 053d 13c3 033e
000000c0: 4d58 393e 0885 033e f6e4 c63c f809 983e
000000d0: 2b52 773e 4561 b63d 9f8c 3e3e c487 cabc
000000e0: d1ab 9abd f0f4 01be 8eee b33d 1b01 91bd
000000f0: 19eb 4f3d 959d a63e 29a8 223e b8f4 7a3e
00000100: 1e72 71bd e9f1 c13d edd0 2f3d 074c 083c
00000110: 848b 133e 706b 45be 49d1 08bd 24d1 4ebd
00000120: 94ee cfbd 9cbf 01be feaf 4cbc 9277 22bd
00000130: cbab 0a3c d028 0f3e d04c a3bd c637 44bc
00000140: 4bda 2ebc fbc9 0fbe f819 eebc c13b 4ebe
00000150: aecc 40be ac81 f8bd 886c 1bbd 61d0 973d
00000160: ead0 833d 996a 403d 7787 62bd 6890 9a3b
00000170: 77af d63d 2e4c d73d 54d1 1e3e 8580 69bc
