logs/exp0/weights/epoch70.pt (torch, 348934 bytes, 45 tensors)

conv_block1.0.weight f4 [32, 4, 10]
00000000: 7fee 613b 6009 53be 388f 1c3e 7f1d b7bc
00000010: d142 bcbb e4aa e73d 6ac3 2abd 5a31 10be
00000020: ba3a 033e 13c0 06be ee3c aa3d d045 e1bd
00000030: e917 23bc 3167 643d 56ce fcbd 3e7a 9f3d
00000040: bb65 9e3d 8deb af3b 3393 82bd 61ea 39bd
00000050: 6ff7 c9bd e1d0 aa3d a1b5 693c cb92 dabc
00000060: bc33 5d3d 63fd 05be 0b40 5f3d 6cbd af3d
00000070: 1915 4bbe f2fb fbbc ba87 2fbe 450d a73d
00000080: 9fa6 b83c 4e36 26bd f176 27bd a47d 27bd
00000090: bb8c cdbd 3ddd 353d 5cca 6b3c d8a5 873c
000000a0: be86 77bc 6492 f2bd 5111 983d 3433 c3bd
000000b0: 0de0 a4bc b9c2 383e 2cfb c7bd 70da f0bc
000000c0: 9430 f23d 8d6d 5c3d a3a4 a63d 7edb 9d3d
000000d0: 8610 2dbe e435 e83d 8611 39be c9cf 753c
000000e0: 33eb 473c f38f 84bd e939 36bc 4e59 8b3d
000000f0: 293f b0bd f068 403b d7c0 07bd 7876 60bd
00000100: 8036 a0bc 4897 05bd 16b4 b3bd 03e5 de3d
00000110: 8644 f1bd c297 0dbd e1fe d33d 214b 903d
00000120: 2442 cd3b a41b 50bd 1706 1bbd cc46 bbbc
00000130: cf40 efbd 36d8 343b be1f e9bc 502a 983d
00000140: 6575 5d3d cc3e f0bd 376d 02be a47a c9bd
00000150: 59a6 1c3e f1f1 07be 08b2 b6bd 413c 033e
00000160: e013 31be 19aa 8ebb 7e94 6e3d 533d 0b3d
00000170: 3a04 a33c 94da 2d3d f725 8bbc 7066 db3d
00000180: 7892 f23d 38bc 033e 3e3d 2c3e de5a dabc
00000190: f26c 203d 82f5 f8bd 96fe 293d 8003 01be
000001a0: d37b 1f3b 5ce9 c93d c4d4 eb3d a8d6 bebd
000001b0: a9f5 14bb ec4c 65bd f016 efbd 89b7 ffbd
000001c0: 9c21 bb3d 9463 663d fb13 b5bd 2cdc d0bd
000001d0: 06e4 983d 19a0 c5ba d671 b4bc 06b6 bfbb
000001e0: c381 1d3d 1cdd 20be 41db 9cbd dfea e7bd
000001f0: d814 28bd 602f e33c bdc5 77bd f465 1fbe
00000200: b4c3 a03b a5da b93c 5b4b 8ebd 4c33 3bbe
00000210: 5d32 15be ef25 0abe 5448 e9bd 6d9e 4ebd
00000220: 4bab 143d 5727 2ebd 55f4 0abe 50b2 5c3d
00000230: 4f2d 95bd 0fd2 cd39 2a03 83bb 1e20 123e
00000240: be36 0dbe a2e3 8e3d 7ec3 cb3d 681f 7cbd
00000250: c3e5 073e 8867 6abc b01f 9b3d 8e46 813d
00000260: 54ee ca3d 6dca 613c b613 14bd 916d 7a3d
00000270: ee1f c83d cae5 7c3d 3eca c03d 30dd c13d
00000280: 7e9f 2cbd 9657 12bd edc5 5a3c b501 83bd
00000290: a8b7 8dbd f772 003e 09e2 a8bd 9ebe b5bd
000002a0: 5b7c 7b3d d1c3 8ebd 0b05 803d c559 663d
000002b0: 89b7 6abd 3882 cf3d d0b0 9ebb 5b85 1dbe
000002c0: 5c16 35bb 81b9 cb3d d529 08be d8d6 fe3d
000002d0: 396a dbbd 1e2f 693d 55f4 29be b622 103d
000002e0: 27a9 bb3c 9653 92b9 3a27 57be 3949 d03d
000002f0: dd61 1ebe bc98 e23c 2893 463d 56b1 c6bc
00000300: 19da d4bd 1f71 7bbc 88bc 47be 7a8e 103c
00000310: e06e 9f3d 7827 8d3d 5bf6 3dbe b51c a93d
00000320: 5d3f b23c 5c6d cd3d 6db2 5fbd 8c23 acbd
00000330: 882d 503d 4a6f 36be 0516 cf3d 1a9a 273e
00000340: edb8 87be 5dc8 cfbd c7e0 213d 2db9 173c
00000350: a7c4 49be d39e 13bc 108c b73c 853d f23d
00000360: d585 10bd 1e05 e9bd c635 373e 4cce 00be
00000370: 38aa 4a3c cd65 87bd 1d53 903d 0b77 f2bc
00000380: a1be 2abe 3315 b1bd a2ba 663c 7138 3cbe
00000390: b368 65be 592d 173d c89f 953d ff07 f33c
000003a0: 6c08 3abd 90b1 8e3d e3ac c73d c151 a5bc
000003b0: c204 4cbd fdbe a53d df97 4fbd 2b88 723d
000003c0: 664f da3d a7ce 913d 295a 233d 1e22 443d
000003d0: 3a1f f1bd a85e 403e 4622 6a3d 698e 113e
000003e0: 14ca 003e 3846 e63d dc86 89bd 1d19 ceba
000003f0: f082 013d eb2d 38bb ebbc d5bd 8745 6dbd
0.003447443 -0.20609045 0.15289009 -0.022352932 -0.00574527 0.11311892 -0.041690268 -0.14081326
0.12815371 -0.13159208 0.08312403 -0.10999644 -0.009954431 0.055762473 -0.12344043 0.07786988
0.07734247 0.005368656 -0.06375732 -0.045389537 -0.09861647 0.08340622 0.014264495 -0.026681324
0.054004416 -0.1308494 0.054504436 0.08581051 -0.19832267 -0.030759785 -0.1714162 0.08156828
0.022540389 -0.040579133 -0.040884916 -0.040891305 -0.10036608 0.044400442 0.014391508 0.016558573
-0.015107809 -0.11844328 0.07425178 -0.095312506 -0.020126367 0.18043031 -0.09764704 -0.029401034
0.11825672 0.053815413 0.08136871 0.077078804 -0.16900834 0.11338404 -0.18073091 0.015003153
0.012202072 -0.06472769 -0.011122205 0.06804143 -0.08605797 0.0029359423 -0.03314289 -0.05480048
-0.019557238 -0.032614976 -0.08774583 0.10883524 -0.11780648 -0.034568556 0.10351349 0.0704558
0.006263988 -0.05080761 -0.037847605 -0.022860907 -0.11682283 0.0027594692 -0.028457519 0.074299455
0.054067034 -0.117307276 -0.12736975 -0.09837845 0.15297832 -0.13275887 -0.089206755 0.12815954
-0.17292738 -0.0043537733 0.058247082 0.03399403 0.019899476 0.04244478 -0.016985876 0.10712898
0.11844343 0.12864769 0.16820237 -0.026654657 0.0391664 -0.12156202 0.041502558 -0.12598991
0.002433528 0.09858963 0.11515191 -0.09318286 -0.0022729433 -0.05598156 -0.11674297 -0.124861784
0.0913727 0.05624731 -0.088417016 -0.101982445 0.07465367 -0.001507762 -0.022026937 -0.0058505563
0.03845383 -0.15709347 -0.07659007 -0.11324095 -0.041035503 0.027732551 -0.060491312 -0.15566236
0.004906142 0.022687266 -0.06947967 -0.18281287 -0.14569993 -0.13491033 -0.113907486 -0.050444055
0.03629617 -0.042517986 -0.13569768 0.05388099 -0.072840326 0.00039257153 -0.00399818 0.14270064
-0.13790414 0.06977011 0.099493966 -0.06155339 0.13271241 -0.01430691 0.07574403 0.06312285
0.09908739 0.013781172 -0.03615161 0.061139647 0.09771715 0.06174258 0.09413575 0.09466016
-0.04214429 -0.03572806 0.013352853 -0.0639681 -0.06919795 0.12543856 -0.08246238 -0.08874248
0.06139789 -0.06970943 0.06250962 0.056237955 -0.05730394 0.10132259 -0.004842855 -0.15382902
-0.0027631735 0.099474914 -0.13297208 0.12443322 -0.1071362 0.0569297 -0.16597112 0.035189353
0.022907807 -0.00027909566 -0.21011057 0.10170216 -0.1546702 0.02766072 0.048480183 -0.024254482
-0.10393161 -0.015346794 -0.19505513 0.008823032 0.077848196 0.06892294 -0.18551008 0.082574286
0.02175873 0.10030624 -0.05461352 -0.084052175 0.050824672 -0.17815891 0.10111622 0.16367379
-0.26508275 -0.10145638 0.039521005 0.009260458 -0.19703923 -0.009010035 0.022405654 0.1182814
-0.035283882 -0.11377929 0.17891607 -0.12578696 0.012369685 -0.06611214 0.070471026 -0.02959778
-0.16674282 -0.086466216 0.014082583 -0.18380906 -0.22403221 0.03690848 0.073058665 0.029666899
-0.045418188 0.06967461 0.097497724 -0.020180585 -0.049809225 0.08093069 -0.050681945 0.05921189
0.10659675 0.07119494 0.039880905 0.0478841 -0.11773534 0.18786108 0.057161592 0.14214481
0.12577087 0.11243862 -0.067151755 -0.0015724037 0.031619012 -0.002810354 -0.10436424 -0.057927635

conv_block2.0.weight f4 [32, 32, 10]
00000000: fd4d 6dbc 739d 2abd 074b 613c d86d 38bd
00000010: 5dd2 023d bcc0 0e3d 5a1c 083c f8e2 003e
00000020: 04e9 c33d 357b c93d 390b c53d fb43 fe3d
00000030: 1211 063e a69a d13c 1510 973d babf da3d
00000040: 0b3a 6e3d eedf ea3d a3a8 8f3d ff76 debb
00000050: aced 7ebc 0f1b a63c 3d5b 24bd 0226 6d3c
00000060: a1ee fbbc a17d 963d c269 693d fc14 46bd
00000070: 2fd1 f13c 9e70 abbd 08ef d2bd 3bf8 263d
00000080: 7c8b 9bbc dd3c b6bd f122 a3bd c07b 893d
00000090: ff43 0ebd 9b59 78bd 6d14 3abd 8692 29bc
000000a0: a733 553d 40ed 443b 0706 fc3d cc1e c73d
000000b0: 26c3 66bd 401b 1a3e 42b7 2cbd 6002 be3d
000000c0: ca0b d53c 6371 aa3d cc05 b0bb 2943 c83c
000000d0: 313f a33c a6e2 c63d 5dfb a8bc 0ebf 763d
000000e0: d742 18bc 5aa5 783d e107 053e f9bc f23d
000000f0: 4a6c 863d c6eb 873d a3b2 023e de3b 343e
00000100: 3891 783e d2bc b23d ca21 c13d cf34 3f3e
00000110: 4892 fb3c ed2e 923d afac 523e b02d 313d
00000120: 5726 1e3d a2d5 213d 2e64 8e3d 16bd d23d
00000130: 3212 b73d 3d86 bc3d 5701 1b3e cbb7 2d3e
00000140: 3ccc 2e3d 4336 ab3d d39b 1d3d f315 7dbc
00000150: 4125 ba3d 2cd9 69bd 7462 40bc ebf3 e5bb
00000160: 56ef 0b3d 42a1 82bc d15c 933c 5f4a 803c
00000170: 3c81 273d 7678 a2bd 7853 f4bd 1372 06be
00000180: 41d9 f2bd 8905 7d3c 038b 00be 7fb6 9f3b
00000190: 157d cc3d 1939 c73d 2dc5 143e df79 263b
000001a0: 2b7c 1d3e 467b 143b d718 cf3d 7a54 e33d
000001b0: 99ca 70bd ae54 fd3d ddac 573c 0a78 d1bd
000001c0: 3435 a63d 2934 a03d 6bce 813d 19be 4b3d
000001d0: 0af8 2cbd 30ff c33d 1c2f a8bd 4c4e ddbc
000001e0: 147c c3bd 4f21 11bd 491e 09bd 4eb0 f43c
000001f0: 01d4 dabd 4ca4 09be 714e cc3b 6dec 493d
00000200: f902 343c 6dfd 0fbe e723 e6bd f6f9 bdbd
00000210: 7ceb b4bd 0f31 c7bd 0c73 1ebe b8b2 c2bd
00000220: 96b7 abbd df51 ea3a 84c4 14bd 0d4c 08be
00000230: 35b9 7a3d c76d 5c3d 46b0 c83d a111 1a3e
00000240: 1548 ea3d 831b 943d de80 5dbd e637 a03d
00000250: 0618 813c c26b 043e a121 d13d 0fd6 af3d
00000260: bf68 adbd 3d59 693c dfbf 8e3d ff27 863d
00000270: 74ee 29bd 6b89 523c facf b13d bb05 893c
00000280: 9bad 5e3d 67e0 abbd 95cc a2bd 455c dbbb
00000290: d557 db3d 1ef5 463d 05da 7a3d edf5 4ebd
000002a0: a41a 8f3d 8929 59bc f28c 2dba 37e6 133e
000002b0: 1b68 2e3e 99f4 e73d abef d43c cc03 333e
000002c0: 4413 543d 03d9 653d cdb0 ae3d 0424 1bbc
000002d0: d053 1ebd 3f92 8dbc 73e7 04be 0c7b b53b
000002e0: f688 7abc 37a3 e0bd a0c6 36bd 5a63 b6bd
000002f0: bd60 b4bc bc8d 3cbd b6b7 54bc 5bbf 103e
00000300: a06a a0bb 567a 303d bf36 38bd c427 cdbb
00000310: 85c5 393d 0821 dc3d 85d9 473c ba64 273d
00000320: 2529 44bd 7618 5abc 8eae 953c 9926 22bd
00000330: a77b ffbc 782c 84bd 8b8a 35bd eaac 1d3d
00000340: bf47 f2bb 1c5f 70bc 0987 80bd c9a2 2a3d
00000350: 2174 87bd d1d0 8ebd fdd0 47bd d1ec 80bd
00000360: 90ec dfbc 5000 dd3d 45d7 2d3b f666 a5bd
00000370: d242 283d 8b1b 3d3d 039b 473d a97e 073e
00000380: 8153 703c 345e 65bc cd4e 073e e5c3 943d
00000390: 6911 1b3e dab1 433d 498b df3c 9fa8 bc3d
000003a0: 17b7 113e d924 4d3e d114 933d 1c51 753d
000003b0: 22f7 1f3e 65e4 353e 794d 113e a776 943d
000003c0: 0e99 8e3d 0d8f ef3d b1d6 8abd fc5a d9bc
000003d0: e65f 23bd cc6a ad3d 8442 bcbd 8dc0 22bd
000003e0: 7550 f13d fbcb 0c3c 1119 d5bd d8ca eebd
000003f0: b61a 18bc fbcb 10be 13be cebd 3408 0d3d
-0.014483926 -0.04165406 0.013750798 -0.04502663 0.0319389 0.034851775 0.008307541 0.12586582
0.095659286 0.09837953 0.09621281 0.1241531 0.1309245 0.025586437 0.07376114 0.106811
0.058160823 0.114684924 0.07014587 -0.006789088 -0.015559595 0.020276574 -0.040126074 0.014474394
-0.030753436 0.073481806 0.056985624 -0.048359856 0.029518692 -0.083710894 -0.10299498 0.040764075
-0.01898741 -0.088983275 -0.07965649 0.067130566 -0.034732815 -0.06063233 -0.045429636 -0.010349875
0.052051213 0.0030048639 0.12305837 0.09722671 -0.05633845 0.15049458 -0.042166956 0.09277797
0.026006598 0.08322408 -0.005371785 0.024446087 0.019927593 0.097111985 -0.020627672 0.060240798
-0.00929328 0.060704567 0.12991287 0.1185245 0.06563623 0.06636767 0.12763457 0.17600963
0.24274147 0.08727421 0.09430273 0.18672489 0.0307094 0.07137857 0.20573686 0.04325646
0.038610782 0.039510377 0.069527015 0.102899715 0.08939017 0.092052914 0.1513723 0.16964643
0.04267524 0.08359959 0.038478684 -0.015447128 0.09089137 -0.057091877 -0.011742223 -0.0070176027
0.034163795 -0.015946034 0.017988594 0.015660463 0.040894732 -0.07933132 -0.11929983 -0.13129453
-0.11857844 0.015443214 -0.12553029 0.00487405 0.09984795 0.097276874 0.14528342 0.002540223
0.15379398 0.0022656485 0.1011216 0.11100097 -0.058786962 0.12369667 0.013163772 -0.10227974
0.081156164 0.07822449 0.06338199 0.049741838 -0.042228736 0.095701575 -0.082121104 -0.027014874
-0.095451504 -0.035432156 -0.033476148 0.029869225 -0.10684968 -0.1344158 0.006234937 0.04929774
0.010987037 -0.14061518 -0.112373166 -0.09276192 -0.088339776 -0.09726154 -0.15473574 -0.09506744
-0.083846256 0.0017877183 -0.036320224 -0.13310261 0.061211783 0.05381563 0.097992465 0.15045787
0.1143953 0.0723181 -0.054077975 0.07823162 0.015758526 0.12931731 0.10211492 0.0858575
-0.08467244 0.0142424675 0.0697019 0.065505974 -0.041487172 0.012850146 0.086822465 0.016726365
0.05436478 -0.08392411 -0.07949177 -0.006694349 0.10710112 0.048573606 0.061243076 -0.0505275
0.06987503 -0.013254532 -0.0006620429 0.14443289 0.170319 0.1132595 0.025993189 0.17481917
0.051776186 0.05611516 0.08529816 -0.009469036 -0.03865415 -0.01728165 -0.12978916 0.00553835
-0.015291443 -0.10968631 -0.044623017 -0.089056686 -0.022018785 -0.046033606 -0.012983253 0.14135496
-0.004895523 0.04308542 -0.044974085 -0.006260844 0.045354385 0.10748488 0.012197857 0.040867545
-0.0478908 -0.013311496 0.01827171 -0.03958759 -0.031186892 -0.06453794 -0.044321578 0.03849498
-0.0073938067 -0.014671113 -0.06275756 0.04165915 -0.06613947 -0.06973422 -0.04878329 -0.06295169
-0.027334481 0.10791075 0.0026526016 -0.08076279 0.04107935 0.046168845 0.048731815 0.13231911
0.014668346 -0.013999511 0.13213654 0.072639264 0.1514336 0.047777034 0.027288096 0.092118494
0.1423 0.20033588 0.07181705 0.059891805 0.15621617 0.17762907 0.1418971 0.07249194
0.069627866 0.11697207 -0.067792304 -0.026532643 -0.039886378 0.084676355 -0.09192374 -0.039734412
0.11782924 0.008593555 -0.10405172 -0.11659783 -0.009283712 -0.14140312 -0.100948475 0.03443165

gru.weight_ih_l0 f4 [96, 32]
00000000: 8ce0 553d 6a53 0d3e d195 003d a4f3 c23e
00000010: 0459 0a3a 850f 23be 1fe8 933e c9fd a9bc
00000020: 0fb5 e33c 85c5 a23d bb99 0d3e 49e2 483e
00000030: e6e2 adbb b50d 4b3e 5e0d 18be b1e0 e73d
00000040: 3804 1a3e 840a e73e 9634 aebd a996 6bbc
00000050: 2ae1 253d ac75 903e 31cf 14be 3d91 e43d
00000060: b4f5 d13b a809 493e 6108 383e fd6a 36bd
00000070: 0aa9 c6bc 2104 6a3e 5d6b 723d 4fc2 8f3d
00000080: e992 773e 350f 503d 258d 683d 0ffc 67be
00000090: fcca 563e 1e4a 173d 438c 723e 95eb 1e3c
000000a0: 59b8 b13c 0209 aabd 01c6 0dbe 15d1 ffbd
000000b0: 765d d5bd 5ed4 153e ef51 603d 479b 97bd
000000c0: cd08 633e 2cce ff3d c6af 593d dfc1 ad3d
000000d0: 02a6 47bc 007a 103d 1613 153d 4b5c 373e
000000e0: 400c be3d 058e ec3d 33d1 053d 9e27 3e3e
000000f0: ff7f 86bd eac0 303e ebac 62bc ac0e a53d
00000100: 536a 913d 3a28 113e 545d f63c 06c5 af3d
00000110: 0fa0 893d 23f0 43be 757d 4f3d e55d 543e
00000120: a539 d9bd 8f11 823e 76a1 343e 0b73 143e
00000130: aa45 723d 6c4a 293d bf8d 213d 686b 67bd
00000140: cc96 2d3e a788 8d3c db70 773e cbb3 05be
00000150: 5bd7 b3bd 65b8 b53c 87be f9bd 5854 0bbc
00000160: cbaf 753e 5253 80bd 0eb1 50be c832 183c
00000170: 6d08 c43d 4dbb ce3d 51fc 80be 6fbc 773e
00000180: 5ae5 82bd 8e14 e3bc 12f0 6fbd c24c 2ebe
00000190: 0a3c 7ebd e64d f6ba 7c72 9f3d 7c1b 01be
000001a0: 9178 373e ed2a bd3d 02e9 edbb 91a5 8fbd
000001b0: fb72 0abe f715 ed3d 2280 1e3d 811b 583e
000001c0: 68ef f43d 94d5 4dbd 5c99 95be 78c0 3f3e
000001d0: f5b0 1dbe 6237 223e 36b9 90bd 112d e9bc
000001e0: 5ac9 a0bd d2d7 7bbd 8283 8abc 4a14 3b3e
000001f0: f15c b6bd 6ff5 173e 0233 353e cd15 173d
00000200: 5aec e0bd 4436 9abc 66f5 ad3d d0be ebbd
00000210: 26ec a4bd c368 92bd 8a11 e63d 2ea3 7dbc
00000220: 7628 ddbb 8189 00be 1e68 ce3d 9fd5 b13d
00000230: 9194 bf3d a2c9 223e 72fc 753d 0330 0f3d
00000240: 70e5 753c b7ff 013e de3a b63c 9d6a 313e
00000250: 7b04 68bb 6d90 2f3e 3c86 c93b 36bc b43d
00000260: 9b36 4c3d cbf4 7d3e c07e 773e fb68 b0bd
00000270: 37e4 92bd 0c6d 013d 677d 04be 48b6 b13d
00000280: 1234 083e c780 8a3e 119d a23c fb1f dd3e
00000290: 64ca afbd 4caa a8bc 5f17 f43d 5ffc 723e
000002a0: d30e 263c ffb9 783e c574 3b3e 50bb 393e
000002b0: 3e05 ddbd 099b 633e 3139 0dbe a14f aebd
000002c0: 65c6 b53e d901 933e f6cc 363e 6dde 533e
000002d0: 4099 8e3e 7209 c73d 3012 01be 7011 403e
000002e0: 1c26 2d3d 1559 45be f68b 04be 8e91 283d
000002f0: dc2c 493e 1c03 5d3e 4888 24be c967 ca3d
00000300: 407c 07be 207f 98bd 4ea5 84be 137f 70be
00000310: 6581 233e cef1 7c3e 3d73 68bd 7e76 27be
00000320: 5f6b 84bd 6c56 adbc 320c 0fbc cb5d b23c
00000330: 250a b13d 8dd6 a3bc 565c 203e 80a9 a53d
00000340: fbb4 ffbc 4362 50be 840d b4be c8e9 253e
00000350: f756 95be 2110 17bd 907f f63d a63d 66be
00000360: f687 a2be ded7 543e 192f 7b3e ec1d 28bd
00000370: 79cf 16be 5ce2 32be 8730 9d3d 31bb b7be
00000380: c6a8 a43d 8f5a cabd 02c0 fa3d a573 54be
00000390: ad9e 27be 23d7 56bd ac44 373c f66e 333e
000003a0: 75e8 51bd 603e 253e ede5 e8bd 4cb1 0d3c
000003b0: b632 2cbd d5a2 813d 3b11 93bd 0c8d 2a3e
000003c0: bcc6 e83d 98a5 eabd 9585 203e a867 163e
000003d0: 7ee3 083e 4c3e c33d 4f58 783d 1447 663e
000003e0: 3577 bdbd 0b98 023e 4189 eebd 1857 963d
000003f0: fc82 7d3e 8db0 03be 84d0 643d 4272 debc
0.052216098 0.13801351 0.031392876 0.38076508 0.00052775466 -0.15923889 0.28888032 -0.020750897
0.027796296 0.0794783 0.13828175 0.19617571 -0.0053065894 0.19829448 -0.14848849 0.11322153
0.15040672 0.4512521 -0.08506124 -0.014379182 0.040497936 0.28214777 -0.14532162 0.111605145
0.006407464 0.1963259 0.17971946 -0.044535626 -0.024250526 0.22853138 0.05918442 0.07019483
0.24177136 0.050795753 0.05677523 -0.22654746 0.2097587 0.036935918 0.23686318 0.009699722
0.02169435 -0.08302499 -0.13845064 -0.12491051 -0.10418217 0.14631793 0.054765638 -0.07402664
0.22171326 0.12490496 0.053146146 0.084842436 -0.012185575 0.0352726 0.036395155 0.179063
0.0927968 0.115505256 0.03267021 0.185698 -0.06567382 0.17261091 -0.013835172 0.08059439
0.07100358 0.14175501 0.0300738 0.08582501 0.06719982 -0.19134574 0.050656755 0.20738943
-0.10606698 0.2540402 0.17639717 0.1449701 0.059148468 0.04133074 0.03944182 -0.056498915
0.16952056 0.017277075 0.24164145 -0.13056867 -0.0878131 0.022182653 -0.12194543 -0.008503996
0.23992841 -0.06265892 -0.20380041 0.009289451 0.095719196 0.100943185 -0.25192502 0.24192975
-0.063914016 -0.027719762 -0.05857856 -0.17021468 -0.062068976 -0.0018791526 0.07785508 -0.1260814
0.17917086 0.09236703 -0.0072604427 -0.07014001 -0.13520424 0.11576455 0.038696416 0.21104242
0.119597256 -0.050252512 -0.29218566 0.18725765 -0.15399535 0.1584144 -0.07066576 -0.028463872
-0.07850905 -0.06148512 -0.016908411 0.18269458 -0.08904446 0.14839719 0.17695239 0.036886025
-0.109825805 -0.018824704 0.08494072 -0.11511004 -0.08052854 -0.07148888 0.11233814 -0.0154808
-0.006749208 -0.12552454 0.100784525 0.08683323 0.09354509 0.1589723 0.060055204 0.034957897
0.015008315 0.12695204 0.022244867 0.17325826 -0.0035403061 0.17144938 0.006150035 0.08824961
0.049856763 0.24800412 0.24169445 -0.086137734 -0.07172435 0.031598136 -0.12938462 0.086773455
0.13301113 0.27051374 0.019850286 0.43188462 -0.08583525 -0.020589016 0.1191852 0.23729084
0.01013537 0.24289702 0.18306263 0.1813786 -0.107920155 0.2222711 -0.13791348 -0.08511282
0.35502926 0.28712347 0.17851624 0.20690317 0.27851295 0.097185984 -0.12604594 0.18756652
0.042272672 -0.19272263 -0.12944016 0.041154437 0.19646019 0.21583217 -0.16067612 0.09883077
-0.13230991 -0.07446122 -0.25907367 -0.23485975 0.15967329 0.24701616 -0.056750525 -0.16353795
-0.06465792 -0.021159373 -0.008730935 0.02177324 0.08644513 -0.019999767 0.15660223 0.0808897
-0.031214228 -0.20349984 -0.35166562 0.16202462 -0.2916791 -0.036880616 0.12036049 -0.22484455
-0.31744355 0.20785472 0.24529685 -0.04104416 -0.14727582 -0.17469162 0.076752715 -0.35885003
0.080400035 -0.09880554 0.12243654 -0.2074724 -0.16369124 -0.052451264 0.011185806 0.17522797
-0.05124708 0.16137075 -0.1137198 0.008648228 -0.04204055 0.06329886 -0.07181021 0.16655368
0.113660306 -0.11457366 0.15675958 0.14687979 0.13368031 0.095333666 0.060631093 0.22488052
-0.092512526 0.12753312 -0.11647273 0.073408306 0.24756998 -0.12860318 0.05586292 -0.027154092

gru.weight_hh_l0 f4 [96, 32]
00000000: 1423 e4bd c32e 9d3d 574f 20be acb5 41be
00000010: dea0 8e3e 3297 1b3d 955c 663d a75a 143d
00000020: 1c29 1abc 52ce 63be 386f 39be d609 c03d
00000030: 5cff 7cbc d956 9bbe 16bb 313d 10ea 233e
00000040: 7a2e 91bd 684e c63c f407 b63d dad4 653c
00000050: ef5b efbd 6a4c 203e 0e69 d7bc 8f50 b3bd
00000060: cf65 38bd 2ee6 e0bc 64e2 da3d 589e 34be
00000070: 19c4 e33d a792 11be ff37 993d d194 85bd
00000080: 380c c03c fd5b 073d b362 15bd 927a 023e
00000090: f94d 4b3e 9c13 99bc 4748 8a3e d825 073e
000000a0: 9aee 9a3d e6f0 e63c 23c1 8a3e a21c 053e
000000b0: 903a 78bd ab61 28be 19a4 87bc 34b8 50be
000000c0: b69f 283e 68e8 e53a 1bbe 21be 74aa ba3e
000000d0: 2d11 023b 0e5f 51be a841 2abe 4ac6 193e
000000e0: ee53 b0bd 2b31 083d 52b9 16be 1b88 443a
000000f0: 49f3 e83d 1b0b be3d ea5c 8cbd 0b10 dc3d
00000100: 6503 e13d 216c 973e 8338 a5bd 2b96 5cbe
00000110: 809c 5f3d 3b0a 19bd a1fa 673c 5aab 35be
00000120: d7a5 19bd 8aca 26bd 0002 a7bd 7e98 e3bd
00000130: 25b3 97be 3955 2cbd ac9d 01be 3797 433e
00000140: 456e 40be d1ca 793e 1c3d 363c 12e2 bcbd
00000150: ba5e 06bc 98b3 32be 6aa2 3ebe 005a 3ebd
00000160: defb aa3c f178 8d3d 1f4b e3bd 825c 13be
00000170: afde 303d 22e8 1a3d b861 453e 50bc 783e
00000180: 174b 9d3d af3f 3cbe edab c1bd b43b 4c3d
00000190: 6f11 c83c d500 d1bd 1b91 15bd 79d6 24bc
000001a0: f410 21be 68fe ec3c 0ddc 77bd 5351 e33d
000001b0: b179 49be d046 61bd 7954 ce3d 5983 8d3e
000001c0: 2622 0dbd 5f41 74be f237 273e 16fc babd
000001d0: b760 3539 4004 df3d 1909 36be 8297 fbbc
000001e0: f187 973d c520 593d 4f84 50bd 9895 4b3d
000001f0: 4299 b9bd c12d bdbd f5fb bf3d 51ee 8cbb
00000200: e6d1 52be b597 5c3e 59ad 04be d016 663c
00000210: 4891 d33b 4110 5dbe 5d57 a73d f694 a7bc
00000220: 5d28 313e 28cd 043e abbd cc3d 1d1a 543d
00000230: 18f5 2ebe 54a6 b9bc 74e0 eebd 1243 7ebd
00000240: c67b 70be fa69 ddbd 96d2 673c 18ce 443d
00000250: ac96 17be 2fe5 73bd 5c45 47be 6848 323e
00000260: cf6a 02be 5124 5abd 2da0 c9bd 19f5 6fbe
00000270: 8a7c 933d af23 8e3d b652 433e 4af3 cbbd
00000280: 6a8b 1abd e603 693e d733 e53d 07dc b4bd
00000290: 6d1b 343e 23cf 8bbc 0d68 f13c e0d7 103e
000002a0: 1c28 14bd 7d8d 86bd 8c72 9d3c e023 6bbd
000002b0: 427f 2abe b608 ea3d d6aa 8f3e 3684 0dbe
000002c0: 5e69 59be 0392 3abe 09bb 74be 7933 96bd
000002d0: 6fab 983d 7ac3 85bd 45f1 24bd e15f d73c
000002e0: 4c30 5a3d 5370 aebe 8121 d93c 7d7b 3e3e
000002f0: 0156 3cbe a45e a1bd 82cd 6dbe c88d a83c
00000300: 1938 8c3d 016b b63d b030 e2bc 0391 50bd
00000310: 00ae 0ebe cfd1 1f3c ae9e 2fbe 3192 833c
00000320: 6c65 1a3e 2ab4 34be e044 5bbe 1b1a debc
00000330: bf50 633e 6254 0b3e 9527 13bb aad4 cbbd
00000340: 688c db3d e3c2 c33b e3c0 003e d85c 2abd
00000350: 131d 103b e168 b8bd d3fd 17be a63e a73d
00000360: c070 c93d 036b 653e f292 c0bd 5cb0 ca3d
00000370: a600 0a3e 3bf2 983d 0df2 f6bd a894 b1bd
00000380: f472 e0bc 62d0 0e3e 324d 793d 4c8b 4a3d
00000390: f6d1 0bbe d922 133e 3492 163d 4d0f ea3b
000003a0: 7b16 403e 54d7 3e3e d31f 04bd d1df 9f3c
000003b0: 7f79 eabc 7ef2 473e 3621 07bd fbfd f4bd
000003c0: 80c9 62bd 9850 75bd d687 1fbe 3e29 edbc
000003d0: c9ee 51bc feef 32be 0a0b 96bc b7d9 853e
000003e0: c49a 36bd aa9b 3cbe 3222 dbbd e44b cd3d
000003f0: a22d 6ebe 430f 163d 5a93 8cbd f91d 03be
-0.11139503 0.07674935 -0.15655266 -0.18916959 0.27857107 0.037985988 0.056240637 0.036219265
-0.009409215 -0.22246674 -0.18108833 0.09376876 -0.015441742 -0.30339697 0.04339131 0.16007257
-0.07088943 0.024207309 0.08888236 0.014027799 -0.11687457 0.1565415 -0.026295211 -0.087556
-0.045018967 -0.027453508 0.10687712 -0.17638528 0.11121387 -0.142161 0.074813835 -0.06522525
0.023443326 0.03304671 -0.03647108 0.1274207 0.19853963 -0.018686108 0.27008268 0.1319803
0.07565041 0.028191041 0.27100477 0.12999204 -0.060602725 -0.16443507 -0.01655774 -0.20382768
0.16467175 0.0017540576 -0.15795176 0.3645817 0.0019846663 -0.20446417 -0.16626608 0.15017048
-0.08609758 0.033250015 -0.14719132 0.0007497088 0.11374528 0.09279462 -0.068536595 0.107452475
0.109869756 0.29574683 -0.080674194 -0.2154166 0.05459261 -0.037363272 0.014158876 -0.17741147
-0.037511673 -0.0407205 -0.08154678 -0.1111307 -0.29628864 -0.042073462 -0.12657803 0.19100653
-0.18792064 0.24393775 0.011122968 -0.09222807 -0.0082012955 -0.17451322 -0.18616644 -0.04647255
0.020872053 0.06907833 -0.110983126 -0.14390758 0.043181118 0.037819035 0.19275558 0.24290586
0.07680338 -0.18383668 -0.0945662 0.049861625 0.024422375 -0.10205237 -0.036515336 -0.0100609
-0.15729123 0.028929904 -0.06051259 0.11099496 -0.19675328 -0.054999173 0.10074706 0.27639273
-0.034456395 -0.23853062 0.16329935 -0.09130113 0.00017297534 0.108894825 -0.17776908 -0.030711893
0.07398976 0.053009767 -0.05090743 0.04970321 -0.09062435 -0.092372425 0.09374229 -0.0043008705
-0.20587882 0.21542247 -0.12956752 0.014043525 0.006456528 -0.21588232 0.0817096 -0.020456772
0.17300554 0.12968886 0.09997114 0.051782716 -0.17085683 -0.02266232 -0.11663905 -0.062075682
-0.23484716 -0.10811229 0.014149329 0.04804811 -0.1480357 -0.05954474 -0.19460052 0.17410433
-0.12736057 -0.05325729 -0.09845004 -0.23433341 0.07201488 0.069404 0.1907452 -0.09958513
-0.03773061 0.22755393 0.11191528 -0.088310294 0.17588587 -0.017066544 0.02946856 0.1414485
-0.036171064 -0.065699555 0.01921966 -0.05740726 -0.16650108 0.11427443 0.28060025 -0.13819966
-0.212316 -0.18219762 -0.23899473 -0.073340364 0.07454573 -0.06531425 -0.040269155 0.026290836
0.053268716 -0.34070072 0.026505234 0.18601795 -0.18392183 -0.078793794 -0.23222926 0.020575419
0.06846637 0.08907128 -0.027611107 -0.050919544 -0.13933563 0.009754612 -0.17150375 0.01606092
0.15077752 -0.17646852 -0.21412992 -0.027112057 0.22198771 0.13606408 -0.0022454013 -0.09952672
0.1072014 0.00597416 0.1257358 -0.04159245 0.0021989986 -0.09004379 -0.1484292 0.08166246
0.098359585 0.22404103 -0.094030276 0.09896919 0.1347681 0.07468077 -0.12057886 -0.08670932
-0.027398564 0.13946679 0.060864635 0.04944925 -0.13654312 0.14368762 0.036760524 0.0071429373
0.18758576 0.18636829 -0.032256912 0.019515904 -0.028622387 0.19526097 -0.032990657 -0.119625054
-0.055367947 -0.059891313 -0.15579161 -0.02895033 -0.0128132785 -0.17474362 -0.01831581 0.26142666
-0.04458119 -0.18418756 -0.106998816 0.100242406 -0.23259595 0.03663565 -0.068640426 -0.12804402

gru.bias_ih_l0 f4 [96]
00000000: 2b19 063e 41a4 4abd 30c7 5d3e e180 c3bd
00000010: e1b9 d93d acbb 453b 3a46 26be 5adc 07bd
00000020: d85f 8e3e 02bb c6bc 8bb9 833d 2ee8 9bbc
00000030: 7d55 e1bd 41e7 0b3e 2fc2 03be ca6e e8bc
00000040: 0497 be3d b8d9 c1bd 7430 003d 77a7 a9bc
00000050: cb72 ea3d 334b 8bbd 376a 813e dc03 043e
00000060: 15c1 aabb 82f0 f8bd c07a 1e3e ac56 6a3c
00000070: e366 2d3e 05fd 1d3e 36f0 883d 7f16 b33e
00000080: 2b6f 26be 96c3 953d 299a 40bd d123 4c3e
00000090: a572 1a3d e015 07be da84 253e 64ba f7bc
000000a0: b283 473d cf64 b53d 029c a73e f17f 4c3e
000000b0: ecb2 913d 1f88 9e3d a29d 44bd 303b afbd
000000c0: e8d3 cc3d cb42 5d3e 7d28 053c 4170 5f3e
000000d0: b04e e0bc 546e f7bd fb2d fdbb cb13 84bd
000000e0: a9fe 3a3e 9f86 02bd 0185 653d 101d fcbd
000000f0: fb46 b93c b54b 7c3e 43ea dbbd f0ef 3abd
00000100: 5c21 563c 1661 2d3e 06e8 293d 72c1 85bc
00000110: c2aa 3e3d 83bd 58be 332d b63d dd62 5cbe
00000120: 40ce d4bd c0d8 333c aa3b 443e 9b8c 643e
00000130: d702 ffbc 8dd6 abbd b293 c63c d174 7b3d
00000140: 91e2 59be 8b7e 1bbe 6eb1 27bd 9c76 dfbd
00000150: 5b15 72be 199b b13d 7c27 d03d 9e91 06be
00000160: 6eb2 c33a 17bb 72b9 8022 22bd abbe 1fbe
00000170: 0eb9 ea3d 62ae c6bc a1c0 cc3d 6dba 083e
0.13095538 -0.04947305 0.21658015 -0.09546066 0.10631157 0.0030171676 -0.16237727 -0.033169128
0.27807498 -0.024259094 0.06431874 -0.01903161 -0.11002634 0.13662435 -0.12867044 -0.02837314
0.09306148 -0.09465355 0.03129621 -0.020709736 0.11447676 -0.068014525 0.25276348 0.12892097
-0.0052110055 -0.12155248 0.15476513 0.014302891 0.1693378 0.1542855 0.066864416 0.349781
-0.16253345 0.07312696 -0.04702202 0.19935538 0.03770699 -0.13191938 0.1616396 -0.030240245
0.04870958 0.08857118 0.32736212 0.19970681 0.07114205 0.07740807 -0.048001893 -0.08556211
0.100013554 0.21607511 0.008127329 0.21820165 -0.027381271 -0.1208159 -0.0077264286 -0.06449088
0.18261208 -0.031866666 0.056035046 -0.12310231 0.022616854 0.24638255 -0.10738041 -0.04563898
0.013069477 0.16931567 0.04148104 -0.016327593 0.046549566 -0.21166043 0.0889534 -0.21522088
-0.103909016 0.01097697 0.19163385 0.22319262 -0.031129284 -0.08390532 0.024240348 0.0613907
-0.21277834 -0.15184991 -0.040940695 -0.10911295 -0.23640959 0.08672161 0.10163781 -0.13141486
0.0014930496 -0.00023148615 -0.039583683 -0.15600078 0.11461078 -0.024253074 0.099976785 0.13352366

gru.bias_hh_l0 f4 [96]
00000000: 8608 91bc 77c0 643e 9edf 823e 5ded c33d
00000010: fec4 8cbd 619a 9cbc 065d cebd 4cd4 233e
00000020: b70d 343d 21f0 763e 5025 413e d3a7 ce3d
00000030: e644 abb9 3613 913e d523 e5bd c21b 3c3d
00000040: be5c 8f3e 8b75 503d 322a fc3c c74e fc3c
00000050: 86d8 8e3e 9b24 583e 6e56 873e 37c8 643e
00000060: 6ee7 90bd 5552 973d e2f0 cf3d 9b90 693d
00000070: b168 343c 1657 173d 97bc 863d 3421 983e
00000080: 63b2 5fbd 699d 6c3e 4fbd 433e 8dc3 f53c
00000090: 5a31 723e 6550 c6bd 6a04 233d 9487 5cbe
000000a0: 7768 46bc 870c b33c 58f2 7c3e b45d 073e
000000b0: 5ae3 593e 4287 b9bd 6c79 12be dfef 0a3e
000000c0: 6d6b 043d da44 273d 6fb0 e6bd 4000 8b3a
000000d0: aa2d 5a3c 034d 10be b05a 18be 3eee 293e
000000e0: c105 19be 9bdb f93d 43d8 41bd 210e 093e
000000f0: 1bec 72bd 9d35 073e 1853 17be e79b cb3c
00000100: 8f86 f8bd 1c3d 503d 2be8 dabd e9b1 dcbd
00000110: 9e90 963d d42b 993d 780b 183e 2dc9 96bc
00000120: 61a3 0ebe 2c5a f2bd db63 10bc e7e0 7e3d
00000130: 2f8a e3bd 8ef4 50bd f104 42be fb7f 633e
00000140: 96bd 2dbe db6c 7cbd 4af4 743e 0015 51bd
00000150: 4a90 363d 732d b9bd 4897 49be 3c6e 05bd
00000160: bfa0 be3d 38b9 b9bd 07f1 283e 2d48 15be
00000170: c3a9 323e c569 95bd a381 633d 9ef9 0d3e
-0.01770426 0.22339045 0.2556123 0.09566758 -0.06873511 -0.019116582 -0.100763366 0.15998954
0.043958392 0.2411504 0.1886189 0.10090604 -0.00032666995 0.2833497 -0.11188475 0.04592491
0.28000444 0.050893348 0.030781839 0.030799283 0.2789957 0.21107714 0.26433128 0.22342001
-0.07075392 0.073887505 0.101533666 0.057022672 0.0110112885 0.036948286 0.065789394 0.29712832
-0.054613482 0.23106922 0.19115184 0.030000472 0.23651639 -0.09683303 0.03979913 -0.21536094
-0.012109867 0.02185656 0.24701822 0.13219339 0.21278134 -0.090590015 -0.14304131 0.13568066
0.03232901 0.040837146 -0.11264121 0.0010604933 0.013316551 -0.14091878 -0.14878345 0.16594788
-0.14943601 0.122000895 -0.047325384 0.13384296 -0.0593072 0.13204046 -0.14777792 0.024854613
-0.1213504 0.05083953 -0.10688814 -0.10776121 0.07351802 0.07479063 0.14848125 -0.018406475
-0.13929512 -0.11833605 -0.00881287 0.062226202 -0.11110341 -0.051014476 -0.18947197 0.2221679
-0.16966853 -0.06162725 0.23921314 -0.051045418 0.0445712 -0.09041872 -0.19686615 -0.03257583
0.09308004 -0.09068531 0.16498195 -0.14578314 0.17447571 -0.072955646 0.055543553 0.13864753

gru.weight_ih_l0_reverse f4 [96, 32]
00000000: 0e87 313e d5b0 303e 74df 46bd a55b 5f3e
00000010: 8bbb a13d 2f22 3d3e 1e1f 4e3e 1874 80bd
00000020: c83c 5f3d f80c 0c3c 0cb9 903d af07 b9bd
00000030: c2e2 98bd 180b 243e 02c4 3f3e 27fc 033e
00000040: 0610 bd3d 1d80 683e 686f 2e3e e734 f33d
00000050: 6469 12bd 1f45 333d 642f 25bd b8dd 3a3d
00000060: 8151 e7bd 4239 313e 4524 2c3e 08f5 5b3e
00000070: 9c4e 213c baa9 c53d 428f 72bd 8f40 cebd
00000080: b791 7bbd 5f40 423c 345c babd 0eac 19be
00000090: 9c3f 9c3d 56c6 933e 86c7 f1bd a5af ce3d
000000a0: 7953 3fbd 1dce 9f3d c9da e2bd a7ad 153e
000000b0: d461 113d a726 f7bd 3305 223e 9c51 9f3d
000000c0: 2e24 3ebe ffb9 3fbe c246 10be 4259 623d
000000d0: 1e97 1dbe 0c7f 0a3e 8d05 653e 9903 bd3d
000000e0: 47bd afbb 13b7 8b3d fde0 dc3d d9f6 3e3d
000000f0: 539e a1bd c71c 653c 21be 123e 204e 77be
00000100: cf75 273d a925 1e3e 7be9 763e 6c1a 76bd
00000110: 7b40 c63d ac9f 753e 632d 193e dffa b33d
00000120: ca7d a4bc c82b 4f3e 28ea 02bd 6be4 f93d
00000130: a5d5 59bd da5a 923e ad8a 8f3e 2dd0 aabd
00000140: 0192 353d 2eda 603e 865e dbbc 8fe7 b8bc
00000150: 5b05 1f3e c613 1d3d 84df 753d 0d6c 3f3b
00000160: 97aa c03d 4871 543e 99d1 403e 323d 983c
00000170: 7282 4d3e d65b 893e cd0b 2a3e c546 963e
00000180: 6589 d5bc 2efe 2a3e 1cd4 b1bd 4694 37be
00000190: d8e4 07be b3f5 523d 731e 30bd 4cae 903d
000001a0: d4dc 6f3e 5546 24be 1d8d 8c3b 0ab3 bfbd
000001b0: 040c 16bd cca1 19be 35e3 b9bc d9a7 ff3d
000001c0: 6008 3d3d 3cc0 9abc 5934 e0bd 326d 6d3d
000001d0: 52fa 923c fac8 b63d 8e21 3f3e be09 23be
000001e0: 7044 e33d 311d 543d d63d e53d 9485 89bd
000001f0: f2c2 10bd 607c 493d f41c 013e b043 c2bd
00000200: 86ab 183e 3aeb 223e 1dc8 343c 54dd 33be
00000210: 9dbb 053e ced8 13be 8dc1 c1bd 6fee 233e
00000220: 245d 5f3e ede1 1d3e 8adf 9bbd c6a4 6f3e
00000230: 9949 d83d 879a bebd 7f50 f2bd 8fba 923d
00000240: b79d e23d e24d 21bd 9152 9a3d 4074 83bd
00000250: 9f94 ba3d 991c 8ebd f295 1a3e c49a 833e
00000260: 8565 f3bb d6a0 443d 9da3 dd3d 6e03 3fbb
00000270: 5b3f 6a3e 4ec5 b6bd 1b68 e2bd 78db aabd
00000280: 05c1 983d 51e2 ffbd 1ac8 2a3e 4932 43be
00000290: 1b4e ee3b a727 083d 8a42 b13b 7e83 a9bd
000002a0: 85a5 83be 499e 02bd 0f9d 66bd 14b8 25be
000002b0: 6ab7 933d d32c bdbd f93d 1abe d19c 82bd
000002c0: f624 c13d 6e01 51be 14e0 3c3e 54d4 103e
000002d0: d357 c2bd df8c 28be 55e3 6abe 6f97 1cbc
000002e0: acd5 c6bd a079 08bd 02d4 89be d64d 0a3d
000002f0: d17b 473e 23e6 ac3d 4463 89be 368c 8d3d
00000300: 0f05 bb3d 8ef5 803d 7ce8 c0bc 8b7c 8fbb
00000310: 42b2 6abd 31ab 23be 7d62 273e 27c2 563d
00000320: 01da eebd ebac f2bc 2027 07be 5c06 0ebe
00000330: bd08 3bbd 8190 c5bd 085f cf3c 3510 00bd
00000340: cc78 aa3c 70ee 20be 03ab d5bc 488b 1e3c
00000350: 3024 503d 779a dbbd 72f2 bebb 597c 4f3d
00000360: 2ae2 f5bd 7aec 9fbd 48c5 903d 9668 9bbd
00000370: 6a23 d7bc e6ef f83c 8fc8 a93c 1727 a4bc
00000380: 9ffe 733e df11 d73e 85e2 833e e9cd 8d3e
00000390: 0e01 6e3e de9b ae3d 66b0 7e3e 9c87 b63e
000003a0: a93b 893e 8e19 af3e 7b87 6b3d 879d 4d3e
000003b0: 3550 723d 2d93 483e 9144 cd3e 4671 3f3d
000003c0: 6de1 bf3e a781 1e3e 303c 8f3e 024b d43e
000003d0: 1192 b13e c3cc 3d3e 4fb5 073e eff8 af3e
000003e0: ffdc 963e 1bb3 213e 6e1d ab3e 0498 8c3e
000003f0: 3ffa 503e c8d5 9c3d f257 2e3e 1c05 f63e
0.17336676 0.17254956 -0.048552945 0.21812303 0.07897099 0.18470071 0.20129058 -0.06272143
0.054501325 0.008548014 0.07066545 -0.09034669 -0.074651256 0.16019857 0.18727115 0.12889157
0.09231572 0.22705121 0.17034686 0.11875325 -0.03574504 0.04376709 -0.0403284 0.045621604
-0.112948425 0.17306998 0.1681071 0.21480191 0.009845402 0.096515134 -0.059218653 -0.10070907
-0.06141826 0.011856168 -0.090996176 -0.1500704 0.0762932 0.28862256 -0.11805634 0.10092095
-0.046710465 0.07802985 -0.11076886 0.14617024 0.035493687 -0.12067919 0.15822296 0.07779238
-0.18568489 -0.18723296 -0.14089492 0.055260904 -0.15389678 0.13525027 0.22365399 0.09229202
-0.00536314 0.06822028 0.107851006 0.04662213 -0.07891526 0.013983912 0.14330341 -0.24150896
0.040883835 0.15444054 0.24112503 -0.06008379 0.096802674 0.23986691 0.1495872 0.08788084
-0.020079512 0.20231545 -0.03196159 0.122017704 -0.053182263 0.2858494 0.2803549 -0.08340488
0.044328693 0.21958229 -0.02677847 -0.022571353 0.15529387 0.038348936 0.060027614 0.002920869
0.094075374 0.20746338 0.18829955 0.018583868 0.20069292 0.26827878 0.16606064 0.29350868
-0.026066491 0.16698524 -0.08683035 -0.17927656 -0.1327089 0.05150385 -0.04299779 0.070644945
0.23424083 -0.16042455 0.004289283 -0.09360321 -0.036632553 -0.15003127 -0.022691349 0.12483186
0.046150565 -0.018890493 -0.109474845 0.057965465 0.017941628 0.08925052 0.18665144 -0.15921685
0.11097038 0.05178565 0.11193435 -0.06714931 -0.035342164 0.04919088 0.12608701 -0.094855666
0.14909181 0.15910044 0.011034039 -0.17564899 0.1305985 -0.14438173 -0.09460745 0.16008924
0.21812874 0.15418215 -0.07610996 0.234027 0.10560913 -0.093068175 -0.1183176 0.071644895
0.11065238 -0.039380915 0.075352795 -0.06418657 0.091103785 -0.06939048 0.15096262 0.25704014
-0.0074278736 0.048004948 0.108222224 -0.0029146331 0.2287573 -0.08924352 -0.11055013 -0.083426416
0.074586906 -0.12494338 0.16677895 -0.19062151 0.0072724945 0.03324094 0.0054095434 -0.08277033
-0.2571222 -0.031889234 -0.056302126 -0.16183501 0.07212718 -0.09237065 -0.15062703 -0.063775666
0.09430878 -0.20410702 0.18444854 0.14143497 -0.094894074 -0.16459988 -0.22938283 -0.009557589
-0.097087234 -0.033319116 -0.26919562 0.033765636 0.19480826 0.084423326 -0.26833546 0.06911509
0.09131824 0.06296836 -0.023548357 -0.0043788604 -0.057298906 -0.15983273 0.16346164 0.05243125
-0.11662675 -0.02962347 -0.13198519 -0.13869613 -0.04566263 -0.096467026 0.02531387 -0.031265456
0.020809554 -0.15715957 -0.026082521 0.009676762 0.05081576 -0.10722821 -0.0058272416 0.050655697
-0.12006028 -0.07808776 0.070688784 -0.075883076 -0.026262004 0.03038783 0.020725517 -0.02003817
0.23827599 0.42005822 0.25758758 0.2769616 0.2324259 0.08525823 0.24871978 0.35650337
0.2680333 0.34199184 0.05750225 0.20079623 0.059158523 0.19587393 0.40091375 0.046738885
0.37476674 0.15479146 0.27975607 0.41463476 0.34681752 0.18535142 0.13252757 0.3436961
0.29465482 0.1579098 0.3342089 0.2745973 0.20407961 0.07657963 0.17025736 0.48050773

gru.weight_hh_l0_reverse f4 [96, 32]
00000000: 8d99 583e 1851 173e f696 153d 3007 233e
00000010: 89ad 3a3e d17d 1cbe 4f3d 7c3c 7bb6 fdbc
00000020: 8596 e4ba 2ddb 523d 47cb 69be 5601 493e
00000030: aa77 a33d 417a b43c 0603 853d 07d8 2bbd
00000040: 0129 b6bd 39a5 113e 1e03 04be b57e 3bbc
00000050: 0f0d 923d 1c2b fd3d f14a 2d3d 7907 9cbe
00000060: 407d 0abe d41a ae3d ba3c a13d ee3e c83d
00000070: 2d08 acbd 1021 553e f78a 873e 8aa0 163e
00000080: e670 723d 8d5d 223e bcab bdbc db30 393e
00000090: 91af 203e afc8 aabd 3c5e 94bd ba6f 85be
000000a0: 3ff8 3abe 7e9f b73e e07b 80be ab0b 7f3d
000000b0: 21b8 f63c 4617 b63c 93dc 3ebe 2872 4a3e
000000c0: d666 ab3d e665 3bbd 47ca 19be e185 43be
000000d0: 6d66 4fbe f04f 403e c7ff 53bd c104 89be
000000e0: f7ef 37be d65e 0dbe 25ba b43d 6bd0 bebc
000000f0: 1d1a b5bd 225e 063e ae58 963e 9126 943b
00000100: 464c b43d 0e5d ccbd c291 3abd 5df3 fcbd
00000110: bb19 c33d db6b e73d f99c 1fbc 1f80 1f3d
00000120: ff94 69be ebc4 7e3d 3820 30be dbaa 8f3d
00000130: 14ec 9e3d 2696 aabd ad95 62be a191 24bd
00000140: 0f0b 54bc cd94 c5bb 9193 ba3d 9c59 11be
00000150: bfd7 c23d 13d4 3b3e a341 f5bd 0bef 883d
00000160: 56e2 00be 2b65 62be 1fbd c1bd d2d9 9e3c
00000170: 19f2 d93d 3ea7 ab3d b845 02be 07cf e1bb
00000180: 3111 733e be6e 2f3e 9d48 59be 99cb a13d
00000190: 61b1 133c 0023 33bd e394 573e da85 92be
000001a0: c7a5 2dbe 4457 6a3d 9f6e 18bc ebf4 093e
000001b0: 4c4d 2cbd 6d6b 063e 53d4 84be 9664 513d
000001c0: e2ba e7ba 26b5 52bd 6705 243c 2714 f0bd
000001d0: da0b 683b c9da 943c 74a5 623a 012c 8dbd
000001e0: 0c83 973d 0771 4cbe 710a 26be b315 48bc
000001f0: 6bdd c43d b842 2b3e 66e1 a83d 2520 5b3e
00000200: 04c0 f83d 4b48 0fbd 6a06 243d bd44 2f3e
00000210: 5b13 aabd 62ad c5bd 4a70 a43d ce94 81be
00000220: 0e45 803d 3652 533e dca9 fabc bffa 19bc
00000230: c28a 39be b8ac 473d 283e 823c ca67 3b3d
00000240: 1b25 0f3e bc3d 87bc d209 d5bd 24d8 59bd
00000250: 2fd1 03bd 2afd 283c 78fe 323b 0f16 6cbe
00000260: 5712 8abd d10d 11bd c511 aa3d cdd8 68bd
00000270: 3547 403d c392 473d cc56 4f3e 35db 833d
00000280: ae13 db3d 2bfe db3c 79dd 313e 8872 653e
00000290: 3a2d 19bc 8daa a1bd ef64 0b3e e983 fbbc
000002a0: 6b6d c43d 3899 a63d 80ec bfbd 2f88 5b3e
000002b0: 9fd9 473c f547 0abe 5bfe 8bbd 0066 333e
000002c0: dee5 ebbc fabb ddbb 7352 4a3d 2e45 1fbe
000002d0: 89cd 43bb de28 2ebd 15cc db3d c2a0 443c
000002e0: cb24 7b3d 1af8 c13d f39a 54be c248 ef3d
000002f0: ebe0 0b3d f4d7 80bd e269 283e d624 4fbc
00000300: 2559 e83d a993 723d 687d 3abc be25 993d
00000310: f208 1cbd b238 52be 0418 de3d 098e a0be
00000320: 90bc f4bc 6be3 37bd 4c24 21be 676d 1b3e
00000330: 035b 49bc 1134 0ebe ef97 73be 0276 b0bd
00000340: 1eb5 4b3c 9f31 d73d c8a1 73bd 2ec1 243d
00000350: 1258 063c 79bf fa3d 4352 b6bd d76e 0ebd
00000360: cda0 f63d 371a 643d 981f a43d 87f2 c9bb
00000370: 38b2 b6ba 8ccd 5a3e ad24 f63d 8966 74bb
00000380: 4e13 12ba c87e ee3d c518 b23d 7811 49bd
00000390: b130 f5bd 36d2 ca3d f748 4f3e c318 b13d
000003a0: 705e cbbd cc0f 1a3e 1ca9 43be 1ed3 4abd
000003b0: f0f7 61bd b993 b53d 39dc ccbd 8d88 12be
000003c0: 5af2 1bbe b939 bebb 85c9 f2bd bd77 003d
000003d0: 0423 a5bd 8755 b13c efb1 96bd d899 81be
000003e0: 3c77 e43d 6249 803d 0f70 6b3d 9854 b3bd
000003f0: 725e 223d af6e b1bc ddbb ea3c 1b30 133e
0.21152325 0.14777029 0.03652092 0.1592071 0.18230261 -0.1528237 0.0153954765 -0.030970803
-0.0017439878 0.051478554 -0.2283145 0.19629416 0.079818085 0.022030951 0.06494717 -0.041954067
-0.088945396 0.14223184 -0.12891814 -0.0114437835 0.07131397 0.12361738 0.042307798 -0.3047445
-0.13524342 0.08501211 0.07872911 0.09777628 -0.08399997 0.20813394 0.2647321 0.14709678
0.0591897 0.15856 -0.023153178 0.18085043 0.15691973 -0.083390586 -0.07244536 -0.26061803
-0.18258761 0.3586387 -0.2509451 0.062266987 0.030117096 0.022227895 -0.1863883 0.1977011
0.08369224 -0.045751475 -0.15018569 -0.1909404 -0.20253916 0.18780494 -0.0517576 -0.2676144
-0.17962633 -0.13805708 0.08824567 -0.02329274 -0.08842871 0.13121846 0.29364532 0.004521199
0.088036105 -0.09978686 -0.04554916 -0.12351105 0.09526392 0.11299869 -0.009742015 0.038940545
-0.22810744 0.062199514 -0.1719979 0.0701501 0.07759872 -0.0832942 -0.2212741 -0.040177945
-0.01294209 -0.0060297013 0.09110177 -0.1419434 0.095138066 0.18342619 -0.1197541 0.06686219
-0.1258634 -0.22108905 -0.094599 0.019390974 0.106418796 0.08381508 -0.12721908 -0.0068911347
0.23737027 0.17132089 -0.21219106 0.07900161 0.009014458 -0.04373455 0.2105289 -0.28617746
-0.1695777 0.05721213 -0.009303718 0.13472335 -0.042065904 0.13126917 -0.2594324 0.051121317
-0.0017679597 -0.051442288 0.010011054 -0.11722594 0.0035407455 0.018170731 0.000864587 -0.06893159
0.07398042 -0.19964992 -0.1621492 -0.012212205 0.096125446 0.1672467 0.08246116 0.21398981
0.12145999 -0.034981053 0.04004518 0.17116065 -0.08304473 -0.09652211 0.0802923 -0.2530884
0.06263171 0.2063683 -0.030598573 -0.009398161 -0.18119338 0.0487487 0.015898779 0.045753278
0.13978998 -0.01650893 -0.10402264 -0.053184643 -0.032181915 0.010314265 0.002731232 -0.2305529
-0.06741779 -0.035413567 0.083041705 -0.056847382 0.04694291 0.048723947 0.20247954 0.06438295
0.10697113 0.026854595 0.17369641 0.22406971 -0.009349162 -0.07893858 0.13612722 -0.030702548
0.09591182 0.08134693 -0.09371281 0.21438669 0.012197881 -0.13504012 -0.06835624 0.17519379
-0.028796133 -0.0067667933 0.049395036 -0.15553734 -0.0029877147 -0.042519443 0.10732285 0.012001218
0.061314385 0.0947115 -0.20762233 0.11683799 0.034150045 -0.0629119 0.16446641 -0.01264306
0.11345128 0.05922285 -0.011382438 0.07477902 -0.03809447 -0.2052944 0.10844424 -0.31358364
-0.02987507 -0.044894617 -0.15736502 0.15178452 -0.012289765 -0.1388705 -0.23788427 -0.08616258
0.012433318 0.10507511 -0.05948046 0.040223293 0.008199709 0.12243552 -0.08902409 -0.034773674
0.12042389 0.055689063 0.080138385 -0.0061629447 -0.0013938611 0.21367472 0.12018714 -0.003729256
-0.00055723346 0.11645275 0.08696131 -0.049088925 -0.11972178 0.09903376 0.20242678 0.08647301
-0.09930122 0.15045089 -0.19107479 -0.049517743 -0.055168092 0.088660665 -0.10002942 -0.14309902
-0.15229169 -0.005805221 -0.11854843 0.03136419 -0.08063319 0.021647228 -0.07358157 -0.25312686
0.11155555 0.06263997 0.057479914 -0.08756369 0.03964085 -0.021659223 0.028654033 0.1437382

gru.bias_ih_l0_reverse f4 [96]
00000000: 11cc 9d3d e5cf 323e 09c9 4d3e e35f 1b3e
00000010: 921f 9a3d ee8a e4bd f7c7 20bd e061 6bbd
00000020: d7d0 d9bd 6d90 683e cdec 273d 6e4a 1a3e
00000030: 8369 6f3d 74d1 10bc 4baf c23b 01b8 8d3d
00000040: ea4a b53d 117e 923d 97a0 563e c4f0 a6bd
00000050: 8fbf e23c 8bb5 413e 3bb5 eabc f8c4 413e
00000060: 046f 973d f4ca d2bd 5013 023e 223a bdbc
00000070: 9670 1b3d 666a dbbd 0dd5 20bd 2cb4 693e
00000080: bdce a6bd 738c 583e da0f 653d 0dcb e03d
00000090: cca7 843e 4814 44bd e2d8 4b3e 6c84 053e
000000a0: b092 b0bc 3162 743e 7aaa d73c 51f9 aabc
000000b0: d010 9d3e 723b e33d 73c6 453e 9795 b6bc
000000c0: 510a a33c c3c0 fe3d 8401 e8bc 0a52 93bc
000000d0: 184b 853e 021f ed3d f2fa 4ebb 4e10 743e
000000e0: 582d e73d 7e32 c2bc 9130 273d 6d0c b2bd
000000f0: 04cc 123e 5e9f 983e c6d3 113e 4660 b23e
00000100: 8e3e 793e d677 2e3e ed91 6fbd 9e32 3e3e
00000110: c628 fa3d 3e3c acbd a75e 293e 8cb1 613b
00000120: e262 23be 7a27 143e e827 39be b713 b83d
00000130: 1615 a6bd 45b5 8abd f9aa d3bd f96a 033e
00000140: 7bbb aa3d 1d3a 083e 795a e6bd e948 28be
00000150: 1514 eebc 8b6a 553d d41c 61be 2f6d 35be
00000160: cc20 0f3d e314 41be f689 c83d 0e8d 2bbe
00000170: 5b3f 033e cd54 e93d c156 533d ff65 d33d
0.07704938 0.17462118 0.2009622 0.15173297 0.07525553 -0.11159311 -0.0392532 -0.057466388
-0.10635536 0.22711344 0.040997315 0.15067455 0.058450233 -0.008839 0.0059413067 0.069198616
0.08852179 0.071529515 0.20959698 -0.08151391 0.027679233 0.1891691 -0.02865087 0.18922794
0.073942214 -0.102926165 0.1270268 -0.023099009 0.037949167 -0.10713653 -0.03926568 0.22822636
-0.08144901 0.21147327 0.05592332 0.10976229 0.2590927 -0.047870904 0.19906953 0.13038796
-0.021554321 0.23865582 0.026326407 -0.020870836 0.3067689 0.11095323 0.19313984 -0.022288127
0.01990238 0.1243911 -0.028321035 -0.017983455 0.26033854 0.1157818 -0.003158268 0.23834345
0.112879455 -0.023705717 0.0408178 -0.08693776 0.14335638 0.29809088 0.14240941 0.34839076
0.24340269 0.17037901 -0.058488775 0.18573996 0.12214808 -0.08409928 0.16540013 0.0034438102
-0.1595569 0.14468184 -0.1808163 0.08988135 -0.081094906 -0.06772856 -0.10335345 0.12833776
0.0833654 0.13303418 -0.11247725 -0.16434063 -0.02906231 0.05210356 -0.21983653 -0.17717431
0.034943387 -0.18855624 0.09791939 -0.16753027 0.12817137 0.113931276 0.051596407 0.103221886

gru.bias_hh_l0_reverse f4 [96]
00000000: 29a9 603e 8b09 ed3d c4bf ba3c ec1f dd3d
00000010: 72e0 2f3d 0c4e 243c a981 203e ac93 5bbd
00000020: 3505 74bc b461 2a3d 2dbf 243d e765 1b3d
00000030: a796 283e a4d6 353d cf5b 04bd 4d57 253e
00000040: 4f59 303e be6b 9e3c 5185 073d 5503 803e
00000050: dca7 e63c b670 60bc e9f6 b63d a832 1ebd
00000060: 4195 353d 6e6a 153e ae9c 53bc aa52 bf3c
00000070: 7591 a83b c88e 183e 2dd2 87bc 7103 683e
00000080: 2a07 aebd 33a1 9dbd ebf0 953e e5b8 833e
00000090: 94d1 bd3c 291b b7bd 2c55 7c3d 564d 193e
000000a0: a01b 2dbe 8061 033e 15b1 a8bd 383a 2abe
000000b0: 96a4 023d bd7b 083e 8304 233d f6a4 ec3d
000000c0: be72 2f3e f508 f83d 8279 013c 473b 8f3e
000000d0: 2f14 773e c1e9 b33d fdc9 403e 3467 f5bc
000000e0: 5e63 b4bd a3c9 09be 935d 9e3d 9737 8cbd
000000f0: 52d6 2c3d a4f7 9d3e f00b 143e b192 793e
00000100: 0800 8bbd 1866 bc3d a55b 1c3d 54e4 033c
00000110: 7ebc 103e ce79 3cbe b0d8 21bd e715 5abd
00000120: fcab c7bd 581d 07be 4bf9 bcbb 0506 43bd
00000130: 1c7c 523c 5cbe 163e 5ee7 9bbd ecd8 90bc
00000140: d735 2cbc b368 14be 8794 d1bc 93ec 4dbe
00000150: f922 3cbe 6f9f fbbd d360 11bd ec62 9b3d
00000160: 0468 873d f31b 5b3d 8e2f 5bbd 5bce 553b
00000170: 97fa ce3d db87 d83d 6924 1c3e e48a 6fbc
0.2193953 0.11574086 0.02279652 0.10797104 0.042938657 0.010028373 0.15674461 -0.053607628
-0.01489382 0.041597083 0.040221382 0.03793898 0.1646372 0.04439415 -0.032314118 0.16146584
0.17221569 0.019338485 0.033086125 0.25002542 0.028156213 -0.013698747 0.08933813 -0.03862253
0.044331793 0.14591381 -0.012915773 0.023354847 0.005144293 0.14898217 -0.016579712 0.22657563
-0.0849746 -0.07696762 0.29285368 0.25727 0.023171224 -0.08940727 0.061604664 0.14970908
-0.1690507 0.12830162 -0.08236901 -0.16623771 0.031895243 0.13328452 0.039799225 0.11554901
0.17133614 0.121110834 0.007902505 0.27974913 0.24128793 0.087848194 0.18827052 -0.029956438
-0.08808015 -0.13455825 0.077326916 -0.068465404 0.04219658 0.30852997 0.14457679 0.24372365
-0.06787115 0.0919916 0.038173337 0.008050043 0.14134404 -0.1840584 -0.03951329 -0.053243544
-0.097496 -0.13194788 -0.0057670227 -0.047613163 0.012846973 0.14721054 -0.07612489 -0.017681561
-0.010510883 -0.14493065 -0.025583519 -0.20109777 -0.18372716 -0.12286269 -0.03549273 0.07587227
0.06611636 0.05349345 -0.05351215 0.0032624218 0.1010639 0.105727874 0.15248264 -0.014620516
