logs/exp0/weights/epoch60.pt (torch, 348934 bytes, 45 tensors)

conv_block1.0.weight f4 [32, 4, 10]
00000000: 2ed9 123c fad0 4bbe cb22 153e bdea 83bc
00000010: 2c04 84bb ebfd e53d 33f5 41bd 6442 0fbe
00000020: 14a3 fc3d 8667 04be 2e97 a43d 78b7 c8bd
00000030: 445f cabb 9568 603d 475e e4bd ebb8 aa3d
00000040: 5ece 9e3d 944d 1c3c f5eb 61bd f9ad 47bd
00000050: e5f4 dbbd 09ef a13d 0d0c 7a3c 0f5c febc
00000060: 23d2 3e3d 49ea 05be 53df 5e3d 863b a53d
00000070: 71b5 46be 7488 00bd 2a9c 29be c63b 9f3d
00000080: c143 cc3c 793a 2ebd 1c38 2bbd 5198 56bd
00000090: 9897 c7bd 5b93 393d a2dd 253c 796b 893c
000000a0: 74f6 68bc a1db c5bd f820 983d 63b3 b8bd
000000b0: 7650 91bc b53e 373e 76c0 bebd 0fa4 bdbc
000000c0: 8510 f63d f97b 503d e3d0 b33d ac4b a73d
000000d0: f466 2abe ddc3 ee3d e466 2ebe abdf 823c
000000e0: d275 da3b 939d 80bd e40f 16bc 9d07 813d
000000f0: f88c c1bd 14e5 5a3a 60de 1ebd f47a 6dbd
00000100: 1ac5 b2bc e0a0 0abd 0298 afbd 7f9b dd3d
00000110: 03f3 f1bd 2f4d bfbc b29c d23d 7397 7f3d
00000120: 0d8a 963c a414 52bd b928 1dbd b8be 52bc
00000130: a126 dbbd cad0 3e3b 34a3 f0bc a074 a03d
00000140: fa18 5b3d 7e02 e7bd f788 fcbd 5912 c4bd
00000150: 826c 1e3e e331 fbbd c4d7 b2bd 3416 083e
00000160: d681 2abe af7c 9ebb bc69 5b3d d5e5 183d
00000170: ca4a 723c 8626 4e3d b63d 8dbc b906 ce3d
00000180: 8785 033e a108 043e 7bb8 293e 544c 08bd
00000190: accd 633d 59e6 ebbd 4a39 583d 806e ecbd
000001a0: 2af7 333b 9e41 d73d 477c 043e 21b6 9fbd
000001b0: 7708 403c ceb2 1dbd d849 e9bd 0030 02be
000001c0: 7327 bd3d 2239 5c3d ad56 9ebd 5018 cebd
000001d0: 9b76 8b3d 7a6f ceba edf9 b5bc 83b2 40bb
000001e0: d623 303d d812 10be e4df 84bd f68b c5bd
000001f0: d031 0dbd c954 103d cc98 7ebd 15fd 11be
00000200: 571e 873c b92e df3c 2038 7cbd 341e 31be
00000210: 196b 12be 8672 09be 3ce7 e0bd 10ca 6bbd
00000220: 34d8 2d3d 928b 32bd 9588 e6bd 39a7 653d
00000230: 070a 84bd d05b 3aba 77b0 b93b 3392 143e
00000240: 47c0 06be de7d 9f3d b078 e03d 0e8a 65bd
00000250: 4e82 063e 7853 11bc 0ecf 973d f23f 823d
00000260: 87f5 c43d aee3 533c b7a1 1dbd 1ea8 7c3d
00000270: 968e c53d 3906 7e3d d70d bb3d 03b8 c53d
00000280: 06e8 2ebd cc8d e4bc 52ed 8d3c 9f2d 6abd
00000290: 9610 7fbd d361 013e a277 a4bd 542c 9dbd
000002a0: 55a9 723d f004 7abd 2ddd 8c3d 9070 7d3d
000002b0: 19f0 52bd 375c d83d a572 23ba e794 0dbe
000002c0: 8e92 2f3b 4d42 d13d 2222 08be 9182 ff3d
000002d0: 67db d2bd ac8c 6a3d 9255 2cbe ca77 213d
000002e0: a4db 8e3c 93cb 0e3c 209e 48be 3266 d03d
000002f0: 2c6f 0ebe 4002 1c3d 3fe0 483d de0f e8bc
00000300: 0314 d4bd 5874 8fbc 3434 39be 9dfa cb3b
00000310: b88a a13d 2b79 933d 4230 32be a207 a63d
00000320: 1a78 053d 6b36 d73d 887a 3abd b31b 9ebd
00000330: 3f21 423d b92f 28be 9d9e e63d abbd 233e
00000340: 8ba2 7fbe 1268 c2bd ac70 333d fee0 423c
00000350: 2d43 3ebe 65a1 513a 765b cc3c 537e f53d
00000360: 6087 18bd d5ed e6bd 83a0 2f3e a316 03be
00000370: f887 003c 8005 8abd 15e4 8e3d 6a14 0dbd
00000380: 767d 2bbe 880d b4bd 89c0 4f3c 6d86 39be
00000390: deb3 4fbe fc53 223d 8e14 8f3d 676b d83c
000003a0: 2152 62bd a6e5 833d f5aa ce3d 4937 c2bc
000003b0: dc2e 7fbd 68a9 b13d f6f7 2fbd 009f 633d
000003c0: 6abd e63d 47dd 983d 9124 263d d239 413d
000003d0: 38af ddbd 873b 403e 2d66 723d 131b 0e3e
000003e0: 98d6 f03d da30 e53d 0e01 5dbd 0f0f de3b
000003f0: c1ed 233d fef5 5a3b 2bb0 cbbd 3d81 55bd
0.0089629125 -0.19903937 0.14564054 -0.016103143 -0.0040288176 0.11230072 -0.04735298 -0.1399017
0.12335792 -0.12930116 0.08036648 -0.09800619 -0.0061759073 0.054787237 -0.111507945 0.083360516
0.07754205 0.00953998 -0.055156667 -0.048749898 -0.10740069 0.079069205 0.015261662 -0.031049756
0.04658712 -0.13077654 0.054412197 0.08067994 -0.19405152 -0.03138013 -0.16563478 0.07775073
0.024934651 -0.042536233 -0.041801557 -0.052391354 -0.09745711 0.045306545 0.010123642 0.01677488
-0.014218915 -0.096610315 0.07428163 -0.0901859 -0.017738562 0.17895015 -0.09314053 -0.023149518
0.120148696 0.05089948 0.08780076 0.0816873 -0.16640836 0.11658452 -0.17031437 0.015975794
0.0066668773 -0.06280055 -0.009159062 0.0630028 -0.09450716 0.00083501753 -0.038786292 -0.057978585
-0.021822501 -0.03384483 -0.08573915 0.10820674 -0.11813929 -0.023352234 0.102837935 0.062400293
0.018376375 -0.051289216 -0.038368914 -0.012862854 -0.10700727 0.0029116147 -0.029374696 0.078347445
0.053490616 -0.11279772 -0.123308115 -0.09573812 0.1547108 -0.122653745 -0.0873256 0.1328972
-0.16651091 -0.004836641 0.053567633 0.03732856 0.014788339 0.050329708 -0.01724134 0.10059876
0.12843905 0.12893917 0.1657428 -0.033275917 0.055616066 -0.11518545 0.05278901 -0.11544514
0.0027460554 0.10510562 0.12938033 -0.0779841 0.011720768 -0.0385006 -0.11391038 -0.12713623
0.0923604 0.053765424 -0.07731376 -0.10063231 0.068097316 -0.0015749775 -0.0222139 -0.0029403276
0.043002926 -0.14069688 -0.06488016 -0.09645836 -0.034471333 0.035237107 -0.062157437 -0.142567
0.01649396 0.027243959 -0.061576962 -0.17296678 -0.14298667 -0.13422593 -0.109816045 -0.05756575
0.042442515 -0.043590136 -0.1125652 0.05606768 -0.06447225 -0.0007109018 0.005666788 0.14508896
-0.13159285 0.07787679 0.10960519 -0.056039862 0.13135645 -0.008869998 0.074125394 0.06359853
0.09617143 0.012932701 -0.0384843 0.061683767 0.09646337 0.062017653 0.09133499 0.09654238
-0.042701744 -0.027899645 0.017325077 -0.057172414 -0.062271677 0.12634973 -0.08030631 -0.076744705
0.05924352 -0.061039865 0.068781234 0.061874926 -0.051498506 0.105644636 -0.000623504 -0.13826333
0.0026790234 0.10217724 -0.1329427 0.124760754 -0.10295754 0.05726306 -0.16829517 0.03942088
0.017438717 0.008715528 -0.1959157 0.10175742 -0.13909596 0.038088083 0.049041983 -0.028327879
-0.103553794 -0.017511532 -0.1808632 0.006224944 0.078877866 0.07200845 -0.17401221 0.081069246
0.03258524 0.10508426 -0.04552701 -0.07720127 0.047394987 -0.16424455 0.11260722 0.15990321
-0.24964349 -0.09492506 0.043808624 0.011894463 -0.18580313 0.0007996767 0.024945956 0.11986985
-0.03723848 -0.112758316 0.17151074 -0.12801604 0.0078449175 -0.0673933 0.06977097 -0.034443296
-0.16747078 -0.087916434 0.012680181 -0.18117686 -0.20283458 0.039630875 0.06986342 0.0264184
-0.055254105 0.06440286 0.10091201 -0.023708003 -0.062300548 0.0867489 -0.042961083 0.055571556
0.112665966 0.0746408 0.040562216 0.047174282 -0.10824436 0.18772708 0.059179474 0.13877515
0.117596805 0.11190958 -0.053956084 0.0067766975 0.04002166 0.0033410783 -0.09945711 -0.052125204

conv_block2.0.weight f4 [32, 32, 10]
00000000: 205b 05bc eb34 36bd 339a 4f3c a708 3bbd
00000010: 0f2b cc3c 6f77 f63c ab88 303c 160c fd3d
00000020: f7d6 b83d 09a7 be3d c3f7 b33d 2720 fd3d
00000030: 502e 083e 8dff ca3c 1101 853d f678 de3d
00000040: b540 713d 9bc7 e73d 924b 973d 7604 efbb
00000050: 7ac2 9fbc 4039 763c ab0f 38bd 0ddc 523c
00000060: 5702 e1bc 5785 923d 465d 653d 600f 3dbd
00000070: 9ae1 be3c 718b abbd 6fd4 d3bd dd03 1b3d
00000080: c6ed 89bc bbba a7bd b809 a8bd 5f72 813d
00000090: c7fa 10bd f543 8dbd 5e1a 5bbd cf8a bebb
000000a0: 5118 3b3d 9266 833b 8159 e33d 0998 ad3d
000000b0: 9f17 6ebd c796 0b3e d25e 2cbd 2824 bd3d
000000c0: 9f2d 703c 28dd 9c3d 6fff 72bc 4d2e 973c
000000d0: df48 983c 07c7 cc3d c3f3 debc 038d 8f3d
000000e0: fc74 8fbc 4f1d 3f3d 07e9 033e 16f0 f23d
000000f0: a542 6b3d c386 7d3d 0da3 f03d 9709 333e
00000100: 22eb 6f3e f118 bf3d fa65 bd3d c963 393e
00000110: f015 0d3d 68a5 7e3d 78c1 443e 8e91 1e3d
00000120: 8db1 be3c 679a fa3c 23ca 593d 065f ca3d
00000130: c55d b93d 253b ca3d d0af 143e f042 283e
00000140: 19f4 023d c7b7 a63d f7a2 f53c 8eca 89bc
00000150: 899e 9d3d 7ce2 5abd 8c11 b7bc 5486 47bb
00000160: 9936 fc3c 101a cdbc 20ef 8b3c 8599 923c
00000170: e35e 3f3d f11d 94bd 83e6 f7bd ee03 08be
00000180: 003e edbd e2c3 103c 2216 02be 1c87 523c
00000190: ada4 b53d a5e4 ba3d 4cc6 f83d 4c55 77bc
000001a0: 1470 093e dab2 89bc f07c b93d 686a da3d
000001b0: a372 85bd edbb ea3d fac8 1b3c dd9c d3bd
000001c0: 9e54 9f3d 5aad 9a3d f5ef 903d 1ed5 453d
000001d0: e4d1 35bd 13dc ba3d d90f a6bd e092 dbbc
000001e0: 1d02 c9bd 6d43 f1bc c31a ebbc 2453 163d
000001f0: b7ec cfbd 5bd4 06be 6bde 4b3c 043d 3b3d
00000200: 42d3 4b3b 9b9b 09be e07e ecbd ea92 afbd
00000210: 5ae3 aabd a2be bdbd b452 1bbe f92f abbd
00000220: 9efb b0bd de55 db3b a0ad 16bd fbfb 11be
00000230: 0721 5a3d b3c0 313d 04bc b03d 9a98 0c3e
00000240: 8e56 dd3d c961 903d d1d6 7fbd 3402 973d
00000250: 7871 1a3c 6b38 e93d b4ef c53d 69ac a93d
00000260: 1903 a9bd f6b8 9c3c 53e6 7c3d 869c 8b3d
00000270: 7fe2 38bd 8cca 5e3c 9687 ba3d 60aa 983c
00000280: 0c2e 4b3d 9f59 b8bd daae a8bd a78d 3bbc
00000290: d6c6 d73d 9b19 3c3d bf36 823d b076 71bd
000002a0: b68d 893d 17b6 ddbc d355 02bb 3e9e 0c3e
000002b0: 8b14 263e 2567 de3d a14c 4b3c 8f2a 2d3e
000002c0: 4aee 373d 1a19 4d3d f44f b83d d0c6 2bbc
000002d0: 1730 20bd 8337 a0bc bc21 02be cd7b 3d3c
000002e0: 165f 85bb 13fa d4bd 913e 3cbd 6deb bcbd
000002f0: c19c c4bc 2f8c 26bd 1e51 80bc ac79 043e
00000300: e805 8dbc 8eff 053d 56fa 40bd bca2 6fbc
00000310: 85cf 403d 5013 e53d fe8c a83b 88f0 023d
00000320: 42f3 4bbd 65f5 98bc f7f6 503c a10e 3cbd
00000330: 0af4 20bd 3a63 87bd 54e3 2fbd d50f 183d
00000340: e21d 0cbc 8461 a4bc 58e8 82bd 137b 373d
00000350: 1800 94bd 2a38 90bd 3f64 6abd 5fd1 86bd
00000360: 080d d5bc 1e9d d53d f524 71bb eff8 b2bd
00000370: 2d8e 163d b271 2b3d 6922 423d a2ab 063e
00000380: 3826 6b3b f6ec 9ebc 3b53 033e 5a2b 883d
00000390: 9dc9 153e f339 393d a1b1 b53c c3f3 ab3d
000003a0: e018 ee3d 5b07 3d3e 5f66 573d a5d8 443d
000003b0: ef2e 1b3e 4778 2f3e 8290 103e 3e3f 703d
000003c0: 66e7 783d 2098 df3d 7b5f 8cbd d009 09bd
000003d0: 4aac 03bd 61c6 a53d ea6e b2bd 7198 25bd
000003e0: 7fb8 eb3d 0f6c cb3b 79b1 c3bd b1d3 f5bd
000003f0: 353f 1bbc 9d86 0abe a123 cabd cd6e 193d
-0.008139402 -0.04448406 0.012671041 -0.04566255 0.024922876 0.030086247 0.010774772 0.12355821
0.09025376 0.09309203 0.08787491 0.12359648 0.13298917 0.02478006 0.06494344 0.10862915
0.0588996 0.113173686 0.07387461 -0.007294233 -0.019501913 0.015028298 -0.044936817 0.012869847
-0.027466936 0.07154339 0.055997156 -0.04615724 0.023300935 -0.08376206 -0.10343253 0.03784548
-0.016837012 -0.08189913 -0.08204979 0.06320643 -0.03539541 -0.068977274 -0.053491943 -0.005814887
0.045677487 0.00401003 0.11101056 0.08476264 -0.058127996 0.13631736 -0.042082615 0.09235412
0.014659314 0.0765937 -0.014831408 0.018454695 0.018589435 0.09998899 -0.027215844 0.07009318
-0.017511837 0.04665881 0.12881862 0.11862199 0.057436604 0.061896097 0.117498495 0.17484127
0.2342954 0.09330929 0.09247966 0.18104471 0.03444475 0.062169462 0.19214427 0.03871303
0.023278022 0.030591203 0.05317129 0.098814055 0.09051088 0.09874562 0.14520192 0.16431785
0.03197107 0.081405215 0.029984934 -0.016820218 0.07696254 -0.05343865 -0.022347234 -0.0030445056
0.030787753 -0.025036842 0.017081797 0.01789547 0.04672135 -0.07232273 -0.121045135 -0.13282749
-0.11584091 0.008835765 -0.12703755 0.012849595 0.088693 0.09125642 0.12147197 -0.01509602
0.1342166 -0.016808916 0.09057033 0.10664827 -0.06516006 0.11461625 0.009508366 -0.10332654
0.07779811 0.075525954 0.07077018 0.048298948 -0.04438962 0.09124007 -0.081084915 -0.026803434
-0.09814856 -0.029451096 -0.028699284 0.036700383 -0.10152572 -0.13166945 0.012443165 0.045712486
0.0031101261 -0.13438265 -0.11547637 -0.085729435 -0.08344145 -0.09264876 -0.15168267 -0.083587594
-0.08641742 0.006693586 -0.036786675 -0.14256279 0.053254154 0.043396663 0.08629611 0.13730088
0.108075246 0.07049901 -0.062460724 0.07373467 0.009426467 0.11387714 0.0966486 0.08284838
-0.08252544 0.019131165 0.06174309 0.06816964 -0.04513788 0.013598096 0.09107892 0.018635929
0.04960446 -0.09001469 -0.08236475 -0.011447347 0.10535972 0.045922857 0.06358098 -0.05895108
0.06716482 -0.027064366 -0.001988758 0.1373224 0.16218774 0.10859517 0.0124084065 0.16910766
0.044904985 0.050072767 0.08999625 -0.010484412 -0.039108362 -0.01955772 -0.12708181 0.011565161
-0.004070173 -0.1039926 -0.045958105 -0.092245914 -0.024000527 -0.040661033 -0.01566368 0.12937039
-0.01721473 0.03271442 -0.04711374 -0.014626201 0.047072906 0.11185324 0.0051437607 0.03196767
-0.049792536 -0.0186717 0.0127541935 -0.04591239 -0.039295234 -0.06610723 -0.042941406 0.037124474
-0.0085520465 -0.02006603 -0.06391972 0.044795107 -0.072265804 -0.070419624 -0.05722451 -0.06582903
-0.02600719 0.10430358 -0.003679571 -0.087388866 0.036756683 0.041856475 0.047396097 0.1315141
0.0035880934 -0.019400101 0.12824719 0.06648894 0.1462769 0.04522128 0.022179427 0.08396103
0.11625838 0.18459837 0.052587863 0.04805817 0.15154622 0.17135726 0.14117625 0.058654062
0.060767554 0.109176874 -0.06854149 -0.033456624 -0.03214673 0.080944784 -0.087125614 -0.040428583
0.11509799 0.00620795 -0.095553346 -0.120032676 -0.009475519 -0.13527913 -0.09870077 0.037459183

gru.weight_ih_l0 f4 [96, 32]
00000000: 55e4 583d f509 103e cc35 1d3d 053b bb3e
00000010: ee25 0b3b 0a4e 16be 2c9a 8e3e 08cf 74bc
00000020: 5d8a af3c 5a9d ac3d a6bf 093e 5b9f 413e
00000030: af1d d4ba 55ba 4c3e 6754 02be 3cf7 f03d
00000040: e385 073e c956 de3e ffab 9dbd 0bb1 8cbb
00000050: 61c0 4d3d 1580 8d3e 4825 15be 614b f03d
00000060: ec03 383c 22b2 523e 66b6 373e 02cd 06bd
00000070: bffe 9bbc e96a 5e3e 347b 5c3d cb60 9e3d
00000080: 603a 713e c430 4a3d 13e8 903d d95d 5dbe
00000090: 74eb 4d3e 89b3 c33c 9c7c 6e3e df41 c03c
000000a0: 920e bd3c 79fe 9abd 794c 15be a61f 05be
000000b0: 375e efbd 99b1 183e 5e33 8b3d a56c aebd
000000c0: 18c8 593e cb0f fd3d efac a03d af68 a33d
000000d0: f119 a93b f33f 023d 61e2 873d d468 433e
000000e0: 965c e43d 3e5a fa3d a80e 953c e944 473e
000000f0: 9884 4dbd 9667 2c3e a769 0dbc f80e cd3d
00000100: 5fc9 8d3d 868f 123e 5510 fc3c bd77 9f3d
00000110: 3893 8d3d 80bf 2abe fb4b 6c3d 1194 523e
00000120: f191 bfbd d115 7e3e 5aae 323e 3f34 113e
00000130: 68c6 813d ec0b 243d 5e10 583d b574 0ebd
00000140: 1f16 2d3e 1b71 8f3c 6e2e 693e 8d9c 03be
00000150: 8bb4 bfbd abb3 b23c 00ba d8bd 53b1 2ebc
00000160: fafe 6e3e 1092 60bd 83cc 46be 0225 403c
00000170: 774a d53d 2752 c43d 1fdf 6fbe 33e5 773e
00000180: cdd0 88bd 2eea 03bd f38a 85bd 8f19 1bbe
00000190: 0eb0 8bbd f287 ccbc 6a04 963d 19fb 04be
000001a0: 8ca9 2a3e 49a0 bb3d 5d1e 46bc 95f8 99bd
000001b0: 1bf0 0fbe 9fdd e63d cd3a c73c 8170 4e3e
000001c0: 02a4 f03d 9149 59bd f111 8cbe 5519 383e
000001d0: 7cba 21be ff00 203e 2c28 b8bd 6390 0cbd
000001e0: c4af abbd 5e4e 96bd f839 fabc c664 323e
000001f0: 901a c4bd e1c7 173e a7b5 253e 8aab 1c3d
00000200: bd8c ecbd 5e1a f8bc 5c44 a03d 6ac3 9dbd
00000210: ee80 bbbd f69a 78bd a5dc d63d 7087 8ebc
00000220: fe68 78bc dd27 0abe 0d95 b23d 84fd 933d
00000230: d536 a93d 7029 1d3e a964 5b3d 0169 123d
00000240: c109 c73b c303 eb3d d89b 033d 4e6e 263e
00000250: 3407 2cbc b503 253e a49c ce3a dc2f a13d
00000260: 6d5c 3b3d 2f9e 733e fc26 723e 258e c4bd
00000270: 0910 9cbd f95f b33c aa4c 02be b79b bb3d
00000280: 7c5c f23d 86ea 833e 8c6a a73b 2bfb d33e
00000290: 7969 bebd 5753 27bd 72c6 dd3d 9683 5c3e
000002a0: 0e0d 3dbb 288b 653e 4a37 243e daf4 2d3e
000002b0: 758f fabd dcde 4f3e 267b 22be f434 e5bd
000002c0: b94a af3e 05c4 8b3e 3e42 1e3e 7db5 403e
000002d0: e90b 843e e695 a23d a6eb 17be 0c4d 2f3e
000002e0: c15f a13c e33f 59be 7dc6 14be 46ad bb3c
000002f0: ff20 3a3e a56c 4b3e 96d8 2cbe 378e 963d
00000300: faf7 05be b43d a7bd 7cc9 87be 3499 54be
00000310: f4fc 153e f305 6c3e ef51 86bd b893 26be
00000320: f6d4 a5bd 296d 9dbc c68d 88bc 9254 003c
00000330: 5e38 923d e95b 96bc da2a 133e 57a7 8b3d
00000340: 1878 04bd 2455 53be 99f7 a1be 43e6 1b3e
00000350: ada3 92be b74e 20bd ac64 d93d f164 66be
00000360: 9db9 a1be a826 4b3e d187 6d3e e2d5 68bd
00000370: 3f39 1bbe 4175 32be dc42 7d3d a343 b1be
00000380: f17d a73d b8bc b6bd 0612 f53d 00c0 46be
00000390: 0b9a 1bbe 59cf 7ebd b00a be3c 65e9 383e
000003a0: 1c4e 1dbd c85a 303e a4ef dabd aec7 a23c
000003b0: fb40 0abd a51a 923d e730 9dbd 5588 1f3e
000003c0: ffb3 f23d 23b0 c8bd 7287 253e a313 1d3e
000003d0: 7248 093e 9238 e03d ec0f 853d f16c 643e
000003e0: c47c babd cf74 053e 9388 dfbd 2124 a73d
000003f0: d0c6 7a3e b513 f5bd 3543 783d d159 c3bc
0.05295213 0.14066298 0.038381383 0.36568466 0.0021232325 -0.14678207 0.27852 -0.014941938
0.021428281 0.0842845 0.13452014 0.18908446 -0.0016183163 0.19992955 -0.1272751 0.11765906
0.13234667 0.43425587 -0.07698821 -0.004293566 0.050232295 0.2763678 -0.14565003 0.117331274
0.011231404 0.20575765 0.17940673 -0.032910354 -0.01904237 0.2172047 0.053828433 0.077333055
0.23557425 0.049362913 0.07075515 -0.21617831 0.2010935 0.02388932 0.23289722 0.02346891
0.023078237 -0.07568068 -0.14579953 -0.13000354 -0.11687892 0.14911498 0.06796907 -0.08516816
0.21267736 0.12356528 0.078454845 0.07978951 0.005160563 0.031799268 0.06634975 0.19082958
0.11150472 0.122242436 0.018195465 0.19459881 -0.05017528 0.1683639 -0.0086311465 0.10012621
0.06923174 0.14312562 0.030769506 0.0778651 0.069128454 -0.16674614 0.057689648 0.20564295
-0.09354008 0.2481301 0.17449322 0.14180087 0.06336671 0.040050432 0.052749984 -0.03477927
0.1690297 0.017509988 0.22771618 -0.12852688 -0.09360608 0.021814188 -0.10582352 -0.010662395
0.23339453 -0.054826796 -0.19413953 0.011727573 0.10414594 0.09585982 -0.23424958 0.24208526
-0.066804506 -0.032205753 -0.06520643 -0.15146469 -0.06820689 -0.024967168 0.07325061 -0.12986411
0.1666624 0.09161431 -0.0120922 -0.075181164 -0.14056437 0.112727396 0.02432003 0.20160104
0.11750032 -0.053048674 -0.27357438 0.17978413 -0.15793794 0.1562538 -0.08992037 -0.034317385
-0.08383134 -0.07339166 -0.03054522 0.17421255 -0.09575379 0.14822342 0.16182576 0.03824953
-0.11550281 -0.03028601 0.078255385 -0.07703288 -0.09155451 -0.060694657 0.10491303 -0.017398566
-0.015161751 -0.13491769 0.087198354 0.07226089 0.082624115 0.15347838 0.053562794 0.03574467
0.006074161 0.11475327 0.032131046 0.16253015 -0.010499764 0.16114695 0.0015763235 0.078704566
0.04574244 0.23790811 0.23647684 -0.095974244 -0.07620246 0.02189635 -0.12724558 0.091605596
0.11834046 0.25764865 0.005109137 0.41402563 -0.09297461 -0.040850963 0.10828866 0.21534571
-0.0028846893 0.22416365 0.16036716 0.16987935 -0.122343935 0.20299858 -0.1586729 -0.11191741
0.34236696 0.2729799 0.15454957 0.18819232 0.25790337 0.07938747 -0.14835986 0.17119235
0.01969898 -0.21215777 -0.14528842 0.022909772 0.1817665 0.19865663 -0.16879496 0.07351344
-0.13082877 -0.08166066 -0.26520908 -0.20761567 0.14647275 0.23049144 -0.06558596 -0.16267288
-0.0809726 -0.01921709 -0.016669165 0.007832663 0.071396574 -0.018354373 0.14371815 0.06819027
-0.032341093 -0.20637947 -0.31634215 0.15224557 -0.286405 -0.03913757 0.10614905 -0.22499444
-0.31586924 0.19838965 0.23196341 -0.0568446 -0.15158556 -0.17427541 0.06183134 -0.34621915
0.08178318 -0.08922714 0.11966328 -0.1940918 -0.15195481 -0.06220946 0.023198456 0.18057783
-0.03840457 0.1722213 -0.10690239 0.019870605 -0.033753376 0.07133988 -0.07675343 0.1557935
0.11850738 -0.097992204 0.1616495 0.15339522 0.13406542 0.1094829 0.064971775 0.22307183
-0.091058284 0.1303284 -0.10914721 0.08161188 0.24489903 -0.119666494 0.06061097 -0.023846539

gru.weight_hh_l0 f4 [96, 32]
00000000: e314 dcbd 7cac 9f3d c90d 1bbe 841c 43be
00000010: 486b 863e cd95 0a3d 3739 493d 4bea ff3c
00000020: 005d 38bb 7405 58be e6b4 35be 40ed c03d
00000030: 5768 95bc d666 96be c83d 253d 7cde 1e3e
00000040: 9cca 9abd 325a f33c 77a5 ad3d f3cf 773c
00000050: e51f f8bd c0a6 1b3e b0d6 fabc b4cc a9bd
00000060: 75ed 41bd 1cea ddbc 07b3 cf3d ead8 38be
00000070: 60ff d93d 3ec6 0fbe 27f3 8e3d 4d59 a5bd
00000080: 8cbb 1c3d e880 2d3d 68fc eebc 5a8f ee3d
00000090: ce68 493e e8ef 89bc 8c87 7c3e 4504 f73d
000000a0: 9401 993d a677 d73c 9cef 7a3e 69fc f93d
000000b0: f7d7 95bd 700f 22be 3880 2ebc 6813 5bbe
000000c0: f062 0c3e b74a 233c b07f 22be 2f61 ad3e
000000d0: d5ee fa3b 3918 56be e721 26be 79a8 1d3e
000000e0: 7816 c0bd aff5 b43c a7f9 19be 67c3 803b
000000f0: ac74 e03d 6ae9 d03d cbc8 8fbd 9878 d23d
00000100: ad79 dd3d 4a61 8d3e 852c 9dbd caa5 4ebe
00000110: 4584 5b3d 9c88 1fbd 0546 943c f3b0 38be
00000120: bf1b 18bd 1d64 10bd b027 88bd 25bc e6bd
00000130: 00ba 91be 2eac 22bd 3610 07be 33e3 413e
00000140: 54e7 1ebe 1d62 6a3e 2d5d 723c 7c08 a1bd
00000150: 7a0c 79bb 05b5 2ebe a13e 41be 9ec5 5cbd
00000160: ed53 dc3c e070 933d a6b8 e2bd ea49 12be
00000170: 854c 3c3d 7c6a 0b3d 2f6e 493e 7329 763e
00000180: 5dfe ac3d ac1c 2ebe 7a65 d0bd f177 053d
00000190: 0bed 9d3c 5921 c4bd 7913 33bd 5ebc 2bbb
000001a0: 3d74 29be 05d6 b13c 579e 8cbd dc8a d23d
000001b0: d3b8 4ebe 607d 45bd aa9f dc3d 1e3c 8e3e
000001c0: eb93 38bd 298d 58be 50de 2c3e 4127 c7bd
000001d0: e66a 823b 913b ea3d cf28 2fbe 6b38 e3bc
000001e0: c8c3 9f3d 33a3 3b3d 4102 35bd e096 643d
000001f0: 434f adbd e2b4 b8bd 7f9a c73d 2237 0dbc
00000200: 2911 47be 481b 5f3e 3176 0fbe 46d8 2a3c
00000210: 93a0 873c 2407 53be d1b7 9c3d 82a9 d3bc
00000220: 8bd0 213e 1640 ee3d 04af ae3d 9df4 6d3d
00000230: eba7 1fbe 1003 f0bc e719 d7bd 3c44 63bd
00000240: 1656 64be 6adc f0bd 130e cf3c 95cf dc3c
00000250: a7da 17be 0641 4abd 630b 3dbe c7f6 233e
00000260: c7ab e9bd 29d6 86bd e786 b2bd 890b 6ebe
00000270: bea5 aa3d dfea 573d 2cb3 4d3e ac07 b6bd
00000280: c650 08bd f70f 673e 51de e53d 07d2 a4bd
00000290: 1eee 2a3e e7a7 a7bc fe05 de3c aff2 183e
000002a0: 99de fabc c728 78bd 1142 113c 6399 85bd
000002b0: 2b30 22be b03c f73d e694 8f3e 5131 10be
000002c0: 64cb 59be cde7 32be d946 7abe 99f0 93bd
000002d0: 03ee a13d 98de 8abd 13cc 08bd 7405 083d
000002e0: 99b1 5c3d 4772 b4be ed92 b33c 8012 443e
000002f0: 54e3 40be 6f72 97bd f6ab 73be fe96 513c
00000300: 6b16 953d b80f d23d 1dc9 0abd 7077 6cbd
00000310: 76e3 0cbe 9a69 883c a4cc 31be db83 773c
00000320: bb6d 163e 6bef 39be 3f1e 5dbe 43e0 bdbc
00000330: 1ba9 663e 1949 083e 74bf 053c 0a28 c6bd
00000340: c1ab b43d 7298 753b b9ff 043e bfad 48bd
00000350: 5be9 73ba aee1 afbd 3f05 11be d27b a23d
00000360: 32de d23d 01b1 573e ce1c b6bd 6a6b c63d
00000370: 2a03 0f3e 77e5 953d 4c17 f1bd 5b50 aabd
00000380: d690 1bbd 76c6 0d3e 8f7a 513d 8255 323d
00000390: 88f3 febd 58b0 fd3d 573c 3f3d 54a2 c4bb
000003a0: d60d 353e dccb 333e eecb 3dbd 00cc 1c3c
000003b0: 20d0 2ebd 26e5 363e 0913 fcbc 70bf d6bd
000003c0: 9d25 a6bd dbec 2abd 171b 21be 637b 14bd
000003d0: 8ba6 febc 002e 2dbe 5b37 14bd 1846 853e
000003e0: 14d1 50bd 76e2 35be c619 e8bd 4aa9 aa3d
000003f0: d8e9 71be 73ff 283d 0b87 5dbd 6150 fbbd
-0.10746171 0.07796571 -0.15141977 -0.19053847 0.26253724 0.033834267 0.04912683 0.03123965
-0.0028131604 -0.2109583 -0.17744789 0.09420252 -0.01823823 -0.29375333 0.040342122 0.15514559
-0.07558176 0.029706094 0.084788255 0.015125263 -0.121154584 0.15200329 -0.03061995 -0.08290997
-0.047345597 -0.027089171 0.10141569 -0.18051496 0.10644412 -0.14040467 0.069799714 -0.080736734
0.038264796 0.042359263 -0.029173091 0.11648436 0.19668886 -0.016838029 0.24661082 0.12061361
0.07471004 0.02630217 0.24505466 0.122063465 -0.07316583 -0.15826201 -0.010650687 -0.21394122
0.13709617 0.009966544 -0.15869021 0.33863208 0.0076578655 -0.20907678 -0.1622387 0.15396298
-0.093792856 0.022089807 -0.15036641 0.003929544 0.109597534 0.1020077 -0.0702072 0.10276908
0.108142234 0.27613288 -0.07674507 -0.20180431 0.05359294 -0.03894864 0.018099794 -0.18036251
-0.037135836 -0.035251725 -0.06648195 -0.112663545 -0.2846222 -0.039714985 -0.13189778 0.18934326
-0.15517932 0.2288899 0.014792723 -0.078629464 -0.0038001821 -0.17061241 -0.18871547 -0.0538994
0.026895488 0.071992636 -0.11070375 -0.14286008 0.045971412 0.0340371 0.19670938 0.24039249
0.084469534 -0.17003125 -0.10175605 0.03258509 0.01927807 -0.09576673 -0.043719742 -0.0026204805
-0.16548248 0.021708498 -0.068661384 0.102803916 -0.20187692 -0.04821527 0.10772641 0.2778024
-0.04506294 -0.21147598 0.1688168 -0.09724284 0.0039800284 0.11437143 -0.17105411 -0.027736863
0.07801014 0.045809936 -0.044191603 0.055807948 -0.084623836 -0.09018876 0.09746265 -0.008619102
-0.1944014 0.2178775 -0.1400993 0.01042754 0.01655606 -0.20608193 0.07652248 -0.025837664
0.15802209 0.11633317 0.08529475 0.05809461 -0.155914 -0.029298335 -0.10502987 -0.055484995
-0.22298464 -0.11760791 0.025275266 0.026954452 -0.14829503 -0.049378417 -0.18461375 0.16012107
-0.11409717 -0.065838166 -0.08717137 -0.23246588 0.08332394 0.052714225 0.2008788 -0.08888182
-0.033280157 0.22564684 0.11224044 -0.08047872 0.16692397 -0.020465804 0.027102467 0.14936326
-0.030623721 -0.060585763 0.008865849 -0.06523397 -0.15838687 0.12072122 0.28043288 -0.14081313
-0.21268994 -0.17471237 -0.24441089 -0.07223625 0.07906725 -0.06780738 -0.033397745 0.033208326
0.053880308 -0.35243437 0.021920646 0.19147682 -0.18836719 -0.07394873 -0.23796067 0.012792347
0.072796665 0.10256904 -0.033883203 -0.057731092 -0.13758644 0.016651917 -0.1736322 0.01510712
0.14690296 -0.18157737 -0.21593569 -0.023178225 0.22525446 0.13309135 0.008163322 -0.096756056
0.08821822 0.0037474898 0.12988175 -0.048993822 -0.0009304487 -0.08587967 -0.14162157 0.07933773
0.10296287 0.21063615 -0.08892213 0.09688456 0.1396605 0.073191576 -0.11772022 -0.08316108
-0.037979923 0.13845238 0.05114227 0.043538578 -0.12448794 0.123871505 0.046688404 -0.0060007963
0.17681059 0.17558235 -0.04633706 0.009570122 -0.042678952 0.1786085 -0.030770795 -0.104857326
-0.08112643 -0.04172979 -0.1573299 -0.036250483 -0.031085273 -0.16912079 -0.036185604 0.2603004
-0.050980642 -0.17762169 -0.11333041 0.083330706 -0.2362436 0.04125924 -0.054083865 -0.122711904

gru.bias_ih_l0 f4 [96]
00000000: 6258 0a3e 6226 4ebd a44d 5e3e 2c37 cebd
00000010: 7d27 e33d c2ee 72bb d4a1 22be 2757 cebc
00000020: 6b7f 883e d857 fabc d27d 713d 238d ccbc
00000030: c80b e2bd fe45 0a3e 58b4 fabd 52b5 d9bc
00000040: 7b91 ab3d 1a51 c2bd 6f56 be3c 557a 96bc
00000050: 8f32 ec3d 07ec 95bd 32ac 7a3e 0885 003e
00000060: 839a 23bc ddb9 f1bd f3c1 173e 4f73 6a3c
00000070: ce38 283e f8b9 213e 1b74 6e3d 243b ab3e
00000080: 39ae 18be 209c a63d 85b2 5cbd 8f44 4a3e
00000090: 6652 a73c 9287 08be a3b9 273e 5aa7 15bd
000000a0: 28bf 363d 3342 a83d 33eb a63e 37c6 463e
000000b0: ebd2 863d 3942 a33d 3ed7 33bd 7071 c3bd
000000c0: 2605 d13d 460d 5c3e aa8f a3bb 2777 593e
000000d0: a18f cdbc 0335 02be 1c80 a7ba e54f 91bd
000000e0: c662 313e 6163 1fbd 1752 5d3d 35d3 ffbd
000000f0: 4130 d03c 6953 753e 1db6 f6bd d6b4 45bd
00000100: 7722 053c 98d2 2c3e ac75 323d 2951 82bc
00000110: 3bee 4c3d d1b6 5dbe 4d55 b53d d9e0 5cbe
00000120: 60c4 d1bd e7b3 3b3c 1a8a 423e 2767 5f3e
00000130: f34f 11bd 3a79 a1bd 993f d83c a2e5 7c3d
00000140: d61a 5bbe a4f5 17be fed9 29bd a4a4 dabd
00000150: bff1 72be 3868 aa3d efec cf3d b0a2 03be
00000160: 3cf0 5c3a e5e2 8bbb ca34 37bd c0c1 22be
00000170: 4376 e53d 39e9 debc b9a6 cb3d 0628 043e
0.13510278 -0.050329573 0.21709305 -0.10069117 0.11091516 -0.003706858 -0.15882045 -0.025188042
0.26659712 -0.030559465 0.058957882 -0.024969643 -0.11037403 0.13503262 -0.12241429 -0.026575718
0.083773576 -0.09488125 0.023234574 -0.01836888 0.11533081 -0.07320409 0.2447975 0.12550747
-0.009985569 -0.11803029 0.1482008 0.014309718 0.1642792 0.15793598 0.058216196 0.33443558
-0.1491021 0.08135247 -0.053881187 0.19752716 0.020425033 -0.13332966 0.16379409 -0.036536552
0.044615895 0.082157515 0.32601318 0.1941155 0.06583198 0.07971615 -0.043906443 -0.09543121
0.1020606 0.21489438 -0.0049914913 0.2123686 -0.025092902 -0.12715535 -0.0012779268 -0.07095317
0.17322835 -0.038913134 0.054033365 -0.124914564 0.025413634 0.239576 -0.12046454 -0.04826816
0.008125893 0.1687721 0.043569252 -0.01590784 0.05003188 -0.2165177 0.088541605 -0.21570148
-0.10242534 0.011456466 0.18997994 0.21816693 -0.035476636 -0.0788445 0.026397513 0.061742432
-0.21396956 -0.14839798 -0.04146766 -0.10675934 -0.23725031 0.083206594 0.10152613 -0.12855029
0.00084281317 -0.0042689913 -0.044728078 -0.15894222 0.11204197 -0.027210819 0.09943909 0.12905893

gru.bias_hh_l0 f4 [96]
00000000: d51e 5ebc e4df 633e c622 833e 1237 b93d
00000010: 6257 83bd 87af d3bc 0c14 c7bd 6600 2c3e
00000020: 4a0b 053d 4d7c 703e 05a8 3b3e 8c7e c23d
00000030: 2be2 30ba 9b42 903e 0e54 d8bd ab78 433d
00000040: 7e9b 8a3e df86 4f3d c01f ba3c e2bd 073d
00000050: bd48 8f3e 33d4 523e 4642 833e 6649 613e
00000060: aeae 9abd fa88 9e3d 977f c23d c097 693d
00000070: 560e c33b 5e4b 263d fc0c 6a3d d945 903e
00000080: abae 28bd 9f09 753e 07b7 3c3e a3cb e63c
00000090: 237f 603e 8733 c9bd 74d8 2b3d 6bfa 62be
000000a0: 45bd 84bc 8004 7d3c fc90 7b3e faa3 013e
000000b0: 2773 543e 28cd b4bd f647 0ebe b5d4 003e
000000c0: b4cd 0c3d 076e 223d 4ac7 00be 3f6b 9cbb
000000d0: 68ab 7f3c ffca 16be 03c0 11be 2850 233e
000000e0: a4a1 22be 686d eb3d 2d0b 4abd 1a33 073e
000000f0: 7a77 67bd 513d 003e ceb8 24be 3d12 b63c
00000100: 7c32 00be 3a89 523d b0a6 d4bd 76f3 dabd
00000110: dcda 9c3d be54 8f3d 2347 193e 72fa 8cbc
00000120: 5e03 0fbe be61 f0bd d80d 1abc f609 6d3d
00000130: 297d e4bd 04e8 3cbd 1ede 42be 2427 633e
00000140: f5e6 2ebe 6019 72bd 7bdf 723e 6710 4bbd
00000150: 3b95 323d b9e5 bdbd 4c55 4abe a04b f5bc
00000160: ac46 b93d 52a9 c4bd 7ab3 233e bafe 17be
00000170: 1c97 313e a5d3 9abd 96ec 603d 8b2e 0a3e
-0.013557156 0.22253376 0.25612468 0.09043707 -0.06413151 -0.025840534 -0.097206205 0.16797027
0.03248147 0.23484917 0.18325813 0.09496793 -0.0006747569 0.28175816 -0.10562907 0.0477225
0.27071756 0.050665732 0.022720218 0.03314007 0.27985182 0.2058876 0.256365 0.22000656
-0.07552849 0.0774097 0.09496992 0.057029486 0.0059526367 0.04059922 0.05714129 0.2817829
-0.0411822 0.23929451 0.18429194 0.028173273 0.21923499 -0.09824281 0.041954473 -0.2216584
-0.016203532 0.015442967 0.24567026 0.12660208 0.20747052 -0.08828193 -0.13894638 0.12581141
0.03437586 0.03965571 -0.12576023 -0.004773527 0.015604831 -0.14725874 -0.14233403 0.15948546
-0.15881974 0.11495477 -0.049327064 0.13203087 -0.056510426 0.1252339 -0.16086122 0.022225494
-0.12519258 0.0514004 -0.103833556 -0.10690968 0.076589316 0.06998585 0.14968543 -0.017209265
-0.13966128 -0.11737393 -0.009402715 0.057870828 -0.11156685 -0.046119705 -0.19030043 0.221829
-0.1708029 -0.05910623 0.23718064 -0.04957619 0.04359935 -0.09272332 -0.197591 -0.029943287
0.09046683 -0.09602608 0.15986434 -0.14843264 0.173428 -0.07559899 0.054913126 0.13494317

gru.weight_ih_l0_reverse f4 [96, 32]
00000000: 43d6 283e 43ea 253e 1d71 57bd 3454 3a3e
00000010: 9d9c 7e3d 3c24 3a3e d1b0 443e 8784 7dbd
00000020: d832 423d 221b cf3a 6f0a 723d 0f63 cfbd
00000030: bbd8 afbd 06e9 1d3e 0bc5 3b3e f2eb ea3d
00000040: 64ec a53d e2a4 5b3e 944e 253e 0834 de3d
00000050: da45 20bd 3a47 fe3c 3bac 1bbd 1208 323d
00000060: 2107 ecbd 50de 223e 4144 203e b470 583e
00000070: 175c 2a3c e6f1 b13d 08cd 81bd f90d ccbd
00000080: d7d0 75bd 11eb 153c 61ce babd 9174 1cbe
00000090: c70a 8c3d 3d74 893e c46b f9bd 9556 d33d
000000a0: 458c 62bd 4dd3 a03d 686b edbd 7579 133e
000000b0: a39e dd3c 53aa f7bd 4ad2 1c3e f8bb 543d
000000c0: ba91 3cbe 71d2 43be 0d20 1bbe 4ddc 4d3d
000000d0: 526f 1cbe 3242 073e c0bc 5a3e 6124 bc3d
000000e0: ef08 b3bb cfbd 683d f9b1 c13d 0f43 313d
000000f0: 7b8c 9ebd 2a31 663c 5be0 073e 2e81 75be
00000100: 7404 983c 7fc7 093e a6af 633e 183b 5abd
00000110: 47c5 953d d6e8 673e eeda 013e 5a1c 8c3d
00000120: 4702 1dbd 1e9f 383e f021 65bd 677d c83d
00000130: 92d5 9bbd 0e3f 873e 7cb0 843e 69ae c6bd
00000140: fd4c c73c 20aa 4c3e 06cd 8dbc 5712 3bbd
00000150: c75c 0a3e d696 803c 11de 133d 04ee 85bc
00000160: c6a3 903d 20af 3d3e 0628 293e f5cf 41bb
00000170: 21c5 373e 9a62 7d3e 99a7 143e 8895 903e
00000180: f642 d5bc 11c4 283e 9620 b9bd e423 2bbe
00000190: 26d1 0fbe 2f37 0d3d abbb 45bd 1953 943d
000001a0: d259 673e e79c 22be 431b 09b9 0f01 cabd
000001b0: 5c90 2dbd edd7 1bbe 2205 d1bc ad22 d53d
000001c0: 5134 333d fbce cfbc 675c e3bd 87d2 5d3d
000001d0: 10fe 873c e0cc ad3d 52b3 2e3e 30f9 22be
000001e0: fdd5 e83d 7d8c 2f3d d283 c43d 61fa 92bd
000001f0: 0111 0ebd abf4 493d ac61 eb3d dfb2 bfbd
00000200: 6061 143e 2887 213e f55d 5a3c 0400 34be
00000210: 26e0 ff3d b071 1abe 6e66 c6bd 71d1 233e
00000220: a26a 633e 7c98 1e3e e83e a3bd 53d7 6b3e
00000230: 969a d83d 90ff c4bd 0352 f5bd 9c26 8f3d
00000240: 4df2 e23d 55fe 25bd ec34 cf3d 4b56 87bd
00000250: f87b bf3d 565c 97bd 1bad 183e 671f 823e
00000260: 0262 d2bb 1031 293d dae1 ce3d 6ca7 0ebb
00000270: ad88 6b3e 3db3 bbbd 458f ebbd 71ca 97bd
00000280: 40e2 903d d572 ffbd 49cd 283e a297 3dbe
00000290: 11a5 3b3c 063f 053d be48 913b c3f6 aabd
000002a0: 3f9b 7cbe 4cf7 06bd fef1 58bd 51f7 20be
000002b0: df8e 973d 5557 bfbd 3e1c 10be c2cc 57bd
000002c0: 5bc6 bb3d b7ec 50be 0d64 393e 0d27 143e
000002d0: 8698 c2bd 81d2 27be 501c 63be a08b 26bc
000002e0: f321 cbbd 9b44 b0bc 13bf 80be f62c 1f3d
000002f0: b30c 473e a8f7 a73d 05d7 84be cef0 813d
00000300: b8ef bd3d 0d36 853d 4553 98bc fb00 6dbc
00000310: c04a 75bd ea05 11be fefa 2a3e 64bc 733d
00000320: 113f e4bd 5712 f6bc 92b4 07be e772 0dbe
00000330: d7fd 3bbd 492d c3bd 42e0 023d 0342 b4bc
00000340: a77e c93c 6893 20be 5fa1 0ebd 958f 213c
00000350: 58e1 603d be44 e1bd ffef ea3a 6253 613d
00000360: 487a ecbd ef1b a4bd 4a21 983d 2c76 91bd
00000370: 6a3f aabc 5807 f63c e420 d63c 8e97 78bc
00000380: bedf 5f3e 1150 d43e a46c 7f3e b8ad 783e
00000390: caa1 763e fb90 db3d 817b 7e3e 530d ad3e
000003a0: 3da3 853e d8e7 ac3e 5fd4 633d d5d1 4f3e
000003b0: 0464 7c3d e401 3a3e c25f d13e c210 8b3d
000003c0: 8e1c b93e d8ac 1e3e d791 8a3e 7d1e d53e
000003d0: 4587 ab3e 8d9f 383e 86a7 113e 3825 ab3e
000003e0: 9452 913e d9bf 253e 3cf7 af3e e3f5 893e
000003f0: ba7e 483e 513c 8c3d 5434 3b3e 1340 ea3e
0.16487984 0.16202645 -0.052598108 0.18196183 0.062161077 0.18177885 0.19208075 -0.061893966
0.04741177 0.0015800933 0.05909198 -0.10126316 -0.0858626 0.15420923 0.18336885 0.11470784
0.081017286 0.21449617 0.16143256 0.10849768 -0.039129116 0.031039823 -0.03800605 0.043464728
-0.11524797 0.15905118 0.15651037 0.21136743 0.0103979325 0.086887166 -0.06337935 -0.099636026
-0.06001362 0.0091502825 -0.09121395 -0.15278842 0.06837993 0.26846495 -0.12178758 0.103192486
-0.055309553 0.078528024 -0.11592752 0.14401801 0.027053183 -0.12093034 0.15314594 0.051937073
-0.18414965 -0.19123246 -0.15148945 0.050258923 -0.1527684 0.13208845 0.21361065 0.09186626
-0.0054637115 0.05682164 0.09457774 0.043276843 -0.07741638 0.014049808 0.13269179 -0.2397506
0.01855681 0.13455008 0.22234973 -0.053279012 0.07313018 0.22647414 0.12681171 0.06841345
-0.03833225 0.18029448 -0.05594057 0.097895436 -0.07609095 0.26415294 0.25915897 -0.09701235
0.024328703 0.19986773 -0.017309677 -0.045671787 0.13511954 0.015696924 0.03610045 -0.016348846
0.07062487 0.18523836 0.16519174 -0.0029573415 0.17946292 0.24744645 0.14517058 0.28239083
-0.026032906 0.16481043 -0.090394184 -0.1671291 -0.14044628 0.034476455 -0.048274677 0.07242412
0.22592857 -0.15880166 -0.00013075494 -0.09863483 -0.042374 -0.15219088 -0.025515143 0.104070045
0.043751065 -0.02536725 -0.11101609 0.054155853 0.016600639 0.084863424 0.17060593 -0.1591537
0.1136894 0.04285859 0.09595455 -0.07176662 -0.034684185 0.0493056 0.11493239 -0.09360289
0.1449027 0.15774214 0.013328065 -0.17578131 0.12493925 -0.15082431 -0.09687506 0.15997864
0.22208646 0.15487856 -0.07970983 0.23031358 0.1057636 -0.09619057 -0.11978533 0.06989786
0.110813715 -0.040525753 0.10117516 -0.06608256 0.09349817 -0.073906586 0.14909784 0.25414583
-0.006420375 0.041306555 0.101016715 -0.0021767272 0.23001356 -0.09165046 -0.11501936 -0.074116595
0.07074404 -0.12473074 0.1648456 -0.18514875 0.011452929 0.032530807 0.0044337204 -0.08347847
-0.24668597 -0.032950684 -0.052965157 -0.15719344 0.074002974 -0.09342829 -0.14073274 -0.052685507
0.09168693 -0.204028 0.18104573 0.14468022 -0.09501748 -0.16388895 -0.22178769 -0.010165125
-0.09918585 -0.021517089 -0.25145778 0.038861237 0.19438438 0.082015336 -0.25945297 0.06344758
0.09274238 0.0650445 -0.018594394 -0.014465566 -0.05988574 -0.14162412 0.16697308 0.059505835
-0.111448415 -0.030038042 -0.13252476 -0.13813363 -0.045896377 -0.09530122 0.03195215 -0.022004133
0.024596525 -0.15681231 -0.034821864 0.009860893 0.054902405 -0.1099944 0.0017924308 0.05501116
-0.11546761 -0.080131404 0.074282244 -0.071026176 -0.020782191 0.030032799 0.02613873 -0.015172852
0.21862695 0.41467336 0.24943787 0.24285018 0.24085155 0.10721012 0.248518 0.33799228
0.26101103 0.33770633 0.055622455 0.20294888 0.06161882 0.18164784 0.4089337 0.06790306
0.36154598 0.15495622 0.27064392 0.41624823 0.3350164 0.18029614 0.14224061 0.33426833
0.28383315 0.16186465 0.34368312 0.2694541 0.19579592 0.06847442 0.1828168 0.4575201

gru.weight_hh_l0_reverse f4 [96, 32]
00000000: 7dff 5a3e 0c30 193e b047 1a3d 6df3 223e
00000010: 8ca3 3b3e 840f 21be 2801 8d3c fa25 4bbc
00000020: 46e4 a03a 46fb 053d 0009 69be 0d46 493e
00000030: 15b5 963d c284 e73c 296a 863d 61c4 29bd
00000040: 50eb b7bd 2bfc 0e3e 503d 04be f363 6cbc
00000050: 799b 8d3d eaf0 f13d febb 423d 8be6 91be
00000060: 0924 febd 7c91 af3d 3883 9b3d 8200 ba3d
00000070: f8e8 a8bd e647 523e 5fe3 843e c46d 1b3e
00000080: fadf 833d c991 273e 31cb bbbc 6b6c 3d3e
00000090: 5567 253e bef6 b3bd 6b63 8bbd aa29 69be
000000a0: d406 3bbe 2664 ab3e f730 81be 4472 863d
000000b0: c44b c43c 4021 dd3c a1eb 40be 0eac 4d3e
000000c0: b94a 9c3d 82ef 32bd 0daf 1dbe 69cd 4abe
000000d0: bec9 56be 4bb8 323e 7969 4dbd c6b0 7ebe
000000e0: 84e1 1fbe fecb 0ebe aa79 ac3d 7efa 10bd
000000f0: 05aa aabd b781 093e 9c06 943e 5aa9 413c
00000100: 618e a33d f895 dabd 6dcc 31bd 5046 04be
00000110: 5315 b73d 7576 f23d d174 8fbc 7533 ed3c
00000120: 01ff 5fbe 12ab 903d 7c62 28be 404f 963d
00000130: 755b a53d bf1f cdbd 289e 5abe 550a 4cbd
00000140: a963 01bc e962 ebbc 988c ce3d 17dc 0abe
00000150: bc5d d23d ce71 413e c5f5 e3bd a487 813d
00000160: 35c4 08be 2326 55be f45b bebd be2a df3c
00000170: edc5 cc3d c157 a13d 32d3 e4bd ecdd 76bc
00000180: 5e29 763e 728f 2c3e fa63 55be 7183 8e3d
00000190: 58f5 443c d6ac 40bd d5f0 5a3e d121 83be
000001a0: c79f 29be 2c8b 153d d78f 04bc 65d1 0b3e
000001b0: ca72 47bd 909e 043e be9f 85be 0e9b 543d
000001c0: bc59 a5ba 80f7 50bd e540 183c 2707 f7bd
000001d0: 02d0 9c3a 5c6c 8e3c 4e6f c23b 9025 49bd
000001e0: b1da af3d 415d 49be 0826 2bbe 152b 4abc
000001f0: 1643 c33d 870d 2d3e 8cd7 973d 9599 613e
00000200: 4b7c f63d 360b 24bd 72b0 5f3d 91d6 283e
00000210: 512f 9dbd c170 cfbd 8d4e a43d f66a 80be
00000220: 380c 873d 2472 543e 3089 05bd e8b9 c6bb
00000230: 6b57 3bbe 7369 2f3d c7b3 5e3c 92dc 333d
00000240: fa7f 163e 9b8a 87bc 4f21 d3bd 68c2 61bd
00000250: 10d4 02bd 0ea0 583c 1c3c 9f3b d309 60be
00000260: 6dfc 91bd 5548 06bd c485 983d 2158 52bd
00000270: c214 3f3d b573 ff3c 6023 403e ec4d 793d
00000280: 15b0 ed3d f5cc 233d 4fe9 243e 7d67 723e
00000290: abfe 92bc 4a91 80bd 341d 093e 0461 fbbc
000002a0: 4eee bd3d 2660 a73d ee3e bbbd 74fa 473e
000002b0: b32b 5d3c 2363 09be 5a0e 8abd 909d 353e
000002c0: 819f 2cbd 097d 00bc 49a3 503d 3e57 21be
000002d0: 534b 0e3b 8f0b 54bd 1fc2 ca3d 34f9 c63b
000002e0: bd1d 803d e19e b13d 3542 61be 2d80 ee3d
000002f0: 4be5 7b3d c23d 80bd 1963 283e 6c89 093b
00000300: 0d0d ec3d eaa8 6b3d 2213 3e3a 6036 8e3d
00000310: 070f 06bd 06f5 55be a354 e53d 144f 99be
00000320: 0d0a fbbc 61e9 4fbd 0c1c 28be 7c7d 133e
00000330: 77ad 0fbc 9df9 0abe aea3 73be 7ae4 aabd
00000340: ce21 aa3c 4633 e53d 8e9f 78bd 2d08 1d3d
00000350: 8fa6 cd3b 125a 003e 207b b6bd ac67 bdbc
00000360: cd99 f53d c23b 583d 3304 9f3d 93a4 58bb
00000370: 17ee 4ebb d2c6 453e 7fe6 d63d 4ec5 9fba
00000380: d3c2 bebb 0530 e53d 26eb ab3d 911c 5bbd
00000390: 3424 00be 0e59 d73d c528 493e 59d5 a03d
000003a0: cebd bfbd 6733 203e 56a1 3fbe cf95 61bd
000003b0: 475c 4ebd c9a5 9f3d 8867 c1bd 0057 18be
000003c0: fab8 16be fb01 34bc 49ed e5bd f7db 183d
000003d0: 2f8d 98bd dbde de3c 53a1 8cbd 8339 86be
000003e0: 7525 d63d b05e 8b3d 154d 7f3d 8995 a8bd
000003f0: 3b3a 0c3d 9b46 babc 747e 4f3d db2d 0d3e
0.21386524 0.14959735 0.037666023 0.15913172 0.18324107 -0.15728575 0.017212465 -0.012399191
0.0012275062 0.032710336 -0.2275734 0.19655629 0.073587574 0.028261546 0.06563217 -0.041447047
-0.08980429 0.13963382 -0.12914014 -0.014428127 0.0691442 0.11813529 0.047542565 -0.28496203
-0.12409217 0.08572671 0.07593387 0.09082128 -0.0824756 0.2053524 0.2595472 0.15178591
0.064392045 0.16364206 -0.022924038 0.1849839 0.161527 -0.08787297 -0.06806072 -0.227698
-0.18264323 0.33474845 -0.2523267 0.06564763 0.02396191 0.026993394 -0.18839885 0.20085165
0.0763144 -0.043685444 -0.15398808 -0.1980492 -0.20975396 0.17453115 -0.050149415 -0.24872121
-0.15613371 -0.13945004 0.08421643 -0.035395138 -0.0833321 0.13428389 0.28911293 0.011820162
0.07986141 -0.106731355 -0.043407846 -0.12917447 0.08939614 0.11839 -0.017511757 0.0289552
-0.2187462 0.07063879 -0.16443819 0.073393345 0.08074085 -0.10015821 -0.21349394 -0.04981454
-0.007897296 -0.028733687 0.1008541 -0.1356052 0.10271785 0.1889107 -0.11130861 0.063246995
-0.13356097 -0.20815329 -0.092948824 0.02724206 0.09998689 0.07878066 -0.11173095 -0.015067559
0.24039218 0.16851595 -0.2083892 0.06958664 0.012021385 -0.04703983 0.21380933 -0.25611737
-0.16564856 0.036509678 -0.008090935 0.13654096 -0.048693456 0.12951112 -0.26098436 0.051905684
-0.0012615244 -0.051017284 0.009292816 -0.12061911 0.0011963847 0.017385654 0.0059336787 -0.049108088
0.08586634 -0.1966448 -0.16713727 -0.012339373 0.0953428 0.16899692 0.07414159 0.22031243
0.12035426 -0.040049754 0.05461163 0.164881 -0.076750405 -0.10128928 0.08022795 -0.25081605
0.065941274 0.20746666 -0.032601535 -0.006064642 -0.18295066 0.042825174 0.013592667 0.043911524
0.14697257 -0.016545584 -0.103090875 -0.05511704 -0.03194052 0.013221754 0.0048594605 -0.21878748
-0.071282245 -0.032783825 0.07447389 -0.051353578 0.046650656 0.031183103 0.18763494 0.060865328
0.116058506 0.039990384 0.16104625 0.2367229 -0.0179437 -0.06277712 0.13390046 -0.03068591
0.09273969 0.08172636 -0.09142862 0.19529134 0.013499188 -0.13416724 -0.067410186 0.17735887
-0.042144302 -0.007842311 0.05093697 -0.15755937 0.0021712377 -0.051768836 0.09900307 0.006072188
0.06255672 0.08672882 -0.21997912 0.11645541 0.061497968 -0.06261779 0.16444053 0.002098645
0.11525927 0.057534136 0.0007250776 0.06943965 -0.032729175 -0.2089425 0.11197784 -0.29943144
-0.030644441 -0.050759677 -0.16416949 0.14403337 -0.008769385 -0.13571782 -0.23792908 -0.0834436
0.020768072 0.1119142 -0.06069904 0.038337875 0.006275959 0.12534359 -0.08910203 -0.023120724
0.11992226 0.052791364 0.07764473 -0.0033057078 -0.0031575018 0.19314125 0.104931824 -0.0012189539
-0.0058215647 0.111907996 0.083944604 -0.05349404 -0.1251381 0.10515033 0.19644459 0.07853193
-0.09362374 0.15644608 -0.18713889 -0.05507451 -0.05038097 0.07795293 -0.09443575 -0.14876938
-0.14719 -0.0109868 -0.11226899 0.03731915 -0.07448804 0.027205875 -0.06866708 -0.26215753
0.10456363 0.068051696 0.06232937 -0.082316466 0.03423522 -0.022738745 0.050657704 0.13787024

gru.bias_ih_l0_reverse f4 [96]
00000000: 56ff 963d 8d5e 323e ac57 433e e6e7 183e
00000010: e5ce 953d 0b02 eabd 77a7 11bd 2f91 80bd
00000020: 384a e5bd 9c79 663e 02ba 213d badf 143e
00000030: 87ee 6b3d 3bfa 37bb 7bb3 fe3b 06e7 853d
00000040: d879 a73d 8ac1 993d 383a 483e 336d a5bd
00000050: f9f6 de3c fa93 483e 8faf 09bd 7b05 343e
00000060: 55c1 963d 1328 e8bd 50c3 f23d b1ed 94bb
00000070: 19f1 393d 5e7a debd b108 25bd 5923 693e
00000080: 61e2 b4bd f23c 513e 9f13 1b3d 53c8 cd3d
00000090: 4de6 7e3e 771c 80bd ace4 473e 0a00 f33d
000000a0: 56fe 4cbd 8973 6a3e 0324 0d3d 488a a0bc
000000b0: 3cc0 9a3e f46d d63d 2cd1 443e 9860 fabc
000000c0: 294b 5f3c 13a4 023e 8b89 fabc 39b2 13bd
000000d0: f5e3 853e dc7d e93d 24d0 16bc 6e11 713e
000000e0: 2e67 ea3d 351f fabc 397b 193d a13e adbd
000000f0: b8b4 103e 67ba 943e 1217 073e 1f01 b33e
00000100: 11a0 743e 3732 2c3e 4587 88bd d3dd 3e3e
00000110: 040b f73d 1199 a9bd a5ea 273e 832a 5b3b
00000120: ed4e 28be 5b92 123e 3826 39be 2b2d b03d
00000130: 35ee a4bd a68b 81bd 0834 cdbd d6df 003e
00000140: 947a aa3d 8823 023e 721a e6bd d1b2 27be
00000150: 07dc dabc eeb1 4b3d 9431 5ebe a7c7 35be
00000160: fde7 173d 48c9 3fbe 4beb cb3d c713 29be
00000170: 5bac 003e 4714 ee3d c35d 573d 8053 d43d
0.0737292 0.17418881 0.19076413 0.14932212 0.073148526 -0.11426171 -0.035560098 -0.062776916
-0.11195797 0.22507328 0.03948403 0.1453847 0.057600524 -0.0028072733 0.0077728606 0.06538205
0.08177537 0.07507618 0.19553459 -0.08077469 0.027217375 0.19587699 -0.03361469 0.17580216
0.07361094 -0.113357686 0.11853659 -0.0045449366 0.045395944 -0.108631834 -0.040291492 0.2276739
-0.08832241 0.20433405 0.03786051 0.100479744 0.2489254 -0.06255429 0.19520825 0.11865242
-0.05004724 0.22895636 0.03445817 -0.019597188 0.30224788 0.10470191 0.19220418 -0.030563638
0.013628759 0.12757902 -0.030583164 -0.03605864 0.2615048 0.11400959 -0.009204898 0.23541805
0.11445461 -0.030532459 0.03747103 -0.08459211 0.14131439 0.29048464 0.13192394 0.34961793
0.23889185 0.1681603 -0.066664256 0.18639307 0.12062648 -0.08281148 0.16398104 0.0033442087
-0.16436358 0.14313643 -0.18080986 0.08602365 -0.08053247 -0.06325464 -0.1001969 0.12585387
0.08324161 0.12708867 -0.11235513 -0.16376807 -0.026716245 0.049730234 -0.216986 -0.17751943
0.037086476 -0.18729126 0.09956988 -0.1651145 0.12565748 0.11624961 0.052579653 0.10367489

gru.bias_hh_l0_reverse f4 [96]
00000000: a942 5d3e 0b27 ec3d fd69 4e3c a42f d83d
00000010: 0f3f 273d 6e29 f13b eb49 243e 3754 71bd
00000020: cde7 a7bc af06 223d 628c 1e3d a6ba 053d
00000030: dbb7 273e 598b 4e3d 69b6 f9bc e86e 213e
00000040: c070 293e 717a bb3c b1d8 9b3c 4464 803e
00000050: 46df e23c 3d1a e5bb 5acc ac3d 4930 55bd
00000060: 723a 343d d9bb 0a3e 655c afbc b6a8 2b3d
00000070: 9b4a 4e3c 9a06 173e b839 90bc 9e72 673e
00000080: ce1a bcbd 4d40 acbd 92b1 8c3e 74f0 7d3e
00000090: f20a 553c 5f2d d5bd 0c84 6c3d 1b49 0d3e
000000a0: f548 4abe a0e5 f23d 9b09 98bd 19ec 28be
000000b0: c640 e03c 1215 023e f92f 1f3d 0eb2 db3d
000000c0: 2306 293e c190 fe3d 4ed3 b83b 0ffa 853e
000000d0: 0b46 783e 9b48 b03d d598 3a3e 54af 06bd
000000e0: 8829 b1bd 37c7 10be 2183 973d cb69 87bd
000000f0: 4979 243d ad12 9a3e 3c4f 093e 42d5 7a3e
00000100: 301b 94bd 0073 b63d c553 013d b463 0a3c
00000110: caa2 0f3e 75c5 39be 9fdc 2bbd a6c6 5abd
00000120: 86c9 cfbd aeb3 08be dcc6 8fbb b394 4ebd
00000130: 156d 6e3c 7a91 1b3e b213 98bd 187b a3bc
00000140: 2698 2fbc 97f1 18be 9fdc e0bc b377 4dbe
00000150: 4ff4 3abe e21c 00be 2d8f 06bd 4484 9d3d
00000160: 9c3b 8b3d feb5 643d f925 56bd 03a1 b23b
00000170: 0204 c93d bd5a dc3d 3a74 1c3e c956 99bc
0.2160746 0.11530884 0.012598512 0.10555962 0.04083162 0.007359675 0.16043822 -0.058918204
-0.020496273 0.039557155 0.0387081 0.032648705 0.16378729 0.05042586 -0.030482488 0.15764964
0.16546917 0.022885533 0.019024225 0.25076497 0.027694356 -0.0069916532 0.084374145 -0.052048
0.04400105 0.1354822 -0.021406362 0.041908942 0.0125910295 0.14748612 -0.017605647 0.22602317
-0.091848 -0.08410702 0.27479225 0.24798757 0.013003098 -0.104090445 0.057743117 0.13797419
-0.19754393 0.11860204 -0.07423707 -0.16496314 0.027374636 0.1270335 0.03886411 0.107273206
0.16506247 0.12429953 0.005640424 0.26167342 0.2424547 0.086075984 0.18222363 -0.03288205
-0.086504996 -0.14138494 0.07398058 -0.06611975 0.04015473 0.30092373 0.13409132 0.24495414
-0.07231748 0.08908653 0.03157403 0.008446623 0.14026943 -0.1814173 -0.041958448 -0.053412102
-0.101458594 -0.13349792 -0.0043877196 -0.05043478 0.014552374 0.15192214 -0.074256316 -0.019956157
-0.010717427 -0.14935909 -0.02744895 -0.20065193 -0.18257259 -0.12511018 -0.032851387 0.07691243
0.06798479 0.055837624 -0.052282307 0.005451323 0.098152176 0.107594945 0.15278712 -0.01871814
