logs/exp0/weights/epoch10.pt (torch, 348934 bytes, 45 tensors)

conv_block1.0.weight f4 [32, 4, 10]
0	0x3d92a84b	0.071610056
1	0xbdf644f8	-0.120248735
2	0x3df5627b	0.11981674
3	0x3c7cfa58	0.015440546
4	0x3d4128e5	0.04715814
5	0x3de7570c	0.112959
6	0x3b8cb596	0.0042941077
7	0xbdb8242b	-0.089912735
8	0x3e07df8e	0.13268873
9	0xbd9c5825	-0.07634
10	0x3db1c612	0.08680357
11	0xbd315843	-0.043297064
12	0x3d36ba35	0.044611175
13	0x3d9c9ede	0.07647489
14	0xbcdb192c	-0.026745401
15	0x3e031962	0.12802652
16	0x3da6e282	0.08148672
17	0x3d32c52c	0.04364507
18	0x3c112ba3	0.008860501
19	0xbd27585e	-0.040855758
20	0xbe026660	-0.12734365
21	0x3d8de25f	0.069279425
22	0x3d6820eb	0.056672018
23	0xbcba9bca	-0.022779364
24	0x3cf14950	0.029453903
25	0xbd98e427	-0.074653916
26	0x3d70aa7c	0.058756337
27	0x3dab58d8	0.08366555
28	0xbe1204ac	-0.14259595
29	0xbcc40251	-0.023926886
30	0xbe038ad5	-0.12845929
31	0x3ddd85dc	0.10816547
32	0x3d4da5b0	0.05020684
33	0xbc748fc2	-0.014926853
34	0xbd19e5ce	-0.037572674
35	0xbd969716	-0.07353036
36	0xbd39f356	-0.04539808
37	0x3d912ab0	0.0708822
38	0xbc2ddb24	-0.010611329
39	0x3d54d09b	0.051956754
40	0xbb1e7046	-0.0024175807
41	0xbd89bae7	-0.06725102
42	0x3d084a6c	0.0332741
43	0xbdcb85d1	-0.09937633
44	0x3d0beb04	0.034159675
45	0x3e1f27ea	0.1554257
46	0xbd6625fd	-0.056188572
47	0x3b28feef	0.0025786718
48	0x3e0990e2	0.13434175
49	0xbcf164c7	-0.029467
50	0x3dc533e9	0.09629042
51	0x3db7aa33	0.0896801
52	0xbde2666c	-0.11054692
53	0x3debd18c	0.11514577
54	0xbded8a62	-0.1159866
55	0x3cacc265	0.021088788
56	0xbd023cb2	-0.031796165
57	0xbce15147	-0.027504576
58	0x3be83c7e	0.0070872894
59	0x3d130a8b	0.035898726
60	0xbdeb2769	-0.11482126
61	0xbca41688	-0.020030275
62	0xbd1e51cf	-0.038652238
63	0xbd0ff915	-0.035149653
64	0xbd97c525	-0.07410649
65	0xbba56967	-0.0050479653
66	0xbd7daf32	-0.061934657
67	0x3db1345b	0.08652564
68	0xbde445ad	-0.11146102
69	0x3d2d2955	0.042275745
70	0x3df64b67	0.120261006
71	0x3dd56df2	0.10421361
72	0x3d6683a4	0.056277886
73	0xbd3b4852	-0.045723267
74	0xbc389636	-0.011266282
75	0x3bbe7e96	0.00581343
76	0xbd6a071c	-0.057135686
77	0x3d0178be	0.03160929
78	0xbd86a353	-0.065741204
79	0x3dd7a939	0.105303235
80	0x3d7d7504	0.061879173
81	0xbdd6c08c	-0.10485944
82	0xbdcfb236	-0.10141413
83	0xbdaa35d8	-0.08311051
84	0x3e0e0d7b	0.1387233
85	0xbd8c4ac7	-0.068502
86	0xbd75042e	-0.05981844
87	0x3df70bc9	0.12062795
88	0xbdf38746	-0.11891036
89	0xbc20c3b9	-0.009812289
90	0x3d51b39a	0.051196672
91	0x3d4459cd	0.047937203
92	0x3c4bbc66	0.012435054
93	0x3daf8ac3	0.085713886
94	0xbc5d1747	-0.013494319
95	0x3dbc738f	0.092017286
96	0x3e2610bc	0.16217321
97	0x3e069ca2	0.13145688
98	0x3e1c8b00	0.152874
99	0xbd1d408a	-0.038391627
100	0x3da377f8	0.079818666
101	0xbde54ecc	-0.1119667
102	0x3d836774	0.064162165
103	0xbe00068c	-0.12502497
104	0x3c90d115	0.017677823
105	0x3dcbdf12	0.09954657
106	0x3dfdbba4	0.12389305
107	0xbd5fab9c	-0.05460702
108	0x3d1aa0be	0.037750952
109	0xbd1c35ae	-0.03813713
110	0xbdd6a654	-0.10480943
111	0xbdf55e4e	-0.11980878
112	0x3dcae4bc	0.09906909
113	0x3d3ca7ec	0.04605858
114	0xbca259c3	-0.019818192
115	0xbdcefaab	-0.10106405
116	0x3d6f6c82	0.05845309
117	0x3d06ba44	0.03289248
118	0xbcfd7b61	-0.03094262
119	0x3cb6d0b9	0.022316324
120	0x3d9c3526	0.07627325
121	0xbd9bb2ec	-0.07602486
122	0xbcd88090	-0.02642849
123	0xbc7a7627	-0.015286959
124	0xbc4cb1bf	-0.01249355
125	0x3d930a8a	0.071797445
126	0xbd87ac88	-0.066247046
127	0xbdd6b8d8	-0.10484475
128	0x3dbbe10d	0.091737844
129	0x3d5ce581	0.05392981
130	0xbcdb35b4	-0.026759006
131	0xbdd9e1c2	-0.10638763
132	0xbe0665e6	-0.13124809
133	0xbe1552c0	-0.14582348
134	0xbdc4fd0a	-0.09618576
135	0xbd9e11fd	-0.07718275
136	0x3da50435	0.08057443
137	0xbd14fa19	-0.036371324
138	0xbda31d64	-0.0796459
139	0x3d9543cd	0.072883226
140	0xbc63d8a0	-0.013906628
141	0xbc450160	-0.012024254
142	0x3d287742	0.041129358
143	0x3e10c651	0.14138152
144	0xbdb3ccd4	-0.08779302
145	0x3dd55152	0.10415901
146	0x3e169b3e	0.14707658
147	0xbd58159c	-0.052754983
148	0x3df3d238	0.119053304
149	0x3c8c32f6	0.017114144
150	0x3d02a767	0.03189793
151	0x3d487bff	0.048946377
152	0x3db575fb	0.088603936
153	0x3cebe630	0.028796285
154	0xbd2bffc6	-0.04199197
155	0x3d706426	0.05868926
156	0x3d9678d3	0.07347264
157	0x3d9d05e1	0.07667137
158	0x3d85db8d	0.065360166
159	0x3db975f7	0.09055703
160	0xbcf7b9a4	-0.030239888
161	0x3b053049	0.002032297
162	0x3c323091	0.010875837
163	0xbcda8be9	-0.026678042
164	0x3c2b7b8b	0.010466467
165	0x3dc6f118	0.09713954
166	0xbd851d72	-0.06499757
167	0x39c2cdfe	0.0003715604
168	0x3d1f5cfa	0.03890703
169	0xbc360b1a	-0.011111045
170	0x3da3313f	0.07968377
171	0x3d8f6c30	0.07003057
172	0xbc7ce20e	-0.015434755
173	0x3de7b6f2	0.11314191
174	0x3c6946fe	0.014238117
175	0xbd8c00c9	-0.06836087
176	0xbb7bc6dd	-0.0038418092
177	0x3dfd5017	0.123687916
178	0xbde2c2c8	-0.11072308
179	0x3defb529	0.117044754
180	0xbdcf69cc	-0.10127601
181	0x3d6afbb9	0.057368968
182	0xbe42d0e9	-0.19025005
183	0x3d95835d	0.07300446
184	0xbd2aef99	-0.041732404
185	0x3d572f0f	0.052535113
186	0xbe253521	-0.16133548
187	0x3da204b9	0.07911057
188	0xbdd81b90	-0.10552132
189	0x3d83dd6e	0.06438719
190	0x3d7800e6	0.06054773
191	0xbc90add4	-0.017661013
192	0xbda424a6	-0.08014803
193	0xbd4a1854	-0.049339607
194	0xbdf27dba	-0.11840387
195	0x3c8f8a26	0.017521929
196	0x3dc4362d	0.09580646
197	0x3dba5d3d	0.09099815
198	0xbdf4de0e	-0.11956416
199	0x3da82e3e	0.08211945
200	0x3d8483c5	0.064704455
201	0x3da82b0c	0.082113355
202	0xbd55072d	-0.052008796
203	0xbd965db0	-0.07342088
204	0x3c193ca4	0.009352837
205	0xbdcba66c	-0.09943852
206	0x3e184cc7	0.14873038
207	0x3e18943d	0.14900298
208	0xbdbddb77	-0.09270375
209	0xbd8c9407	-0.068641715
210	0x3dde614b	0.10858401
211	0x3d490dfb	0.0490856
212	0xbddd97f4	-0.108199984
213	0x3da29d9a	0.07940216
214	0x3da0da70	0.07854164
215	0x3e0f35d4	0.13985378
216	0xbb7d17fa	-0.0038619027
217	0xbd4aa969	-0.04947797
218	0x3df8b6e6	0.1214426
219	0xbdaba18d	-0.08380423
220	0xbd2459ee	-0.040124826
221	0xbd72e225	-0.0592977
222	0x3da8788f	0.0822612
223	0xbdc06ad8	-0.09395379
224	0xbe102542	-0.14076713
225	0xbe01ace4	-0.12663609
226	0x3b613a68	0.0034367088
227	0xbe38d5f8	-0.18050373
228	0xbdd230bb	-0.10263201
229	0x3d1ab40c	0.037769362
230	0x3daf9aa2	0.08574416
231	0x3d684599	0.056707
232	0xbda73147	-0.08163696
233	0x3db02089	0.085999556
234	0x3db5f888	0.08885294
235	0x3cc58af5	0.024114111
236	0xbd7fa85b	-0.062416416
237	0x3dce64d1	0.10077823
238	0x3cf8802d	0.030334556
239	0x3d87b3da	0.06626101
240	0x3de117a5	0.10990838
241	0x3ccadfe2	0.024764959
242	0x3d1515d7	0.03639778
243	0x3d1929ca	0.03739337
244	0xbda455da	-0.080241874
245	0x3e1537a0	0.14572
246	0x3d4ff138	0.050767154
247	0x3da0ee8f	0.078580014
248	0x3df390d7	0.118928604
249	0x3daceaf2	0.0844325
250	0xbbe69a19	-0.007037413
251	0x3ce5b50b	0.02804043
252	0x3d48a590	0.048986018
253	0xbbb3b168	-0.005483795
254	0xbda9ef5b	-0.082976066
255	0xbdb49798	-0.08817977

conv_block2.0.weight f4 [32, 32, 10]
0	0xbbacfcb3	-0.0052791475
1	0xbd07952b	-0.033101242
2	0x3bf2e0c0	0.007412046
3	0xbd65c0cd	-0.056092072
4	0x3c3ee496	0.011651179
5	0xbbd178ec	-0.006392589
6	0xbb640dcd	-0.0034798265
7	0x3dd9a26d	0.106266834
8	0x3d95b0b1	0.07309092
9	0x3d9df0e4	0.07711962
10	0x3d81a6e2	0.063306585
11	0x3de4aa89	0.111653395
12	0x3df2a282	0.11847402
13	0xbba858be	-0.005137532
14	0x3c01be77	0.0079189455
15	0x3d80598c	0.0626708
16	0x3d3f9efc	0.04678248
17	0x3d74727e	0.0596795
18	0x3d2eb058	0.042648643
19	0xbd608170	-0.05481094
20	0xbcdbc678	-0.026828036
21	0x3cbf5c26	0.02335937
22	0xbd558ca3	-0.052136075
23	0x3d0e195a	0.034692146
24	0xbc69fc18	-0.014281295
25	0x3d9e7a94	0.07738224
26	0x3d927050	0.07150328
27	0xbd2b3365	-0.04179706
28	0x3b9d86fa	0.00480735
29	0xbdb9337d	-0.09043024
30	0xbd8a2d6a	-0.06746943
31	0x3d5e419d	0.054261792
32	0x3b984822	0.004647271
33	0xbd6150ef	-0.055008825
34	0xbd2b50b0	-0.041824996
35	0x3dac661d	0.08417914
36	0xbd316893	-0.04331262
37	0xbda9058e	-0.082530126
38	0xbda621ce	-0.081119165
39	0x3cbb56cc	0.022868536
40	0x3cca9904	0.024731167
41	0x3c37e79d	0.0112246545
42	0x3de27ea6	0.110593125
43	0x3db22bb9	0.08699746
44	0xbd71448f	-0.058903273
45	0x3dcf583b	0.101242505
46	0xbcebac0b	-0.02876856
47	0x3d9f5f79	0.07781882
48	0xbca08d2d	-0.019598568
49	0x3d5b39e1	0.053521995
50	0xbcc23f00	-0.023711681
51	0x3c60c8b7	0.013719729
52	0x3a38e469	0.0007053079
53	0x3dcf6d84	0.1012831
54	0xbd8ed4b3	-0.06974163
55	0x3d406e7c	0.046980366
56	0xbd42259f	-0.04739916
57	0xbb03915e	-0.002007566
58	0x3dad3210	0.08456814
59	0x3dd60c63	0.10451581
60	0x39f6ce07	0.0004707428
61	0x3cb35905	0.021893034
62	0x3d1aa2e0	0.037752986
63	0x3dfd5ca3	0.12371185
64	0x3e06f519	0.13179435
65	0x3d07b0e9	0.0331277
66	0x3cd6e021	0.02622992
67	0x3de7bd4a	0.11315401
68	0xbbcdd8da	-0.0062819542
69	0x3c6c0231	0.014404819
70	0x3e0a2844	0.13491923
71	0xbc2ac106	-0.010421997
72	0xbcb99ae1	-0.02265686
73	0xbb91eeca	-0.0044535147
74	0xbcb7b021	-0.022422852
75	0x3d88532f	0.06656491
76	0x3d26166b	0.040548723
77	0x3d97c574	0.07410708
78	0x3dcec24b	0.10095652
79	0x3df57053	0.11984315
80	0x3b48f413	0.0030663058
81	0x3d79b239	0.060960982
82	0x3d0e17e4	0.034690753
83	0xbca93f33	-0.020660019
84	0x3d0c47f7	0.03424832
85	0xbd8cf473	-0.068825625
86	0xbd406e1f	-0.04698002
87	0xbc8111d6	-0.015755575
88	0x3a87b0c7	0.0010352366
89	0xbd5585a0	-0.052129388
90	0x3d1dc1f7	0.038515057
91	0x3ce16219	0.027512597
92	0x3d82fea4	0.06396225
93	0xbd79634f	-0.060885724
94	0xbde8efe6	-0.11373882
95	0xbde85e5e	-0.11346124
96	0xbdcf102b	-0.10110506
97	0x3c90a5b1	0.017657133
98	0xbdd8f9cc	-0.1059452
99	0x3d32ddf6	0.04366871
100	0x3d34452e	0.044011287
101	0x3d6b2dc0	0.057416677
102	0x3dab1788	0.083540976
103	0xbd0f7380	-0.03502226
104	0x3dc6b25e	0.097019896
105	0xbd7a2d50	-0.06107837
106	0x3d37349d	0.04472791
107	0x3dd05718	0.10172862
108	0xbd563db9	-0.052304957
109	0x3db9f315	0.09079567
110	0x3d2ea95e	0.04264199
111	0xbd6acd6b	-0.057324808
112	0x3dde0aed	0.10841928
113	0x3dbc37d6	0.09190337
114	0x3dcc10d4	0.09964147
115	0x3d7fdfb2	0.06246919
116	0xbc8fae9c	-0.017539315
117	0x3dd03cd2	0.101678506
118	0xbd5631c6	-0.05229356
119	0xbcbdfb6b	-0.023191174
120	0xbda738ae	-0.08165108
121	0xbc8385c1	-0.01605499
122	0xbc75b3b4	-0.014996458
123	0x3d1d71dc	0.038438663
124	0xbdbb075d	-0.09132264
125	0xbdee4316	-0.116338894
126	0x3cc1662c	0.02360829
127	0x3d3b7f02	0.04577542
128	0xbc28a6fe	-0.01029372
129	0xbde68e62	-0.11257626
130	0xbdde7461	-0.10862041
131	0xbdc529d3	-0.09627118
132	0xbdc0c489	-0.09412486
133	0xbdccad77	-0.09994023
134	0xbe0b366a	-0.13594976
135	0xbd74495d	-0.059640277
136	0xbdb48bbc	-0.08815715
137	0x3c8b1e02	0.016982082
138	0xbd013c24	-0.031551495
139	0xbe0264be	-0.12733743
140	0x3d4594c8	0.048237592
141	0x3ce7c2b3	0.028291082
142	0x3daa626f	0.08319556
143	0x3deb4f9d	0.114897944
144	0x3daf0557	0.0854594
145	0x3d2b44c0	0.041813612
146	0xbd7c70c0	-0.061630964
147	0x3d8568bf	0.06514119
148	0xbc9459a2	-0.018109147
149	0x3dc72488	0.09723765
150	0x3d8a9117	0.06765955
151	0x3d8e27cc	0.069411844
152	0xbda3d312	-0.07999243
153	0x3c8bdb54	0.017072357
154	0x3d27ccff	0.040966984
155	0x3d4fd3bf	0.050739046
156	0xbd68689b	-0.056740385
157	0x3ae4e058	0.0017461879
158	0x3db962b1	0.09052027
159	0x3c83d4d1	0.01609269
160	0x3d87ebe8	0.066367924
161	0xbd8b57ef	-0.068038814
162	0xbd6b8048	-0.057495385
163	0xbb0616dc	-0.0020460403
164	0x3de1174a	0.1099077
165	0x3d317155	0.043320972
166	0x3d76c27f	0.06024408
167	0xbd7b16ee	-0.061301164
168	0x3d4cfea6	0.05004754
169	0xbd3ec075	-0.04657026
170	0xbd133aaf	-0.035944637
171	0x3ddd57fb	0.108077966
172	0x3debc30b	0.11511811
173	0x3d33b0b1	0.043869678
174	0xbd77534e	-0.06038218
175	0x3df3f4ab	0.11911901
176	0xbc867d56	-0.016417187
177	0xba15d362	-0.00057153974
178	0x3d4ae6e1	0.04953659
179	0xbd13f2c4	-0.03612019
180	0x3bfd5bc5	0.007731887
181	0x3cdd3b78	0.027005896
182	0xbd9426c2	-0.07233955
183	0x3d9b1c11	0.075737126
184	0x3d5f1c04	0.054470077
185	0xbd724731	-0.059149925
186	0x3c03393e	0.008009253
187	0xbd864138	-0.06555408
188	0x3c1741db	0.00923201
189	0xbca03e05	-0.019560823
190	0xbcf56e26	-0.02995975
191	0x3dccd36a	0.100012615
192	0xbd35b949	-0.044366155
193	0x3b970caf	0.0046096663
194	0xbd64088e	-0.05567222
195	0xbcc573a9	-0.024103003
196	0x3d238b38	0.03992769
197	0x3dcffe53	0.1015593
198	0xbbb256cd	-0.0054424764
199	0xbbbb0261	-0.0057070707
200	0xbd12a62d	-0.03580301
201	0xbca753ee	-0.020425763
202	0x3c4e28d8	0.01258298
203	0xbd21f8d0	-0.039543927
204	0xbd0a1530	-0.033711612
205	0xbd6028b8	-0.054726332
206	0xbd2bde1c	-0.041959867
207	0x3d62f935	0.055413444
208	0xbb8410c3	-0.0040303185
209	0xbc9de8ac	-0.019275986
210	0xbcac1d0d	-0.021009946
211	0x3dafe625	0.085888185
212	0xbcef7d98	-0.029234692
213	0xbd0ec7da	-0.034858562
214	0xbd22adb7	-0.03971645
215	0xbd1d27e1	-0.03836811
216	0xbc648291	-0.013947145
217	0x3df1ec83	0.11812689
218	0x3cc58ec3	0.024115926
219	0xbd6cd850	-0.05782348
220	0x3ca8ca10	0.020604163
221	0x3d0c2baa	0.03422133
222	0x3d291752	0.041282006
223	0x3df4da72	0.11955728
224	0xbd22803f	-0.039673086
225	0xbd541f9c	-0.051787958
226	0x3dc59821	0.09648157
227	0x3d22a68c	0.039709613
228	0x3e0a064b	0.13478963
229	0x3d0c5c53	0.034267735
230	0xbc08913d	-0.008335409
231	0x3d51e32d	0.051242042
232	0x3d648db4	0.0557992
233	0x3dd1bf9d	0.102416255
234	0xbc2d67fb	-0.010583873
235	0xbca50b61	-0.020147027
236	0x3df72ce8	0.12069112
237	0x3de8c8c9	0.11366422
238	0x3dd46f0e	0.103727445
239	0x3cb13c9b	0.021635344
240	0x3cf249fc	0.029576294
241	0x3dbfe1d2	0.09369244
242	0xbd81ab1f	-0.06331467
243	0xbd19e640	-0.0375731
244	0xbcf55391	-0.029947074
245	0x3d81c160	0.063357115
246	0xbda519f5	-0.080615915
247	0xbc3617ac	-0.011114042
248	0x3da3e419	0.080024906
249	0xbc09eba3	-0.008417997
250	0xbd2140d4	-0.039368466
251	0xbdd868ff	-0.105669014
252	0xbbf8cbb1	-0.0075926413
253	0xbdd42cab	-0.10360082
254	0xbdc5ce01	-0.09658433
255	0x3d626387	0.055270698

gru.weight_ih_l0 f4 [96, 32]
0	0x3c169e30	0.009192988
1	0x3e0cad03	0.13737874
2	0x3d13b8ef	0.03606504
3	0x3e4b0767	0.19827043
4	0xbd08a5b9	-0.03336117
5	0xbe0d37e3	-0.1379085
6	0x3e672cc7	0.22575675
7	0xbc5290e2	-0.012851926
8	0x3d28c301	0.041201595
9	0x3d88d9e2	0.06682183
10	0x3d94e3db	0.072700225
11	0x3dd1dd80	0.10247326
12	0xbd1371d9	-0.035997245
13	0x3e38f8e6	0.18063697
14	0x3ba356d8	0.004984718
15	0x3e0107bc	0.12600607
16	0x3cc82580	0.024431944
17	0x3e82d723	0.2555476
18	0xbd3f0226	-0.04663291
19	0x3b1d4740	0.0023998767
20	0x3d7b8198	0.061402887
21	0x3e634741	0.2219515
22	0xbe0147df	-0.12625073
23	0x3e1c3c4a	0.15257373
24	0x3cdd913c	0.027046792
25	0x3e3e8fb7	0.1860951
26	0x3e51cde3	0.20488696
27	0x3d96b215	0.07358185
28	0xbbe406df	-0.006958827
29	0x3dc58641	0.096447475
30	0x3d632f5b	0.055465084
31	0x3dafaf7d	0.085783936
32	0x3e3630c7	0.17792045
33	0xbc2df44f	-0.01061733
34	0x3ce7736d	0.028253281
35	0xbdcbc71b	-0.09950086
36	0x3e295ac4	0.1653853
37	0xbd5e2339	-0.05423281
38	0x3e2bac98	0.16765058
39	0xbc5bb312	-0.013409393
40	0xbccb9aeb	-0.024854144
41	0xbdf54e7e	-0.11977862
42	0xbe48454c	-0.19557685
43	0xbe28b499	-0.16475143
44	0xbe26cfa7	-0.1629015
45	0x3dbae733	0.09126129
46	0x3d03941a	0.032123663
47	0xbe141abb	-0.14463322
48	0x3e26f379	0.16303815
49	0x3dce75d4	0.10081068
50	0x3e1fc35e	0.1560187
51	0x3c67bf4e	0.014144732
52	0xbd1962ab	-0.037447613
53	0xbcc20324	-0.023683138
54	0x3d56f14a	0.052476205
55	0x3e0f3778	0.13986003
56	0x3d7ed2cc	0.06221275
57	0x3dc0ddb4	0.094172865
58	0xbd1992f2	-0.037493654
59	0x3e0a24ec	0.13490647
60	0xbdbb579f	-0.09147572
61	0x3de7bb94	0.113150746
62	0xbd7171b2	-0.05894632
63	0x3da51667	0.080609135
64	0x3c1080c9	0.008819767
65	0x3dec7072	0.11544885
66	0x3cd3029e	0.025758084
67	0xbc3e26a0	-0.011605889
68	0x3bac5116	0.0052586896
69	0xbd32cd4c	-0.043652818
70	0x3cb12360	0.021623313
71	0x3e3a877e	0.18215749
72	0xbd81a797	-0.06330793
73	0x3e31d1af	0.17365144
74	0x3de95132	0.1139244
75	0x3d6694a7	0.05629411
76	0x3c920b8f	0.017827777
77	0xbc58ecab	-0.01324002
78	0x3da59051	0.08084167
79	0x3a7083f8	0.00091749383
80	0x3e007891	0.12545992
81	0xbd97876f	-0.07398879
82	0x3dec01bd	0.11523769
83	0xbe36aff2	-0.17840555
84	0xbdf1c18d	-0.11804495
85	0xbcf96c35	-0.030447105
86	0xbc568d39	-0.013095194
87	0xbcec6f34	-0.02886162
88	0x3e4b0d85	0.19829376
89	0xbdb168fe	-0.08662604
90	0xbe29eb0c	-0.1659357
91	0x390f0f54	0.00013643253
92	0x3dd84e9f	0.10561871
93	0xbca06e5d	-0.019583875
94	0xbe3ef224	-0.18647057
95	0x3e5c350f	0.21504615
96	0xbd956d5a	-0.07296248
97	0xbd6bfe2d	-0.057615448
98	0xbdb350af	-0.087556235
99	0x3d2da2bb	0.04239152
100	0xbdb349f6	-0.08754341
101	0xbe139051	-0.14410521
102	0x3d51f869	0.051262293
103	0xbe10d47f	-0.14143561
104	0x3db8ff51	0.09033073
105	0x3dc01c9d	0.093804576
106	0xbd2b29c6	-0.041787885
107	0xbddbf9b5	-0.10740987
108	0xbe30bc1d	-0.1725926
109	0x3dc3bea0	0.09557843
110	0xbd529a73	-0.051416826
111	0x3de4a6dd	0.11164639
112	0x3df31bb7	0.118705206
113	0xbd9804f4	-0.0742282
114	0xbe165e49	-0.14684404
115	0x3e16f465	0.14741667
116	0xbe332a13	-0.17496519
117	0x3e08b459	0.13350047
118	0xbe3e3f00	-0.1857872
119	0xbd5af2bf	-0.053454157
120	0xbdc4a091	-0.09600938
121	0xbe2dcbca	-0.1697227
122	0xbdf585c2	-0.11988403
123	0x3e0113ea	0.12605253
124	0xbdede699	-0.11616249
125	0x3e10a543	0.14125542
126	0x3da3f623	0.08005931
127	0x3d8028d7	0.062577896
128	0xbe279881	-0.1636677
129	0xbda9e33b	-0.08295294
130	0x3d3602cd	0.044436265
131	0xbca36daf	-0.019949762
132	0xbe195ef2	-0.14977625
133	0xbe155a8f	-0.14585327
134	0x3d487450	0.04893905
135	0xbd314f56	-0.04328855
136	0xbda24e53	-0.079250954
137	0xbe349de7	-0.1763836
138	0x3c9ea61d	0.019366318
139	0x3a87945c	0.0010343897
140	0x3cb5d227	0.022194935
141	0x3ddce8b0	0.10786569
142	0x3c57a436	0.0131617095
143	0xbd9fe0b3	-0.0780653
144	0xbd3a9ac7	-0.045557763
145	0x3d1ffd05	0.039059658
146	0x3d4815be	0.04884886
147	0x3de47ef2	0.111570254
148	0xbd1b7793	-0.03795583
149	0x3dd783d2	0.105231896
150	0xbdbca79c	-0.092116565
151	0x3d535608	0.051595718
152	0x3cae8132	0.02130184
153	0x3e00014c	0.12500495
154	0x3e0cc767	0.13747941
155	0xbe130de5	-0.14360769
156	0xbdd3928c	-0.10330686
157	0xbd0ded42	-0.034650095
158	0xbe406cad	-0.18791457
159	0x3d9d3c03	0.07677462
160	0xbc14676c	-0.009057861
161	0x3e7254b0	0.23665118
162	0xbd87005e	-0.06591867
163	0x3e2507d7	0.16116272
164	0xbd9c7bc8	-0.07640797
165	0x3d73cfd9	0.05952439
166	0x3dcf9fa0	0.10137868
167	0x3e034902	0.12820819
168	0x3dc9c969	0.09852869
169	0x3dfa3fc3	0.12219193
170	0x3e476df2	0.19475535
171	0x3e3cf157	0.18451439
172	0xbdaa2022	-0.0830691
173	0x3e011b96	0.1260818
174	0xbcf6123c	-0.030037992
175	0xbbed5e93	-0.00724394
176	0x3e736faa	0.23773065
177	0x3e54a055	0.20764287
178	0x3ca30542	0.019899968
179	0x3e4f1457	0.20222603
180	0x3e60ea07	0.21964274
181	0x3d276a1f	0.04087269
182	0xbe06df1a	-0.13171044
183	0x3e0f5730	0.13998103
184	0xbda64bdc	-0.08119938
185	0xbe02c31d	-0.12769742
186	0xbd664b42	-0.056224115
187	0x3e076156	0.13220724
188	0x3dd7cb56	0.1053683
189	0x3dada872	0.08479394
190	0xbda59c50	-0.08086455
191	0xbd24706f	-0.040146288
192	0xbd74b934	-0.059746936
193	0xbde2b333	-0.11069336
194	0xbe56252c	-0.20912617
195	0xbc330267	-0.010925866
196	0x3d897747	0.067122035
197	0x3d9c3708	0.07627684
198	0xbdd63407	-0.10459142
199	0xbd9fe894	-0.07808033
200	0xbe41c099	-0.18921126
201	0x3d5fbeaa	0.05462519
202	0xbd7a8fe4	-0.06117238
203	0xbd4baeec	-0.049727365
204	0x3bc367c2	0.0059632966
205	0x3d17161d	0.036886323
206	0x3da4aefe	0.080411896
207	0xbd6810be	-0.05665659
208	0x3c5b258b	0.01337565
209	0xbe57aff4	-0.21063215
210	0xbe043c2b	-0.12913577
211	0x3ddb2bf2	0.10701741
212	0xbe7a4e4e	-0.24443933
213	0xbd557094	-0.052109316
214	0x3cbc50fa	0.022987831
215	0xbe28586e	-0.16439983
216	0xbe77f982	-0.24216273
217	0x3dd9c474	0.106331736
218	0x3de6c747	0.11268478
219	0xbe0016db	-0.12508719
220	0xbdd6774f	-0.10471975
221	0xbdf1b370	-0.11801803
222	0xbd586e97	-0.05283984
223	0xbe6f0c63	-0.23344569
224	0x3cc4a4bc	0.024004333
225	0xbe11cc99	-0.14238204
226	0x3ceb9721	0.028758587
227	0xbde30b48	-0.11086136
228	0xbe387e71	-0.18016984
229	0xbe21f1f7	-0.15814959
230	0x3c415e2e	0.011802239
231	0x3de3a7dd	0.11116002
232	0xbd72c05a	-0.059265472
233	0x3e019233	0.12653427
234	0xbe066d22	-0.13127568
235	0x3be863b9	0.007091966
236	0xbd49880a	-0.049202003
237	0x3bf848dc	0.007577045
238	0xbe0c0dc8	-0.13677132
239	0x3db05d03	0.086114906
240	0x3da6c920	0.0814383
241	0xbdd4a4e5	-0.10383014
242	0x3e14f9df	0.14548443
243	0x3de8e8f8	0.1137256
244	0x3d049acd	0.032374192
245	0x3dc9e212	0.098575726
246	0x3d0f8eac	0.035048172
247	0x3e05bb38	0.130597
248	0xbe363d6c	-0.17796868
249	0x3d869426	0.06571226
250	0xbe203737	-0.15646063
251	0x3cd9747f	0.026544807
252	0x3e1dc439	0.15406884
253	0xbe19fbf8	-0.15037525
254	0x3cd38b22	0.02582318
255	0xbda83e99	-0.082150646

gru.weight_hh_l0 f4 [96, 32]
0	0xbdfdfa02	-0.12401201
1	0x3cc02802	0.023456577
2	0xbd7efd0f	-0.062253054
3	0xbe098346	-0.13428983
4	0x3e5c67f8	0.21524036
5	0xbcf56149	-0.029953616
6	0x3cc92468	0.024553493
7	0xbc8ac189	-0.016937988
8	0x3dc63c8f	0.096795194
9	0xbdcf0a43	-0.10109379
10	0xbd93e6de	-0.07221769
11	0x3d72d11f	0.059281465
12	0xbda29643	-0.079388164
13	0xbe560be5	-0.20902975
14	0xbd6433bf	-0.05571341
15	0x3db1611c	0.086611
16	0xbd00277f	-0.031287666
17	0x3e0da880	0.13833809
18	0x3ca56ff1	0.02019498
19	0x3d76c415	0.060245592
20	0xbe0b6a1a	-0.13614693
21	0x3daa5772	0.0831746
22	0xbd81073d	-0.06300209
23	0x3acedc51	0.0015782212
24	0xbdcf2608	-0.10114676
25	0x3cdd468e	0.027011182
26	0x3c903bb6	0.017606597
27	0xbe3ff89a	-0.18747178
28	0x3ccee147	0.025253905
29	0xbd6e76cb	-0.05821876
30	0x3c21cb1d	0.009875086
31	0xbe0371c1	-0.12836362
32	0x3dfbef41	0.123014934
33	0x3d5d4614	0.05402191
34	0xbdc28118	-0.09497279
35	0x3da98300	0.082769394
36	0x3e1b86b0	0.15188098
37	0x3d427f15	0.047484476
38	0x3e1ffe6d	0.156244
39	0x3e1adafc	0.15122598
40	0xbc4e418a	-0.012588868
41	0xbd6fe0db	-0.05856405
42	0x3d26729a	0.040636636
43	0x3d9c5756	0.076338455
44	0x3c715192	0.0147289205
45	0xbe146e54	-0.14495212
46	0x3da057cb	0.07829245
47	0xbe2fce75	-0.17168601
48	0x3d99c1e9	0.075076886
49	0xbd29960a	-0.041402854
50	0xbdc4a15c	-0.09601089
51	0x3e3a6b2a	0.18204942
52	0x3d84cdd0	0.06484568
53	0xbe1066dd	-0.14101739
54	0xbdab7a87	-0.083729796
55	0x3d8da69f	0.06916546
56	0xbd3c6339	-0.045993064
57	0xbd6fd742	-0.058554895
58	0xbd92b1a0	-0.071627855
59	0x3d5dbf24	0.054137364
60	0x3e2d2066	0.1690689
61	0x3c92f87a	0.017940748
62	0x3d2263e7	0.039646056
63	0x3db75485	0.08951668
64	0x3e0722ff	0.13196944
65	0x3e2ffe20	0.17186785
66	0xbd80a071	-0.06280602
67	0xbe00fd1e	-0.12596557
68	0x3acf9409	0.0015836965
69	0x3c2c780f	0.010526671
70	0xbcadd0ff	-0.021217821
71	0xbe3a7ca1	-0.18211605
72	0xbd014c8e	-0.03156715
73	0xbc529faf	-0.012855454
74	0xbd8b1086	-0.06790261
75	0xbe0db962	-0.13840249
76	0xbdac7b04	-0.08421901
77	0xbb56d5ae	-0.0032781172
78	0xbe01ca8b	-0.1267492
79	0x3e3fb759	0.18722285
80	0xbd054f89	-0.032546554
81	0x3dedd99c	0.11613771
82	0x3ab9c6ad	0.001417359
83	0xbe173de6	-0.14769706
84	0x3d995e02	0.07488634
85	0xbde8e9a3	-0.11372688
86	0xbe02e247	-0.1278163
87	0xbdddbf58	-0.108275115
88	0x3d0b1831	0.033958618
89	0x3d9f8284	0.07788566
90	0xbdffc55a	-0.12488814
91	0xbdc0f1e1	-0.09421135
92	0x3dbd7981	0.09251691
93	0xbd73e5d6	-0.05954536
94	0x3e4e8015	0.20166047
95	0x3e5a439a	0.2131485
96	0x3e07417b	0.13208573
97	0xbdd0c0fb	-0.10193058
98	0xbe0e569f	-0.13900231
99	0xbd81a6b0	-0.06330621
100	0xbc78a3e0	-0.01517579
101	0xbd6296b2	-0.055319495
102	0xbdac02b1	-0.08398951
103	0x3d35a813	0.04434974
104	0xbe47bd8f	-0.19505905
105	0xbc416276	-0.01180326
106	0xbe1d52e7	-0.15363656
107	0x3db29522	0.08719851
108	0xbdb0e6d3	-0.08637776
109	0xbb78fba4	-0.0037991786
110	0x3e1b2555	0.1515096
111	0x3e734287	0.23755847
112	0xbdc211e8	-0.094760716
113	0xbe3ab125	-0.18231638
114	0x3e2ffbc1	0.1718588
115	0xbe19bfd7	-0.15014587
116	0x3cdae7c6	0.026721846
117	0x3df6a5d1	0.12043346
118	0xbe03e826	-0.12881526
119	0xbd587af3	-0.05285163
120	0x3dbb919d	0.09158633
121	0xbd1e2e29	-0.03861824
122	0xbc6a514c	-0.014301609
123	0x3dbcc768	0.09217721
124	0xbdb6f1a7	-0.0893281
125	0xbdd29f6e	-0.10284315
126	0x3e02c774	0.12771398
127	0x3c663e44	0.014052931
128	0xbdffdf26	-0.12493734
129	0x3e27804f	0.1635754
130	0xbe2c15ad	-0.16805144
131	0x3d2cb7a5	0.042167325
132	0xbc800fbe	-0.015632506
133	0xbe1c3d6c	-0.15257806
134	0x3c464c80	0.0121032
135	0xba86d641	-0.0010287241
136	0x3de75a1d	0.112964846
137	0x3db0029f	0.0859425
138	0xbd08d801	-0.033409122
139	0x3d093a52	0.033502884
140	0xbdd450e3	-0.103669904
141	0xbc09d42c	-0.008412402
142	0xbd570c13	-0.05250175
143	0xbd29034a	-0.041262902
144	0xbe4492b4	-0.19196588
145	0xbe18ce6e	-0.14922497
146	0x3d4a0e4b	0.049330037
147	0xbd41da02	-0.04732705
148	0xbde522a0	-0.11188245
149	0xbcba33ea	-0.022729833
150	0xbdffcb55	-0.124899544
151	0x3dfd3fe9	0.123657055
152	0xbd9fb897	-0.077988796
153	0xbe037222	-0.12836507
154	0xbd43819a	-0.04773102
155	0xbe3dfb1e	-0.18552825
156	0x3deb77a7	0.11497431
157	0xbb2c76ce	-0.002631593
158	0x3e618d92	0.22026661
159	0xbdda9e4c	-0.10674724
160	0xbdd8c93f	-0.1058526
161	0x3e0b2487	0.13588153
162	0x3e0a1740	0.13485432
163	0x3b5cfb3d	0.0033719086
164	0x3e11b366	0.14228591
165	0xbe0782eb	-0.13233535
166	0x3da07cd1	0.07836307
167	0x3d91dc91	0.07122148
168	0x3bc2d67d	0.005945979
169	0xbcbf81bf	-0.023377297
170	0x3de6d763	0.112715505
171	0xbd9e8a98	-0.077412784
172	0xbe170e9e	-0.1475167
173	0x3e05e703	0.13076405
174	0x3e35c6cf	0.1775162
175	0xbe080dd1	-0.1328652
176	0xbe1e0252	-0.15430573
177	0xbe07b00f	-0.13250755
178	0xbe85388a	-0.26019698
179	0xbdb09036	-0.08621256
180	0x3d8eea24	0.069782525
181	0xbd8ae020	-0.0678103
182	0xbd8d7da7	-0.06908732
183	0x3d8f6cd0	0.07003176
184	0x3d8aa6fa	0.067701295
185	0xbe812fcf	-0.25231788
186	0xbb73c946	-0.0037198826
187	0x3e2fa881	0.17154123
188	0xbe45a045	-0.19299419
189	0xbd0ba3b7	-0.034091678
190	0xbe7f3eb9	-0.2492627
191	0xbb9d216a	-0.004795243
192	0x3d771669	0.060324106
193	0x3e20d932	0.15707853
194	0xbd493746	-0.04912498
195	0xbdc435ee	-0.09580599
196	0xbdfc72df	-0.123265974
197	0x3b9c9f1e	0.0047797104
198	0xbe240de3	-0.16020922
199	0x3b3d6940	0.0028901845
200	0x3e0a5b0d	0.13511296
201	0xbe4cb756	-0.19991812
202	0xbe595570	-0.21223998
203	0xbc2048cf	-0.009782984
204	0x3e5d75c8	0.21626961
205	0x3df73ed2	0.12072529
206	0x3cfa77d8	0.030574724
207	0xbdb535d4	-0.088481575
208	0x3d6194c8	0.05507353
209	0xbac4b3fd	-0.0015007254
210	0x3e141f94	0.14465171
211	0xbd627137	-0.05528375
212	0xbc9eb8f5	-0.019375304
213	0xbd9c0bb1	-0.076194175
214	0xbe23fe0e	-0.16014883
215	0x3d94b904	0.072618514
216	0x3df56c22	0.11983515
217	0x3e11aee5	0.14226873
218	0xbd8f7cc5	-0.0700622
219	0x3da5ba4b	0.08092173
220	0x3e180bab	0.14848201
221	0x3dab43ef	0.08362567
222	0xbddad673	-0.10685434
223	0xbd902699	-0.07038612
224	0xbce42203	-0.02784825
225	0x3da19f74	0.078917414
226	0xbd66c27c	-0.05633782
227	0x3dac0fce	0.08401452
228	0xbe2ec665	-0.17067869
229	0x3e14f657	0.14547096
230	0x3cbe7565	0.023249337
231	0x3d5fe038	0.05465719
232	0x3d1bf8e1	0.038079146
233	0x3e0341f8	0.12818134
234	0xbdfae7a6	-0.12251215
235	0xbd639c91	-0.055569235
236	0x3bdbf3f0	0.006712429
237	0x3e205cc4	0.15660387
238	0x3c81f996	0.015866082
239	0x3d047e12	0.032346793
240	0xbd7bf566	-0.061513327
241	0xbdd04507	-0.10169416
242	0xbdb27839	-0.08714337
243	0xbd46e37f	-0.0485568
244	0x3c694a99	0.014238977
245	0xbd0b4444	-0.03400065
246	0x3bfa60e7	0.007640946
247	0x3e2b948a	0.16755882
248	0x3d0257ff	0.0318222
249	0xbe1924a4	-0.14955384
250	0xbc365db8	-0.011130743
251	0x3de40bc0	0.11135054
252	0xbdd397c1	-0.10331679
253	0xbd77ff78	-0.06054637
254	0x3d79c132	0.06097526
255	0xbe203cbb	-0.15648167

gru.bias_ih_l0 f4 [96]
0	0x3df32aa2	0.11873366
1	0xbdc3cebf	-0.09560918
2	0x3e29675c	0.16543335
3	0xbe074548	-0.13210022
4	0x3db1104c	0.086456865
5	0xbc8a4b94	-0.016881742
6	0xbe11146f	-0.14167951
7	0xbd9d3949	-0.07676942
8	0x3e4d3a6c	0.20041817
9	0xbdb51427	-0.088417344
10	0xbca2820b	-0.0198374
11	0xbd9a193f	-0.075243466
12	0xbd81c4c9	-0.06336362
13	0x3da70de9	0.0815695
14	0xbe057972	-0.13034609
15	0xbcf7f112	-0.030266318
16	0xbd46ceb6	-0.04853698
17	0xbe049c43	-0.12950234
18	0xbccc5a1b	-0.02494531
19	0xbd531b09	-0.051539455
20	0x3c0d76c3	0.008634272
21	0xbde46c32	-0.11153449
22	0x3e23b5a6	0.15987262
23	0x3dc97819	0.0983736
24	0x3995b058	0.0002855088
25	0xbde64196	-0.11242978
26	0x3df845aa	0.12122662
27	0xbd5eaa83	-0.05436183
28	0x3e007522	0.12544683
29	0x3dbf2d55	0.09334818
30	0x3c8b3403	0.016992575
31	0x3e823a7d	0.25435248
32	0xbdb80114	-0.08984581
33	0x3d756bae	0.059917144
34	0xbe131e66	-0.14367065
35	0x3e36d25b	0.17853682
36	0xbc985b8f	-0.018598346
37	0xbe10e2cc	-0.14149016
38	0x3e2918c6	0.16513357
39	0xbd69ffc7	-0.057128694
40	0xbdb9fab4	-0.09081021
41	0xbcb802dd	-0.022462303
42	0x3e901774	0.28142893
43	0x3d9db1c7	0.07699924
44	0x3d5e9721	0.054343347
45	0x3dd10e1a	0.10207768
46	0xbd17932e	-0.037005596
47	0xbdb10b71	-0.086447604
48	0x3d41d791	0.04732472
49	0x3e739a86	0.23789415
50	0xbd8c2670	-0.06843269
51	0x3e020f1b	0.12701075
52	0xbcba973a	-0.022777189
53	0xbdb7ff53	-0.08984246
54	0x3d71bb7d	0.059016693
55	0xbdb393ac	-0.087684005
56	0x3e26deda	0.16295949
57	0xbd4c57db	-0.049888473
58	0xbce28b94	-0.027654447
59	0xbdea5a1b	-0.114429675
60	0xbc256837	-0.010095648
61	0x3e67725f	0.22602223
62	0xbda55c13	-0.080742024
63	0xbde2d135	-0.11075059
64	0x3c92f76b	0.017940244
65	0x3e2d476d	0.16921778
66	0x3ce08e8c	0.027411722
67	0xbc241dd5	-0.010016878
68	0x3d61ca7a	0.055124737
69	0xbe506155	-0.20349629
70	0x3dc05102	0.09390451
71	0xbe426ffa	-0.18988028
72	0xbdbf6fa8	-0.093474686
73	0x3ca1703c	0.019706838
74	0x3e0b75b1	0.13619114
75	0x3e4db1fd	0.20087428
76	0xbb90e431	-0.004421734
77	0xbd867ab9	-0.06566376
78	0x3d0940f4	0.03350921
79	0x3d843b02	0.06456567
80	0xbe6d15cc	-0.23152846
81	0xbe1032cc	-0.14081877
82	0xbc942c5c	-0.018087558
83	0xbdc6b4c5	-0.09702448
84	0xbe65c328	-0.22437727
85	0x3da02db7	0.078212194
86	0x3de5ed4c	0.112269014
87	0xbdf67700	-0.12034416
88	0x3c751cbf	0.014960467
89	0xbc238d95	-0.009982486
90	0xbd62afc4	-0.055343404
91	0xbe1642c5	-0.14673908
92	0x3de21997	0.11040037
93	0xbc50e808	-0.012750633
94	0x3dac88d8	0.084245384
95	0x3df39d36	0.1189522

gru.bias_hh_l0 f4 [96]
0	0xbcf528e5	-0.029926727
1	0x3e358211	0.17725398
2	0x3e515fbe	0.20446679
3	0x3d71c6b6	0.059027396
4	0xbdb56e0b	-0.0885888
5	0xbd1fce46	-0.039015077
6	0xbda3f924	-0.08006504
7	0x3dee5cde	0.11638807
8	0xbd0a0662	-0.033697493
9	0x3e353d23	0.17699103
10	0x3dd5f14e	0.10446416
11	0x3d3710f9	0.04469392
12	0x3d3dca00	0.04633522
13	0x3e69c71c	0.2282986
14	0xbde89276	-0.1135606
15	0x3d345b2f	0.044032272
16	0x3e0dba31	0.13840558
17	0x3c837090	0.016044885
18	0xbcd090ca	-0.025459666
19	0xb801dbb8	-3.0960626e-05
20	0x3e31504e	0.1731579
21	0x3e2b938a	0.167555
22	0x3e2f8e6b	0.17144172
23	0x3e458036	0.1928719
24	0xbd85a560	-0.065256834
25	0x3daa0141	0.083010204
26	0x3d8b4181	0.06799603
27	0xbc3ebff7	-0.011642448
28	0xbd06ad03	-0.03287984
29	0xbcc482a0	-0.023988068
30	0x3c8265d4	0.015917696
31	0x3e4e8a13	0.20169859
32	0x3c940ec6	0.01807345
33	0x3e5f1661	0.2178588
34	0x3dc18a79	0.0945024
35	0x3c1676f2	0.009183632
36	0x3e388917	0.18021046
37	0xbdd9e989	-0.106402464
38	0x3d31549c	0.04329358
39	0xbe781122	-0.24225286
40	0xbe1b44ca	-0.1516296
41	0xbdb6a250	-0.089176774
42	0x3e4dea33	0.20108871
43	0x3c1b64fc	0.009484526
44	0x3e48afa9	0.19598259
45	0xbd870147	-0.065920405
46	0xbe0736fd	-0.1320457
47	0x3e0a07b0	0.13479495
48	0xbca6caa0	-0.020360291
49	0x3d8051fd	0.06265638
50	0xbe41be99	-0.18920363
51	0xbdb8965c	-0.09013054
52	0x3c92ce48	0.017920628
53	0xbde12b6b	-0.109946094
54	0xbda8043f	-0.08203935
55	0x3e122e1c	0.14275402
56	0xbe2d2590	-0.1690886
57	0x3dd4f2e1	0.10397888
58	0xbe0628d5	-0.13101514
59	0x3e11efc7	0.14251624
60	0xbdbc74df	-0.09201979
61	0x3de4b930	0.11168134
62	0xbdf8183e	-0.12113999
63	0xbd24e3ea	-0.04025642
64	0xbdee78e0	-0.11644149
65	0x3d666385	0.056247253
66	0xbde6d675	-0.11271373
67	0xbddb94a5	-0.10721711
68	0x3da52291	0.08063234
69	0x3da86571	0.082224734
70	0x3e224e29	0.15850128
71	0x3c83feff	0.016112803
72	0xbe0a2233	-0.13489608
73	0xbdd4dbe6	-0.10393505
74	0xbd2d2093	-0.042267393
75	0x3d277abb	0.04088853
76	0xbdb6f2db	-0.0893304
77	0xbd0dbd88	-0.03460458
78	0xbe3c8775	-0.18411048
79	0x3e622bd9	0.22087039
80	0xbe41f9a5	-0.18942888
81	0xbd611489	-0.054951224
82	0x3e6cba0e	0.23117849
83	0xbd0e2740	-0.0347054
84	0x3d5e604f	0.054291066
85	0xbdc1bde8	-0.0946005
86	0xbe47243a	-0.19447413
87	0xbcb41df5	-0.02198694
88	0x3dcb41ad	0.09924636
89	0xbdcd0768	-0.10011178
90	0x3e10eedb	0.14153616
91	0xbe14bb68	-0.14524615
92	0x3e2de9c3	0.16983704
93	0xbd82cf15	-0.06387154
94	0x3d2d24cb	0.042271417
95	0x3dfd08c8	0.123551905

gru.weight_ih_l0_reverse f4 [96, 32]
0	0x3e2363fa	0.15956107
1	0x3e1d2d94	0.15349418
2	0xbd535ce2	-0.05160225
3	0x3dc9db12	0.098562375
4	0x3cfb702c	0.030693136
5	0x3e402cf7	0.18767153
6	0x3e302510	0.17201638
7	0xbd816c79	-0.06319518
8	0x3d1c5193	0.038163733
9	0xbc2c2653	-0.010507184
10	0x3d1a3a79	0.03765342
11	0xbdfe47b9	-0.12416024
12	0xbdd89907	-0.10576063
13	0x3e14c15a	0.14526883
14	0x3e2a8057	0.1665052
15	0x3dc2682a	0.09492524
16	0x3d89cbb9	0.0672831
17	0x3e4b08c6	0.19827566
18	0x3e0256e4	0.12728459
19	0x3db6a8de	0.089189276
20	0xbd1e382c	-0.03862779
21	0x3c7886f3	0.015168893
22	0xbd01d964	-0.03170146
23	0x3d2123eb	0.039340895
24	0xbddf3cb5	-0.10900251
25	0x3ddfcfe1	0.10928322
26	0x3e10ccea	0.14140669
27	0x3e5177b2	0.20455816
28	0x3c8f84cd	0.017519379
29	0x3da03705	0.07822994
30	0xbd87d5b5	-0.06632558
31	0xbdbe9d62	-0.09307362
32	0xbc999d32	-0.018751714
33	0x3c7d725d	0.015469161
34	0xbd6458b0	-0.05574864
35	0x3a0d0947	0.00053801056
36	0x3d651ed7	0.055937614
37	0x3e4e7514	0.2016185
38	0xbdf1349b	-0.11777612
39	0x3e0cde2f	0.13756631
40	0xbd9f5ae3	-0.07781007
41	0x3dc6b77e	0.09702967
42	0xbdee55ca	-0.11637457
43	0x3e15f54f	0.14644359
44	0x3cad5a06	0.02116109
45	0xbda75666	-0.08170776
46	0x3df487cb	0.11939963
47	0xbcb8ed29	-0.022574024
48	0xbe0c7542	-0.13716605
49	0xbe330ea2	-0.1748605
50	0xbe124099	-0.14282455
51	0x3d299718	0.04140386
52	0xbe00ce53	-0.12578706
53	0x3e165a38	0.14682853
54	0x3e450c78	0.19243038
55	0x3deb689d	0.11494563
56	0x3cd59ba5	0.026075194
57	0xbbe890ff	-0.007097363
58	0x3d554c7e	0.0520749
59	0x3d0dacf6	0.034588777
60	0xbd4229a1	-0.04740298
61	0x3d3525ed	0.044225622
62	0x3df1b2b6	0.118016645
63	0xbe58f5fe	-0.21187589
64	0xbc18730e	-0.009304775
65	0x3dc59852	0.096481934
66	0x3e31c545	0.17360409
67	0xbc4a767d	-0.012357351
68	0x3d6a0275	0.05713125
69	0x3e32fe85	0.17479904
70	0x3db3be22	0.08776499
71	0x3cc8ab1d	0.024495656
72	0xbdd600e2	-0.10449387
73	0x3e1c7880	0.15280342
74	0xbdac62f0	-0.08417308
75	0x3d9a628a	0.07538326
76	0xbdccd53e	-0.1000161
77	0x3e56320a	0.20917526
78	0x3e46878c	0.19387645
79	0xbe04e914	-0.12979537
80	0x3c2f1e45	0.010688369
81	0x3e41dcca	0.1893188
82	0x3cb31e2b	0.021864971
83	0xbdb1af21	-0.08675981
84	0x3dbf2bac	0.093345016
85	0xbca28784	-0.01984001
86	0xbd6ba4c0	-0.057530165
87	0xbd87d8f2	-0.06633176
88	0x3c86cb34	0.016454317
89	0x3e0b14c5	0.13582142
90	0x3df11736	0.11772005
91	0xbd7200a5	-0.059082646
92	0x3dffc4fc	0.12488744
93	0x3e64f9a6	0.22360858
94	0x3d8bb408	0.068214476
95	0x3e7c84ac	0.24659985
96	0xbd186ebd	-0.037214983
97	0x3e12c879	0.14334287
98	0xbddec98f	-0.10878288
99	0xbcdd9e4a	-0.027053017
100	0xbe2e8380	-0.17042351
101	0xbd9fee07	-0.07809072
102	0xbd96c647	-0.07362037
103	0x3d7fa475	0.062412698
104	0x3e40d8c3	0.18832688
105	0xbe3377b2	-0.17526129
106	0xbcab1a02	-0.020886425
107	0xbde68b1d	-0.112570025
108	0xbd8f09ed	-0.06984315
109	0xbe2c6fc2	-0.16839507
110	0xbd8f56bd	-0.06998966
111	0x3cba6815	0.022754708
112	0x3d14a14a	0.03628663
113	0xbd0f84be	-0.035038702
114	0xbdfd8c61	-0.12380291
115	0x3cd18e11	0.025580438
116	0xbb43f24a	-0.0029899054
117	0x3d8cb741	0.068708904
118	0x3deaf9c4	0.1147342
119	0xbe397a6d	-0.18113108
120	0x3de4fae9	0.1118067
121	0xbc2f9693	-0.010717052
122	0x3d1c037e	0.038089268
123	0xbdddab69	-0.108237095
124	0xbd576e9f	-0.05259573
125	0x3d509d62	0.050931342
126	0x3da86946	0.08223204
127	0xbddf6c03	-0.109092735
128	0x3e0893b2	0.13337591
129	0x3e18227d	0.14856906
130	0x3ba31252	0.004976549
131	0xbdd8cafc	-0.10585591
132	0x3dd02470	0.101632
133	0xbe0a8316	-0.13526568
134	0xbdf47f0d	-0.119382955
135	0x3e1bd74a	0.15218845
136	0x3e58a0ca	0.21155086
137	0x3e13255c	0.1436972
138	0xbdd390e8	-0.10330373
139	0x3e5521c3	0.2081366
140	0x3db7d840	0.08976793
141	0xbdf46d7c	-0.11934945
142	0xbe116763	-0.14199595
143	0x3d9dfd79	0.07714362
144	0x3dbcaea5	0.09212998
145	0xbd868a9e	-0.06569408
146	0x3e5430ef	0.20721792
147	0xbdaef9dc	-0.08543751
148	0x3daa98c2	0.083299175
149	0xbdbc2103	-0.09185984
150	0x3e18b4d6	0.14912733
151	0x3e763195	0.24042352
152	0xbc1772f2	-0.009243714
153	0x3c856fb8	0.016288623
154	0x3dcda47b	0.10041138
155	0xbc953149	-0.018211978
156	0x3e650e0a	0.22368637
157	0xbde3b513	-0.111185215
158	0xbe05f3c6	-0.13081273
159	0xbd527c4f	-0.05138808
160	0x3d676dce	0.056501202
161	0xbe044b96	-0.12919459
162	0x3e1b282b	0.15152042
163	0xbe1df716	-0.15426287
164	0x3cf11afd	0.029431814
165	0x3dc53f9d	0.09631274
166	0xbbeaa0c8	-0.00716028
167	0xbdd53e0a	-0.10412224
168	0xbe3abf8f	-0.18237136
169	0xbd564484	-0.052311435
170	0xbd2ce87c	-0.042213902
171	0xbe0a0a38	-0.1348046
172	0x3db4bb32	0.08824767
173	0xbddba232	-0.10724296
174	0xbdaa78ee	-0.08323847
175	0x3d088e0c	0.03333859
176	0x3d786999	0.06064758
177	0xbe51df70	-0.20495391
178	0x3e0f1620	0.13973284
179	0x3e1a43f3	0.15064983
180	0xbdd4efbb	-0.103972875
181	0xbe229764	-0.15878063
182	0xbe2c3b77	-0.16819559
183	0xbcd4df9c	-0.025985532
184	0xbdf6f066	-0.12057571
185	0x3db80301	0.08984948
186	0xbe00799e	-0.12546393
187	0x3d66f73d	0.05638813
188	0x3e3b9ef8	0.1832236
189	0x3d93b796	0.072127506
190	0xbe35cefb	-0.17754738
191	0x3cc140cc	0.023590468
192	0x3da183f4	0.07886496
193	0x3d72332c	0.059130833
194	0xbcce9bc2	-0.025220755
195	0xbd546687	-0.05185559
196	0xbdbc5086	-0.09195046
197	0xbd5e58d6	-0.05428394
198	0x3e175032	0.14776686
199	0x3d866c51	0.065636285
200	0xbdc8add7	-0.09798782
201	0xbd4943c7	-0.049136903
202	0xbe1d0f95	-0.15337975
203	0xbe22fa9f	-0.15915917
204	0xbd81e0fa	-0.06341739
205	0xbde18606	-0.11011891
206	0x3d3cd54f	0.046101864
207	0x3c146fef	0.00905989
208	0x3b2dc1d0	0.0026513226
209	0xbe39953b	-0.18123333
210	0xbd85d829	-0.0653537
211	0xbbb59e91	-0.005542584
212	0x3d64194b	0.055688184
213	0xbe03f0fd	-0.12884898
214	0x3d2e1ddc	0.042508945
215	0x3d393c9b	0.045223814
216	0xbded749c	-0.11594507
217	0xbdb17535	-0.086649336
218	0x3dc9f75d	0.09861634
219	0xbda0aacd	-0.07845078
220	0xbcb35bcd	-0.02189436
221	0x3c53c342	0.012924971
222	0x3d4dabbf	0.050212618
223	0xbc5bc80a	-0.013414392
224	0xbb64c9e2	-0.003491037
225	0x3e4ee4d0	0.20204473
226	0x3c841196	0.016121667
227	0x3db8cf9c	0.09023973
228	0x3d9d7933	0.076891325
229	0xbddc7187	-0.10763841
230	0x3d696e44	0.056989923
231	0x3d973a66	0.073841855
232	0x3d3b04c6	0.04565885
233	0x3e122515	0.14271958
234	0xbe06936e	-0.13142177
235	0x3cccc53c	0.024996392
236	0xbde8b805	-0.11363224
237	0xbd0ab1b8	-0.033860892
238	0x3e3ce4a8	0.184466
239	0xbdfb7f39	-0.12280125
240	0x3e10341f	0.14082383
241	0xbc38c081	-0.011276365
242	0x3e01d16c	0.12677544
243	0x3e55d2cf	0.20881198
244	0x3dcbd58b	0.099528395
245	0xbc855e87	-0.016280426
246	0xbdb2db0d	-0.08733187
247	0x3dd73a08	0.105091155
248	0x3d3fae20	0.046796918
249	0xbd274369	-0.04083577
250	0x3e0fa641	0.14028265
251	0x3d47762c	0.04869668
252	0xbd42e9ba	-0.04758618
253	0xbde4180f	-0.11137401
254	0xbd041136	-0.032242976
255	0x3e583ab3	0.21116142

gru.weight_hh_l0_reverse f4 [96, 32]
0	0x3e569d1f	0.20958374
1	0x3e07a8fe	0.13248059
2	0x3cf6cad7	0.030126018
3	0x3dfd709b	0.123749934
4	0x3e3383cc	0.17530745
5	0xbe229d2e	-0.15880272
6	0x3c406706	0.011743313
7	0x3dd74847	0.10511833
8	0x3c1b8fc1	0.009494723
9	0xbd801f21	-0.06255937
10	0xbe46c4f4	-0.19411069
11	0x3e34b406	0.17646798
12	0x3d98807b	0.07446381
13	0x3d91cbdc	0.07118961
14	0x3d97bca1	0.07409025
15	0xbd362f6b	-0.044478815
16	0xbd6091d7	-0.054826584
17	0x3e2dc230	0.16968608
18	0xbe02e25b	-0.1278166
19	0xbc440b13	-0.011965531
20	0x3d9deabf	0.0771079
21	0x3df0e222	0.117618814
22	0x3d90338f	0.07041084
23	0xbe37c7e4	-0.17947346
24	0xbd96c127	-0.0736106
25	0x3dae0bcc	0.08498344
26	0x3db23750	0.08701956
27	0x3d51ce3c	0.05122207
28	0xbdd62ed5	-0.10458151
29	0x3e20c7fa	0.15701285
30	0x3e42929c	0.1900124
31	0x3e2587b0	0.16165042
32	0x3db9e735	0.09077302
33	0x3e402c1d	0.18766828
34	0xbd63bda7	-0.05560079
35	0x3e305966	0.17221603
36	0x3e2ada75	0.16684897
37	0xbde403be	-0.11133526
38	0xbd523370	-0.051318586
39	0x3c8d449c	0.01724463
40	0xbe47fe52	-0.19530609
41	0x3e0034f3	0.12520199
42	0xbe6197e4	-0.22030598
43	0x3d993bbe	0.07482098
44	0x3cfba6e3	0.030719226
45	0x3dc0d1ab	0.09414991
46	0xbe51c035	-0.20483477
47	0x3e69096f	0.22757505
48	0x3d7acad1	0.061228577
49	0xbbe3beeb	-0.0069502494
50	0xbe3fa22f	-0.18714212
51	0xbe72cfe0	-0.2371211
52	0xbe728156	-0.2368215
53	0x3e084628	0.13308012
54	0xbd5c42b7	-0.05377456
55	0xbe2065a9	-0.1566378
56	0xbc69ef09	-0.014278182
57	0xbe2239e7	-0.158424
58	0x3dde765f	0.10862421
59	0xbda2cc4a	-0.07949121
60	0xbd8ff9e6	-0.07030086
61	0x3dea383d	0.11436508
62	0x3e5efbfa	0.21775809
63	0x3d7092eb	0.058733862
64	0x3d3a8335	0.045535285
65	0xbe059f3d	-0.13049026
66	0xbcd1d213	-0.025612867
67	0xbe10dcb1	-0.14146687
68	0x3da841a4	0.08215645
69	0x3e01ee15	0.12688477
70	0xbd3feb5f	-0.046855327
71	0x3a0ab968	0.000529191
72	0xbe3fa42d	-0.18714972
73	0x3db61357	0.088904075
74	0xbe12b176	-0.14325508
75	0x3dcdd9f9	0.100513406
76	0x3da471a5	0.080294885
77	0xbe137158	-0.14398706
78	0xbe41b0ee	-0.1891515
79	0xbdaeee8f	-0.08541595
80	0xbaba6610	-0.0014221091
81	0xbd6d5883	-0.05794574
82	0x3e091fbd	0.13391013
83	0xbde7db1e	-0.1132109
84	0x3e002aee	0.12516376
85	0x3e42af59	0.19012202
86	0xbda3624c	-0.07977733
87	0x3d1c7d69	0.038205538
88	0xbe1e0a61	-0.15433647
89	0xbe2155dd	-0.1575541
90	0xbdc963c4	-0.09833482
91	0x3d2e8941	0.042611364
92	0x3d970999	0.073748775
93	0x3d8bc1b0	0.06824052
94	0xbd980215	-0.07422272
95	0xbd1311f2	-0.035905786
96	0x3e6342ff	0.22193526
97	0x3db7db9f	0.08977436
98	0xbe5b90b7	-0.21441923
99	0xbd9d2453	-0.07672944
100	0xbc7825b7	-0.015145711
101	0xbd4f7c56	-0.050655685
102	0x3e46baf7	0.19407259
103	0xbdff0f9e	-0.124541506
104	0xbe0d380b	-0.1379091
105	0xbd2d893a	-0.042367198
106	0x3cd71ec9	0.026259797
107	0x3e1835a3	0.14864211
108	0xbd5a1d0d	-0.05325036
109	0x3e05c6de	0.13064143
110	0xbe7b78ea	-0.24557844
111	0x3d05703d	0.032577742
112	0x3db60d48	0.08889252
113	0xbd336296	-0.04379519
114	0x3cc43e6e	0.02395555
115	0xbdd096a7	-0.10184985
116	0x3d09a831	0.033607665
117	0x3d3dfdf6	0.046384774
118	0x3d2c8f56	0.042128883
119	0x3d244f04	0.040114418
120	0x3e0d1c36	0.13780293
121	0xbe2feaba	-0.17179385
122	0xbe1e1ce4	-0.15440708
123	0xbcc0d7b9	-0.023540365
124	0x3d013140	0.03154111
125	0x3df3fd9d	0.11913607
126	0xbbccae15	-0.006246338
127	0x3e567134	0.20941621
128	0x3ddbf4a9	0.107400246
129	0xbd91395c	-0.070910186
130	0x3dc00536	0.09375994
131	0x3e000138	0.12500465
132	0xbd8d9fd0	-0.069152474
133	0xbdf2beac	-0.11852774
134	0x3d9b31ea	0.0757788
135	0xbe43cf7a	-0.19122115
136	0x3db0a603	0.08625414
137	0x3e1de2df	0.15418576
138	0xbbab322d	-0.0052244873
139	0x3bf94e8c	0.0076082405
140	0xbe4aaab6	-0.19791684
141	0x3d18ce60	0.03730619
142	0x3c96efeb	0.018424949
143	0x3ce404b4	0.027834274
144	0x3e2f2e11	0.17107417
145	0xbc8c2e7a	-0.017112006
146	0xbdbbd92a	-0.0917228
147	0xbd621d73	-0.055203866
148	0xbca3ac4a	-0.019979615
149	0x3ca20748	0.019778863
150	0x3cf3c6c5	0.029757867
151	0xbdc3d3f6	-0.09561913
152	0xbd684b5d	-0.056712497
153	0xbc551b08	-0.013006933
154	0x3d194127	0.03741565
155	0xbd80d8a6	-0.062913224
156	0x3cb6ede4	0.022330232
157	0xbd7d449f	-0.06183302
158	0x3da16554	0.07880655
159	0x3d6dbc32	0.058040805
160	0x3e021da7	0.12706624
161	0x3d3df510	0.046376288
162	0x3da84ac9	0.08217389
163	0x3e5a9796	0.21346888
164	0xbd926fac	-0.07150206
165	0x3d4a3c5a	0.049373962
166	0x3ddb387e	0.107041344
167	0xbd17a58d	-0.037023116
168	0x3dbe1672	0.09281625
169	0x3d9fa0ce	0.07794343
170	0xbdaa9efd	-0.08331106
171	0x3d9e0aad	0.0771688
172	0x3d3f2bb3	0.046672534
173	0xbde3498a	-0.11098011
174	0xbd582da0	-0.052777886
175	0x3e33afe9	0.17547573
176	0xbcd21acb	-0.025647542
177	0x3bb44bd6	0.0055022044
178	0x3d84cfb6	0.0648493
179	0xbdfa2f7f	-0.122160904
180	0x3d7a236a	0.06106893
181	0xbd86fa8a	-0.06590755
182	0x3dac8119	0.08423061
183	0xbcac910a	-0.021065254
184	0x3d6c4115	0.057679255
185	0x3d791b51	0.060817067
186	0xbe48fcd2	-0.19627693
187	0x3d8e3006	0.069427535
188	0x3dc0b6c9	0.094098635
189	0xbdf56c93	-0.119835995
190	0x3e08a97d	0.13345905
191	0x3d339ac8	0.043848783
192	0x3dd9a140	0.10626459
193	0x3cc032f0	0.023461789
194	0x3c19d073	0.009388077
195	0x3c3f2b90	0.011668101
196	0xbd32b641	-0.043630842
197	0xbe5472c4	-0.20746905
198	0x3dda0709	0.10645873
199	0xbe497ec6	-0.19677266
200	0xbc93ea8a	-0.018056173
201	0xbe082935	-0.13296969
202	0xbe0ce2ff	-0.13758467
203	0x3dd34ed7	0.10317772
204	0xbb038351	-0.0020067284
205	0xbe0134a8	-0.12617743
206	0xbe66c976	-0.22537789
207	0xbdba24ad	-0.090890266
208	0x3da2e175	0.07953159
209	0x3e07736b	0.13227622
210	0xbd552df8	-0.052045792
211	0x3d3be0a0	0.045868516
212	0x3ce31167	0.027718259
213	0x3e11b19e	0.14227912
214	0xbd8c88b2	-0.0686201
215	0x3da1b6bc	0.07896182
216	0x3e170b8c	0.14750499
217	0x3d4fe756	0.05075773
218	0x3d96c06f	0.073609225
219	0xbd226848	-0.03965023
220	0xbd1cb642	-0.038259752
221	0x3db22a27	0.08699446
222	0x3c1e19bd	0.009649691
223	0xbb8e4c82	-0.0043426165
224	0xbd038abf	-0.03211474
225	0x3dbc9b48	0.09209305
226	0x3e284dba	0.164359
227	0xbd8dba01	-0.06920243
228	0xbe0a8b5c	-0.13529724
229	0x3dc19092	0.09451403
230	0x3e35cca3	0.17753844
231	0x3d5c493a	0.05378077
232	0xbd7ad6b9	-0.06123993
233	0x3e35fe7d	0.17772861
234	0xbe2fdeb0	-0.17174792
235	0x3d65e4d7	0.05612644
236	0xbd857ca3	-0.06517913
237	0x3c201c9f	0.009772449
238	0xbda9fc6c	-0.08300099
239	0xbe35f0fe	-0.17767712
240	0xbdf2ab2d	-0.118490554
241	0xbdb659fb	-0.08903881
242	0xbdb47f0c	-0.08813295
243	0x3d4eeb62	0.050517447
244	0xbd671829	-0.056419525
245	0x3d2b7a47	0.04186466
246	0xbd0438d8	-0.032280773
247	0xbe0e5c0e	-0.13902304
248	0x3dd275d6	0.10276382
249	0x3e04b8f4	0.12961179
250	0x3d50e139	0.05099604
251	0xbd54e9b0	-0.051980674
252	0x3ae4091c	0.0017397734
253	0xbd4b7837	-0.049675193
254	0x3d650d1a	0.055920698
255	0x3de70ac2	0.11281349

gru.bias_ih_l0_reverse f4 [96]
0	0x3d8d4394	0.06897655
1	0x3e3d0a1e	0.1846089
2	0x3e22077e	0.1582317
3	0x3dfd7c80	0.12377262
4	0x3d648f03	0.05580045
5	0xbdfd4041	-0.12365771
6	0xbd22e48e	-0.039768748
7	0xbdc18795	-0.09449688
8	0xbdf352fb	-0.11881062
9	0x3e383bb7	0.1799153
10	0x3d22ef58	0.039779037
11	0x3dbc8947	0.09205871
12	0x3d242d21	0.0400821
13	0xbb968a62	-0.0045941332
14	0x3bfa9a4c	0.007647788
15	0x3d4d52e5	0.050127883
16	0x3cc60208	0.02417089
17	0x3d8d7422	0.06906916
18	0x3e43f8c1	0.19137861
19	0xbda18ea3	-0.07888534
20	0x3d446e00	0.047956467
21	0x3e4964d6	0.19667372
22	0xbd2fffa2	-0.0429684
23	0x3e062ea7	0.13103734
24	0x3d617f4b	0.055053037
25	0xbe122e59	-0.14275493
26	0x3da7b290	0.08188355
27	0xbc5f40fe	-0.013626335
28	0x3d606a48	0.054788858
29	0xbde41d96	-0.111384556
30	0xbd049c1f	-0.03237545
31	0x3e451fb2	0.19250372
32	0xbe0f734e	-0.14008829
33	0x3e50bfbe	0.20385644
34	0xbdd38abe	-0.10329197
35	0x3d3f0231	0.04663295
36	0x3e57c424	0.21070915
37	0xbdfaee30	-0.12252462
38	0x3e615ad7	0.22007309
39	0xbcf978ef	-0.030453173
40	0xbd1504c9	-0.036381517
41	0x3e0aee9d	0.13567586
42	0xbc05205d	-0.008125392
43	0xbccca95c	-0.0249831
44	0x3e0bf940	0.136693
45	0xbd9bc828	-0.07606536
46	0x3e0710eb	0.13190047
47	0x3c12069e	0.0089127105
48	0xbd3d84ac	-0.046269104
49	0x3d8cd8a6	0.0687726
50	0xbd6953dd	-0.056964744
51	0xbdc9af3c	-0.098478764
52	0x3e715c11	0.23570277
53	0x3d30b1dd	0.043138374
54	0xbca1a730	-0.019733042
55	0x3e5e4f0b	0.2170984
56	0x3e13b01a	0.14422646
57	0xbd1788ea	-0.036995806
58	0x3cfecdc1	0.03110397
59	0xbd9019e0	-0.07036185
60	0x3d52ed79	0.051496003
61	0x3e74270b	0.23843019
62	0x3d895f07	0.06707578
63	0x3e164b46	0.14677152
64	0x3e671591	0.2256682
65	0x3e24921f	0.16071366
66	0xbda23fd0	-0.079223275
67	0x3e40935f	0.18806218
68	0x3dff1a04	0.12456134
69	0xbd9556f5	-0.07291976
70	0x3e2644db	0.16237204
71	0xbc120aef	-0.00891374
72	0xbe297cc2	-0.16551498
73	0x3e09aa05	0.13443764
74	0xbe3469eb	-0.1761853
75	0x3da0d20d	0.07852564
76	0xbda90e65	-0.08254699
77	0xbd9459e1	-0.072437055
78	0xbdcfc9a5	-0.101458825
79	0x3dd42615	0.10358826
80	0x3db55e27	0.08855849
81	0x3e098357	0.13429008
82	0xbdcdf3ec	-0.1005629
83	0xbe2629d2	-0.1622689
84	0xbcbdd3d5	-0.023172298
85	0x3d9ace93	0.07558932
86	0xbe5560c6	-0.20837697
87	0xbe2d894b	-0.16946904
88	0x3d47d9cb	0.048791688
89	0xbe2b2573	-0.16713504
90	0x3dd88233	0.105717085
91	0xbe2d0b81	-0.1689892
92	0x3dfb6de8	0.12276822
93	0x3ddf03e1	0.10889412
94	0x3d6c1664	0.05763854
95	0x3dd283ae	0.10279022
