logs/exp0/weights/epoch55.pt (torch, 348934 bytes, 45 tensors)

conv_block1.0.weight f4 [32, 4, 10]
0	0x3c81797d	0.015805
1	0xbe472c25	-0.19450434
2	0x3e141e75	0.14464743
3	0xbc45da8d	-0.012076032
4	0x3b22d996	0.002484893
5	0x3de8f724	0.11375263
6	0xbd3249b9	-0.04352734
7	0xbe0de6c5	-0.13857563
8	0x3dffc2f1	0.12488354
9	0xbdf7bc42	-0.12096454
10	0x3da3bdbc	0.07995173
11	0xbdbb0a75	-0.09132854
12	0xbaddafff	-0.0016913413
13	0x3d6561f4	0.05600162
14	0xbdd7c95d	-0.10536454
15	0x3db27cde	0.08715223
16	0x3d9e5c5d	0.07732461
17	0x3c4d341c	0.012524631
18	0xbd4d0345	-0.050051946
19	0xbd4c10d2	-0.04982073
20	0xbde337c6	-0.11094622
21	0x3d9fa08b	0.07794293
22	0x3c837428	0.016046599
23	0xbcf3953d	-0.029734248
24	0x3d3463c2	0.04404045
25	0xbe001884	-0.12509352
26	0x3d62ad3f	0.055341
27	0x3da6284e	0.08113156
28	0xbe3ffaf9	-0.18748082
29	0xbcf95285	-0.030434856
30	0xbe231ae9	-0.15928234
31	0x3da4493b	0.0802178
32	0x3cede12e	0.029038038
33	0xbd2a4bfb	-0.041576367
34	0xbd274b93	-0.040843558
35	0xbd673038	-0.05644247
36	0xbdbcc064	-0.09216383
37	0x3d43a688	0.04776624
38	0x3bf112df	0.007356986
39	0x3c9b8249	0.018983023
40	0xbc2c848b	-0.010529648
41	0xbdbc74b4	-0.09201947
42	0x3d96734d	0.07346211
43	0xbdb3f081	-0.08786107
44	0xbc3461ad	-0.011009616
45	0x3e379a1d	0.17929883
46	0xbdbc6543	-0.09199002
47	0xbc7128a1	-0.014719159
48	0x3dfba07e	0.12286471
49	0x3d40aacd	0.04703789
50	0x3db1e20a	0.08685692
51	0x3da70110	0.081544995
52	0xbe28514a	-0.1643726
53	0x3deb4662	0.11488034
54	0xbe2cd9e2	-0.1687999
55	0x3c5491a3	0.012974176
56	0x3b282be6	0.002566093
57	0xbd7fd4c7	-0.06245878
58	0xbc25ebe5	-0.010127042
59	0x3d74538b	0.059649985
60	0xbdc371c1	-0.09543181
61	0xba3118b9	-0.0006755698
62	0xbd24e08a	-0.0402532
63	0xbd64e110	-0.0558787
64	0xbcd9c6b2	-0.026584003
65	0xbd0ecc52	-0.034862824
66	0xbdac4fda	-0.08413668
67	0x3dd90839	0.105972715
68	0xbdf247ac	-0.118300766
69	0xbc9b5686	-0.018962156
70	0x3dd31be0	0.10308051
71	0x3d81e507	0.063425116
72	0x3cab3eda	0.020903993
73	0xbd4ea44a	-0.050449647
74	0xbd163e5d	-0.036680568
75	0xbbd1ffc4	-0.0064086635
76	0xbdd0d7e2	-0.101974264
77	0x3b15e172	0.0022869972
78	0xbd0344c8	-0.032048017
79	0x3da749de	0.08168386
80	0x3d56e2f8	0.052462548
81	0xbde6b1c2	-0.11264373
82	0xbdf21274	-0.11819926
83	0xbdc524d6	-0.096261665
84	0x3e1ee197	0.15515743
85	0xbdf6e0e1	-0.12054611
86	0xbdaf23c5	-0.08551744
87	0x3e080a84	0.13285261
88	0xbe27f1f3	-0.1640089
89	0xbbc54dda	-0.0060212435
90	0x3d58ce82	0.052931316
91	0x3d20141e	0.039081685
92	0x3c57bd7d	0.013167736
93	0x3d648019	0.055786226
94	0xbcafa377	-0.02144025
95	0x3dcd94f7	0.100381784
96	0x3e0613d8	0.13093507
97	0x3e05a5ad	0.13051482
98	0x3e26c7be	0.16287133
99	0xbd101a2c	-0.03518121
100	0x3d807548	0.062723696
101	0xbddf85d9	-0.10914201
102	0x3d713575	0.05888887
103	0xbde0e903	-0.109819435
104	0x3b8bfbe1	0.0042719697
105	0x3ddc32db	0.107518874
106	0x3e09f1ea	0.13471189
107	0xbd9e89ac	-0.077411026
108	0x3c8bde3e	0.017073747
109	0xbcfe8c89	-0.031072872
110	0xbde89d51	-0.11358131
111	0xbe037166	-0.12836227
112	0x3db9fd96	0.09081571
113	0x3d540458	0.051761955
114	0xbd94b05b	-0.072602
115	0xbdce98d9	-0.10087747
116	0x3d846c53	0.06465974
117	0x3a1ed3bb	0.0006058772
118	0xbcb79ae7	-0.02241273
119	0xbb3028de	-0.0026879827
120	0x3d3d8a47	0.04627445
121	0xbe07e06b	-0.13269202
122	0xbd7a54a4	-0.061115876
123	0xbdb63f3e	-0.08898781
124	0xbd0183cc	-0.031619832
125	0x3d23d6e3	0.039999854
126	0xbd7abe42	-0.0612166
127	0xbe0b2601	-0.13588716
128	0x3cbac5e7	0.022799445
129	0x3cf8c48d	0.03036716
130	0xbd692408	-0.056919128
131	0xbe2c27b4	-0.1681202
132	0xbe1048b6	-0.14090237
133	0xbe098121	-0.13428165
134	0xbdddf439	-0.108375974
135	0xbd6f376a	-0.058402456
136	0x3d414a0a	0.04718975
137	0xbd30e666	-0.043188475
138	0xbdd4eb8b	-0.10396489
139	0x3d66b084	0.056320682
140	0xbd6fec7c	-0.05857514
141	0xbb1bb19f	-0.0023756993
142	0x3c191708	0.00934387
143	0x3e16773b	0.1469392
144	0xbe0086f1	-0.12551476
145	0x3da4b090	0.08041489
146	0x3de64671	0.112439044
147	0xbd57695f	-0.052590724
148	0x3e06e4f5	0.13173278
149	0xbbd4eb21	-0.006497756
150	0x3d93256c	0.07184872
151	0x3d846a7c	0.06465623
152	0x3dc55d37	0.0963692
153	0x3c49fd87	0.012328512
154	0xbd1f8489	-0.038944755
155	0x3d7c5589	0.06160501
156	0x3dc4f4ee	0.09617029
157	0x3d7e0e13	0.06202514
158	0x3db691cb	0.089145266
159	0x3dc8fc7e	0.09813784
160	0xbd338172	-0.04382462
161	0xbccaf773	-0.024776196
162	0x3c9f3a0c	0.019436859
163	0xbd59d356	-0.05318006
164	0xbd6c96f9	-0.057761166
165	0x3e012900	0.12613297
166	0xbd9fac12	-0.07796492
167	0xbd8d3304	-0.06894496
168	0x3d708b27	0.058726456
169	0xbd6f1953	-0.05837376
170	0x3d8d47b8	0.06898445
171	0x3d7dff91	0.062011305
172	0xbd525a40	-0.0513556
173	0x3dd6d172	0.10489167
174	0xb82a42b7	-4.059329e-05
175	0xbe08cb91	-0.13358904
176	0x3ad58ee5	0.0016293196
177	0x3dd2286a	0.102616146
178	0xbe0c2fef	-0.1369016
179	0x3dfba950	0.12288153
180	0xbdcd0667	-0.10010987
181	0x3d69d19a	0.057084657
182	0xbe300044	-0.17187601
183	0x3d28ae77	0.041182008
184	0x3c479360	0.012181133
185	0x3c37ec8c	0.011225831
186	0xbe4672a4	-0.1937967
187	0x3dcbc0eb	0.099489056
188	0xbe0ac901	-0.1355324
189	0x3d284894	0.04108484
190	0x3d49c8c4	0.04926373
191	0xbcf71126	-0.030159544
192	0xbdd49f8b	-0.10381993
193	0xbc9a37a3	-0.018825358
194	0xbe314d37	-0.17314611
195	0x3ba67cc5	0.0050807917
196	0x3da3106a	0.07962115
197	0x3d963ad7	0.073354416
198	0xbe2ca4c1	-0.16859724
199	0x3da61565	0.081095494
200	0x3d170c0d	0.036876727
201	0x3dda55c6	0.10660891
202	0xbd24250d	-0.040074397
203	0xbd99e7b7	-0.07514899
204	0x3d491c29	0.04909912
205	0xbe2374c7	-0.15962516
206	0x3df380f8	0.11889833
207	0x3e242638	0.16030204
208	0xbe73e12e	-0.23816368
209	0xbdc29883	-0.095017456
210	0x3d43c7eb	0.04779808
211	0x3c35b4fd	0.011090514
212	0xbe3aeabd	-0.18253608
213	0x3bd2b0ac	0.0064297523
214	0x3ce442d2	0.027863894
215	0x3df971ff	0.12179946
216	0xbd268bab	-0.04066054
217	0xbddb9ac4	-0.107228786
218	0x3e2bd81b	0.16781656
219	0xbe00324d	-0.12519188
220	0x3bb176b5	0.0054157623
221	0xbd830b6a	-0.063986614
222	0x3d9082e5	0.07056216
223	0xbd147013	-0.036239695
224	0xbe2bc5f7	-0.16774736
225	0xbdb5e49b	-0.08881494
226	0x3c5b8ff5	0.013401021
227	0xbe35ffd8	-0.17773378
228	0xbe46f012	-0.19427517
229	0x3d24726d	0.040148187
230	0x3d903322	0.07041003
231	0x3cdc8ad4	0.026921667
232	0xbd7150f5	-0.058915097
233	0x3d8216a2	0.06351973
234	0x3dcdbc16	0.1004564
235	0xbcc11d39	-0.023573505
236	0xbd817166	-0.06320457
237	0x3dadd1ee	0.084873065
238	0xbd1545c5	-0.03644349
239	0x3d6b5e60	0.05746305
240	0x3de73195	0.11288754
241	0x3d94684f	0.07246458
242	0x3d1cca4e	0.03827887
243	0x3d4074a7	0.04698625
244	0xbdd59dd8	-0.10430497
245	0x3e400c59	0.1875471
246	0x3d711b6a	0.058864035
247	0x3e0da725	0.13833292
248	0x3de7d9eb	0.113208614
249	0x3de1434c	0.10999164
250	0xbd52cbce	-0.051463895
251	0x3c5e781e	0.013578443
252	0x3d2c6e92	0.042097636
253	0x3ba4ff19	0.005035293
254	0xbdc4a4f8	-0.09601778
255	0xbd523fcd	-0.051330376

conv_block2.0.weight f4 [32, 32, 10]
0	0xbc31350f	-0.010815873
1	0xbd29535c	-0.041339263
2	0x3c4966e7	0.0122926
3	0xbd3ebaad	-0.046564747
4	0x3cb830b7	0.022484167
5	0x3cfa9573	0.030588841
6	0x3bcb7065	0.006208467
7	0x3df854e5	0.12125567
8	0x3dbaa4ff	0.09113502
9	0x3dbbd495	0.09171406
10	0x3db2ce2c	0.087307304
11	0x3df7d127	0.121004395
12	0x3e089cab	0.13341014
13	0x3cc56a6d	0.0240986
14	0x3d7b1807	0.06130221
15	0x3ddecbe8	0.10878736
16	0x3d7523c0	0.059848547
17	0x3ded03d3	0.11572995
18	0x3d95139d	0.072791316
19	0xbc5a287e	-0.013315318
20	0xbcc65761	-0.024211587
21	0x3c9769a0	0.018482983
22	0xbd2acdaf	-0.04170006
23	0x3c6399da	0.013891662
24	0xbcc6c0ed	-0.024261916
25	0x3d960cb3	0.07326641
26	0x3d78cdc2	0.0607431
27	0xbd3bd430	-0.045856655
28	0x3c9d8823	0.019229954
29	0xbdabc5bc	-0.08387324
30	0xbdd70135	-0.10498277
31	0x3d15a745	0.036536474
32	0xbc78e598	-0.015191458
33	0xbda013ce	-0.078162774
34	0xbda37efc	-0.07983205
35	0x3d853741	0.065046795
36	0xbd1c5938	-0.038171023
37	0xbd95f6eb	-0.073224865
38	0xbd665b2d	-0.056239296
39	0xbb33c785	-0.0027432155
40	0x3d3183a1	0.04333842
41	0x3bc97b03	0.0061486973
42	0x3de44623	0.1114619
43	0x3db20b74	0.08693591
44	0xbd6cb354	-0.057788208
45	0x3e053c15	0.130112
46	0xbd26510a	-0.04060463
47	0x3dc4bd38	0.09606403
48	0x3c11a075	0.008888354
49	0x3d9d5eae	0.07684074
50	0xbc9e4e5c	-0.019324474
51	0x3cc266b4	0.023730613
52	0x3c8e52b1	0.017373415
53	0x3dc579d2	0.09642376
54	0xbce1eb2b	-0.027577957
55	0x3d8da3af	0.06915986
56	0xbcb3b7cb	-0.021938225
57	0x3d190a83	0.03736354
58	0x3e00e8a5	0.12588747
59	0x3df13706	0.11778073
60	0x3d614845	0.055000562
61	0x3d75ebe5	0.06003942
62	0x3de7d5c6	0.11320071
63	0x3e324176	0.17407784
64	0x3e6f07f3	0.23342876
65	0x3dc052ad	0.09390769
66	0x3dbae4e8	0.09125692
67	0x3e39ae9f	0.18133019
68	0x3d1e9704	0.03871824
69	0x3d76cae9	0.060252104
70	0x3e38d653	0.18050508
71	0x3d106603	0.035253536
72	0x3cb1aee0	0.021689832
73	0x3ce0983e	0.027416345
74	0x3d4fc832	0.05072803
75	0x3dcca239	0.09991879
76	0x3db3f141	0.0878625
77	0x3dc67f29	0.096922226
78	0x3e11db58	0.14243829
79	0x3e278031	0.16357495
80	0x3cdb1f68	0.026748374
81	0x3da2b03a	0.07943769
82	0x3d08ec96	0.03342875
83	0xbc6727a6	-0.014108574
84	0x3d98129c	0.074254245
85	0xbd5e10a3	-0.054215085
86	0xbcbe0774	-0.023196913
87	0xb7911e99	-1.7299595e-05
88	0x3ce46a72	0.027882788
89	0xbcd7607b	-0.026291123
90	0x3c9d6501	0.019213201
91	0x3c822eaf	0.015891401
92	0x3d3fe3e0	0.046848178
93	0xbd8e93da	-0.06961794
94	0xbdf557f4	-0.11979666
95	0xbe04ce8f	-0.12969421
96	0xbdedb47f	-0.116066925
97	0x3be9bb33	0.0071329116
98	0xbe02cfac	-0.12774533
99	0x3c74d53e	0.014943419
100	0x3da66624	0.081249505
101	0x3db108fd	0.086442925
102	0x3dfa98ef	0.12236201
103	0xbc36314a	-0.01112015
104	0x3e0304ea	0.12794843
105	0xbcc5720b	-0.024102231
106	0x3db6e7af	0.08930909
107	0x3dda1c48	0.106499255
108	0xbd80698f	-0.06270134
109	0x3de29e89	0.110653944
110	0x3bd6dcf5	0.006557102
111	0xbdd4bddf	-0.103877775
112	0x3d9ae0ca	0.07562406
113	0x3d99b162	0.07504536
114	0x3d919f4c	0.071104616
115	0x3d43303f	0.047653433
116	0xbd325a93	-0.04354341
117	0x3db78e26	0.089626595
118	0xbda2d768	-0.07951242
119	0xbcda10df	-0.026619373
120	0xbdc6c232	-0.097050086
121	0xbcd09930	-0.02546367
122	0xbcee3ab0	-0.029080719
123	0x3d202834	0.03910084
124	0xbdd051ef	-0.101718776
125	0xbe02cf14	-0.12774307
126	0x3c646dac	0.013942163
127	0x3d3734c3	0.044728052
128	0x3b20897a	0.0024496005
129	0xbe06adc7	-0.13152228
130	0xbdeb0381	-0.11475278
131	0xbdacabcc	-0.08431205
132	0xbdb03931	-0.086046584
133	0xbdc2aeda	-0.095060065
134	0xbe18363e	-0.14864442
135	0xbda308fd	-0.07960699
136	0xbdb3c9be	-0.08778714
137	0x3c13e15f	0.009025901
138	0xbd1563bd	-0.03647207
139	0xbe1544ff	-0.14577101
140	0x3d4eb64e	0.050466828
141	0x3d1ecff6	0.038772546
142	0x3da6c4af	0.08142983
143	0x3e0ae5d3	0.13564233
144	0x3dd5a7f6	0.10432427
145	0x3d863dc5	0.0655475
146	0xbd791cc0	-0.060818434
147	0x3d91f319	0.07126445
148	0x3be4dd94	0.006984422
149	0x3de1614b	0.11004885
150	0x3dc08738	0.09400791
151	0x3db085b3	0.08619251
152	0xbda14d58	-0.0787608
153	0x3ca1882d	0.019718254
154	0x3d800524	0.062509805
155	0x3d8c3a7e	0.06847094
156	0xbd33cb60	-0.043895125
157	0x3c637b8f	0.013884439
158	0x3dbc0610	0.09180844
159	0x3cb8bb82	0.022550348
160	0x3d474934	0.048653796
161	0xbdbb0c97	-0.09133261
162	0xbda9def2	-0.082944766
163	0xbc4c2bdf	-0.012461632
164	0x3dd579cb	0.10423621
165	0x3d3c3969	0.045953188
166	0x3d827fa3	0.06372001
167	0xbd78835f	-0.06067216
168	0x3d863915	0.06553856
169	0xbcf7d82c	-0.030254446
170	0xbb9d74c1	-0.004805178
171	0x3e0dc014	0.13842803
172	0x3e23e701	0.1600609
173	0x3dd2323a	0.10263486
174	0x3c299c6e	0.010352237
175	0x3e2b12c0	0.16706371
176	0x3d30e714	0.043189123
177	0x3d3ba21c	0.045808896
178	0x3db80f83	0.089873336
179	0xbbdf6bbe	-0.006818264
180	0xbd1d6204	-0.038423553
181	0xbc9fe149	-0.019516604
182	0xbe02249a	-0.12709275
183	0x3c62589c	0.013815071
184	0x3a19f59a	0.00058730843
185	0xbdcfd03e	-0.10147141
186	0xbd31a8cd	-0.04337387
187	0xbdc43910	-0.09581196
188	0xbcc2f7e6	-0.023799848
189	0xbd2d43c8	-0.04230097
190	0xbc816c77	-0.01579879
191	0x3e043ed2	0.12914589
192	0xbca8c340	-0.020600915
193	0x3cf3cb6f	0.02976009
194	0xbd2ae6fa	-0.041724183
195	0xbc7a02e5	-0.015259479
196	0x3d47a1da	0.048738338
197	0x3ddfc83a	0.10926862
198	0x3b9524c2	0.004551501
199	0x3cf32998	0.02968292
200	0xbd424958	-0.047433227
201	0xbc8f2809	-0.017475145
202	0x3c51b70f	0.012799992
203	0xbd3cd074	-0.046097234
204	0xbd20c9c9	-0.039254937
205	0xbd84cfff	-0.064849846
206	0xbd26f91b	-0.04076491
207	0x3d19a4c6	0.037510656
208	0xbc247a25	-0.010038887
209	0xbc9691ae	-0.018380012
210	0xbd84d8a9	-0.06486637
211	0x3d2db9c3	0.042413484
212	0xbd9a308d	-0.075287916
213	0xbd89ed55	-0.067347206
214	0xbd854b4a	-0.06508501
215	0xbd8802cd	-0.06641159
216	0xbcd3f890	-0.02587536
217	0x3dd29bf8	0.10283655
218	0xbbd11a4d	-0.006381309
219	0xbdbe8714	-0.09303108
220	0x3d0baa48	0.03409794
221	0x3d1c3cdc	0.038143978
222	0x3d4317e4	0.047630206
223	0x3e065bfa	0.13121024
224	0xb966bcb3	-0.00022004805
225	0xbcb1e658	-0.021716282
226	0x3dfe3bf5	0.1241378
227	0x3d7d43bf	0.061832186
228	0x3e140ef5	0.1445883
229	0x3d2ca0c5	0.04214551
230	0x3ca00419	0.019533204
231	0x3da7e6c9	0.08198316
232	0x3dd5b084	0.10434058
233	0x3e33e011	0.17565943
234	0x3d3d4b6a	0.0462145
235	0x3d20415d	0.039124835
236	0x3e192141	0.14954092
237	0x3e2d3a57	0.16916786
238	0x3e0f2de0	0.13982344
239	0x3d60fb76	0.05492731
240	0x3d65f646	0.056143068
241	0x3ddc5a81	0.1075945
242	0xbd875b7d	-0.06609247
243	0xbcf9c461	-0.030489149
244	0xbd174d31	-0.03693885
245	0x3d9aed38	0.07564777
246	0xbda3a55e	-0.07990526
247	0xbd0ebb16	-0.034846388
248	0x3de543c0	0.11194563
249	0x3bfc227c	0.0076945405
250	0xbdbc262e	-0.0918697
251	0xbdf68ab9	-0.12038178
252	0xbc41eb45	-0.011835878
253	0xbe0400ab	-0.1289088
254	0xbdcd5218	-0.10025424
255	0x3d260adf	0.04053771

gru.weight_ih_l0 f4 [96, 32]
0	0x3d43d42c	0.047809765
1	0x3e0bb608	0.13643658
2	0x3d100e15	0.03516968
3	0x3eb809bc	0.35944927
4	0x3c10d04b	0.008838723
5	0xbe01d56c	-0.1267907
6	0x3e8bf345	0.27334037
7	0xbc90c87f	-0.017673729
8	0x3c7732b9	0.015087777
9	0x3dacf928	0.0844596
10	0x3e053493	0.13008337
11	0x3e3c316a	0.18378225
12	0xba862d65	-0.0010236917
13	0x3e4bb29b	0.19892351
14	0xbdf455f0	-0.11930454
15	0x3df8a98b	0.12141713
16	0x3df66d28	0.12032539
17	0x3ed71746	0.42009944
18	0xbd996b3b	-0.07491156
19	0xba507dbe	-0.00079533074
20	0x3d46203a	0.048370577
21	0x3e892074	0.26782572
22	0xbe1692bc	-0.14704412
23	0x3df1d00b	0.11807259
24	0x3c2fee38	0.010737948
25	0x3e56ede5	0.20989187
26	0x3e3d5870	0.18490767
27	0xbce93056	-0.028465431
28	0xbca742b2	-0.020417545
29	0x3e54eb2f	0.2079284
30	0x3d54fcd3	0.051998924
31	0x3d9a9dda	0.07549639
32	0x3e72174c	0.236417
33	0x3d51ac01	0.051189426
34	0x3da746cd	0.08167801
35	0xbe56729c	-0.20942158
36	0x3e4daf31	0.20086361
37	0x3c8ad2c2	0.0169462
38	0x3e6bea79	0.23038663
39	0x3cfde676	0.030993681
40	0x3cc3752e	0.023859587
41	0xbd8a2009	-0.067443915
42	0xbe162806	-0.14663705
43	0xbe03e1c2	-0.12879089
44	0xbdf4539e	-0.11930011
45	0x3e1bd49f	0.15217827
46	0x3d98bc16	0.074577495
47	0xbdb2841b	-0.08716603
48	0x3e59afed	0.21258517
49	0x3dfec5f3	0.124400996
50	0x3dd35695	0.103192486
51	0x3da1601b	0.07879659
52	0x3c82572e	0.015910711
53	0x3cf29c62	0.029615585
54	0x3da9d6f9	0.08292956
55	0x3e4d6403	0.20057683
56	0x3df2eba9	0.11861355
57	0x3e03d53a	0.12874308
58	0x3c20a9bf	0.009806096
59	0x3e4c8a9c	0.1997475
60	0xbd21c695	-0.039496023
61	0x3e2ab79b	0.16671602
62	0xbbdabd16	-0.006675373
63	0x3de92a1a	0.11384983
64	0x3d864425	0.06555966
65	0x3e11e5cc	0.14247817
66	0x3ceea7af	0.029132692
67	0x3d996933	0.07490768
68	0x3d933249	0.071873255
69	0xbe209c4c	-0.15684623
70	0x3d75c55c	0.06000267
71	0x3e4dc8a1	0.20096065
72	0xbdb857a6	-0.090010926
73	0x3e7adf64	0.2449928
74	0x3e31e3b7	0.17372023
75	0x3e10b6c4	0.1413222
76	0x3d826016	0.06365983
77	0x3d1b30c8	0.03788832
78	0x3d72fc3c	0.05932258
79	0xbcddb382	-0.027063135
80	0x3e272f0a	0.16326538
81	0x3c84f2e1	0.016229095
82	0x3e585d91	0.21129443
83	0xbe03653e	-0.1283159
84	0xbdc3dbb3	-0.09563389
85	0x3cb188de	0.021671709
86	0xbdc72e08	-0.09725577
87	0xbc54ed74	-0.012996066
88	0x3e6e871a	0.23293725
89	0xbd4cc99d	-0.04999696
90	0xbe40b7dd	-0.18820138
91	0x3c7742b0	0.015091583
92	0x3dd0082e	0.1015781
93	0x3dbe512a	0.092928246
94	0xbe678553	-0.22609453
95	0x3e766ea4	0.24065644
96	0xbd85e0cd	-0.06537018
97	0xbd0b5a52	-0.034021683
98	0xbd886cda	-0.06661387
99	0xbe0f59af	-0.13999055
100	0xbd8e9f4d	-0.06963978
101	0xbd14ad22	-0.036297925
102	0x3d92cc04	0.07167819
103	0xbe0564a3	-0.13026671
104	0x3e257589	0.16158117
105	0x3dbf19c8	0.09331089
106	0xbc5a307e	-0.0133172255
107	0xbd9cd405	-0.07657627
108	0xbe10df9c	-0.141478
109	0x3de5d38f	0.11221992
110	0x3ca6345c	0.020288639
111	0x3e47951d	0.19490476
112	0x3df22d0c	0.11824998
113	0xbd5f9fd0	-0.05459577
114	0xbe831955	-0.25605264
115	0x3e35b25b	0.17743818
116	0xbe20c5a0	-0.15700388
117	0x3e207ae9	0.15671887
118	0xbdc5357b	-0.09629341
119	0xbd11dab4	-0.035608962
120	0xbdac10be	-0.08401631
121	0xbda11060	-0.078644514
122	0xbd16acc2	-0.03678585
123	0x3e30aa9b	0.17252581
124	0xbdc5978d	-0.09648047
125	0x3e1883bb	0.14894001
126	0x3e215d71	0.15758301
127	0x3d2d167f	0.042257782
128	0xbdf752c9	-0.12076337
129	0xbd15155d	-0.036397327
130	0x3d97e256	0.07416217
131	0xbd64c773	-0.055854272
132	0xbdc7e6a3	-0.09760787
133	0xbd83a30a	-0.064275816
134	0x3dcbee63	0.09957578
135	0xbca7464d	-0.020419264
136	0xbc9f22e7	-0.019425822
137	0xbe0e4132	-0.13892058
138	0x3da2d68e	0.07951079
139	0x3d83190a	0.0640126
140	0x3da020ce	0.07818757
141	0x3e1982ac	0.14991254
142	0x3d4c6f7e	0.049911015
143	0x3ce14aad	0.027501428
144	0x3a3ef60d	0.0007284589
145	0x3ddba48e	0.10724746
146	0x3d1d5676	0.038412534
147	0x3e20d112	0.15704754
148	0xbc598131	-0.013275431
149	0x3e1f8065	0.15576322
150	0xbaea542e	-0.0017877871
151	0x3d9acecf	0.07558977
152	0x3d2f015e	0.042725913
153	0x3e6db481	0.23213388
154	0x3e6b9ef7	0.23009859
155	0xbdce73cc	-0.1008068
156	0xbda0abf2	-0.07845296
157	0x3c80ed46	0.01573814
158	0xbe04090d	-0.12894078
159	0x3db8eb9a	0.090293124
160	0x3dd9a0e5	0.10626391
161	0x3e801ed7	0.2502353
162	0xbb9a69cf	-0.0047123204
163	0x3ecdf6ad	0.4022726
164	0xbdc2e09e	-0.095154986
165	0xbd34690b	-0.04404549
166	0x3dcf765f	0.10129999
167	0x3e52d0e4	0.20587498
168	0xbb9b9fcc	-0.004749274
169	0x3e5e7ec1	0.2172804
170	0x3e1d1e3a	0.15343562
171	0x3e2a1fb4	0.16613656
172	0xbe02a485	-0.12758072
173	0x3e497c7e	0.19676396
174	0xbe2614bb	-0.16218846
175	0xbdf2ff01	-0.118650444
176	0x3ead3945	0.33832756
177	0x3e86de96	0.26341695
178	0x3e0f5681	0.13997842
179	0x3e39b983	0.18137173
180	0x3e8274ff	0.25479886
181	0x3d992aa0	0.07478833
182	0xbe2a39bd	-0.16623588
183	0x3e26f0ea	0.16302839
184	0x3bce81cc	0.006302094
185	0xbe625284	-0.2210179
186	0xbe1af951	-0.15134169
187	0x3ca1e0a2	0.019760434
188	0x3e2e66de	0.17031428
189	0x3e4301c8	0.19043648
190	0xbe38c073	-0.18042164
191	0x3d7993cf	0.060931977
192	0xbe05b660	-0.13057852
193	0xbdaf2fda	-0.08554049
194	0xbe86a84a	-0.2630027
195	0xbe49f6dc	-0.19723076
196	0x3e09b18a	0.13446632
197	0x3e615e5e	0.22008654
198	0xbd935f98	-0.071959674
199	0xbe24b7f3	-0.16085796
200	0xbdb7448b	-0.089486204
201	0xbcaac3bf	-0.020845292
202	0xbcbc37a1	-0.022975745
203	0xba81ce9a	-0.0009903491
204	0x3d80dafb	0.06291767
205	0xbc88f713	-0.016719377
206	0x3e0d9779	0.13827313
207	0x3d7c6090	0.061615527
208	0xbd05c1a5	-0.032655377
209	0xbe57f6ab	-0.2109019
210	0xbe9847ff	-0.2974243
211	0x3e15daf5	0.14634307
212	0xbe91ea00	-0.2849884
213	0xbd3f5bca	-0.046718396
214	0x3dd51c45	0.104057826
215	0xbe6221da	-0.22083226
216	0xbe9facfd	-0.31186667
217	0x3e441d6b	0.19151847
218	0x3e66f56f	0.22554563
219	0xbd81d983	-0.06340315
220	0xbe1819d3	-0.14853601
221	0xbe31f5c2	-0.17378905
222	0x3d607cfd	0.054806698
223	0xbeabce91	-0.33556035
224	0x3dae7ab3	0.08519497
225	0xbdaead13	-0.08529105
226	0x3dfad0b4	0.12246838
227	0xbe3c88be	-0.18411538
228	0xbe1a64ee	-0.15077564
229	0xbd97707c	-0.073945016
230	0x3ce0ddf6	0.02744959
231	0x3e34bc07	0.17649852
232	0xbd17dfc6	-0.03707864
233	0x3e362cb6	0.17790493
234	0xbdd8b3a2	-0.10581137
235	0x3cc8320d	0.024437929
236	0xbce34a96	-0.027745526
237	0x3d902f3a	0.07040258
238	0xbd9f139c	-0.07767412
239	0x3e1a65ee	0.15077946
240	0x3dfaec62	0.12252118
241	0xbdc01b43	-0.093802
242	0x3e2bfb1a	0.16795006
243	0x3e22c36f	0.15894864
244	0x3e0ab5be	0.13545892
245	0x3deef1f8	0.116672456
246	0x3d881864	0.06645277
247	0x3e62b1bd	0.22138114
248	0xbdb49cb1	-0.08818949
249	0x3e04e10b	0.12976472
250	0xbddf74f9	-0.10910983
251	0x3dad3daf	0.08459031
252	0x3e7a470e	0.24441168
253	0xbdef6b78	-0.1169042
254	0x3d7591ac	0.059953377
255	0xbca1b6e0	-0.019740522

gru.weight_hh_l0 f4 [96, 32]
0	0xbddaeffe	-0.10690306
1	0x3d9b880d	0.07594309
2	0xbe1c38a6	-0.15255985
3	0xbe3f8813	-0.18704252
4	0x3e8157ba	0.25262243
5	0x3d0c3e88	0.034239322
6	0x3d3f0233	0.046632957
7	0x3d038cc0	0.03211665
8	0xbb359cb2	-0.0027711806
9	0xbe544e81	-0.20733072
10	0xbe3652c6	-0.17805013
11	0x3db89a7f	0.09013843
12	0xbc869ab7	-0.016431196
13	0xbe95f7fe	-0.29290766
14	0x3d26350a	0.040577926
15	0x3e201022	0.15631154
16	0xbd99884a	-0.07496698
17	0x3cf661cf	0.030075936
18	0x3db078c7	0.086167865
19	0x3c917cfe	0.017759796
20	0xbdf97f46	-0.121824786
21	0x3e1d1333	0.15339355
22	0xbcfc4301	-0.030793669
23	0xbdaa8cbc	-0.08327624
24	0xbd3597ce	-0.044334225
25	0xbcd3533d	-0.025796527
26	0x3dd054d1	0.101724274
27	0xbe38ae82	-0.1803532
28	0x3ddb083d	0.10694931
29	0xbe129002	-0.14312747
30	0x3d8fd95d	0.07023881
31	0xbdb870db	-0.090059005
32	0x3d33b2dc	0.043871745
33	0x3d4cb4f4	0.049977258
34	0xbcb794f6	-0.022409897
35	0x3ddf535b	0.10904571
36	0x3e48fca5	0.19627626
37	0xbc965164	-0.018349357
38	0x3e71dcd9	0.23619403
39	0x3de5088f	0.11183273
40	0x3d9adc24	0.0756152
41	0x3cd47654	0.02593533
42	0x3e6a156f	0.22859739
43	0x3df02985	0.11726669
44	0xbda46aa9	-0.08028156
45	0xbe1ecf7d	-0.15508838
46	0xbc1300c1	-0.008972348
47	0xbe633c85	-0.22191055
48	0x3df5de72	0.12005319
49	0x3c89421f	0.016755162
50	0xbe253cff	-0.1613655
51	0x3ea5e7a7	0.324033
52	0x3c2e34c9	0.010632702
53	0xbe5b5bc6	-0.21421728
54	0xbe26786b	-0.16256873
55	0x3e217344	0.15766627
56	0xbdcf2c9f	-0.10115933
57	0x3c8f7325	0.01751096
58	0xbe1e6c65	-0.15471037
59	0x3baf9ea7	0.005359489
60	0x3dd66494	0.104684025
61	0x3ddeba95	0.108754314
62	0xbd955ebb	-0.07293459
63	0x3dcecc2c	0.100975364
64	0x3dda6970	0.10664642
65	0x3e855651	0.26042417
66	0xbd9815de	-0.07426046
67	0xbe4235a6	-0.18965778
68	0x3d57403d	0.052551497
69	0xbd239b3c	-0.039942965
70	0x3ca8bf32	0.020598982
71	0xbe36138b	-0.17780893
72	0xbd0c475a	-0.034247734
73	0xbcf371de	-0.029717382
74	0xbd6e2c82	-0.058147915
75	0xbde8ed63	-0.11373403
76	0xbe8abe80	-0.27098465
77	0xbd1d447d	-0.038395394
78	0xbe0a63dd	-0.13514657
79	0x3e42c0b1	0.19018818
80	0xbe0690e4	-0.13141209
81	0x3e6053d0	0.21906972
82	0x3c7a3955	0.015272458
83	0xbd9652c6	-0.073400065
84	0x392ab187	0.00016278597
85	0xbe2c318f	-0.1681578
86	0xbe42fc99	-0.19041671
87	0xbd70038c	-0.058597133
88	0x3cf5e77a	0.030017603
89	0x3d996861	0.07490612
90	0xbde54469	-0.11194689
91	0xbe10e54d	-0.14149971
92	0x3d426a08	0.0474644
93	0x3cf643ac	0.030061565
94	0x3e4bd0a7	0.19903813
95	0x3e73f98a	0.2382566
96	0x3db176cf	0.08665239
97	0xbe289131	-0.16461636
98	0xbdd3843e	-0.103279576
99	0x3cc96db0	0.024588436
100	0x3c8ef424	0.0174504
101	0xbdc18154	-0.094484955
102	0xbd3bf912	-0.04589183
103	0xba68180d	-0.00088536815
104	0xbe2b0de3	-0.16704516
105	0x3ca8d2ed	0.02060839
106	0xbd90d74b	-0.07072314
107	0x3dcfe384	0.10150817
108	0xbe504df0	-0.20342231
109	0xbd36e563	-0.044652354
110	0x3ddf4b8b	0.109030806
111	0x3e8c1490	0.27359438
112	0xbd3eef1b	-0.046614747
113	0xbe4b628c	-0.19861811
114	0x3e2ce4b7	0.16884123
115	0xbdcb441d	-0.09925101
116	0x3b8a87a0	0.0042275935
117	0x3dea24e6	0.11432819
118	0xbe2d94aa	-0.16951242
119	0xbcd4049d	-0.025881106
120	0x3d9f8cb7	0.07790511
121	0x3d354c54	0.044262245
122	0xbd323097	-0.04350337
123	0x3d6ad912	0.05733592
124	0xbdad4620	-0.08460641
125	0xbdb18167	-0.0866726
126	0x3dc74ae6	0.097310826
127	0xbc17854a	-0.009248087
128	0xbe4099dc	-0.18808693
129	0x3e5cf511	0.2157786
130	0xbe146bab	-0.14494197
131	0x3c3b4c7c	0.0114318095
132	0x3c9c35ec	0.01906868
133	0xbe4dec15	-0.2010959
134	0x3d94e76e	0.07270704
135	0xbce29053	-0.02765671
136	0x3e198c53	0.14994936
137	0x3ddfd48a	0.109292105
138	0x3da0dda7	0.07854777
139	0x3d7db683	0.061941635
140	0xbe17d228	-0.14826262
141	0xbd03895f	-0.03211343
142	0xbdcb34ff	-0.099222176
143	0xbd51fb95	-0.051265318
144	0xbe5b44f0	-0.21413016
145	0xbdfb565b	-0.122723304
146	0x3d00faef	0.03148931
147	0x3c8c1626	0.017100405
148	0xbe1754b4	-0.14778405
149	0xbd3422a5	-0.043978352
150	0xbe37e037	-0.17956625
151	0x3e1c7ed9	0.15282764
152	0xbdda2c29	-0.10652954
153	0xbd943e6b	-0.07238468
154	0xbda5c5bb	-0.08094355
155	0xbe6c3014	-0.23065215
156	0x3db70177	0.08935826
157	0x3d38938d	0.04506259
158	0x3e534e62	0.2063537
159	0xbdad97d8	-0.084762275
160	0xbd196c58	-0.03745684
161	0x3e626dbf	0.22112177
162	0x3decf0b4	0.11569348
163	0xbd95c34a	-0.07312639
164	0x3e23c8a6	0.1599451
165	0xbd0a4f12	-0.033766814
166	0x3cd428e6	0.025898408
167	0x3e1db9f0	0.15402961
168	0xbccbdfc3	-0.024886971
169	0xbd61c6eb	-0.055121344
170	0x3b9c30d7	0.0047665644
171	0xbd93273f	-0.0718522
172	0xbe1e9f9e	-0.15490577
173	0x3e00fb76	0.12595925
174	0x3e8b291b	0.27179798
175	0xbe13655b	-0.14394133
176	0xbe5741cd	-0.21021195
177	0xbe2aa0b2	-0.16662863
178	0xbe802ca3	-0.25034055
179	0xbd983a42	-0.07432987
180	0x3da96b8e	0.082724676
181	0xbd91894a	-0.07106264
182	0xbd247739	-0.040152762
183	0x3d230178	0.039796323
184	0x3d5b67d6	0.053565823
185	0xbeafca10	-0.3433385
186	0x3c828c03	0.015935903
187	0x3e47dc48	0.19517624
188	0xbe474ee0	-0.19463682
189	0xbd89f822	-0.06736781
190	0xbe78f0e7	-0.24310647
191	0x3bd4d2f6	0.006494875
192	0x3d91b953	0.07115426
193	0x3de20e3f	0.110378735
194	0xbd1c0288	-0.03808835
195	0xbd80d52c	-0.06290659
196	0xbe09ba83	-0.13450055
197	0x3c8ab8b7	0.016933782
198	0xbe30143a	-0.17195216
199	0x3c381d50	0.011237457
200	0x3e128b91	0.14311053
201	0xbe3e64cb	-0.18593137
202	0xbe5b38db	-0.21408407
203	0xbc9e3da7	-0.019316508
204	0x3e69014c	0.22754401
205	0x3e04cc31	0.12968518
206	0x3c5da59d	0.013528255
207	0xbdbf370b	-0.093366705
208	0x3da455ef	0.08024203
209	0x3a0b7f0e	0.0005321362
210	0x3e09165e	0.13387439
211	0xbd6223fe	-0.055210106
212	0xbb99fe77	-0.004699524
213	0xbda7da0d	-0.08195887
214	0xbe11a023	-0.14221244
215	0x3d9be018	0.07611102
216	0x3ddbbc37	0.107292585
217	0x3e512ba5	0.20426805
218	0xbdad3fd5	-0.084594406
219	0x3dbefc39	0.093254514
220	0x3e1352de	0.1438708
221	0x3d90f2f8	0.070775926
222	0xbde9d22b	-0.114170395
223	0xbda3039b	-0.07959672
224	0xbd246414	-0.040134504
225	0x3e1064e4	0.14100987
226	0x3d3da2bf	0.046297785
227	0x3d22f2d0	0.039782345
228	0xbdf0a209	-0.11749656
229	0x3defd690	0.117108464
230	0x3d5134d5	0.051075775
231	0xbc68c54e	-0.014207197
232	0x3e2e786b	0.17038123
233	0x3e2e587b	0.1702594
234	0xbd65fcae	-0.056149177
235	0x3c22923f	0.009922563
236	0xbd55c3d5	-0.052188713
237	0x3e300a77	0.17191492
238	0xbcf26eb9	-0.029593812
239	0xbdcd24af	-0.100167625
240	0xbdc73849	-0.097275324
241	0xbd03cfe5	-0.032180686
242	0xbe1faa78	-0.15592372
243	0xbd29eb04	-0.041483894
244	0xbd30e4de	-0.043187015
245	0xbe2baf96	-0.167662
246	0xbd28cb12	-0.041209288
247	0x3e84aa86	0.2591135
248	0xbd5e37f4	-0.05425258
249	0xbe340080	-0.17578316
250	0xbdef68b3	-0.11689892
251	0x3d9f5ea6	0.07781725
252	0xbe76123a	-0.2403039
253	0x3d419943	0.047265302
254	0xbd3361aa	-0.04379431
255	0xbdf1f475	-0.118142046

gru.bias_ih_l0 f4 [96]
0	0x3e08969a	0.133387
1	0xbd50089a	-0.050789453
2	0x3e5ca200	0.21546173
3	0xbdd0ae47	-0.10189491
4	0x3de534a4	0.11191681
5	0xbc1d246e	-0.009591205
6	0xbe1e9699	-0.15487136
7	0xbca452fd	-0.020059103
8	0x3e842375	0.25808302
9	0xbd08ffa1	-0.03344691
10	0x3d599a2c	0.053125545
11	0xbce47e2f	-0.0278922
12	0xbddd8473	-0.10816278
13	0x3e0c29c6	0.1368781
14	0xbdf72312	-0.12067236
15	0xbcda2f97	-0.02663402
16	0x3da06041	0.07830859
17	0xbdc0ca9e	-0.09413646
18	0x3ca5610b	0.020187875
19	0xbc603b86	-0.0136860665
20	0x3debe156	0.11517589
21	0xbd99a4be	-0.07502125
22	0x3e7afff0	0.24511695
23	0x3e00b0be	0.12567422
24	0xbc251790	-0.0100764185
25	0xbdf2d7d0	-0.11857569
26	0x3e1341fa	0.14380637
27	0x3c445696	0.011983534
28	0x3e235b53	0.15952806
29	0x3e219acf	0.15781711
30	0x3d6b97ef	0.057517942
31	0x3ea6d2d8	0.32582736
32	0xbe18618b	-0.1488096
33	0x3daf46be	0.08558415
34	0xbd635399	-0.055499647
35	0x3e498e88	0.19683278
36	0x3c8a7c35	0.01690493
37	0xbe0c21a9	-0.13684715
38	0x3e224472	0.15846422
39	0xbd19bfff	-0.037536617
40	0x3d2abc6f	0.04168361
41	0x3da16711	0.078809865
42	0x3ea60dd2	0.3243242
43	0x3e44595c	0.19174713
44	0x3d825081	0.06363011
45	0x3da0f21d	0.078586794
46	0xbd36b08b	-0.04460196
47	0xbdc9b626	-0.09849195
48	0x3dd18446	0.10230307
49	0x3e5c1f97	0.21496426
50	0xbba317a2	-0.0049771825
51	0x3e5a3588	0.21309483
52	0xbcb7bea0	-0.022429764
53	0xbdf9cdb6	-0.121974394
54	0x3b8d0d08	0.004304532
55	0xbd972209	-0.073795386
56	0x3e2a06bf	0.16604136
57	0xbd433fda	-0.047668315
58	0x3d524149	0.051331792
59	0xbe0422b4	-0.12903863
60	0x3cb44207	0.02200414
61	0x3e724074	0.236574
62	0xbdeed37d	-0.11661432
63	0xbd47cced	-0.048779417
64	0x3bc2aab7	0.005940761
65	0x3e2b563b	0.16732113
66	0x3d2e7f4f	0.04260188
67	0xbc760415	-0.015015622
68	0x3d569662	0.05238951
69	0xbe5fed0a	-0.21867767
70	0x3db86d91	0.09005273
71	0xbe5d6d22	-0.21623662
72	0xbdcc7bd7	-0.09984558
73	0x3c244f48	0.010028668
74	0x3e4177ee	0.18893406
75	0x3e5d4ded	0.21611758
76	0xbd168c36	-0.03675481
77	0xbd9f0816	-0.07765214
78	0x3cdbb7cb	0.026821038
79	0x3d7e50e6	0.06208887
80	0xbe5b86d4	-0.21438152
81	0xbe172478	-0.14760005
82	0xbd161c55	-0.036648113
83	0xbdd9d8eb	-0.10637077
84	0xbe72be6f	-0.23705457
85	0x3da91b28	0.08257133
86	0x3dce4050	0.100708604
87	0xbe0394e8	-0.12849772
88	0x3b1474ef	0.0022652706
89	0xbbe21dfc	-0.006900547
90	0xbd454bb9	-0.048167918
91	0xbe24b084	-0.1608296
92	0x3de15b25	0.110037126
93	0xbce3885f	-0.027774988
94	0x3dcd227e	0.100163445
95	0x3e009910	0.12558389

gru.bias_hh_l0 f4 [96]
0	0xbc7a3b8c	-0.015272986
1	0x3e636765	0.2220741
2	0x3e824d14	0.2544943
3	0x3db6bff7	0.08923333
4	0xbd814a31	-0.06312979
5	0xbd01f207	-0.031724956
6	0xbdbefd4f	-0.093256585
7	0x3e3140e6	0.17309913
8	0x3cc45898	0.023968026
9	0x3e6d876f	0.23196195
10	0x3e35af21	0.17742588
11	0x3dbc8240	0.09204531
12	0x3ac963b4	0.0015364797
13	0x3e91349a	0.28360444
14	0xbdd4c2c8	-0.10388714
15	0x3d433bcd	0.047664452
16	0x3e87cf31	0.26525262
17	0x3d52942a	0.05141083
18	0x3ca12a5c	0.019673519
19	0x3d1aec0e	0.037822776
20	0x3e8f3460	0.27969646
21	0x3e50f7d1	0.20407034
22	0x3e836c1b	0.25668415
23	0x3e61751a	0.22017327
24	0xbd9ade5c	-0.07561943
25	0x3d9d6b07	0.076864295
26	0x3db97f0f	0.09057438
27	0x3d601088	0.054703265
28	0x3a9d7477	0.0012012859
29	0x3d25ce97	0.040480223
30	0x3d6730d0	0.056443036
31	0x3e8bdd8d	0.27317467
32	0xbd277c3b	-0.04088996
33	0x3e795ecc	0.24352568
34	0x3e3b0ebd	0.18267341
35	0x3ce11b46	0.027478825
36	0x3e5ce465	0.215715
37	0xbdd06806	-0.10176091
38	0x3d16039f	0.036624547
39	0xbe6400c8	-0.22265923
40	0xbc9cc322	-0.019136015
41	0x3c462bd9	0.012095415
42	0x3e79d67a	0.24398223
43	0x3dfe6e33	0.124233626
44	0x3e523207	0.20526896
45	0xbdb71d44	-0.08941129
46	0xbe0efe66	-0.13964233
47	0x3dfb64a5	0.12275056
48	0x3d0dcbf7	0.034618344
49	0x3d22b745	0.03972556
50	0xbe00c37f	-0.12574576
51	0xbb849dad	-0.0040471167
52	0x3c95a6bd	0.018267984
53	0xbe117ce1	-0.14207794
54	0xbe0c0897	-0.13675152
55	0x3e206730	0.15664363
56	0xbe29fdab	-0.16600673
57	0x3dd97f27	0.106199555
58	0xbd551bfb	-0.052028637
59	0x3e02fa05	0.12790687
60	0xbd756eb1	-0.059920017
61	0x3dfa54b3	0.12223186
62	0xbe20c77f	-0.15701102
63	0x3cb1e267	0.021714402
64	0xbe026981	-0.12735559
65	0x3d50f7a3	0.051017415
66	0xbdd6272f	-0.104566924
67	0xbdd88ed9	-0.10574121
68	0x3da179a1	0.07884527
69	0x3d8ba27f	0.06818103
70	0x3e1c0787	0.15237246
71	0xbc88a6d8	-0.01668112
72	0xbe0dacdf	-0.13835476
73	0xbdf2bdc5	-0.11852602
74	0xbc1d935d	-0.009617654
75	0x3d666ae3	0.05625428
76	0xbde94bfb	-0.11391445
77	0xbd3838b7	-0.044975962
78	0xbe42cdc3	-0.19023804
79	0x3e633a71	0.22190262
80	0xbe2f5a65	-0.17124327
81	0xbd704422	-0.058658727
82	0x3e7729df	0.24137066
83	0xbd4afce2	-0.049557574
84	0x3d33679a	0.043799974
85	0xbdbdc1aa	-0.09265454
86	0xbe4b0de2	-0.19829515
87	0xbcf5b7ab	-0.029994806
88	0x3dbb24c1	0.091378696
89	0xbdcde331	-0.10053099
90	0x3e1fcc20	0.15605211
91	0xbe19f65e	-0.15035388
92	0x3e303c7c	0.17210573
93	0xbd9c0977	-0.07618993
94	0x3d627ec2	0.055296667
95	0x3e071880	0.1319294

gru.weight_ih_l0_reverse f4 [96, 32]
0	0x3e28e99f	0.1649537
1	0x3e241acd	0.16025849
2	0xbd5428ae	-0.051796608
3	0x3e2ce26a	0.16883245
4	0x3d72fe06	0.059324287
5	0x3e384000	0.17993164
6	0x3e428cce	0.18999025
7	0xbd7552c4	-0.059893385
8	0x3d3cfca1	0.046139363
9	0x3a902aa6	0.0010999038
10	0x3d61b7ee	0.05510705
11	0xbdd56993	-0.10420527
12	0xbdb404bd	-0.08789966
13	0x3e1c6e2a	0.15276399
14	0x3e3955ac	0.18099087
15	0x3de35844	0.1110082
16	0x3da29f94	0.07940593
17	0x3e5b456e	0.21413204
18	0x3e1efd74	0.15526372
19	0x3dd9c24f	0.106327645
20	0xbd1ca4f8	-0.038243264
21	0x3cedbf08	0.029021755
22	0xbd143ccd	-0.036190797
23	0x3d3474f6	0.044056855
24	0xbde7fa9e	-0.11327098
25	0x3e1fb77b	0.15597336
26	0x3e1e8ff1	0.15484597
27	0x3e572278	0.21009243
28	0x3c482ba4	0.012217436
29	0x3db08742	0.086195484
30	0xbd85933f	-0.065222256
31	0xbdc88117	-0.09790247
32	0xbd62d9a3	-0.055383336
33	0x3c1a2b59	0.009409749
34	0xbdb5a236	-0.0886883
35	0xbe1b5e67	-0.1517273
36	0x3d8901fa	0.0668983
37	0x3e85add4	0.26109183
38	0xbdfa2d01	-0.12215615
39	0x3dd600a3	0.1044934
40	0xbd6bd943	-0.057580244
41	0x3da4ffb7	0.08056586
42	0xbdf016ec	-0.11723122
43	0x3e138a61	0.14408256
44	0x3cccf550	0.025019318
45	0xbdf4fb17	-0.11961954
46	0x3e191a3a	0.14951411
47	0x3d2fc99e	0.042916887
48	0xbe39029b	-0.180674
49	0xbe428d85	-0.18999298
50	0xbe2170d2	-0.15765694
51	0x3d4aa8ad	0.049477268
52	0xbe1bc004	-0.15209967
53	0x3e0819ef	0.13291143
54	0x3e57d9d0	0.21079183
55	0x3dbc6a2a	0.09199937
56	0xbb6ca9b7	-0.00361119
57	0x3d58dc00	0.052944183
58	0x3db9093c	0.090349644
59	0x3d2b2ea5	0.04179253
60	0xbd9bee6c	-0.07613835
61	0x3c88fe2d	0.016722763
62	0x3e04075b	0.12893431
63	0xbe751cde	-0.23936793
64	0x3c47087b	0.012148018
65	0x3e03568d	0.12825985
66	0x3e5dee50	0.2167294
67	0xbd46f808	-0.048576385
68	0x3d886b3e	0.0666108
69	0x3e5f4d5f	0.21806858
70	0x3df3a8e0	0.11897445
71	0x3d80c5f4	0.062877566
72	0xbd414666	-0.047186278
73	0x3e336cb2	0.17521933
74	0xbd810eb2	-0.06301631
75	0x3db90ca4	0.09035614
76	0xbda86ba8	-0.08223659
77	0x3e8352ec	0.25649202
78	0x3e813d0c	0.25241888
79	0xbdd80b98	-0.10549086
80	0x3c98b91f	0.01864296
81	0x3e46ccb2	0.19414023
82	0xbc3ab68f	-0.011396064
83	0xbd5a33d3	-0.05327208
84	0x3e05466b	0.13015144
85	0x3c133246	0.008984154
86	0x3cc33273	0.023827767
87	0xbcc5ce7f	-0.024146317
88	0x3d82e3fe	0.06391142
89	0x3e33e130	0.17566371
90	0x3e2119c5	0.15732487
91	0xbc57b7f0	-0.013166413
92	0x3e307d5a	0.17235318
93	0x3e77fe55	0.24218114
94	0x3e0aeed0	0.13567662
95	0x3e8de613	0.27714595
96	0xbcbdc393	-0.023164546
97	0x3e2a020e	0.16602346
98	0xbdb7728f	-0.08957397
99	0xbe2671f5	-0.16254409
100	0xbe11f592	-0.14253834
101	0x3ca9978c	0.020702146
102	0xbd443b3a	-0.047908045
103	0x3d9ab88b	0.0755473
104	0x3e63a0d8	0.22229326
105	0xbe201448	-0.15632737
106	0x379b3959	1.8504144e-05
107	0xbdcc53f5	-0.09976951
108	0xbd3678e6	-0.04454889
109	0xbe1a935a	-0.15095273
110	0xbcd642ea	-0.026154954
111	0x3dc10b96	0.09426038
112	0x3d3a5258	0.045488685
113	0xbcc8babc	-0.024503104
114	0xbdde640e	-0.10858928
115	0x3d5d0e78	0.053968877
116	0x3c8c260c	0.017107986
117	0x3dadfc10	0.08495343
118	0x3e2b34c9	0.16719355
119	0xbe21ef9d	-0.15814061
120	0x3df0646d	0.11737905
121	0x3d2d113c	0.042252764
122	0x3db90a7e	0.09035204
123	0xbd9735f7	-0.0738334
124	0xbd078a41	-0.033090834
125	0x3d56810c	0.052369162
126	0x3ddff04c	0.10934505
127	0xbdba988b	-0.091111265
128	0x3e143f30	0.14477229
129	0x3e212cba	0.15739718
130	0x3c579bc1	0.013159693
131	0xbe2ef14b	-0.17084233
132	0x3dfbc20a	0.122928694
133	0xbe14d80a	-0.14535537
134	0xbdcb35a6	-0.09922342
135	0x3e22f63f	0.15914248
136	0x3e65b96c	0.22434014
137	0x3e1de503	0.15419392
138	0xbda93b7f	-0.08263301
139	0x3e68e5e7	0.22743951
140	0x3dd88501	0.105722435
141	0xbdcb76db	-0.09934779
142	0xbdf48d49	-0.119410105
143	0x3d9dfde6	0.07714443
144	0x3de18f1b	0.11013623
145	0xbd2a1ec1	-0.041533235
146	0x3dea4dc1	0.11440612
147	0xbd8c5332	-0.06851806
148	0x3dbdf6d7	0.092755966
149	0xbd9b3b0e	-0.07579623
150	0x3e1c791c	0.15280575
151	0x3e80821d	0.2509927
152	0xbb79b8fa	-0.003810464
153	0x3d243ee8	0.040099055
154	0x3dd94157	0.10608166
155	0xbb4aeb54	-0.003096302
156	0x3e6d1230	0.23151469
157	0xbdbfcc1f	-0.09365105
158	0xbdeb4b5d	-0.11488984
159	0xbd922e33	-0.07137718
160	0x3d8c6e51	0.06856979
161	0xbe0136f6	-0.12618622
162	0x3e2643d4	0.16236812
163	0xbe3d2be9	-0.18473782
164	0x3c6f832e	0.014618678
165	0x3d2ad97c	0.041711316
166	0x3b2ba1bc	0.002618893
167	0xbdb062a5	-0.08612565
168	0xbe75b473	-0.23994617
169	0xbd0f06f0	-0.034918725
170	0xbd580296	-0.05273684
171	0xbe1f54b4	-0.15559655
172	0x3d986d09	0.07442672
173	0xbdc4bf50	-0.096068025
174	0xbe094771	-0.13406159
175	0xbd230f4c	-0.03980951
176	0x3db2ba2b	0.08726915
177	0xbe524aec	-0.20536393
178	0x3e339d11	0.17540385
179	0x3e14e5e8	0.14540827
180	0xbdc647e2	-0.09681679
181	0xbe26c5f0	-0.16286445
182	0xbe594d7d	-0.21220966
183	0xbc4a4b5d	-0.01234707
184	0xbdd0c01e	-0.101928934
185	0xbc6522c5	-0.0139853405
186	0xbe6c7160	-0.23090124
187	0x3d26a791	0.040687148
188	0x3e4505ae	0.19240448
189	0x3da37773	0.079817675
190	0xbe809629	-0.25114563
191	0x3d6c5380	0.05769682
192	0x3dc2c546	0.09510283
193	0x3d8678cb	0.06566008
194	0xbc8b7f21	-0.017028393
195	0xbc940c65	-0.018072316
196	0xbd72b807	-0.059257533
197	0xbe0376db	-0.12838309
198	0x3e2cfa38	0.16892326
199	0x3d808bbc	0.06276652
200	0xbddcceed	-0.107816555
201	0xbcee3b05	-0.029080877
202	0xbe0745a3	-0.13210158
203	0xbe0dad20	-0.13835573
204	0xbd379aa6	-0.04482522
205	0xbdc05ed4	-0.09393087
206	0x3d10038b	0.03515963
207	0xbc80dcbd	-0.015730256
208	0x3ce21855	0.027599493
209	0xbe1e6d65	-0.15471418
210	0xbd1cfe0e	-0.038328223
211	0x3c2a76a3	0.010404262
212	0x3d6a1ef6	0.057158433
213	0xbde0ad22	-0.109705225
214	0x3bb7b15c	0.0056058597
215	0x3d67a110	0.056550086
216	0xbde55e6e	-0.11199652
217	0xbda2fb4e	-0.07958089
218	0x3da33d2f	0.07970654
219	0xbd8e3bac	-0.06944975
220	0xbc9103e7	-0.017702056
221	0x3d00be58	0.031431526
222	0x3ce51626	0.027964663
223	0xbc464ffe	-0.012104033
224	0x3e517aa7	0.20456944
225	0x3ed1cbab	0.409757
226	0x3e767894	0.24069434
227	0x3e6f5bba	0.23374835
228	0x3e7378b8	0.2377652
229	0x3dd84519	0.10560054
230	0x3e7d2260	0.24720144
231	0x3ea3fe3c	0.32029903
232	0x3e8166c9	0.2527373
233	0x3ea72da1	0.32652
234	0x3d53f888	0.05175069
235	0x3e4a540c	0.19758624
236	0x3d77c2db	0.060488563
237	0x3e2d945a	0.16951123
238	0x3ecc3f81	0.398922
239	0x3d9158ed	0.07097039
240	0x3eb29efa	0.34886914
241	0x3e18cc64	0.14921719
242	0x3e88a3cc	0.26687467
243	0x3ed2336e	0.41054863
244	0x3ea407ff	0.3203735
245	0x3e3459d4	0.17612392
246	0x3e0d7ba5	0.13816698
247	0x3ea46244	0.3210622
248	0x3e8b6fca	0.27233726
249	0x3e1f69c4	0.1556769
250	0x3eae062c	0.33989084
251	0x3e869e44	0.26292622
252	0x3e3dbd58	0.1852926
253	0x3d712a74	0.058878377
254	0x3e375815	0.17904694
255	0x3ee437f0	0.44573927

gru.weight_hh_l0_reverse f4 [96, 32]
0	0x3e5c6e85	0.21526535
1	0x3e193149	0.14960207
2	0x3d2973a2	0.04137004
3	0x3e21d125	0.15802439
4	0x3e3d3f44	0.18481165
5	0xbe2416d1	-0.16024329
6	0x3c98e54f	0.01866403
7	0xbb64c20b	-0.0034905698
8	0x3b16c43b	0.0023005146
9	0x3cc150eb	0.023598155
10	0xbe695415	-0.22785981
11	0x3e48313f	0.19550036
12	0x3d909e50	0.07061446
13	0x3d04c138	0.03241083
14	0x3d840d2a	0.06447823
15	0xbd279ad9	-0.04091916
16	0xbdb0f3ee	-0.08640276
17	0x3e0f22c2	0.13978103
18	0xbe04bb21	-0.12962009
19	0xbc864815	-0.016391793
20	0x3d8a8f66	0.06765632
21	0x3df2e30f	0.11859714
22	0x3d492d9d	0.049115766
23	0xbe8ce053	-0.27514896
24	0xbdf350a4	-0.11880615
25	0x3daf93e3	0.08573129
26	0x3d97852f	0.0739845
27	0x3db6b978	0.08922094
28	0xbdaaa721	-0.083326586
29	0x3e4d5864	0.2005325
30	0x3e82a4d9	0.25516394
31	0x3e1cae17	0.15300785
32	0x3d89040b	0.06690224
33	0x3e29daa3	0.1658731
34	0xbca7dc6b	-0.020490846
35	0x3e3ea30d	0.18616886
36	0x3e28a933	0.16470794
37	0xbdb9e9d0	-0.09077799
38	0xbd86f46b	-0.06589588
39	0xbe58d139	-0.21173562
40	0xbe3ba6a5	-0.18325289
41	0x3ea4fd28	0.32224393
42	0xbe8186ce	-0.2529816
43	0x3d89f39f	0.0673592
44	0x3ca984bb	0.020693174
45	0x3cf82010	0.030288726
46	0xbe42fab8	-0.19040954
47	0x3e4f85a9	0.20265831
48	0x3da13458	0.07871312
49	0xbd2aa6b0	-0.04166287
50	0xbe1f95e1	-0.15584518
51	0xbe4e9f8a	-0.20178047
52	0xbe5a6131	-0.21326138
53	0x3e317be1	0.17332412
54	0xbd4e67dd	-0.05039202
55	0xbe76da39	-0.24106683
56	0xbe150ddd	-0.1455607
57	0xbe100013	-0.14062528
58	0x3da9585f	0.082688086
59	0xbd25f427	-0.040516045
60	0xbda7f601	-0.082012184
61	0x3e099b93	0.13438253
62	0x3e925e1e	0.2858743
63	0x3c7c251d	0.015389708
64	0x3d9a8a86	0.075459525
65	0xbde2d0e8	-0.11075002
66	0xbd3241e6	-0.043519877
67	0xbe07ce2b	-0.1326224
68	0x3daffcd5	0.08593146
69	0x3df87a8e	0.121327505
70	0xbcb15666	-0.021647643
71	0x3cc3fd16	0.023924392
72	0xbe5b53b0	-0.21418643
73	0x3d98ed99	0.07467193
74	0xbe251e81	-0.16124918
75	0x3d9a0a53	0.075215004
76	0x3daa27c4	0.08308366
77	0xbdd9da43	-0.10637333
78	0xbe56891c	-0.2095074
79	0xbd601131	-0.054703895
80	0xbba078f4	-0.0048972312
81	0xbd0a954f	-0.033833798
82	0x3dd844e1	0.105600126
83	0xbe072e8e	-0.13201353
84	0x3dda5389	0.10660464
85	0x3e44d8f4	0.19223386
86	0xbddae916	-0.10688989
87	0x3d7a5298	0.061113924
88	0xbe0d0db5	-0.1377476
89	0xbe4eabc0	-0.20182705
90	0xbdbaf143	-0.09128048
91	0x3cfffa9f	0.031247435
92	0x3dc4c2ff	0.09607505
93	0x3d99ef50	0.07516348
94	0xbdd8732d	-0.10568843
95	0xbc9c0942	-0.019047383
96	0x3e7839ae	0.24240753
97	0x3e2b0a48	0.1670314
98	0xbe5148f9	-0.20437993
99	0x3d8660aa	0.06561406
100	0x3c6d30b4	0.014476944
101	0xbd4c43e2	-0.049869426
102	0x3e5d523e	0.21613404
103	0xbe7c2cd6	-0.24626479
104	0xbe288e47	-0.16460524
105	0x3cf62e36	0.030051332
106	0xbc10eb0c	-0.008845102
107	0x3e0db573	0.13838749
108	0xbd55a752	-0.052161522
109	0x3e055b71	0.13023163
110	0xbe87015c	-0.26368225
111	0x3d58de14	0.052946165
112	0x3b5fa19f	0.0034123433
113	0xbd536ef0	-0.05161947
114	0x3c03cb8e	0.008044137
115	0xbdfdd5d2	-0.123942986
116	0xbaa53de0	-0.0012606941
117	0x3cb11e0f	0.021620778
118	0x3bea77ea	0.007155408
119	0xbd2b19ca	-0.04177264
120	0x3db60f33	0.08889618
121	0xbe48cc81	-0.19609262
122	0xbe2e775f	-0.17037724
123	0xbc39b4fb	-0.011334653
124	0x3dc09fc9	0.094054766
125	0x3e2d0615	0.16896851
126	0x3d8dc15d	0.06921647
127	0x3e6436fc	0.222866
128	0x3df60d35	0.12014238
129	0xbd2dde50	-0.04244834
130	0x3d6f1e6f	0.058378633
131	0x3e2590b5	0.16168483
132	0xbd9c30bc	-0.07626483
133	0xbdd0c894	-0.10194507
134	0x3da38366	0.07984047
135	0xbe7e0ef3	-0.2481039
136	0x3d8d954a	0.0691324
137	0x3e53f4cc	0.20698851
138	0xbcff8363	-0.03119058
139	0xbbe149f4	-0.006875271
140	0xbe3b64a3	-0.18300109
141	0x3d29e7a9	0.041480694
142	0x3c66b848	0.014082022
143	0x3d2d4908	0.042305976
144	0x3e19ffe6	0.15039024
145	0xbc94cd24	-0.018164225
146	0xbdd0617b	-0.10174843
147	0xbd61ecba	-0.0551574
148	0xbd016431	-0.03158969
149	0x3c6e86d2	0.014558511
150	0x3bdfbf09	0.006828193
151	0xbe599ff8	-0.2125243
152	0xbd90490c	-0.070451826
153	0xbd002e94	-0.03129442
154	0x3d94d069	0.072663136
155	0xbd4cc356	-0.049990974
156	0x3d3bd1c3	0.04585434
157	0x3cce4234	0.025178052
158	0x3e3993d5	0.181228
159	0x3d6f9a0e	0.058496527
160	0x3df5fe64	0.12011412
161	0x3d4d9ab8	0.05019638
162	0x3e1a63c0	0.15077114
163	0x3e7e4a03	0.2483292
164	0xbcc9b426	-0.024622034
165	0xbd4ed6fe	-0.050498
166	0x3e06118f	0.13092636
167	0xbd07cdb9	-0.033155177
168	0x3dbcfa79	0.09227461
169	0x3da7c3e8	0.08191663
170	0xbdb6cb41	-0.08925486
171	0x3e3ac08c	0.18237513
172	0x3c628a47	0.013826913
173	0xbe09310d	-0.13397618
174	0xbd862632	-0.06550254
175	0x3e35d473	0.17756824
176	0xbd53c5b5	-0.05170222
177	0xbc41e4f1	-0.011834369
178	0x3d59e01c	0.053192243
179	0xbe20e6c4	-0.1571303
180	0x3bc1e591	0.005917259
181	0xbd6f352b	-0.058400314
182	0x3dc29930	0.095018744
183	0xbba789ab	-0.005112847
184	0x3d829284	0.06375602
185	0x3daaad0c	0.08333787
186	0xbe6518a7	-0.22372685
187	0x3dea2ab2	0.11433925
188	0x3d9df41b	0.07712575
189	0xbd7425f4	-0.059606507
190	0x3e2c40f4	0.16821653
191	0x3c074555	0.008256276
192	0x3df10ef9	0.11770434
193	0x3d6e4f66	0.05818119
194	0x3be93b52	0.0071176672
195	0x3d8ba09a	0.06817742
196	0xbcea4403	-0.028596884
197	0xbe5970c2	-0.2123442
198	0x3dea93ef	0.11453997
199	0xbe966129	-0.29371002
200	0xbd00c63c	-0.03143905
201	0xbd5b2dd0	-0.053510487
202	0xbe2b529c	-0.16730732
203	0x3e0fd09c	0.14044422
204	0xbc031642	-0.008000912
205	0xbe081a5e	-0.13291308
206	0xbe75ffc2	-0.24023345
207	0xbda75c92	-0.08171953
208	0x3cd290ea	0.025703866
209	0x3de80e73	0.11330881
210	0xbd7e7a07	-0.062128093
211	0x3d10c0b1	0.035340015
212	0x3b702367	0.0036642195
213	0x3e02be32	0.12767866
214	0xbdb87971	-0.09007538
215	0xbc8b242a	-0.016985018
216	0x3df7c2af	0.1209768
217	0x3d50929b	0.050921064
218	0x3d97e7fa	0.07417293
219	0xbb309af4	-0.0026947828
220	0xbb5e6cf4	-0.0033939453
221	0x3e3d0abb	0.18461125
222	0x3dc83b7d	0.097769715
223	0x398593db	0.00025477898
224	0xbc015374	-0.007893432
225	0x3de19f51	0.11016715
226	0x3dacff2e	0.08447109
227	0xbd614eed	-0.05500691
228	0xbe01a835	-0.12661822
229	0x3dda0b38	0.10646671
230	0x3e472777	0.19448648
231	0x3d9a53cb	0.075355135
232	0xbdbb2ee5	-0.09139804
233	0x3e22397f	0.15842246
234	0xbe3e91bc	-0.18610281
235	0xbd56c018	-0.05242929
236	0xbd4b747e	-0.049671642
237	0x3d950c37	0.072777204
238	0xbdbe42ef	-0.0929011
239	0xbe1ab0ae	-0.1510646
240	0xbe151df6	-0.1456221
241	0xbc85266c	-0.016253673
242	0xbde139ec	-0.10997376
243	0x3d1fc835	0.03900929
244	0xbd9444c6	-0.0723968
245	0x3ced3298	0.028954789
246	0xbd87c27c	-0.06628892
247	0xbe873442	-0.26407057
248	0x3dd13758	0.10215634
249	0x3d9241df	0.0714147
250	0x3d8108c6	0.063005015
251	0xbda4a2a4	-0.08038834
252	0x3d0317ca	0.03200511
253	0xbcbaa1e1	-0.022782268
254	0x3d884cc7	0.06655269
255	0x3e0ad43c	0.13557523

gru.bias_ih_l0_reverse f4 [96]
0	0x3d963cc9	0.073358126
1	0x3e32f5ac	0.17476529
2	0x3e3e6fc9	0.1859733
3	0x3e18c1f8	0.14917743
4	0x3d91d96c	0.07121548
5	0xbdee8fe2	-0.11648537
6	0xbd0ad7bc	-0.033897147
7	0xbd85564e	-0.06510602
8	0xbdf35db8	-0.1188311
9	0x3e64707e	0.22308537
10	0x3d2417e6	0.040061854
11	0x3e119342	0.1421633
12	0x3d60b264	0.054857627
13	0xba371924	-0.0006984642
14	0x3bf7c482	0.0075612674
15	0x3d815170	0.06314361
16	0x3da0aab0	0.07845056
17	0x3d9c9c41	0.076469906
18	0x3e4412d6	0.1914781
19	0xbda41903	-0.08012583
20	0x3cec6745	0.028857836
21	0x3e4cb10d	0.19989415
22	0xbd024a7d	-0.03180932
23	0x3e2c1ee9	0.16808666
24	0x3d9553fb	0.07291409
25	0xbdf13890	-0.117783666
26	0x3ded244b	0.11579188
27	0x3b306dd8	0.002692094
28	0x3d455bfc	0.048183426
29	0xbde4a336	-0.111639425
30	0xbd161d2e	-0.03664892
31	0x3e687c04	0.22703558
32	0xbdbf7887	-0.09349161
33	0x3e4e3321	0.20136692
34	0x3d0d08de	0.034432285
35	0x3dc9890d	0.098405935
36	0x3e7ba20d	0.24573536
37	0xbd8c49f7	-0.06850045
38	0x3e4948f0	0.1965673
39	0x3de951b8	0.1139254
40	0xbd68270b	-0.05667786
41	0x3e66acdd	0.2252688
42	0x3d198da3	0.03748859
43	0xbcb0b955	-0.021572748
44	0x3e99c3ad	0.300321
45	0x3dd11611	0.10209287
46	0x3e48c3ed	0.1960599
47	0xbd1125b9	-0.035436366
48	0x3c2d8f07	0.010593182
49	0x3e025d2c	0.12730855
50	0xbd0a36be	-0.033743612
51	0xbd1ff662	-0.03905333
52	0x3e83e45d	0.25760165
53	0x3de2f11b	0.110811435
54	0xbc467e94	-0.0121151395
55	0x3e73338a	0.2375013
56	0x3deacd96	0.11464994
57	0xbce03381	-0.027368309
58	0x3d285a61	0.041101817
59	0xbdaaf94e	-0.08348332
60	0x3e0acd59	0.13554896
61	0x3e91dbe2	0.2848807
62	0x3e05cc9c	0.13066334
63	0x3eb0e215	0.34547487
64	0x3e728a5b	0.23685591
65	0x3e2c5729	0.16830124
66	0xbd932d3f	-0.071863644
67	0x3e3fc868	0.18728793
68	0x3df5ded3	0.12005391
69	0xbda5b0c7	-0.08090358
70	0x3e27d935	0.16391452
71	0x3b36e470	0.0027907155
72	0xbe267f08	-0.16259396
73	0x3e1144fb	0.1418647
74	0xbe3a257e	-0.18178365
75	0x3da89c7b	0.08232971
76	0xbda275b1	-0.07932604
77	0xbd7bd09e	-0.06147825
78	0xbdcde5a5	-0.10053567
79	0x3dfd0491	0.123543866
80	0x3da839ab	0.08214124
81	0x3dfe2d5e	0.12410997
82	0xbde476d0	-0.11155474
83	0xbe26ff42	-0.1630831
84	0xbcd89619	-0.02643876
85	0x3d3f84b5	0.04675742
86	0xbe5cab73	-0.21549778
87	0xbe36501f	-0.17804001
88	0x3d1c10f4	0.038102105
89	0xbe3fae36	-0.187188
90	0x3dcb8f6d	0.09939466
91	0xbe296a83	-0.16544537
92	0x3e00c83d	0.12576385
93	0x3deff472	0.11716546
94	0x3d59f4d9	0.05321202
95	0x3dd81b7b	0.105521165
