logs/exp0/weights/epoch40.pt (torch, 348934 bytes, 45 tensors)

conv_block1.0.weight f4 [32, 4, 10]
000000 12 27 21 3d 42 26 2f be fc 6c 12 3e b2 44 04 3c
       0.0393439 -0.17104438 0.14299387 0.008073019
000010 3d 1c ba 3c b6 5a f3 3d 07 e2 e0 bc 83 72 fa bd
       0.022718543 0.11882536 -0.027451528 -0.122288726
000020 74 74 06 3e 8b 4b cd bd 1a d1 a1 3d 15 4a 8a bd
       0.13130361 -0.10024174 0.07901211 -0.06752411
000030 1c 8b 94 3c 1a fc 75 3d bd 2c a4 bd 64 25 d7 3d
       0.018132739 0.060054876 -0.08016346 0.105051786
000040 fb fd a7 3d 49 e0 c9 3c 90 13 e8 bc c1 02 4b bd
       0.0820274 0.02464308 -0.02832964 -0.049563173
000050 33 b3 ed bd 74 4c a0 3d 06 c0 d5 3c 5f ca d7 bc
       -0.11606445 0.07827082 0.02609254 -0.026341615
000060 c3 27 1c 3d 45 c0 e3 bd 7b 7b 65 3d ac 43 aa 3d
       0.038123857 -0.11120657 0.056025963 0.08313689
000070 07 70 30 be 48 43 cf bc 4a 31 18 be a9 df a9 3d
       -0.17230235 -0.025300637 -0.14862552 0.08294613
000080 00 53 00 3d 2f 8a 20 bd 49 6c 26 bd b5 62 98 bd
       0.031329155 -0.039194282 -0.040630613 -0.07440702
000090 97 6d a4 bd 4d 9f 54 3d 13 9d 5d bb 00 02 e0 3c
       -0.08028715 0.051909734 -0.0033815547 0.027344704
0000a0 2d 0f 70 bb 59 d7 90 bd c3 0c 90 3d 6d 9f ab bd
       -0.003663014 -0.07072324 0.07033684 -0.083800174
0000b0 1d 3d 3f 3c 75 26 38 3e 2a 7f a6 bd 8f 60 7e 3b
       0.011672285 0.1798342 -0.08129723 0.0038814878
0000c0 2a 63 04 3e 26 b8 01 3d d3 e4 b1 3d 26 28 ac 3d
       0.12928453 0.03166976 0.08686223 0.08406095
0000d0 7a ec 1b be 64 19 e7 3d 76 9c 22 be fe 2f 3d 3c
       -0.15226927 0.1128414 -0.15879998 0.011547087
0000e0 de 6e e4 bb 25 62 79 bd de e0 b7 bb 83 c1 4d 3d
       -0.006971224 -0.060884614 -0.005611523 0.050233375
0000f0 20 fe cc bd db f1 8e bb d1 2b 37 bd 1c 4f 3d bd
       -0.10009408 -0.0043623275 -0.04471952 -0.046218023
000100 05 69 25 bd 71 1b 05 bd b1 2e a3 bd 61 47 cf 3d
       -0.040383358 -0.032496873 -0.0796789 0.10121036
000110 f2 a3 f1 bd 76 73 d4 3b ef 61 dc 3d 3e af 7a 3d
       -0.11798848 0.0064834906 0.10760867 0.06120228
000120 ee 7b fe 3c 37 bc 57 bd ae 8e 16 bd a6 1b 15 ba
       0.031064954 -0.05266973 -0.036757164 -0.0005688019
000130 99 1b bb bd 9d ca 62 3b 73 5d 41 bd ce a7 aa 3d
       -0.09136123 0.003460563 -0.04720826 0.083327875
000140 79 0a 4e 3d e3 98 e1 bd 26 6e e3 bd fd 08 bd bd
       0.050302956 -0.11015489 -0.111049935 -0.0923023
000150 ac 27 1b 3e 70 f9 df bd 18 ba a4 bd 06 90 07 3e
       0.15151852 -0.10936248 -0.08043307 0.13238534
000160 32 f0 1a be 4a 40 13 bc a9 82 5f 3d fd 8f 23 3d
       -0.1513069 -0.008987496 0.054567967 0.03993224
000170 06 d3 26 3c 51 58 82 3d 97 8a cc bc 05 03 c9 3d
       0.010182148 0.06364501 -0.024968429 0.09815029
000180 97 87 0e 3e c7 1a 02 3e 8b e9 21 3e e0 03 3f bd
       0.13918911 0.12705527 0.15811746 -0.046634555
000190 ad 1d 98 3d 3b 93 d9 bd b3 55 8d 3d 21 f3 de bd
       0.07427535 -0.10623785 0.069011115 -0.10886217
0001a0 19 91 39 3c 1b 21 db 3d 0c d2 12 3e 3d 47 7b bd
       0.011326098 0.10699674 0.14337939 -0.061347235
0001b0 a8 95 ef 3c dd e0 a3 bc ec 9d e9 bd 95 8e 04 be
       0.029246166 -0.020004684 -0.11407074 -0.12945016
0001c0 4f 71 b4 3d 41 35 45 3d 53 ac 6f bd 82 9d d2 bd
       0.088106744 0.04814649 -0.05851395 -0.102839485
0001d0 3b 1e 64 3d 82 67 a5 3b ba 65 e6 bc b8 76 e4 3a
       0.055692893 0.0050477395 -0.028124679 0.00174304
0001e0 4f 36 67 3d b0 cd da bd 65 9c 43 bd 31 3e 70 bd
       0.056448277 -0.10683763 -0.04775657 -0.05865306
0001f0 78 0c d4 bc 64 2f 56 3d 5a bf 75 bd 50 72 01 be
       -0.025884852 0.05229129 -0.05999694 -0.12641263
000200 cd 3f 3f 3d 1e 6a 1d 3d 89 e7 33 bd 9b 7a 18 be
       0.046691705 0.03843128 -0.04392198 -0.1489052
000210 9d 38 13 be 51 5c 0e be d3 2d c7 bd d6 e9 89 bd
       -0.14377065 -0.13902403 -0.09725537 -0.06734054
000220 9c 48 78 3d 5c 3e 31 bd d9 8c b0 bd 6e 8f 81 3d
       0.06061612 -0.04327236 -0.086206146 0.06326185
000230 c3 29 26 bd b7 90 d0 bb 8d cb cd 3c d5 80 14 3e
       -0.04056717 -0.0063649076 0.025121475 0.1450227
000240 f6 f7 d2 bd 68 0a b7 3d 20 01 00 3e 8a c5 40 bd
       -0.10301201 0.08937532 0.12500429 -0.047063388
000250 d9 7d 03 3e bf 09 0e 3b f3 ed 80 3d 33 ba 81 3d
       0.12840976 0.002167329 0.06295385 0.06334343
000260 fb 30 c5 3d 44 5b a9 3c 54 75 36 bd 41 90 83 3d
       0.09628483 0.020673402 -0.044545487 0.064239986
000270 ad 02 bc 3d 18 d7 8d 3d 05 ed a9 3d 3a b5 c8 3d
       0.09180198 0.069257915 0.08297161 0.09800191
000280 0d 83 22 bd 8f 18 53 bc 50 65 ba 3c 45 02 39 bd
       -0.03967576 -0.012884273 0.022753388 -0.04516818
000290 19 e7 15 bd 52 5c fc 3d 91 8c 94 bd 76 51 38 bd
       -0.036597345 0.12322296 -0.072533734 -0.044999562
0002a0 f1 9c 63 3d 23 b6 33 bd 49 c7 97 3d 4b e5 83 3d
       0.055569593 -0.04387487 0.074110575 0.064402185
0002b0 24 76 2a bd 07 79 d9 3d f2 ad 97 3b ed 5e e5 bd
       -0.041616574 0.10618787 0.00462889 -0.11199746
0002c0 cc 8f 67 3a d5 09 dd 3d a8 b9 12 be 92 bb f9 3d
       0.0008833378 0.10792891 -0.14328635 0.12193979
0002d0 16 41 c6 bd 85 42 6e 3d 80 3b 39 be 2b cd 4f 3d
       -0.09680383 0.058168907 -0.18089104 0.050732773
0002e0 54 6d 97 bb 60 62 ca 3c 69 bb 3c be ef 7e c2 3d
       -0.004621187 0.024705112 -0.18430866 0.09496867
0002f0 d3 d7 f0 bd e5 2b 4a 3d 65 51 41 3d 31 dc 1a bd
       -0.11759915 0.049358267 0.047196764 -0.037807647
000300 7b 76 d4 bd 86 d4 ce bc b7 01 27 be ad 61 2a 3a
       -0.10374161 -0.025247823 -0.16309248 0.000649954
000310 f6 5f a9 3d a2 9f 95 3d c3 ab 1e be eb 27 a1 3d
       0.08270256 0.07305838 -0.1549521 0.07868942
000320 1e b1 85 3d 3c 8d e1 3d 52 74 df bc 92 50 8c bd
       0.06527923 0.110132664 -0.027277146 -0.06851305
000330 85 5e 49 3d 2d 08 17 be c2 dc 0a 3e 2a 8e 29 3e
       0.049162406 -0.14749213 0.13560775 0.16558138
000340 28 5c 42 be 47 a1 a7 bd b4 3a 77 3d be ef 56 3c
       -0.18980467 -0.08185058 0.060358718 0.013118682
000350 9c 32 2d be 43 61 eb 3c f5 e3 25 3d 1b 29 fe 3d
       -0.16913837 0.028732901 0.0405006 0.12410184
000360 b0 10 2f bd 1a 81 d1 bd ca 25 19 3e d8 0a f9 bd
       -0.042740524 -0.10229702 0.14955822 -0.121602714
000370 0a 83 f5 bb 04 7f 63 bd 93 bb 98 3d c3 18 48 bd
       -0.0074924277 -0.055541053 0.07457652 -0.04885174
000380 3f bf 27 be 4b 55 c1 bd 04 c3 60 3c be d3 3b be
       -0.16381548 -0.094400965 0.01371837 -0.18342492
000390 6e d2 18 be 62 60 2f 3d 6b d9 83 3d 93 9b d2 3c
       -0.14924023 0.042816527 0.064379536 0.02570895
0003a0 70 0d 9a bd 06 96 79 3d b5 a6 c1 3d 0a 83 50 bc
       -0.07522094 0.06093409 0.09455625 -0.012726555
0003b0 0d dc 99 bd 2e dc b9 3d 11 f6 c6 bc 75 5f 61 3d
       -0.075126745 0.09075199 -0.024287255 0.055022676
0003c0 67 35 f3 3d 6b 6a 94 3d 88 f9 28 3d 48 f5 42 3d
       0.1187542 0.0724686 0.041253597 0.0475972
0003d0 e9 65 ae bd 0c da 3c 3e 26 3e 89 3d 2b d2 0a 3e
       -0.085155316 0.18442553 0.06701307 0.13556735
0003e0 c3 ad df 3d ff 26 da 3d 07 5e f2 bc b3 00 e8 3c
       0.10921814 0.10651969 -0.029585851 0.028320646
0003f0 36 33 51 3d be 9e ac 3b b7 d1 bd bd 88 1b 5b bd
       0.05107423 0.005267947 -0.092685156 -0.053493053

conv_block2.0.weight f4 [32, 32, 10]
000000 fb dc 06 bc 33 fc 08 bd 51 89 72 3c e3 51 44 bd
       -0.008231397 -0.03344364 0.014803247 -0.047929656
000010 36 e3 be 3c 63 e4 a6 3c a5 41 30 3c 76 e4 fa 3d
       0.023301702 0.020372575 0.010757838 0.12250607
000020 18 b6 ba 3d 9a 21 b9 3d 75 ce a1 3d 2f c4 f6 3d
       0.09116763 0.09039612 0.07900707 0.12049138
000030 74 3e 0e 3e 3e aa b0 3c d1 52 37 3d 4a 8e c9 3d
       0.13891011 0.021565553 0.044756714 0.098415926
000040 4c 03 8a 3d 2f e0 d8 3d d5 de 88 3d cd a7 93 bc
       0.0673891 0.105896346 0.06683127 -0.01802435
000050 db 75 ef bc ec 9c a2 3c 18 ab 40 bd e8 8c a6 3c
       -0.029231003 0.019850217 -0.047038168 0.020330861
000060 01 8d d7 bc fe 8d 8c 3d 5d 16 7e 3d e4 1f 4b bd
       -0.026312353 0.0686302 0.062033046 -0.04959096
000070 ff 0a 2d 3c 2d 0c b3 bd b9 29 c9 bd 61 2a 20 3d
       0.010561704 -0.08742557 -0.09822411 0.039102916
000080 93 c9 51 bc f7 97 88 bd 98 2b 85 bd 40 2e 92 3d
       -0.012804407 -0.0666961 -0.065024555 0.07137728
000090 cd e5 1f bd 4f 17 9f bd 1d 51 7c bd 6c 2a 1c 3c
       -0.039037514 -0.07768118 -0.061600793 0.009531599
0000a0 00 d0 2d 3d e7 18 33 3c 64 8f eb 3d 50 b3 c3 3d
       0.042434692 0.01093123 0.11501959 0.095556855
0000b0 1c 8e 78 bd 84 38 f5 3d a2 a8 e7 bc 62 df b6 3d
       -0.0606824 0.1197367 -0.028278653 0.08929326
0000c0 66 ae 0c ba ee d2 95 3d 45 25 cd bc bd 77 9e 3c
       -0.00053665636 0.07315622 -0.025042186 0.019344205
0000d0 53 a8 48 3c 92 ec d2 3d 80 50 29 bd ac 90 76 3d
       0.012247163 0.102990285 -0.041336536 0.060196564
0000e0 97 d2 fc bc 44 23 b7 3c 40 6e f1 3d 93 ee e6 3d
       -0.030862136 0.022355683 0.11788607 0.11275973
0000f0 4b da 48 3d 79 1b 68 3d 0e e5 ce 3d 22 40 35 3e
       0.049036305 0.056666825 0.101022825 0.17700246
000100 3d cd 5a 3e 12 b2 ac 3d 4d 66 a7 3d ce 18 33 3e
       0.21367355 0.08432402 0.08173809 0.17489931
000110 71 3e 02 3d 7a 62 56 3d 3b 89 23 3e 9e 11 dc 3c
       0.03179783 0.05234001 0.15970318 0.02686387
000120 95 d9 f1 3b a8 d5 95 3c 77 1b 13 3d 6c b7 b8 3d
       0.007380674 0.018290356 0.035914864 0.0901936
000130 2a fa 93 3d 12 55 c8 3d 1c 91 06 3e 73 88 23 3e
       0.072254494 0.09781851 0.13141292 0.1597002
000140 9f ae 90 3c e4 c5 a4 3d 10 2d 1e 3d 77 14 9e bb
       0.01766139 0.08045557 0.038617194 -0.004824217
000150 98 b7 75 3d 4a c8 52 bd c6 6e d5 bc 8f 59 0b 3b
       0.05998954 -0.05146054 -0.026053797 0.0021263098
000160 86 a0 ab 3c 7b bf cc bc 1f 72 dd 3c 25 cb 87 3c
       0.020950567 -0.024993649 0.027031956 0.016576359
000170 c9 16 57 3d 63 50 7a bd 42 a6 ec bd 4a 62 01 be
       0.052511964 -0.06111182 -0.11555149 -0.1263515
000180 fa e7 e0 bd 74 ae 2e 3c f1 8f fc bd f2 01 02 3d
       -0.10981746 0.01066171 -0.12332142 0.031740136
000190 31 49 a2 3d e1 82 9c 3d 9c 70 e5 3d d7 40 3e bc
       0.079241164 0.07642151 0.11203119 -0.011612139
0001a0 06 fa e3 3d 5a 9b 02 bd 68 83 97 3d 6c 41 e2 3d
       0.111316726 -0.031886436 0.07398111 0.110476345
0001b0 b5 a7 5e bd 7c f1 db 3d fb 47 56 3c 6d 8d c2 bd
       -0.054359157 0.10739419 0.013078685 -0.09499631
0001c0 65 c6 9c 3d d6 5e 98 3d 60 01 9f 3d 9d 86 51 3d
       0.07655028 0.074399635 0.07763934 0.051153768
0001d0 ff c2 1f bd 7b 75 be 3d 7f 00 91 bd 0d 53 f0 bc
       -0.039004322 0.09299751 -0.07080173 -0.029336477
0001e0 68 d5 b0 bd 65 e5 b4 bc 0e 74 df bc b7 87 29 3d
       -0.08634454 -0.02208204 -0.027277019 0.041389193
0001f0 31 e8 c9 bd 0c f9 f7 bd f7 30 84 3c 24 e0 3d 3d
       -0.0985874 -0.12108049 0.01613663 0.046356335
000200 2c 79 da bb 05 6e 01 be 63 73 e1 bd 65 ed b1 bd
       -0.006667277 -0.12639625 -0.110083364 -0.086878575
000210 62 14 b1 bd 3c b2 c9 bd 8f 64 10 be a2 da 8c bd
       -0.08646466 -0.09848449 -0.1410086 -0.068776384
000220 1d 0c b4 bd 4e db 60 3c cd aa 1a bd be 79 0f be
       -0.08791373 0.013724161 -0.037760545 -0.14011285
000230 ed 61 4b 3d d3 c0 00 3d 07 6e 9e 3d 5f d0 ff 3d
       0.049653936 0.03143389 0.0773583 0.124909155
000240 45 66 b8 3d a7 f4 7b 3d 52 f8 82 bd 5e 1a 91 3d
       0.09003881 0.061512616 -0.063950196 0.07085107
000250 73 ad ef bb 44 bb d6 3d f2 a2 b8 3d bd 88 b4 3d
       -0.007314378 0.10484937 0.09015454 0.08815143
000260 ff b0 a0 bd 68 14 c4 3c 7a 17 6f 3d c4 ae 86 3d
       -0.07846259 0.023935512 0.058372 0.06576303
000270 a6 b1 41 bd 32 e7 61 3c 2f b5 c9 3d eb 41 e2 3c
       -0.04728856 0.013788031 0.09849011 0.027619323
000280 a5 f3 40 3d 85 38 af bd 5a e2 94 bd 27 0b 68 bc
       0.047107358 -0.08555702 -0.07269736 -0.014162815
000290 89 9c d4 3d f8 58 48 3d 04 68 7f 3d b8 a6 6e bd
       0.10381419 0.048912972 0.062355056 -0.058264464
0002a0 46 c7 80 3d 7f e1 1b bd 65 f2 d6 bb 98 32 0b 3e
       0.062880084 -0.038056847 -0.0065596574 0.13593519
0002b0 de 3d 1f 3e 98 e6 cc 3d f4 0d 6c bb 9f 52 25 3e
       0.15550944 0.1000492 -0.003601906 0.16144799
0002c0 02 17 15 3d ed e7 37 3d e9 29 b8 3d 6b b2 0e bc
       0.036398895 0.044898916 0.08992369 -0.00870953
0002d0 d4 db fd bc 40 e4 02 bc 21 89 f2 bd 60 97 be 3c
       -0.030988611 -0.007988989 -0.118425615 0.02326554
0002e0 e9 7f 93 3c 8d d6 c5 bd 69 31 09 bd d2 47 b9 bd
       0.018005328 -0.09660063 -0.033494387 -0.09046902
0002f0 ea 6d 91 bc b5 19 1d bd 1a 60 8d bc b8 93 f0 3d
       -0.017752606 -0.038354594 -0.017257739 0.11746925
000300 5d 70 cb bc 92 0e cb 3c f0 1e 49 bd 8a ee 85 bc
       -0.024833852 0.024787221 -0.04910177 -0.016349096
000310 0c 1f 3e 3d e8 7c e6 3d a2 12 b7 3b 6a 3a 95 3c
       0.046416327 0.11254293 0.005586938 0.01821633
000320 2a f7 2c bd 05 1a 8b bc 44 4f 27 3c 48 c9 39 bd
       -0.0422279 -0.01698018 0.0102117695 -0.045357972
000330 ff 39 34 bd 2a 8b 80 bd 10 86 31 bd 62 45 24 3d
       -0.044000622 -0.062765434 -0.043340743 0.04010523
000340 31 91 0d bc 7c c9 99 bc c8 6f 72 bd f0 ce 61 3d
       -0.008640573 -0.018772833 -0.059188634 0.05512899
000350 ba e7 88 bd b0 0e 66 bd ee 78 6f bd f9 a0 83 bd
       -0.06684823 -0.05616635 -0.058464937 -0.064271875
000360 c1 11 d2 bc c1 82 da 3d 1c f9 59 bb 0c 94 b1 bd
       -0.025643231 0.106694706 -0.0033260053 -0.08670816
000370 39 8e 0a 3d 16 1c 1e 3d 13 e8 5a 3d 4c eb 07 3e
       0.03382704 0.038601004 0.05344398 0.13273352
000380 fc dd 13 bc c1 8c d9 bc df 18 fb 3d ec d6 7c 3d
       -0.009025093 -0.026556375 0.12260603 0.061728403
000390 f7 d9 11 3e 8e b3 2f 3d 04 c1 b3 3c c6 5f a4 3d
       0.14243303 0.042895846 0.021942623 0.0802608
0003a0 a2 18 b4 3d 6c d3 1e 3e 1f c3 e4 3c 1f 69 9e 3c
       0.08793761 0.15510339 0.027925072 0.019337235
0003b0 d7 68 1e 3e 3d 2a 1d 3e ce f7 07 3e 5a 3b 2c 3d
       0.1546968 0.15348144 0.13278124 0.04204879
0003c0 b5 13 33 3d ff a8 ce 3d 49 e2 8a bd e6 95 ee bc
       0.043719966 0.10090827 -0.06781442 -0.029124212
0003d0 0e 4e 1c bd 82 0c 8c 3d 28 df 9f bd 8d 9e e7 bc
       -0.038160376 0.06838323 -0.078062356 -0.028273845
0003e0 7e be ce 3d 41 b8 bf 3b b2 85 94 bd 73 e8 e9 bd
       0.10094927 0.005850822 -0.07252063 -0.11421289
0003f0 ed dc 85 bc 26 af f7 bd 8f f3 d1 bd cd cf 25 3d
       -0.016340697 -0.12093954 -0.10251533 0.040481377

gru.weight_ih_l0 f4 [96, 32]
000000 ba 95 4c 3d 46 2b 08 3e c0 da 0e 3d 45 1e b1 3e
       0.049947478 0.13297758 0.034876585 0.34593406
000010 02 8d 55 3c 42 4d 01 be 40 96 83 3e ab d5 51 bc
       0.013034107 -0.12627128 0.2570057 -0.01280729
000020 f9 df ae 3b b1 2b b6 3d d0 fa 07 3e c6 07 42 3e
       0.005336758 0.08895052 0.13279271 0.18948278
000030 cf 4f 8a bb 0c dc 4e 3e 64 bf bf bd 93 58 07 3e
       -0.0042209397 0.20201129 -0.09362677 0.13217382
000040 05 56 cb 3d 18 3e c5 3e 08 5b 6e bd e6 c0 ae 3b
       0.09928516 0.38523936 -0.058192283 0.005333054
000050 f1 86 6e 3d 53 af 81 3e fc 14 23 be c3 6f 00 3e
       0.05823416 0.25329074 -0.15925974 0.12542634
000060 ff 3d 82 3c 65 fe 67 3e c0 76 48 3e 31 18 47 bc
       0.015898703 0.22655638 0.1957655 -0.012151764
000070 41 7e 34 bc 8f 24 3e 3e c2 30 22 3d fe 40 a7 3d
       -0.011016429 0.18568633 0.03959728 0.08166693
000080 ca e5 74 3e 2e 78 36 3d c1 a4 b4 3d d8 88 2f be
       0.23915783 0.044548206 0.08820487 -0.17142045
000090 d3 b8 48 3e c0 e0 97 ba a7 6f 65 3e d1 4a 35 3d
       0.19601755 -0.0011587366 0.22405873 0.044260804
0000a0 96 ea b7 3c ae e8 86 bd c4 42 1d be 67 9c 0a be
       0.022450726 -0.06587349 -0.153575 -0.13536225
0000b0 16 45 fe bd c1 d0 1d 3e 7d b9 9f 3d 0d c0 d9 bd
       -0.12415521 0.15411665 0.07799051 -0.10632334
0000c0 10 ba 56 3e 00 fb fa 3d 00 c4 0c 3e d5 81 95 3d
       0.20969415 0.12254906 0.13746643 0.07300154
0000d0 eb 41 bf 3c 94 bc ca 3c 8d 47 c5 3d 50 fa 53 3e
       0.023346862 0.024748124 0.09632788 0.20700955
0000e0 9c 11 04 3e 8c 9d 00 3e 58 72 4a bb 18 97 47 3e
       0.12897342 0.125601 -0.0030890908 0.19491231
0000f0 6e 15 00 bd 7c f5 25 3e ca 80 6f bc 11 25 05 3e
       -0.031270437 0.16206926 -0.014618108 0.13002421
000100 da ba 6c 3d 71 de 0e 3e 8f d3 06 3d c4 ee 78 3d
       0.057795383 0.13952042 0.0329166 0.06077458
000110 a8 07 83 3d ec 62 02 be 0f f6 83 3d 64 05 4e 3e
       0.06397945 -0.12733048 0.06443416 0.20119244
000120 07 58 a1 bd e8 1b 72 3e 0b 8e 27 3e b9 88 08 3e
       -0.07878118 0.23643458 0.16362779 0.13333406
000130 1c 1c 84 3d d2 5c e9 3c ca c3 8b 3d bd 6d 5e bc
       0.06450674 0.028486643 0.06824453 -0.013575968
000140 fc 72 25 3e 03 3d fc 3b 70 82 32 3e 57 68 09 be
       0.16157144 0.007697703 0.1743257 -0.13418709
000150 c2 e8 c7 bd de 67 93 3c 7f 41 93 bd cd e4 3b bc
       -0.09761192 0.017993864 -0.07190227 -0.011468125
000160 fb 04 68 3e 9a f6 40 bd c5 0d 39 be dd dc 51 3c
       0.2265815 -0.047110178 -0.18071659 0.012809006
000170 a6 1a d3 3d de ea a0 3d a0 bf 56 be 98 a9 73 3e
       0.10307817 0.07857297 -0.20971537 0.23795164
000180 7f 62 8a bd c8 13 2d bd cd ed 9b bd aa 9b e2 bd
       -0.06757068 -0.042255193 -0.07613716 -0.11064847
000190 30 62 9e bd 63 b2 6f bd ed b9 85 3d bb 69 0e be
       -0.077335715 -0.058519732 0.06529603 -0.1390752
0001a0 73 69 11 3e b2 1a ba 3d 35 b8 b1 bc 36 43 b2 bd
       0.14200382 0.09087123 -0.021694282 -0.08704226
0001b0 8c 8d 18 be 27 0d d9 3d 0e 88 09 3b 21 a9 33 3e
       -0.14897746 0.10598212 0.0020985636 0.17544986
0001c0 dd c9 eb 3d 7c 8c 83 bd 5e 97 5f be 9d 25 2b 3e
       0.11513112 -0.0642328 -0.21835086 0.16713567
0001d0 35 9f 28 be 5c c3 18 3e 9f f7 f8 bd a2 5c 32 bd
       -0.16466983 0.14918274 -0.12156605 -0.043545373
0001e0 77 1f b6 bd d2 12 d3 bd cc 31 6f bd 5c c3 22 3e
       -0.0889272 -0.10306324 -0.0583971 0.15894836
0001f0 e1 3e d3 bd 72 74 15 3e d6 0a 0e 3e 73 03 31 3d
       -0.103147276 0.14595202 0.13871321 0.04321618
000200 e0 d1 09 be fd 3b 4d bd 41 ff 83 3d 08 18 1f bc
       -0.13458967 -0.050106037 0.0644517 -0.009710319
000210 5e 39 e7 bd 9f 0d a8 bd b2 11 b1 3d a1 ce ec bc
       -0.11290239 -0.08205723 0.08645953 -0.028907122
000220 df c9 df bc ed 54 1c be 0f 34 76 3d 6e 17 38 3d
       -0.02731794 -0.15266772 0.06010824 0.04494422
000230 75 eb 80 3d 49 cb 0c 3e b7 dc 34 3d 23 35 c4 3a
       0.0629491 0.13749422 0.044155803 0.0014969449
000240 f3 ae 84 bc df f9 b0 3d 7a 44 2b 3d 52 cb 16 3e
       -0.016196704 0.08641409 0.04181335 0.14725998
000250 ee 18 ac bc 3e 33 0f 3e c9 33 95 bc f5 b8 8e 3d
       -0.021007981 0.13984391 -0.01821317 0.069688715
000260 a3 95 1b 3d 26 85 56 3e 18 f6 57 3e 5f d2 e4 bd
       0.0379845 0.2094923 0.21089971 -0.111729376
000270 ed 72 ac bd b1 4b f0 3a 83 c3 09 be 6b e9 ab 3d
       -0.08420358 0.0018333105 -0.13453488 0.0839413
000280 d2 2e ae 3d 45 cd 71 3e 8d 03 d9 bc cb 8f bd 3e
       0.08505024 0.2361346 -0.026490951 0.37023768
000290 e0 7c b6 bd 8e 26 22 bd 96 82 c5 3d bf 36 33 3e
       -0.08910537 -0.03958755 0.09644048 0.17501353
0002a0 86 90 bb bb d2 65 46 3e c6 06 1b 3e df 7e 31 3e
       -0.0057240156 0.19374779 0.15139303 0.17333554
0002b0 d7 62 0b be de e8 30 3e 22 cc 2a be 82 7e e9 bd
       -0.13611923 0.17276332 -0.16679433 -0.114010826
0002c0 90 f6 a6 3e 44 13 82 3e 99 0f d7 3d d1 7f 2b 3e
       0.32609987 0.25405324 0.10501022 0.16747977
0002d0 1e 0b 78 3e 8d 28 74 3d 1f 56 46 be 36 48 11 3e
       0.24222991 0.059608985 -0.1936879 0.14187703
0002e0 6b 66 c0 bc fa 53 5f be df 35 22 be e7 47 90 3c
       -0.023486337 -0.21809378 -0.15840863 0.01761241
0002f0 65 e5 15 3e fd 56 33 3e bf 54 34 be 00 43 18 3d
       0.14638288 0.17513652 -0.17610453 0.03717327
000300 b0 95 f4 bd fa 81 c2 bd 0e b8 82 be d4 54 23 be
       -0.11942613 -0.09497447 -0.25531048 -0.15950328
000310 6a 66 c5 3d 4e 6a 4c 3e 15 50 bb bd 89 69 15 be
       0.096386746 0.19962427 -0.09146134 -0.1459104
000320 23 08 e3 bd 4a 77 90 bc 73 6d 1d bd 7b 4a 03 bd
       -0.11085536 -0.017635006 -0.038434457 -0.032053452
000330 86 96 1c 3d fd 2c 66 bc d0 3a 07 3e a3 a6 22 3d
       0.038229488 -0.014048812 0.13206029 0.0397097
000340 15 45 01 bd 13 5a 64 be cc 92 78 be b8 ba 05 3e
       -0.031560022 -0.22299986 -0.24274749 0.13059509
000350 33 b3 8f be 74 cb 5c bd a3 e4 d0 3d 90 14 5d be
       -0.28066406 -0.053904966 0.10199859 -0.21589875
000360 f4 44 98 be 2d fc 3d 3e fa 96 56 3e 8a 1b a4 bd
       -0.29740107 0.18553229 0.2095603 -0.08013065
000370 45 ca 0a be bd 42 34 be 2f 77 fa 3c 7d 37 9f be
       -0.13553722 -0.17603584 0.03057441 -0.31097022
000380 64 85 bc 3d 12 19 a7 bd ff 3a f7 3d 26 fb 20 be
       0.0920513 -0.08159079 0.120717995 -0.15720806
000390 a9 a6 10 be 1a b7 d8 bd 13 db 2c 3d 1b a4 39 3e
       -0.14126076 -0.10581799 0.042201113 0.18129008
0003a0 df 7c f9 bc 91 d2 44 3e 31 55 c8 bd db 7d 0c 3d
       -0.030455051 0.1922095 -0.09781874 0.034299713
0003b0 65 b4 84 bc 66 13 9c 3d 5c d8 a4 bd b4 4c 04 3e
       -0.0161993 0.076208875 -0.0804908 0.12919885
0003c0 75 c1 06 3e 91 9f a4 bd 2d 9c 33 3e 85 99 27 3e
       0.13159736 -0.080382474 0.17540045 0.16367157
0003d0 fa 13 02 3e f5 d7 0b 3e 25 bc 5d 3d f1 4a 5e 3e
       0.12702933 0.136566 0.054134507 0.21708275
0003e0 26 2e b3 bd 0c 68 f0 3d a3 80 e4 bd 2c 14 b2 3d
       -0.087490365 0.11738595 -0.11157348 0.08695254
0003f0 e5 0c 7c 3e c4 61 d7 bd 0f 47 6e 3d 9f b2 9d bc
       0.24614294 -0.10516694 0.058173236 -0.019250212

gru.weight_hh_l0 f4 [96, 32]
000000 98 28 dc bd eb dd 9f 3d 3b e2 14 be dc 94 3d be
       -0.1074993 0.07805999 -0.14539425 -0.18513817
000010 97 f3 75 3e 9f f9 db 3c 41 71 41 3d 07 e6 d4 3c
       0.24018703 0.026852427 0.047227148 0.025988592
000020 7c f1 a5 3b a4 fd 3c be 41 e1 2e be d0 24 a8 3d
       0.0050641876 -0.18456131 -0.17078115 0.082101464
000030 92 cb bf bc 6a 1b 8e be b1 4c 0e 3d fc 30 1a 3e
       -0.0234125 -0.2775529 0.034741107 0.15057749
000040 ed 78 9f bd 39 fe 24 3d a4 d1 a0 3d 6c 85 00 3d
       -0.07786737 0.040281508 0.07852486 0.03137724
000050 15 fb 06 be 1f ce 16 3e 62 33 1c bd 5d de 99 bd
       -0.13181718 0.14727066 -0.03813494 -0.075131156
000060 42 24 3e bd 03 67 46 bc 62 8c be 3d d6 21 3f be
       -0.046421297 -0.012109521 0.0930412 -0.18665251
000070 57 2b cb 3d c7 a6 0e be 5f 1f 71 3d 32 c4 d8 bd
       0.09920376 -0.13930808 0.05886781 -0.10584296
000080 26 0c 80 3d 56 d0 85 3d 05 a4 a4 bc 02 30 b6 3d
       0.06252317 0.065338776 -0.020097742 0.088958755
000090 f2 02 45 3e e7 64 25 bc 4d 3a 56 3e 27 e6 cf 3d
       0.19239405 -0.010094858 0.20920677 0.1015132
0000a0 e8 74 84 3d 8e c1 4f 3c 95 5f 36 3e 3b ca c5 3d
       0.064676106 0.012680424 0.17809899 0.09657713
0000b0 f6 78 ae bd 2b dc 16 be bb db bd 3b b6 50 6c be
       -0.08519165 -0.14732425 0.005794016 -0.23077664
0000c0 46 43 a1 3d 6a 8b d3 3c 25 44 22 be 4b 0c 8e 3e
       0.078741595 0.025823314 -0.15846308 0.27743754
0000d0 8c fe a7 3c 93 9c 58 be f8 9c 1c be 6d 26 1f 3e
       0.02050712 -0.21153478 -0.15294254 0.15542002
0000e0 3c a3 de bd 8f 72 7d bb 5f c5 1b be 0c ec 66 3c
       -0.10870978 -0.0038673019 -0.1521201 0.014094364
0000f0 d4 7e d2 3d 89 c0 dc 3d d3 d4 7b bd 9d 53 c7 3d
       0.10278097 0.10778911 -0.061482262 0.09732745
000100 cc ac db 3d 88 db 69 3e fe 3c 69 bd 98 b4 24 be
       0.10726318 0.22837651 -0.056942932 -0.16084516
000110 25 0d 1d 3d 36 e8 22 bd 1f f3 93 3c c7 d1 2e be
       0.038342614 -0.039772235 0.018060265 -0.17072211
000120 8b 63 86 bc 70 bc da bb 6c f0 18 bd 8b d8 03 be
       -0.016404888 -0.0066752955 -0.03733866 -0.12875573
000130 f8 1e 6e be 8a 49 c0 bc ed c1 13 be a9 11 38 3e
       -0.23254001 -0.023472566 -0.14429446 0.17975487
000140 02 48 a6 bd d9 1c 4e 3e c7 09 a7 3b 05 27 5f bd
       -0.08119203 0.20128192 0.005097601 -0.05448057
000150 01 f5 a3 3c 39 7d 2d be 0d 7f 43 be f4 65 6f bd
       0.020014288 -0.169423 -0.19091435 -0.05844684
000160 3c d9 dc 3c 71 71 a6 3d d1 4e 01 be d8 a8 05 be
       0.026959054 0.08127106 -0.12627722 -0.1305269
000170 3b b4 41 3d 6e e5 03 3d ef c8 41 3e f7 f4 5e 3e
       0.04729102 0.032201223 0.18924306 0.21773134
000180 62 e6 c9 3d f7 a4 10 be 5e 90 e5 bd aa 6e ae bb
       0.09858395 -0.14125429 -0.112091765 -0.005323251
000190 b2 32 b9 3b 28 b6 ae bd 42 c4 73 bd c9 ec bb 3b
       0.0056517953 -0.08530837 -0.059513338 0.005735014
0001a0 40 41 33 be 36 5f 52 3c e5 c9 b2 bd 48 39 b9 3d
       -0.1750536 0.012840083 -0.087299146 0.09044129
0001b0 c1 f3 53 be ea ae f9 bc d3 6b f2 3d 35 6f 85 3e
       -0.20698453 -0.030478913 0.11836972 0.26061407
0001c0 6b 8d 8f bd 2a a2 30 be a5 54 2f 3e fe b7 e7 bd
       -0.07009395 -0.1724936 0.17122133 -0.113143906
0001d0 6a 6a 03 3c 69 91 f3 3d cf 03 23 be 3f c1 ac bc
       0.008020977 0.11892969 -0.15919422 -0.02108824
0001e0 8d ae a9 3d 85 16 07 3d a7 2a 17 bd e5 ae 8a 3d
       0.08285246 0.03298046 -0.03690591 0.0677164
0001f0 4a 61 a6 bd 40 bb 9f bd da ad d0 3d 84 58 2a bc
       -0.08124025 -0.07799387 0.101894096 -0.01039708
000200 58 10 32 be da 38 55 3e df 4d 1f be eb da 53 3c
       -0.17389047 0.20822468 -0.15557049 0.012930612
000210 d8 a9 9e 3c ca 99 41 be 5c 57 7d 3d ab db ed bc
       0.019368097 -0.18906322 0.06185089 -0.02903541
000220 f4 43 08 3e fa 11 c2 3d e5 a6 79 3d f6 4c 86 3d
       0.13307172 0.09476085 0.06095018 0.06557648
000230 2e c8 0c be e2 0c 0f bd b4 fe af bd dd 7c 24 bd
       -0.13748237 -0.034924395 -0.08593503 -0.04015814
000240 7f cc 4e be b2 42 0a be 7c 37 3e 3d 6e 26 b3 bb
       -0.20195197 -0.13502005 0.046439633 -0.0054672277
000250 0a a9 15 be a4 ae fc bc d3 24 2b be 6c 57 0d 3e
       -0.14615265 -0.030844994 -0.16713266 0.1380288
000260 0c f5 b3 bd 43 8b af bd 58 18 87 bd 4a 4a 67 be
       -0.08786973 -0.08571484 -0.0659644 -0.22586933
000270 85 a4 d6 3d df f3 f1 3c 71 e5 5e 3e 4b bf a9 bd
       0.10480598 0.029535232 0.21767212 -0.08288439
000280 01 4d fb bc bb df 58 3e b1 cf f8 3d 47 90 4d bd
       -0.030676367 0.21179096 0.12148989 -0.05018642
000290 17 c4 0b 3e f4 89 19 bd ca d2 e1 3c ac 77 32 3e
       0.13649021 -0.037485078 0.027566332 0.17428464
0002a0 13 be 0a bc 70 af 13 bd 64 f3 44 bc de 16 c3 bd
       -0.008468169 -0.036055982 -0.0120209195 -0.09525846
0002b0 0d ed 1b be a7 2c 14 3e 4b 22 89 3e 47 c0 1f be
       -0.15227146 0.14470159 0.26783976 -0.15600692
0002c0 4b e3 49 be 9c d2 13 be 89 48 8a be 18 09 9b bd
       -0.19715612 -0.1443581 -0.27008465 -0.07570094
0002d0 59 39 d2 3d db 88 a9 bd 20 f5 f9 bc 4b 44 81 3d
       0.102648444 -0.08278056 -0.030512393 0.06311854
0002e0 70 ca 49 3d db a5 aa be ab 04 dc 39 fb 64 5b 3e
       0.049265325 -0.33329663 0.00041965148 0.2142524
0002f0 7f 22 59 be cc 62 44 bd bd f3 86 be 11 eb 90 bc
       -0.21204565 -0.047945783 -0.26357833 -0.017690213
000300 6d 05 80 3d c3 8e 03 3e e9 18 46 bd 1f 21 9c bd
       0.06251035 0.12847428 -0.0483636 -0.07623505
000310 bd 9f 01 be c6 e1 3a 3c b3 56 28 be 76 3e a6 3a
       -0.12658592 0.011406368 -0.16439323 0.001268341
000320 a3 d4 08 3e 09 3e 49 be 4d df 51 be d9 df 22 bc
       0.13362364 -0.19652571 -0.20495339 -0.009941065
000330 d3 99 6e 3e 88 44 f8 3d 58 8e b1 3c 7b 95 ad bd
       0.23300867 0.12122446 0.02167432 -0.08475777
000340 a7 d4 89 3d 2c 20 fd bb ac 2a 13 3e eb 51 89 bd
       0.06730013 -0.0077247825 0.14371747 -0.06705078
000350 e4 32 6f bc 6e 4b 94 bd ce ce 19 be 2e 9f 8b 3d
       -0.014599536 -0.072409496 -0.15020296 0.068174705
000360 eb 66 f2 3d e8 05 43 3e 40 25 96 bd 9f 43 ab 3d
       0.11836036 0.19045222 -0.073313236 0.08362507
000370 fe 17 1d 3e a9 26 85 3d 70 54 d8 bd f2 76 91 bd
       0.15341184 0.065015145 -0.1056298 -0.07102765
000380 70 ba 3b bd ef 97 16 3e f0 a3 1f 3d f2 e9 15 3d
       -0.045832098 0.14706396 0.038974702 0.03660006
000390 79 28 d7 bd cc 0f cb 3d 32 fe 55 3d 46 ce 1f bd
       -0.105057664 0.099151224 0.052244373 -0.039015077
0003a0 0b 42 1c 3e b9 20 20 3e 5c d1 a8 bd c5 73 2a 3b
       0.15259568 0.15637483 -0.08243057 0.0026008945
0003b0 39 68 92 bd be af 1b 3e 37 48 e5 bc 81 05 b0 bd
       -0.07148785 0.15203759 -0.027988536 -0.085948
0003c0 28 33 0a be 0b a2 c8 ba 88 cd 1e be 66 6c 68 bd
       -0.13496077 -0.0015307082 -0.15508091 -0.056744
0003d0 ae 42 79 bd ec 38 22 be e6 a1 62 bd 3b 15 85 3e
       -0.060854606 -0.15842026 -0.05533018 0.2599276
0003e0 35 06 7c bd 4e 18 2f be 36 57 fc bd ea 6c 80 3d
       -0.061529357 -0.17099115 -0.12321322 0.06270774
0003f0 59 80 7b be 4c 39 69 3d 6e 46 a3 bc fe 64 dc bd
       -0.2456068 0.05693941 -0.019931044 -0.1076145

gru.bias_ih_l0 f4 [96]
000000 c9 95 0e 3e dc b9 66 bd 4a ba 51 3e 15 17 e5 bd
       0.13924326 -0.056329593 0.2048122 -0.11186043
000010 9e ca ed 3d 79 27 f5 bc 5d 65 14 be 25 28 35 bc
       0.11610912 -0.029926049 -0.14491792 -0.0110569345
000020 b5 3d 64 3e 98 78 44 bd e5 f7 a9 3c d2 c7 fd bc
       0.22289164 -0.04796657 0.020748088 -0.03097907
000030 90 63 c8 bd 14 78 09 3e 5c fe e6 bd 43 99 c7 bc
       -0.09784615 0.13424712 -0.11278984 -0.024365073
000040 9c ea 79 3d 76 b7 b2 bd c3 32 08 3c 69 0b 1c bc
       0.061014757 -0.08726399 0.008312884 -0.009524205
000050 fa 23 da 3d b1 49 a5 bd 56 e6 75 3e 34 ee 01 3e
       0.10651393 -0.08070696 0.24013647 0.12688524
000060 85 8b 90 bb 7c 37 e8 bd c4 5c 0a 3e c6 e5 cc 3b
       -0.0044111633 -0.11338708 0.1351195 0.006252977
000070 d1 48 17 3e 3a 3a 25 3e 3d a8 4f 3d fa 21 9d 3e
       0.14773871 0.16135493 0.050697554 0.30689985
000080 c5 69 01 be c0 7f b6 3d 92 c5 75 bd 81 e2 3f 3e
       -0.12638004 0.08911085 -0.06000287 0.18738748
000090 bc d2 8c 3c e3 3f 0d be 3d c5 1e 3e b2 09 48 bd
       0.01719033 -0.13793902 0.15504928 -0.04883737
0000a0 0d 09 1d 3c 6d 4e 66 3d e5 f6 a2 3e dd d9 34 3e
       0.009584677 0.056227136 0.3182899 0.17661233
0000b0 62 d0 65 3d 4b fd 97 3d fa fe 38 bd 80 8c e9 bd
       0.056106932 0.07421359 -0.04516504 -0.114037514
0000c0 11 f5 da 3d 1a 02 5d 3e 19 73 12 bd d2 7d 5b 3e
       0.10691274 0.21582833 -0.035754297 0.21434715
0000d0 44 50 ce bc 4b 4f 03 be 72 be 9e 3c ad 2a a4 bd
       -0.025184758 -0.12823217 0.01937792 -0.08015952
0000e0 da b9 13 3e d9 7b 6f bd e7 73 26 3d 40 43 0a be
       0.14426365 -0.05846772 0.040637877 -0.13502216
0000f0 14 b9 a3 3c 5a 3a 6d 3e b6 76 fa bd fe e7 57 bd
       0.019985713 0.2316679 -0.122296736 -0.05271148
000100 67 3a 2e ba e8 cf 23 3e 7d 65 1c 3d ff 10 61 bc
       -0.0006646276 0.15997279 0.038182724 -0.013736962
000110 30 69 64 3d 7c 0b 63 be 4a cb bf 3d 96 e0 5f be
       0.055764377 -0.2217235 0.09364946 -0.21863016
000120 b2 a4 af bd db 4b 79 3c 68 e4 33 3e a8 09 58 3e
       -0.08576335 0.015215839 0.17567599 0.21097434
000130 1c de 09 bd 68 a3 9a bd f2 14 f0 3c 2f 43 83 3d
       -0.033659086 -0.075506985 0.029306863 0.06409299
000140 d6 8b 5b be 4a e4 13 be f9 ed e4 bc 15 a5 d7 bd
       -0.21440062 -0.14442554 -0.027945505 -0.10529534
000150 93 6a 74 be 64 4e ac 3d 80 0d c9 3d f1 1e 05 be
       -0.2386878 0.08413389 0.09817028 -0.13000084
000160 06 0c 06 3c 8a bb 50 bb 2d 11 59 bd 81 cf 25 be
       0.008181578 -0.0031850063 -0.052994896 -0.16192438
000170 ff 3e e0 3d 0c 8c f4 bc f4 77 d6 3d ab d8 f7 3d
       0.109495156 -0.029851936 0.10472098 0.12101873

gru.bias_hh_l0 f4 [96]
000000 a9 48 1a bc 1a bb 5d 3e ac b2 79 3e 29 57 a2 3d
       -0.009416738 0.21653405 0.24384564 0.07926781
000010 71 67 71 bd 8e 3c 55 bd d3 9a aa bd ab 78 3a 3e
       -0.05893654 -0.052059703 -0.083303116 0.18210094
000020 12 e4 37 bc f4 a8 5e 3e d7 87 14 3e dc 2f b6 3d
       -0.01122381 0.21744138 0.14504944 0.08895847
000030 6b 32 42 3c 02 dc 8f 3e 12 9e c4 bd 5b 87 4c 3d
       0.011852841 0.2809754 -0.09600462 0.049933773
000040 d5 e8 7d 3e fd b9 6e 3d cd 8a ff 3b f3 f7 2b 3d
       0.2479585 0.05828284 0.0077985288 0.04198451
000050 4c c5 8a 3e dc 24 4b 3e 87 df 80 3e 76 b2 62 3e
       0.2710365 0.1983828 0.25170538 0.2213839
000060 e9 43 8f bd 5b 0b a8 3d e5 b4 a7 3d 9e 97 48 3d
       -0.06995375 0.08205291 0.081888 0.04897272
000070 4a 78 2d bc 29 4d 34 3d 1e 41 4b 3d af 2c 82 3e
       -0.010587761 0.0440189 0.049622647 0.25424716
000080 7d 3a 97 bc 32 fb 7c 3e 3d 72 36 3e 2f bc 93 3c
       -0.018460507 0.24705198 0.17817016 0.018034069
000090 5d 2f 5d 3e 99 a4 d2 bd 2a 06 08 3d 63 93 6f be
       0.21600099 -0.10285301 0.033209004 -0.23396067
0000a0 89 db 51 bd bb d2 2b bc 4b a8 73 3e de 6e df 3d
       -0.051234756 -0.010487254 0.23794667 0.10909818
0000b0 1c 7e 4a 3e 16 12 c0 bd cf 91 0f be 4b 8e db 3d
       0.1977467 -0.093784496 -0.14020465 0.107204996
0000c0 5d ad 20 3d bb 40 26 3d bd 47 20 be 86 27 37 bb
       0.039227832 0.040589076 -0.15652366 -0.0027947142
0000d0 3c 2a 7e 3c 68 e5 17 be 2a 32 f9 bd 85 e2 19 3e
       0.015512999 -0.14833605 -0.12167771 0.15027817
0000e0 90 4a 40 be 06 61 c3 3d a7 74 80 bd ff b2 f9 3d
       -0.18778443 0.0953999 -0.0627225 0.12192344
0000f0 40 b3 7d bd fd 48 f0 3d 2c 99 26 be 2e ad 91 3c
       -0.061938524 0.117326714 -0.16269368 0.017782774
000100 1b 2b 08 be 70 33 45 3d 2d cc dd bd f0 e5 d2 bd
       -0.13297693 0.048144758 -0.10829959 -0.10297763
000110 1c 56 a8 3d 00 31 87 3d 4f 6e 23 3e 12 90 85 bc
       0.08219549 0.06601143 0.15960048 -0.01630405
000120 cc 4d 03 be a1 b3 e6 bd 99 a5 8e bc 87 5c 55 3d
       -0.12822646 -0.1126473 -0.017412947 0.052090194
000130 b1 0e e4 bd ad b7 2f bd a4 d3 41 be 30 f4 63 3e
       -0.11135615 -0.042899776 -0.1892839 0.22261119
000140 80 d6 2f be 73 31 66 bd 1a ba 7c 3e d9 f5 45 bd
       -0.17171669 -0.056199502 0.24680367 -0.04833016
000150 08 ad 2b 3d 15 1b b7 bd 51 66 4d be 50 41 01 bd
       0.041913062 -0.08940712 -0.20058562 -0.031556427
000160 b4 42 c9 3d 17 65 cd bd d3 08 19 3e e3 c0 1a be
       0.09827176 -0.10029047 0.14944772 -0.15112643
000170 12 76 30 3e b4 97 a0 bd 2e 9e 73 3d 6a f2 03 3e
       0.1723254 -0.07841435 0.059477024 0.12885442

gru.weight_ih_l0_reverse f4 [96, 32]
000000 a7 00 2a 3e 69 45 1f 3e 9b 82 4d bd 1e 9a 14 3e
       0.16601811 0.15553822 -0.050173383 0.14511916
000010 31 32 3e 3d b4 0c 32 3e fe 8c 38 3e a0 70 6b bd
       0.046434585 0.17387658 0.18022534 -0.057480454
000020 25 98 15 3d a9 32 90 3a 1b 7f 41 3d c7 85 e7 bd
       0.03652205 0.0011001426 0.047240358 -0.11304813
000030 13 98 c1 bd bc 4d 1d 3e 0a d6 2a 3e b7 c9 c0 3d
       -0.09452834 0.15361685 0.16683212 0.09413474
000040 c3 7f a0 3d 4b b5 58 3e 91 10 16 3e 2e 51 ca 3d
       0.078368686 0.21162908 0.14654757 0.09878765
000050 a4 9e 14 bd a2 f2 c6 3c 99 03 31 bd d7 7d 33 3d
       -0.036284104 0.024285618 -0.04321632 0.043821182
000060 6d d2 df bd f2 58 06 3e ff ec 12 3e e5 12 52 3e
       -0.109288074 0.13119867 0.1434822 0.2051502
000070 4f 9e 6c 3c 7f 78 b2 3d a5 cb 97 bd 84 87 ba bd
       0.014442041 0.08714389 -0.07411889 -0.09107879
000080 29 87 40 bd 4e b9 1f 3c 6c e4 ac bd f1 92 f3 bd
       -0.0470039 0.00974877 -0.084420055 -0.11893261
000090 ca 6e 7b 3d 82 a7 6b 3e 41 d2 fc bd 3b be de 3d
       0.061384954 0.23013118 -0.1234479 0.10876127
0000a0 e5 10 8b bd 63 6c af 3d f8 13 f1 bd 58 62 14 3e
       -0.06790332 0.08565595 -0.11771387 0.1449064
0000b0 95 60 be 3c 89 8f e2 bd 8b 22 0b 3e 78 b3 0f 3c
       0.023239413 -0.110625334 0.13587396 0.008770816
0000c0 3f c5 2a be 0f c3 3d be c8 ee 2f be 99 e8 3a 3d
       -0.16676806 -0.1853144 -0.17180932 0.04563198
0000d0 58 8a 18 be 43 1a 0d 3e c9 80 47 3e c2 46 be 3d
       -0.14896524 0.1377955 0.19482721 0.0929084
0000e0 3f 98 f6 39 51 47 06 3d b5 1b 9d 3d de 9f 17 3d
       0.0004703421 0.032782856 0.076713 0.037017696
0000f0 93 b1 95 bd df b3 de 3c e9 07 f8 3d 6e 31 72 be
       -0.0730926 0.027185379 0.12110884 -0.23651668
000100 41 86 5d 3c 8c b3 fe 3d 53 2f 54 3e 5f 0e d1 bc
       0.013520778 0.124365896 0.20721178 -0.025519548
000110 c8 1c 8d 3d 8c ee 5c 3e b8 08 ea 3d 1e b3 57 3d
       0.06890255 0.21575373 0.11427444 0.052661054
000120 f1 bd 76 bd b2 91 2f 3e 5c 00 81 bd c2 a3 b8 3d
       -0.060239736 0.17145422 -0.06298897 0.09015609
000130 71 d9 a8 bd 74 5b 7c 3e 4b a6 71 3e 8b 15 da bd
       -0.08244599 0.24644262 0.23598592 -0.1064864
000140 4d 06 d8 3c 0f 31 4a 3e 7e 10 bd 3b 2e 84 75 bd
       0.026370192 0.19745277 0.0057697883 -0.05994051
000150 b5 96 fc 3d bc 41 c3 3b c7 29 94 ba 52 c4 06 bd
       0.123334326 0.005958764 -0.0011303955 -0.03290207
000160 60 60 51 3d 5f 76 24 3e 3d df 16 3e 30 43 cd bc
       0.0511173 0.1606078 0.14733596 -0.025056452
000170 b0 fe 26 3e dc e5 77 3e ff 65 ee 3d 74 82 8c 3e
       0.16308093 0.24208778 0.11640548 0.27443278
000180 81 ee bb bc d7 db 26 3e 6b d9 bb bd a8 c6 fd bd
       -0.022940876 0.162948 -0.091723286 -0.12391406
000190 c7 a0 18 be c0 e5 13 bc 16 9c 61 bd 1b fe 9b 3d
       -0.14905082 -0.009026945 -0.055080496 0.07616826
0001a0 c8 79 57 3e c8 7a 1f be 4a 5b 29 bb dd 13 d2 bd
       0.2104255 -0.15574181 -0.0025841766 -0.10257695
0001b0 60 c2 47 bd 2e 8d 1c be ef 43 18 bd db e0 82 3d
       -0.048769355 -0.15288231 -0.03717416 0.06390544
0001c0 ed 55 44 3d e5 7e d2 bc 0b b5 e9 bd 11 f8 4b 3d
       0.047933508 -0.025695274 -0.11411484 0.04979712
0001d0 d4 44 69 3c ae 67 ac 3d bb cb 16 3e 91 94 25 be
       0.014237601 0.08418213 0.14726155 -0.16169955
0001e0 28 0d f9 3d 31 37 f4 3c e4 03 97 3d c3 1e a7 bd
       0.121607125 0.029811474 0.07373789 -0.08160164
0001f0 2f 82 13 bd 3e 74 67 3d a1 f8 ce 3d bf 4c b8 bd
       -0.036012825 0.05650734 0.10106016 -0.08999013
000200 7c bf 14 3e 0f f2 20 3e 2d b0 58 3c b0 b4 17 be
       0.1452617 0.15717338 0.013225597 -0.1481502
000210 8d 18 f1 3d 16 1c 11 be f2 c9 da bd 42 53 21 3e
       0.11772261 -0.1417087 -0.10683049 0.15754417
000220 51 f4 62 3e 36 0a 1d 3e 62 07 b4 bd 2c 40 63 3e
       0.22163512 0.15335926 -0.08790471 0.22192448
000230 4e c0 d6 3d 1e f3 d3 bd f7 bc 04 be fd 9e 9d 3d
       0.10485898 -0.10349105 -0.1296271 0.0769634
000240 12 55 dc 3d 38 9d 43 bd 71 56 16 3e 82 39 95 bd
       0.107584134 -0.047757357 0.14681412 -0.07286359
000250 52 14 bc 3d 4a c9 a3 bd 7b cc 15 3e 43 6a 7d 3e
       0.09183563 -0.07997377 0.14628784 0.24747567
000260 f3 bc 6f bb 5f 3d 09 3d 2a 1c d6 3d 4d d4 e0 bb
       -0.0036581128 0.033505794 0.104545906 -0.0068612457
000270 83 3b 6c 3e c3 0d c8 bd 99 a5 f8 bd c6 57 77 bd
       0.23069577 -0.0976825 -0.1214096 -0.06038644
000280 06 92 83 3d e5 b7 00 be ef ec 23 3e af 07 26 be
       0.06424336 -0.1257015 0.16008352 -0.16213869
000290 a6 e1 cc 3c b9 ef 5e 3d c5 f2 00 ba 40 06 ba bd
       0.025009941 0.054427836 -0.0004918988 -0.09083223
0002a0 d5 42 60 be 74 22 1d bd e8 4d 3f bd fa 49 16 be
       -0.21900494 -0.038362935 -0.046705157 -0.14676657
0002b0 c7 8d a3 3d bc 49 cc bd 7a 38 ee bd 13 1c 9f bc
       0.07986026 -0.09975001 -0.11631866 -0.019422567
0002c0 8c 48 a0 3d c7 76 52 be 1e 36 2d 3e fe da 18 3e
       0.07826337 -0.20553122 0.16915175 0.14927289
0002d0 96 3c c7 bd 65 d9 24 be 61 67 52 be c5 4c 84 bc
       -0.09728353 -0.16098554 -0.20547248 -0.016149888
0002e0 c1 3f db bd 04 fb 87 3c 62 03 43 be f8 9f 44 3d
       -0.107055195 0.016599186 -0.19044259 0.04800412
0002f0 a3 51 42 3e 9b f3 9c 3d 33 86 66 be 3b 5f 41 3d
       0.18976454 0.076636516 -0.2251213 0.04720996
000300 4e 07 c3 3d f3 1b 84 3d d5 2f 63 bc e1 bb de bc
       0.09522878 0.064506434 -0.0138663845 -0.027189197
000310 e4 98 8a bd 41 7d d5 bd 0c c9 27 3e 12 01 8e 3d
       -0.06767443 -0.10424281 0.16385287 0.06933798
000320 2d a5 d9 bd 3b fb f1 bc 14 ee 0b be 3c ec 0f be
       -0.10627208 -0.029538741 -0.13665038 -0.1405496
000330 d3 be 40 bd ae 06 be bd c6 5c 0e 3d bc 2f 30 bc
       -0.047056984 -0.09278618 0.034756444 -0.010753568
000340 d3 c2 cd 3c 8b 42 20 be 70 56 50 bd d1 75 04 3c
       0.025117313 -0.15650384 -0.050863683 0.00808473
000350 b0 6d 78 3d 13 1f e5 bd ae ac 78 3c 6d 98 68 3d
       0.06065148 -0.111875676 0.015177889 0.05678599
000360 46 2b dd bd 1f e4 b2 bd 91 03 a3 3d b4 b2 90 bd
       -0.107992694 -0.08734917 0.079596646 -0.07065335
000370 71 3b 6c bc 49 3f 05 3d 7d 5d 06 3d f0 b5 ea bb
       -0.014418469 0.032531057 0.032804 -0.007162802
000380 d9 76 2a 3e 01 e7 c3 3e 00 ab 50 3e f0 90 64 3e
       0.166469 0.3826218 0.20377731 0.22320914
000390 54 2a 66 3e 4f 8d c7 3d 38 99 66 3e dc 71 88 3e
       0.22477084 0.09743749 0.22519386 0.26649368
0003a0 4d a1 6e 3e bd fc 96 3e c5 bc 04 3d 4e 59 38 3e
       0.23303719 0.294897 0.032406587 0.18002817
0003b0 95 7f 35 3d 48 c3 0d 3e 4f 1b c0 3e 11 9f 62 3d
       0.044311125 0.13844025 0.37520835 0.05532748
0003c0 82 e2 9a 3e 8f cf 02 3e 9f 71 7f 3e 96 a8 c4 3e
       0.30250937 0.1277449 0.24945687 0.3840987
0003d0 06 7f 90 3e c8 a9 1b 3e 4b 20 f1 3d 3f 3c 91 3e
       0.2822191 0.15201485 0.117737375 0.28366277
0003e0 9e 99 6b 3e f7 04 08 3e eb 70 a4 3e e8 be 71 3e
       0.23007819 0.13283144 0.321174 0.23607981
0003f0 2c 36 19 3e 12 54 06 3d 5b b8 22 3e 89 f3 cc 3e
       0.14962071 0.03279502 0.15890639 0.40029553

gru.weight_hh_l0_reverse f4 [96, 32]
000000 6f e8 5b 3e de 05 14 3e 5b 1a 50 3d 05 07 16 3e
       0.21475385 0.14455363 0.050806385 0.14651115
000010 6d 2e 40 3e fd e3 2a be 36 23 a0 3c d3 7b 17 3d
       0.1876771 -0.16688533 0.01954804 0.036983322
000020 dd 2e 86 3b 1c 1e 0a bb 38 45 67 be 43 4a 4d 3e
       0.004094942 -0.0021075075 -0.22584999 0.2004786
000030 b9 9a 85 3d d5 c7 37 3d 58 27 82 3d ce 5b 28 bd
       0.06523652 0.04486831 0.063551605 -0.041103177
000040 5c ce 86 bd db 73 18 3e 9c 24 06 be 0e c0 95 bc
       -0.06582329 0.14887945 -0.13099903 -0.018280055
000050 80 f7 86 3d d1 ff fe 3d 89 45 6d 3d 6f 7c 72 be
       0.06590176 0.12451137 0.057927642 -0.2368028
000060 16 22 d5 bd 6f eb b3 3d 86 d4 9b 3d f4 04 a4 3d
       -0.10406892 0.0878514 0.07608895 0.08008757
000070 3b 0d bb bd 0b 6f 39 3e 29 00 72 3e 9a 98 22 3e
       -0.09133383 0.18108766 0.23632874 0.15878525
000080 0f d0 95 3d f5 5c 30 3e 84 16 c9 bc 95 d0 3f 3e
       0.07315075 0.1722296 -0.02454687 0.18731911
000090 27 81 2d 3e 79 a1 c6 bd fa 1e 7d bd de 57 10 be
       0.16943799 -0.09698767 -0.06179712 -0.14096019
0000a0 ff 58 3f be 76 14 8d 3e 76 0e 80 be 10 a9 96 3d
       -0.18686293 0.27554673 -0.25011033 0.07356465
0000b0 03 42 94 3c 52 ef 3d 3d ac f3 46 be f2 51 55 3e
       0.018097883 0.04637081 -0.19428891 0.20832041
0000c0 1c 8e af 3d 50 63 e5 bc 63 18 28 be 44 95 57 be
       0.08572027 -0.028001457 -0.16415553 -0.21053034
0000d0 1e 38 63 be 41 b6 28 3e 22 73 47 bd 41 93 5a be
       -0.22189376 0.16475774 -0.048693784 -0.21345235
0000e0 84 bf d1 bd 67 f9 13 be 7b 03 bc 3d 4d bb 83 bd
       -0.10241607 -0.14450608 0.09180351 -0.06432209
0000f0 2a 21 a0 bd 35 11 0a 3e 6e 51 8c 3e a8 27 02 3d
       -0.078188255 0.13483126 0.27405876 0.0317761
000100 c2 50 76 3d b2 f2 ff bd f3 81 44 bd 9b 86 14 be
       0.06013561 -0.12497462 -0.04797549 -0.14504473
000110 5d 42 97 3d 3f 1d 08 3e fc d7 12 bd b7 66 87 3b
       0.07385705 0.13292406 -0.03585051 0.0041321176
000120 34 b0 4d be 6c 01 b9 3d 68 6b 1a be a4 f3 98 3d
       -0.20086747 0.09033474 -0.15080035 0.07468346
000130 88 3d c2 3d 73 3f f8 bd c3 6e 49 be 23 f9 8e bd
       0.094843924 -0.12121477 -0.19671158 -0.06981113
000140 9c b5 06 3c ca 58 e5 bc 05 4b f5 3d a8 9c f2 bd
       0.00822201 -0.02799644 0.119771995 -0.11846286
000150 6c 4f f6 3d f9 e9 52 3e 6e 4f c0 bd 59 66 4b 3d
       0.12026867 0.20597066 -0.0939015 0.049658153
000160 2e 05 1f be 1f e7 3d be 07 6f a7 bd 19 7b 42 3d
       -0.1552932 -0.18545197 -0.08175474 0.047480676
000170 5e 12 a7 3d 0a 42 70 3d 98 84 d6 bd 7e 67 05 bd
       0.081578 0.05865673 -0.10474509 -0.0325694
000180 8e cd 79 3e e7 96 1f 3e a4 d7 4b be 76 ab 2d 3d
       0.24394819 0.15584908 -0.19906479 0.042399846
000190 6c 24 7a 3c e2 4c 55 bd b0 56 5d 3e 1e 55 42 be
       0.015267473 -0.052075274 0.216151 -0.18977782
0001a0 34 e0 24 be 7b f8 2c 3c a0 58 d4 bb b2 e7 11 3e
       -0.16101152 0.010557289 -0.0064802915 0.14248541
0001b0 43 56 72 bd 22 1a 07 3e 02 2b 87 be 7b 95 56 3d
       -0.059164297 0.13193563 -0.264 0.05238865
0001c0 74 4b ba 3c 07 1e 44 bd 3b e4 fe 3b 8e fd 00 be
       0.022741057 -0.0478802 0.007778672 -0.12596723
0001d0 ea 5a 8e ba a8 dc 03 3d 9a 88 7a 3c 96 80 93 bc
       -0.0010860835 0.032192856 0.015291357 -0.01800565
0001e0 b9 e2 d7 3d 1b 9b 43 be 0a 8d 2e be 65 05 67 bc
       0.10541291 -0.19102137 -0.1704599 -0.014100407
0001f0 a0 79 a8 3d bb a6 26 3e 67 63 67 3d 61 04 6e 3e
       0.08226323 0.1627454 0.05649128 0.23243858
000200 bc 19 ee 3d 91 17 54 bd 4d e7 91 3d de e7 18 3e
       0.11626002 -0.051780287 0.07124195 0.149322
000210 9f df 98 bd ff ce d5 bd 3e 16 9d 3d 88 f9 71 be
       -0.07464527 -0.10439872 0.07670258 -0.23630345
000220 22 fa 97 3d 7e cc 52 3e c1 ea e3 bc 66 22 a6 bb
       0.07420756 0.2058582 -0.0278219 -0.0050700186
000230 ff 22 3d be d5 ef 1e 3d 72 e3 69 3c 69 95 15 3d
       -0.18470381 0.03880294 0.014275419 0.03651944
000240 24 ee 27 3e 60 1d 85 bc 52 c9 c7 bd 66 89 59 bd
       0.16399437 -0.016249359 -0.09755196 -0.05310955
000250 c6 6d e4 bc 4c f4 b3 3c 67 b3 64 3c bc 78 3c be
       -0.027884375 0.021967076 0.0139587885 -0.18405432
000260 42 22 97 bd 1a 12 cf bc 53 0e 8a 3d 7f ab 3e bd
       -0.07379581 -0.025277186 0.067410134 -0.04655027
000270 e9 d4 22 3d 18 a6 06 bb f8 d3 22 3e 26 1e 62 3d
       0.03975383 -0.0020545777 0.15901172 0.055204533
000280 dd c5 07 3e f7 7e 97 3d 1a ba 03 3e 34 a6 8b 3e
       0.13259073 0.073972635 0.12863961 0.2727524
000290 0f 43 21 bd 69 c1 85 bc e1 06 00 3e 3a 97 00 bd
       -0.039370593 -0.016327577 0.12502624 -0.03139422
0002a0 6f 4d ba 3d c0 f8 ae 3d 8a 66 b4 bd f6 35 15 3e
       0.090968005 0.08543539 -0.0880862 0.14571366
0002b0 9d 2b 99 3c 7b 9f 03 be 93 91 7d bd c7 d6 38 3e
       0.018697554 -0.12853806 -0.06190641 0.18050681
0002c0 58 38 94 bd 29 b5 62 bc f3 74 6c 3d af d5 1c be
       -0.07237309 -0.013837137 0.05772872 -0.15315889
0002d0 f1 62 76 3c a9 af 9b bd 5b c5 ab 3d 75 dc b6 bc
       0.015038238 -0.07601864 0.08387252 -0.022321919
0002e0 66 8b 87 3d 83 99 95 3d f2 59 6b be fb 5b db 3d
       0.06618385 0.07304671 -0.2298353 0.10710903
0002f0 b3 e9 ed 3d bc c6 84 bd 25 2a 2d 3e 92 b1 19 3d
       0.1161684 -0.06483218 0.16910608 0.03752286
000300 be 8e f0 3d de 4a 56 3d 64 a6 97 3c 68 94 61 3d
       0.11745976 0.052317493 0.018511958 0.05507317
000310 01 4f d1 bc 61 e1 5d be 8c c7 ec 3d c0 a4 85 be
       -0.025550367 -0.21668006 0.11561498 -0.26102257
000320 91 bc f7 bc 66 69 82 bd c5 46 2d be da b3 06 3e
       -0.030241283 -0.063677594 -0.16921528 0.13154545
000330 91 fa e5 bb 14 d5 04 be 77 6d 75 be 4f ab a5 bd
       -0.0070183952 -0.12971908 -0.23967539 -0.08089315
000340 c2 14 42 3d ed 4a f7 3d 0d c9 7c bd d6 1a 0e 3d
       0.047383077 0.12074838 -0.061715174 0.03469356
000350 e9 65 a0 3b 64 af 0d 3e e3 94 b0 bd e5 7a 1e 3c
       0.004894961 0.13836437 -0.08622148 0.009672855
000360 3f 53 fa 3d 49 94 4f 3d 88 64 98 3d 25 2d 35 bb
       0.12222909 0.050678525 0.0744105 -0.0027645316
000370 da 8c 33 bc bc e9 19 3e df ae 9c 3d d9 8a 0d 3b
       -0.010958875 0.15030569 0.076505415 0.0021597652
000380 10 af 7f bc ae 15 d3 3d 11 17 ad 3d ba 5c 7b bd
       -0.015605703 0.103068694 0.08451665 -0.061367728
000390 2f 11 08 be 47 50 e6 3d d9 4b 3f 3e f7 d3 84 3d
       -0.13287805 0.112457804 0.18681277 0.064857416
0003a0 68 82 aa bd 9a af 29 3e 86 91 39 be e1 87 44 bd
       -0.08325654 0.16570893 -0.18121919 -0.047981147
0003b0 98 41 38 bd b7 f0 6d 3d 89 d7 b0 bd 3a 4a 23 be
       -0.04498443 0.05809089 -0.0863486 -0.15946284
0003c0 e0 e3 0d be 97 ee a9 bc 1d 17 d0 bd 89 ad 3b 3d
       -0.13856459 -0.020743651 -0.101606585 0.045819793
0003d0 1f ae 84 bd 92 3f 12 3d 54 ba 6c bd bd 5f 8b be
       -0.064785235 0.035705157 -0.057794884 -0.2722148
0003e0 50 22 c0 3d 8c bc a8 3d 66 59 88 3d 18 c6 95 bd
       0.093815446 0.082390875 0.066576764 -0.07313174
0003f0 5d 4c c5 3c f9 10 e6 bc a1 68 b5 3d 78 84 02 3e
       0.024084264 -0.028084265 0.08857847 0.12745845

gru.bias_ih_l0_reverse f4 [96]
000000 b6 63 91 3d e0 58 34 3e c4 bd 30 3e f8 48 14 3e
       0.070990965 0.17612028 0.1725989 0.1448096
000010 9b ab 86 3d ac 7f f6 bd 32 bb 08 bd 72 63 96 bd
       0.065757 -0.1203607 -0.03338165 -0.073431864
000020 2c a7 ef bd f9 ca 60 3e f8 4a 36 3d dc 41 03 3e
       -0.117018074 0.21952428 0.04450509 0.12818092
000030 dd 1e 52 3d 04 49 a2 3b 79 48 08 3c bc e8 66 3d
       0.051298965 0.004952552 0.00831806 0.056374297
000040 6f b1 8f 3d 27 bc 9d 3d b3 3e 3b 3e d0 da a4 bd
       0.07016265 0.07701903 0.18285637 -0.08049548
000050 99 ac 0e 3d 28 f4 53 3e 73 8a 07 bd e8 ec 11 3e
       0.03483257 0.20698607 -0.03309102 0.14250529
000060 eb 21 92 3d f5 bb 0d be 86 3f d0 3d 4c 38 98 3c
       0.071353756 -0.13841231 0.10168366 0.018581532
000070 97 92 76 3d 89 00 e5 bd 2f d4 17 bd ac f6 60 3e
       0.060198393 -0.11181743 -0.03706759 0.21969098
000080 67 d9 fd bd 0d e0 4b 3e 1f 4a 7d 3c c8 c2 bc 3d
       -0.12394982 0.19909687 0.015459566 0.09216839
000090 7a 51 6f 3e 2e 58 af bd 0a 86 54 3e 8b 69 c8 3d
       0.23370925 -0.08561741 0.20754257 0.09785756
0000a0 5d ad 7c bd 7b 6c 5c 3e fd db 32 3d 8e e6 8f bc
       -0.06168877 0.21525757 0.04366683 -0.017565992
0000b0 80 da 98 3e 29 da bb 3d ed aa 3d 3e 0f 73 32 bd
       0.29854202 0.0917247 0.18522234 -0.04356676
0000c0 be aa 86 3a d8 ec 12 3e 54 7b 4b bd 70 b3 64 bd
       0.0010274274 0.14348161 -0.04967816 -0.055835187
0000d0 d9 95 84 3e 0e 3f db 3d 4f 3e 39 bc 2d 6e 72 3e
       0.25895575 0.10705386 -0.011306359 0.23674841
0000e0 96 d3 ef 3d 4f a9 de bc ad 22 31 3d d0 b6 ab bd
       0.11710279 -0.027180342 0.04324596 -0.08384478
0000f0 5e d5 f6 3d c6 dc 89 3e e4 bd f8 3d d8 ff ac 3e
       0.12052415 0.2692625 0.12145594 0.33788943
000100 df 10 6c 3e 19 ac 28 3e 21 1a ad bd f9 33 3f 3e
       0.23053311 0.164719 -0.08452249 0.1867217
000110 0e 95 ed 3d cb a5 99 bd 6d d9 24 3e 9a 77 32 3b
       0.116006956 -0.075023256 0.16098566 0.0027231933
000120 4f de 2a be 03 84 0a 3e e6 26 40 be 3d 8b 9c 3d
       -0.16686366 0.13526921 -0.18764839 0.07643745
000130 aa 23 9c bd b6 51 70 bd 12 f4 c7 bd 6f 28 ed 3d
       -0.0762399 -0.058671676 -0.097633496 0.11579978
000140 05 f8 ab 3d c3 16 fc 3d 61 e0 d4 bd 23 e0 24 be
       0.08396915 0.12309029 -0.103943594 -0.16101126
000150 26 b5 b3 bc 08 ee 44 3d 40 09 58 be 0a 6b 38 be
       -0.021936964 0.048078567 -0.21097279 -0.18009582
000160 1a b8 28 3d f2 00 3b be 48 9a d6 3d c6 86 25 be
       0.041191198 -0.1826208 0.104786456 -0.16164693
000170 58 07 f8 3d be 50 f2 3d 34 de 5a 3d 0d 1c d2 3d
       0.12110776 0.118318066 0.053434566 0.102592565
