logs/exp0/weights/epoch5.pt (torch, 348934 bytes, 45 tensors)

conv_block1.0.weight f4 [32, 4, 10]
0.07710738 -0.109051704 0.106778234 0.013362412 0.052391198 0.10795273 0.007469033 -0.08707487
0.12818001 -0.07440102 0.08760095 -0.050165012 0.0490185 0.07931002 -0.022298127 0.13038655
0.075544305 0.04151243 0.021435237 -0.04665499 -0.11818187 0.07185968 0.07448616 -0.012695468
0.0340678 -0.05791226 0.07189531 0.08924265 -0.12768154 -0.013713318 -0.124605626 0.11653301
0.057413023 -0.009487374 -0.035748187 -0.060464095 -0.039800536 0.079467274 -0.006350783 0.059300553
-0.004946002 -0.07150721 0.010771956 -0.10652047 0.03263488 0.14195703 -0.059581675 -0.0041088937
0.12397455 -0.0344215 0.09612207 0.08834927 -0.10547589 0.11506777 -0.11022587 0.023928123
-0.040448 -0.025510788 0.0122906165 0.027364707 -0.1152303 -0.023101583 -0.022878852 -0.028595448
-0.07796935 0.008480602 -0.0497972 0.08916283 -0.09682456 0.053283542 0.12187693 0.11150247
0.06121074 -0.05772579 -0.0096111875 0.0069293473 -0.05865937 0.027715359 -0.06277158 0.10450289
0.059632584 -0.10701804 -0.1009445 -0.085713714 0.1318826 -0.059195176 -0.06075229 0.115346104
-0.11559579 -0.011992049 0.047415152 0.043742474 0.0069717118 0.088067785 -0.010857974 0.08162155
0.16252318 0.13202886 0.14802468 -0.035393424 0.08521796 -0.102675274 0.067095906 -0.12329608
0.027509667 0.10548405 0.12564282 -0.04700208 0.043346304 -0.04081391 -0.094088286 -0.11112573
0.10403543 0.049973458 -0.010032779 -0.09684094 0.063503146 0.0424297 -0.025145687 0.030541588
0.08002355 -0.072328426 -0.023196215 -0.004767907 -0.010780975 0.07685683 -0.0692913 -0.10193565
0.1022675 0.05757688 -0.02115923 -0.093387194 -0.12098652 -0.14433253 -0.09299652 -0.0736633
0.09009392 -0.030800018 -0.07511256 0.080547646 -0.013323395 -0.017552936 0.03768414 0.13766621
-0.09233027 0.10368945 0.14468317 -0.05734812 0.11356353 0.012095091 0.024010198 0.04447548
0.086846024 0.030184409 -0.040804397 0.05509463 0.06929128 0.07642296 0.0614809 0.085882515
-0.027260045 0.0013670749 -0.00039872673 -0.027936319 0.01636129 0.0836891 -0.064854905 0.002167049
0.029525703 -0.00906801 0.076953284 0.07022574 -0.007656497 0.11250638 0.011661355 -0.06326767
-0.0073504 0.12592635 -0.10236283 0.11248368 -0.09341519 0.05837799 -0.17620333 0.083984934
-0.04397678 0.06630405 -0.14591382 0.07777913 -0.093567185 0.07626171 0.06436477 -0.0066850754
-0.07147319 -0.058281343 -0.10446682 0.026936933 0.09901775 0.09916191 -0.109969854 0.082071
0.05718808 0.07200916 -0.059392266 -0.08781421 -0.007489967 -0.094269775 0.14339003 0.13802229
-0.08549519 -0.08003859 0.11563324 0.050591163 -0.11370403 0.08195927 0.08519475 0.1363711
0.0033223983 -0.040298723 0.11442391 -0.08447165 -0.04111768 -0.048044696 0.08757677 -0.09035103
-0.12645969 -0.13025895 0.005121424 -0.16239247 -0.097722955 0.04042483 0.08621063 0.058648203
-0.07913645 0.09285193 0.08867423 0.034602933 -0.06149795 0.10416114 0.03879817 0.072858825
0.10218752 0.010697911 0.03300677 0.03347452 -0.09385081 0.13735892 0.043519773 0.065887496
0.11414926 0.080272324 -0.0035380623 0.026012072 0.046710838 -0.009964985 -0.085001096 -0.105859816
00000000: 79ea 9d3d 8056 dfbd 8cae da3d 05ee 5a3c
00000010: 2798 563d 5216 dd3d cabe f43b 4f54 b2bd
00000020: 9f41 033e 905f 98bd 2068 b33d d479 4dbd
00000030: 9fc7 483d 4b6d a23d 90aa b6bc 0d84 053e
00000040: f9b6 9a3d f008 2a3d f398 af3c 4e19 3fbd
00000050: 5609 f2bd 2b2b 933d 338c 983d a700 50bc
00000060: ad8a 0b3d 6835 6dbd d93d 933d dac4 b63d
00000070: f3be 02be d3ad 60bc 3c31 ffbd dca8 ee3d
00000080: eb29 6b3d ee70 1bbc b16c 12bd 33a9 77bd
00000090: e305 23bd bdbf a23d 3b1a d0bb 23e5 723d
000000a0: 1212 a2bb 5f72 92bd dc7c 303c 6727 dabd
000000b0: 27ac 053d 2f5d 113e ea0b 74bd e6a3 86bb
000000c0: 5ee6 fd3d 8ffd 0cbd a6db c43d 76f0 b43d
000000d0: be03 d8bd a7a8 eb3d 1abe e1bd e904 c43c
000000e0: cdac 25bd 00fc d0bc 955e 493c f32b e03c
000000f0: ddfd ebbd 883f bdbc 6e6c bbbc 0041 eabc
00000100: 65ae 9fbd 39f2 0a3c 26f8 4bbd 009b b63d
00000110: f44b c6bd d83f 5a3d 9d9a f93d 685b e43d
00000120: 1db8 7a3d e171 6cbd 3e78 1dbc 940f e33b
00000130: cf44 70bd 520b e33c 638e 80bd 9c05 d63d
00000140: 4c41 743d 462c dbbd fdbb cebd ac8a afbd
00000150: 3b0c 073e a476 72bd 65d7 78bd 943a ec3d
00000160: 7cbd ecbd 4d7a 44bc 6436 423d 4f2b 333d
00000170: f572 e43b e25c b43d a5e5 31bc 3329 a73d
00000180: 7a6c 263e 9332 073e c893 173e b2f8 10bd
00000190: c186 ae3d 6a47 d2bd 9469 893d a882 fcbd
000001a0: f45b e13c 0608 d83d 83a8 003e 4185 40bd
000001b0: e58b 313d 7d2c 27bd 5cb1 c0bd e395 e3bd
000001c0: 8710 d53d f8b0 4c3d 8660 24bc 8b54 c6bd
000001d0: f00d 823d c4ca 2d3d 54fe cdbc 5a32 fa3c
000001e0: 63e3 a33d ed20 94bd fd05 bebc 1a3c 9cbb
000001f0: b0a2 30bc 1d67 9d3d 99e8 8dbd a3c3 d0bd
00000200: 9f71 d13d bcd5 6b3d 1f56 adbc c941 bfbd
00000210: c8c7 f7bd e8cb 13be f674 bebd c9dc 96bd
00000220: 2983 b83d 5250 fcbc 9dd4 99bd 2af6 a43d
00000230: 5e4a 5abc 2dcb 8fbc af5a 1a3d 5ff8 0c3e
00000240: a717 bdbd 225b d43d d327 143e dde5 6abd
00000250: ff93 e83d 7d2a 463c 09b1 c43c ec2b 363d
00000260: 54dc b13d 4b45 f73c 8322 27bd e8aa 613d
00000270: 96e8 8d3d a483 9c3d 65d3 7b3d 2ce3 af3d
00000280: 7550 dfbc 6c2f b33a 320c d1b9 b5da e4bc
00000290: 1d08 863c 3165 ab3d a6d2 84bd 0d05 0e3b
000002a0: e3df f13c fe91 14bc af99 9d3d 83d2 8f3d
000002b0: 5ae3 fabb bf69 e63d 450f 3f3c 7b92 81bd
000002c0: a0db f0bb d6f2 003e 9aa3 d1bd d85d e63d
000002d0: 7750 bfbd c21d 6f3d a56e 34be 4b00 ac3d
000002e0: ff20 34bd 6bca 873d 6f6a 15be aa4a 9f3d
000002f0: 27a0 bfbd 192f 9c3d add1 833d 7a0e dbbb
00000300: 8960 92bd 6bb8 6ebd b3f2 d5bd d8aa dc3c
00000310: d1c9 ca3d 6615 cb3d e037 e1bd d714 a83d
00000320: 0c3e 6a3d 8a79 933d 4e45 73bd f0d7 b3bd
00000330: 666e f5bb 8310 c1bd d6d4 123e b755 0d3e
00000340: 1a18 afbd 46eb a3bd 1fd1 ec3d ae38 4f3d
00000350: a9dd e8bd 43da a73d 967a ae3d dea4 0b3e
00000360: 98bc 593b 4610 25bd 1557 ea3d 79ff acbd
00000370: 036b 28bd 84ca 44bd 735b b33d f609 b9bd
00000380: a67e 01be 9a62 05be 9ed1 a73b 364a 26be
00000390: f922 c8bd 8294 253d 338f b03d 1939 703d
000003a0: 4b12 a2bd 2729 be3d d69a b53d cebb 0d3d
000003b0: 46e5 7bbd 7052 d53d d4ea 1e3d 0237 953d
000003c0: b147 d13d 4a46 2f3c 1b32 073d 941c 093d
000003d0: da34 c0bd d1a7 0c3e ca41 323d 06f0 863d
000003e0: 16c7 e93d d165 a43d d6de 67bb 4517 d53c
000003f0: dd53 3f3d 2d44 23bc 0e15 aebd 08cd d8bd

conv_block2.0.weight f4 [32, 32, 10]
-0.007973499 -0.035316292 0.0039880853 -0.059481915 0.0077034025 -0.010815891 -0.006203241 0.103570096
0.06981112 0.073844224 0.055410143 0.10219925 0.1096996 -0.012565087 0.0018873647 0.05540601
0.040014986 0.051690128 0.03328569 -0.06077588 -0.023877524 0.027124755 -0.049598306 0.039411876
-0.010612276 0.081176095 0.07492066 -0.038107682 0.007897901 -0.087927386 -0.06456165 0.055364493
0.005293915 -0.054513156 -0.04175457 0.08587275 -0.041523222 -0.08089859 -0.08029487 0.024965964
0.016690256 0.00571974 0.105780296 0.08235834 -0.06326377 0.09471409 -0.035529014 0.07189227
-0.026932754 0.048695832 -0.030150626 0.009138375 -0.00324567 0.097688794 -0.07379166 0.04088262
-0.05413696 -0.008243749 0.07941323 0.099010855 -0.011719117 0.007766126 0.025309185 0.112423904
0.11978587 0.022880143 0.0154761085 0.10099194 -0.015663827 0.005238927 0.12643678 -0.01901917
-0.031736102 -0.013535223 -0.032428898 0.05779458 0.031938776 0.06480707 0.091860674 0.110659465
-0.0031301447 0.057095353 0.029325204 -0.025036111 0.028543197 -0.07609785 -0.051856976 -0.02227442
-0.004340175 -0.057693418 0.04844277 0.037638184 0.07398503 -0.053727593 -0.10713904 -0.105506904
-0.090677515 0.027757686 -0.097860225 0.054450955 0.034910277 0.050428532 0.07823656 -0.040853977
0.09278488 -0.06750814 0.036163233 0.0952649 -0.056980513 0.08623635 0.03845116 -0.061187424
0.104210496 0.08852106 0.09750754 0.0589513 -0.021807821 0.097885646 -0.05684886 -0.026726618
-0.06950168 -0.0037471368 -0.0035409397 0.04924464 -0.08040427 -0.106949694 0.034296792 0.059848554
0.0012270486 -0.10029644 -0.09419604 -0.08426055 -0.08401002 -0.090723 -0.12501183 -0.047999755
-0.07447454 0.029525694 -0.017198453 -0.11222026 0.043172237 0.023993468 0.07921769 0.11194794
0.08250481 0.03712831 -0.06734041 0.06131835 -0.021889536 0.09384492 0.06531886 0.06842019
-0.082162395 0.015311155 0.03887637 0.047715083 -0.05908507 0.0014453749 0.08957348 0.014281643
0.062251274 -0.072247386 -0.062738955 -0.0060654925 0.10651085 0.03967716 0.054600857 -0.06684006
0.045725036 -0.051253315 -0.04678787 0.095128514 0.102474466 0.032496516 -0.07097961 0.10930523
-0.027989298 -0.012637235 0.038331266 -0.044114586 0.010923862 0.030051475 -0.070156895 0.07934631
0.056166887 -0.05602367 0.011791182 -0.064240955 0.010371689 -0.017136766 -0.034052625 0.09720327
-0.047518235 0.0014362118 -0.05963337 -0.025771147 0.03777205 0.099585764 -0.006975319 -0.008744087
-0.031056754 -0.014438178 0.019378139 -0.033868223 -0.027794182 -0.04883198 -0.037458155 0.06163304
0.0032338407 -0.013897183 -0.026109962 0.079723395 -0.034338046 -0.03851911 -0.04395328 -0.043048564
-0.01813579 0.114026494 0.017904928 -0.059864428 0.010240587 0.024131462 0.030684061 0.111026436
-0.047100842 -0.059975594 0.08731144 0.031586867 0.1277458 0.026570242 -0.01874961 0.0386835
0.045637846 0.0919309 -0.022607973 -0.03169175 0.11085877 0.103004806 0.09354256 0.012055967
0.030937515 0.09576069 -0.05926858 -0.034453686 -0.026206197 0.066843376 -0.079424165 -0.007060255
0.08408478 -0.006142201 -0.024150979 -0.09311445 0.006212304 -0.09016906 -0.085123256 0.06751624
00000000: 47a3 02bc d1a7 10bd 7cae 823b 4fa3 73bd
00000010: d36c fc3b 2335 31bc 8f44 cbbb 8f1c d43d
00000020: 22f9 8e3d a43b 973d bff5 623d d74d d13d
00000030: 2faa e03d cbdd 4dbc 7361 f73a 6af1 623d
00000040: c1e6 233d 07b9 533d 9356 083d 21f0 78bd
00000050: cc9a c3bc bc34 de3c 9827 4bbd 596e 213d
00000060: 1ddf 2dbc a73f a63d 0170 993d cd16 1cbd
00000070: 3366 013c 4613 b4bd e638 84bd e1c5 623d
00000080: 9478 ad3b 3049 5fbd d706 2bbd 0dde af3d
00000090: 4114 2abd 29ae a5bd a371 a4bd 6c85 cc3c
000000a0: 01ba 883c a86c bb3b 57a3 d83d 7dab a83d
000000b0: 6f90 81bd 76f9 c13d df86 11bd 413c 933d
000000c0: 14a2 dcbc 4875 473d 72fe f6bc 1fb9 153c
000000d0: 4fb5 54bb 1011 c83d 1520 97bd 8974 273d
000000e0: b8be 5dbd ca10 07bc 67a3 a23d 34c6 ca3d
000000f0: 8a01 40bc fd7a fe3b 3555 cf3c 813e e63d
00000100: 4b52 f53d 236f bb3c 818f 7d3c ddd4 ce3d
00000110: 6d51 80bc 4eab ab3b a578 013e 17ce 9bbc
00000120: b7fd 01bd d7c2 5dbc 2ad4 04bd 02ba 6c3d
00000130: 3cd2 023d 92b9 843d 7321 bc3d 6ea1 e23d
00000140: 1d23 4dbb d1dc 693d 693b f03c 8818 cdbc
00000150: 6cd3 e93c 31d9 9bbd fb67 54bd d878 b6bc
00000160: 0738 8ebb ef4f 6cbd ed6b 463d 7f2a 1a3d
00000170: 7785 973d 7711 5cbd b76b dbbd 0114 d8bd
00000180: 22b5 b9bd 1664 e33c f16a c8bd f707 5f3d
00000190: 14fe 0e3d 268e 4e3d 7d3a a03d 8056 27bd
000001a0: 0006 be3d b541 8abd e61f 143d 3e1a c33d
000001b0: 6664 69bd af9c b03d f77e 1d3d aa9f 7abd
000001c0: 506c d53d 884a b53d 08b2 c73d eb76 713d
000001d0: 51a6 b2bc 4578 c83d 5ada 68bd c8f1 dabc
000001e0: e656 8ebd 8692 75bb 1c0f 68bb bfb4 493d
000001f0: feaa a4bd 7108 dbbd cb7a 0c3d c223 753d
00000200: ebd4 a03a 3868 cdbd dae9 c0bd cc90 acbd
00000210: 720d acbd fbcc b9bd 1a03 00be 649b 44bd
00000220: 1c86 98bd dedf f13c c5e3 8cbc bcd3 e5bd
00000230: 5fd5 303d f38d c43c e23c a23d f644 e53d
00000240: 48f8 a83d db13 183d c5e9 89bd f328 7b3d
00000250: af51 b3bc c431 c03d e5c5 853d e21f 8c3d
00000260: c244 a8bd a3db 7a3c d43c 1f3d e470 433d
00000270: 3003 72bd bc72 bd3a 4d72 b73d 8dfd 693c
00000280: 31fb 7e3d 70f6 93bd 487d 80bd 0ac1 c6bb
00000290: 5c22 da3d 8584 223d 26a5 5f3d 71e3 88bd
000002a0: 2d4a 3b3d ffee 51bd a3a4 3fbd bdd2 c23d
000002b0: 22de d13d 111b 053d c25d 91bd 6cdb df3d
000002c0: d049 e5bc 680c 4fbc 3f01 1d3d 7fb1 34bd
000002d0: 00fa 323c 832e f63c 6bae 8fbd 5180 a23d
000002e0: 400f 663d 1379 65bd cd2f 413c c390 83bd
000002f0: 04ee 293c 6762 8cbc c47a 0bbd 8212 c73d
00000300: 7ba2 42bd 453f bc3a 1f42 74bd 031e d3bc
00000310: ddb6 1a3d 9ff3 cb3d 3791 e4bb 5c43 0fbc
00000320: bc6a febc 1c8e 6cbc e7be 9e3c 68b9 0abd
00000330: a0b0 e3bc 0b04 48bd b96d 19bd ed72 7c3d
00000340: d8ee 533b 03b1 63bc 8fe4 d5bc 0546 a33d
00000350: 0da6 0cbd 37c6 1dbd 5b08 34bd b153 30bd
00000360: 8291 94bc b986 e93d 5bad 923c 6734 75bd
00000370: 23c8 273c 58af c53c 245d fb3c d461 e33d
00000380: d0ec 40bd f8a8 75bd 57d0 b23d 3b61 013d
00000390: cccf 023e d6a9 d93c c898 99bc 9772 1e3d
000003a0: c0ee 3a3d 4546 bc3d 5b34 b9bc 35cf 01bd
000003b0: ec09 e33d 2ff4 d23d 3e93 bf3d 6486 453c
000003c0: ac70 fd3c 2e1e c43d 9cc3 72bd 4f1f 0dbd
000003d0: 61ae d6bc 2ee5 883d 23a9 a2bd b659 e7bb
000003e0: a434 ac3d 8444 c9bb 46d8 c5bc cab2 bebd
000003f0: 9590 cb3b 8eaa b8bd 1a55 aebd f445 8a3d

gru.weight_ih_l0 f4 [96, 32]
-0.042875275 0.103150666 -0.015517159 0.14039204 -0.063135594 -0.14040238 0.19404748 -0.059473064
0.03909385 0.012113348 0.046708107 0.07022438 -0.05495249 0.11994817 0.00043351811 0.122311264
-0.023756344 0.21328625 -0.09457701 -0.027398553 0.014820838 0.1885781 -0.122209296 0.108183734
-0.024435194 0.17975989 0.20066625 0.06286406 -0.055200886 0.05035674 0.0521408 0.037579466
0.17170279 -0.017656814 0.017718455 -0.09874844 0.16259317 -0.058858946 0.1622958 -0.022232886
-0.027541794 -0.1276614 -0.19706215 -0.16725458 -0.1636627 0.08079478 0.028453954 -0.14357287
0.1562746 0.10083484 0.14538872 0.008049596 -0.046518106 -0.027285302 0.044347648 0.12946269
0.052980416 0.10907814 -0.038450938 0.13096212 -0.10136497 0.10952856 -0.058055513 0.06867386
0.016030861 0.12142036 0.024125597 -0.0041001863 0.011609291 -0.030567616 0.027664624 0.18439932
-0.058070328 0.1801497 0.12041612 0.06090244 0.024305332 -0.005909125 0.08690354 0.0073897103
0.13188095 -0.067309864 0.11075267 -0.17162256 -0.111273944 -0.024720164 -0.008144074 -0.024915898
0.19863476 -0.0740012 -0.15848 0.007553124 0.10864062 -0.013999398 -0.17935327 0.21427114
-0.06590232 -0.052911438 -0.07029075 0.075210325 -0.08562531 -0.15286154 0.05518096 -0.12732793
0.08492834 0.10487747 -0.043039247 -0.10691402 -0.17547587 0.10603567 -0.054360073 0.102788314
0.12903337 -0.07283085 -0.11954549 0.14920485 -0.16268407 0.13409759 -0.18942644 -0.038962148
-0.07935258 -0.17205966 -0.12641358 0.12443252 -0.100658245 0.14301145 0.071786374 0.086174615
-0.15830138 -0.07724815 0.0456466 -0.015048768 -0.1410613 -0.13109064 0.054923296 -0.041265577
-0.06991989 -0.16970088 0.02984258 0.00841564 0.03307401 0.11175398 0.017430805 -0.0635911
-0.040917862 0.051377285 0.0502733 0.11858684 -0.034716126 0.111936085 -0.09183223 0.05392013
0.02296588 0.14519283 0.1478597 -0.13645259 -0.10264852 -0.027251868 -0.1747846 0.07703887
-0.07865013 0.18671817 -0.13853924 0.085886426 -0.11097323 0.09528551 0.063565135 0.061596714
0.1052864 0.04882836 0.16810408 0.15084998 -0.10527219 0.051845554 -0.031323634 0.006751906
0.17069189 0.15956908 -0.05818711 0.16588235 0.15733792 -0.0039058013 -0.12028191 0.07622529
-0.15272115 -0.13231753 -0.04334822 0.11821902 0.038331676 0.028691027 -0.07709149 -0.11485762
-0.008217059 -0.07973415 -0.14539602 0.05412258 0.09625809 0.08083111 -0.07558567 -0.027587164
-0.17172122 0.111810915 -0.036393367 -0.022056205 0.029915726 0.095036246 0.09838154 -0.043657094
0.06083917 -0.17566796 -0.04914091 0.134592 -0.1963309 -0.019694876 0.038039815 -0.10797546
-0.18359584 0.11307461 0.12433576 -0.103778966 -0.055592448 -0.078388765 -0.039145038 -0.1687675
0.0138157895 -0.14664844 0.027355053 -0.10207798 -0.18413875 -0.14439699 0.007976827 0.10916349
-0.056441087 0.118707135 -0.13453056 0.0016985 -0.053646695 -0.0029966196 -0.13786303 0.089216605
0.07545444 -0.11095416 0.15284663 0.109265305 0.028613267 0.09254688 0.04101291 0.12652269
-0.17992648 0.06981067 -0.15222365 0.024183754 0.15297027 -0.1601347 0.029106988 -0.079324216
00000000: fc9d 2fbd a840 d33d af3b 7ebc eec2 0f3e
00000010: 3c4d 81bd a4c5 0fbe 62b4 463e 079a 73bd
00000020: df20 203d 1077 463c 0051 3f3d cdd1 8f3d
00000030: dd15 61bd 63a7 f53d d149 e339 547e fa3d
00000040: aa9c c2bc b667 5a3e 97b1 c1bd ee72 e0bc
00000050: 1ad3 723c 9e1a 413e de48 fabd 6f8f dd3d
00000060: 512c c8bc fa12 383e 747b 4d3e dfbe 803d
00000070: 531a 62bd de42 4e3d 9791 553d edec 193d
00000080: dbd2 2f3e 06a5 90bc 4b26 913c 9f3c cabd
00000090: d37e 263e 1416 71bd df30 263e be21 b6bc
000000a0: 549f e1bc acb9 02be a9ca 49be c944 2bbe
000000b0: 3297 27be bc77 a53d 4418 e93c c404 13be
000000c0: 7306 203e 7f82 ce3d c8e0 143e 74e2 033c
000000d0: c589 3ebd 6d85 dfbc e1a5 353d de91 043e
000000e0: fe01 593d 5c64 df3d bb7e 1dbd ef1a 063e
000000f0: 7098 cfbd 8250 e03d 9ecb 6dbd e1a4 8c3d
00000100: 2753 833c 3dab f83d 0ba3 c53c db5a 86bb
00000110: e534 3e3c f068 fabc eca0 e23c 2dd3 3c3e
00000120: 27db 6dbd 2a79 383e ba9c f63d d674 793d
00000130: fa1b c73c 55a1 c1bb 7cfa b13d 6225 f23b
00000140: cd0b 073e c1d9 89bd 4cd2 e23d d3bd 2fbe
00000150: 98e3 e3bd f181 cabc b96e 05bc 6d1c ccbc
00000160: e966 4b3e f18d 97bd 9548 22be 3280 f73b
00000170: f97e de3d bb5d 65bc 62a8 37be e569 5b3e
00000180: ccf7 86bd aab9 58bd 99f4 8fbd df07 9a3d
00000190: 535c afbd bc87 1cbe 6e05 623d 4162 02be
000001a0: e9ee ad3d 00ca d63d ec49 30bd bdf5 dabd
000001b0: f2af 33be 3b29 d93d aba8 5ebd ae82 d23d
000001c0: 5321 043e 5728 95bd 44d4 f4bd 28c9 183e
000001d0: a796 26be e150 093e 01f9 41be c696 1fbd
000001e0: 9b83 a2bd 6830 30be 9072 01be 7ad6 fe3d
000001f0: e925 cebd 9871 123e bc04 933d 517c b03d
00000200: c219 22be 4734 9ebd eef7 3a3d 1c8f 76bc
00000210: 6072 10be a03c 06be 40f7 603d 1806 29bd
00000220: 2932 8fbd 11c6 2dbe 6d78 f43c c1e1 093c
00000230: 9d78 073d 45df e43d 0ccb 8e3c 0d3c 82bd
00000240: 7d99 27bd fd70 523d 60eb 4d3d a8dd f23d
00000250: 7f32 0ebd bf3e e53d 8912 bcbd 5bdb 5c3d
00000260: f122 bc3c 6ead 143e 8868 173e 3aba 0bbe
00000270: 6339 d2bd 4f3f dfbc bcfa 32be 8ec6 9d3d
00000280: 5213 a1bd 0c33 3f3e 3bdd 0dbe 39e5 af3d
00000290: ef45 e3bd 0d25 c33d 702e 823d d64c 7c3d
000002a0: 65a0 d73d 3f00 483d 7a23 2c3e 6b78 1a3e
000002b0: f298 d7bd 015c 543d 364d 00bd 183f dd3b
000002c0: dbc9 2e3e 1466 233e 9b55 6ebd 10dd 293e
000002d0: 311d 213e 79f8 7fbb 5d56 f6bd 011c 9c3d
000002e0: ef62 1cbe 3f7e 07be e78d 31bd d01c f23d
000002f0: ad01 1d3d 7209 eb3c 25e2 9dbd 793a ebbd
00000300: d8a0 06bc a84b a3bd b2e2 14be a3af 5d3d
00000310: f622 c53d c88a a53d a9cc 9abd 7afe e1bc
00000320: b0d7 2fbe 1ffd e43d 3611 15bd 37af b4bc
00000330: d311 f53c 5da2 c23d 437c c93d c8d1 32bd
00000340: 7e32 793d 4de2 33be fb47 49bd 7cd2 093e
00000350: f80a 49be 2657 a1bc a3cf 1b3d 3d22 ddbd
00000360: 8c00 3cbe a993 e73d bfa3 fe3d 118a d4bd
00000370: e8b4 63bd 4a8a a0bd 8c56 20bd 63d1 2cbe
00000380: 9f5b 623c 022b 16be b417 e03c 430e d1bd
00000390: de8e 3cbe cedc 13be 3db1 023c 1c91 df3d
000003a0: c52e 67bd ba1c f33d 61c2 09be 34a0 de3a
000003b0: a3bc 5bbd ef62 44bb f72b 0dbe 32b7 b63d
000003c0: dc87 9a3d ef3b e3bd d483 1c3e 7dc6 df3d
000003d0: 5f66 ea3c 3889 bd3d 27fd 273d 2a8f 013e
000003e0: a63e 38be e6f8 8e3d 84e0 1bbe 021d c63c
000003f0: 3da4 1c3e 5afa 23be c771 ee3c bc74 a2bd

gru.weight_hh_l0 f4 [96, 32]
-0.14519449 -0.01307095 -0.090253115 -0.1044034 0.19492733 -0.044806447 0.023215946 -0.038170062
0.07566722 -0.101135716 -0.04769742 0.057660304 -0.06925112 -0.20305796 -0.07979118 0.098883204
-0.004183996 0.14246283 0.026181748 0.024490986 -0.14511608 0.09805971 -0.055064492 -0.0006199032
-0.09036283 0.081171915 0.030635593 -0.18949834 0.036093265 -0.08485892 0.018226586 -0.12678602
0.120123096 0.04610913 -0.10277759 0.09138031 0.14470842 0.047518715 0.15290053 0.15295765
-0.018391741 -0.05935848 0.038348787 0.07394557 0.023733273 -0.14217746 0.07716728 -0.16932149
0.08293011 -0.042604778 -0.09535621 0.17552243 0.06346442 -0.1375757 -0.07949777 0.066171594
-0.044068865 -0.045370378 -0.067776866 0.054965526 0.17056876 0.010171174 0.04244538 0.09317579
0.12980568 0.159132 -0.056021437 -0.107760444 0.0035716027 0.011261586 -0.017601911 -0.17779747
-0.021970032 -0.0068584224 -0.061176345 -0.13661726 -0.07680738 -0.0022865904 -0.12985761 0.18208802
-0.021463193 0.11465748 -0.0041372296 -0.14365557 0.079696074 -0.120268226 -0.12660773 -0.1082157
0.028139563 0.07953543 -0.13356729 -0.092133 0.08754253 -0.057350587 0.1963735 0.21445431
0.14673159 -0.08517045 -0.13194048 -0.075683475 -0.014802388 -0.048943456 -0.08894466 0.06663428
-0.18756174 -0.008690452 -0.16078281 0.07975119 -0.082365826 0.004287541 0.16222514 0.21887642
-0.09981028 -0.18146966 0.16109991 -0.14726986 0.04231238 0.108380176 -0.12622298 -0.046821363
0.07755188 -0.07915054 -0.023573227 0.10314358 -0.10077224 -0.10017715 0.11999849 0.0034624683
-0.123166755 0.15030281 -0.16108347 0.06577122 -0.01985829 -0.15319267 0.014148055 0.011777187
0.12190112 0.09865722 -0.032844182 0.022164017 -0.09852634 -0.00038744553 -0.057983108 -0.05153392
-0.18697421 -0.14219755 0.037322897 -0.042028196 -0.10294148 -0.033269495 -0.12164287 0.1308601
-0.08942243 -0.1292536 -0.059418455 -0.17669107 0.10337447 -0.0007212111 0.20970365 -0.11018122
-0.13962764 0.05555799 0.08567756 0.051214606 0.085068114 -0.15136138 0.07330632 -0.0084962025
-0.047613155 -0.03933218 0.11755671 -0.07150802 -0.12274438 0.15107532 0.15721035 -0.06473296
-0.096915275 -0.13712405 -0.20679785 -0.13320298 0.004740135 -0.013575252 -0.052249312 0.05392296
0.13210699 -0.1688358 0.052007534 0.14233162 -0.14196017 -0.065979384 -0.19663139 0.017808229
0.059151158 0.1567472 -0.03043461 -0.0890957 -0.11858217 -0.00051090226 -0.15225844 0.0077085537
0.14745843 -0.18963303 -0.19189793 -0.013285726 0.19057254 0.12040802 0.023099162 -0.094225734
0.048359636 0.009457367 0.13792983 -0.019641794 -0.015211556 -0.08536463 -0.16266993 0.083303586
0.11267172 0.1375034 -0.07902079 0.08253076 0.1402976 0.1205379 -0.11453781 -0.074801214
-0.020117445 0.09398003 -0.0567394 0.06764419 -0.17434399 0.15186553 0.016564028 0.053560626
0.03286185 0.12390018 -0.13043474 -0.05740877 0.012894834 0.15975338 0.021109695 0.034935165
-0.06772529 -0.104269944 -0.08686461 -0.053902004 0.043542832 -0.025185386 0.018663418 0.16556895
0.030651325 -0.15765162 -0.010780197 0.1180143 -0.09533628 -0.0636795 0.06395283 -0.16103557
00000000: ddad 14be 8a27 56bc a0d6 b8bd 73d1 d5bd
00000010: 089b 473e f786 37bd 5e2f be3c 3658 1cbd
00000020: 6af7 9a3d 3e20 cfbd 5f5e 43bd 362d 6c3d
00000030: 88d3 8dbd 6dee 4fbe 8f69 a3bd 4783 ca3d
00000040: e719 89bb c7e1 113e 1b7b d63c 52a1 c83c
00000050: 4f99 14be 87d3 c83d 4e8b 61bd 0081 22ba
00000060: 2610 b9bd 763d a63d 7ff7 fa3c da0b 42be
00000070: 88d6 133d 83ca adbd ec4f 953c 32d4 01be
00000080: 1903 f63d eddc 3c3d 0f7d d2bd 9a25 bb3d
00000090: 722e 143e fca2 423d f591 1c3e eea0 1c3e
000000a0: 47aa 96bc e121 73bd 9e13 1d3d c670 973d
000000b0: 486c c23c f896 11be e109 9e3d 9d62 2dbe
000000c0: 43d7 a93d 5982 2ebd 1e4a c3bd 27bc 333e
000000d0: a2f9 813d a5e0 0cbe bacf a2bd f984 873d
000000e0: 8e81 34bd 4ad6 39bd 99ce 8abd 8823 613d
000000f0: 94a9 2e3e ffa4 263c 35db 2d3d f3d2 be3d
00000100: c8eb 043e 80f3 223e bc76 65bd 82b1 dcbd
00000110: 8d11 6a3b 8482 383c e231 90bc 8a10 36be
00000120: 7ffa b3bc 9ebc e0bb 0c94 7abd 65e5 0bbe
00000130: 304d 9dbd 9fda 15bb 65f9 04be 4875 3a3e
00000140: 94d3 afbc 8ad1 ea3d 9991 87bb 721a 13be
00000150: b237 a33d 304f f6bd 75a5 01be 31a0 ddbd
00000160: f184 e63c 79e3 a23d ddc5 08be 3ab0 bcbd
00000170: 7f49 b33d 73e8 6abd 2316 493e e999 5b3e
00000180: ce40 163e d86d aebd 681b 07be f0ff 9abd
00000190: b785 72bc ef78 48bd 9e28 b6bd 8e77 883d
000001a0: 2f10 40be 6662 0ebc 40a4 24be 9854 a33d
000001b0: 6aaf a8bd 807e 8c3b 591e 263e 2421 603e
000001c0: 5569 ccbd 2fd3 39be 60f7 243e e9cd 16be
000001d0: bf4f 2d3d 6df6 dd3d 9940 01be c2c7 3fbd
000001e0: 85d3 9e3d ae19 a2bd a41c c1bc f13c d33d
000001f0: ad61 cebd ad29 cdbd c5c1 f53d 94ea 623b
00000200: da3e fcbd fbe8 193e 11f3 24be 10b3 863d
00000210: daad a2bc 8ade 1cbe 3ecd 673c 1af5 403c
00000220: 4ba7 f93d cc0c ca3d 9f87 06bd 5091 b53c
00000230: 2ec8 c9bd 0f22 cbb9 b27f 6dbd 3b15 53bd
00000240: 2b76 3fbe 3c9c 11be e5df 183d c225 2cbd
00000250: fcd2 d2bd 9845 08bd e61f f9bd 3100 063e
00000260: 1b23 b7bd 0e5b 04be c460 73bd 81ee 34be
00000270: feb5 d33d a80f 3dba 8ebc 563e b1a6 e1bd
00000280: 8cfa 0ebe c690 633d b777 af3d 68c6 513d
00000290: 3138 ae3d 7afe 1abe a021 963d a833 0bbc
000002a0: 0306 43bd c81a 21bd 93c1 f03d cc72 92bd
000002b0: 6861 fbbd 7db3 1a3e c0fb 203e b792 84bd
000002c0: 847b c6bd 3f6a 0cbe d1c2 53be 5d66 08be
000002d0: 2253 9b3b bc6a 5ebc 6003 56bd 52de 5c3d
000002e0: 0e47 073e 4be3 2cbe da05 553d 61bf 113e
000002f0: 025e 11be 3320 87bd bd59 49be 90e2 913c
00000300: 7c48 723d 5782 203e 0152 f9bc ce77 b6bd
00000310: 35db f2bd 12ee 05ba a3e9 1bbe 0998 fc3b
00000320: 58ff 163e 292f 42be e480 44be 60ac 59bc
00000330: 7325 433e 7b98 f63d 743a bd3c 6cf9 c0bd
00000340: c114 463d 12f3 1a3c 7a3d 0d3e d4e7 a0bc
00000350: e439 79bc a7d3 aebd f292 26be 129b aa3d
00000360: 6ec0 e63d b1cd 0c3e a7d5 a1bd e305 a93d
00000370: 2daa 0f3e 93dc f63d cd92 eabd 6131 99bd
00000380: 57cd a4bc 9a78 c03d 9367 68bd 0989 8a3d
00000390: 3b87 32be a382 1b3e 49b1 873c 6362 5b3d
000003a0: 269a 063d 61bf fd3d af90 05be 7525 6bbd
000003b0: db44 533c 6496 233e 3dee ac3c 2d18 0f3d
000003c0: 8fb3 8abd 7b8b d5bd 13e6 b1bd 59c8 5cbd
000003d0: f859 323d 9551 cebc 06e4 983c e88a 293e
000003e0: 7d18 fb3c 6d6f 21be 6c9f 30bc 7bb1 f13d
000003f0: ab3f c3bd 666a 82bd b4f9 823d 82e6 24be

gru.bias_ih_l0 f4 [96]
0.10397531 -0.10105466 0.16422628 -0.13199702 0.08067065 -0.06168435 -0.13898212 -0.078486666
0.18963765 -0.09870626 -0.0335223 -0.083770454 -0.069671415 0.07570207 -0.13413377 -0.031999644
-0.06748004 -0.15436497 -0.024792619 -0.06133146 0.0107853 -0.11688517 0.1511002 0.09317477
-0.0035783614 -0.110920906 0.11810108 -0.04464952 0.12898713 0.07351831 0.015659157 0.23997581
-0.07283053 -0.0059336117 -0.12345344 0.15195365 -0.03550083 -0.13766249 0.15526612 -0.023459638
-0.0442446 -0.042099528 0.23553324 0.06821958 -0.007694887 0.10716529 -0.031808835 -0.068045326
-0.023769563 0.16544573 -0.049295347 0.0936622 -0.016285222 -0.084831916 0.0706008 -0.1751648
0.17495692 -0.01719342 -0.015947502 -0.10670866 0.027483994 0.13479878 -0.07581993 -0.17804977
0.022760963 0.16930154 0.02724246 -0.009633299 0.054129247 -0.20657237 0.08975954 -0.18922897
-0.09106497 0.015931511 0.1317908 0.19790217 -0.0254775 -0.05808597 0.035135217 0.06278227
-0.22722417 -0.13651924 -0.016345546 -0.09742005 -0.22143185 0.07064356 0.11434413 -0.11646705
0.013120847 -0.00853629 -0.053285345 -0.13872574 0.10748497 -0.015503002 0.080550544 0.113650486
00000000: 02f1 d43d bff5 cebd ef2a 283e 3a2a 07be
00000010: a736 a53d bba8 7cbd 5451 0ebe 9ebd a0bd
00000020: 5f30 423e 8226 cabd ae4e 09bd d88f abbd
00000030: e3af 8ebd b009 9b3d 5d5a 09be 0f12 03bd
00000040: fa32 8abd da11 1ebe e419 cbbc b236 7bbd
00000050: d4b4 303c 7e61 efbd 03ba 1a3e 6ad2 be3d
00000060: f182 6abb 802a e3bd fbde f13d 6ae2 36bd
00000070: 3415 043e c590 963d a247 803c 38bc 753e
00000080: 2c28 95bd be6e c2bb 28d5 fcbd bd99 1b3e
00000090: 5169 11bd 65f7 0cbe 15fe 1e3e 6d2e c0bc
000000a0: d339 35bd 8e70 2cbd a02f 713e b5b6 8b3d
000000b0: 6425 fcbb 7a79 db3d fb49 02bd 595b 8bbd
000000c0: 63b8 c2bc 9b6a 293e ebe9 49bd f8d1 bf3d
000000d0: 9668 85bc 5bbc adbd 2797 903d 675e 33be
000000e0: e827 333e 37d9 8cbc 56a4 82bc 128a dabd
000000f0: 1d26 e13c b108 0a3e 7b47 9bbd ae52 36be
00000100: 3375 ba3c 625d 2d3e 942b df3c fcd4 1dbc
00000110: a1b6 5d3d b587 53be dad3 b73d 3dc5 41be
00000120: 4580 babd cd82 823c 2bf4 063e dea6 4a3e
00000130: 31b6 d0bc 8eeb 6dbd f2e9 0f3d fe93 803d
00000140: 74ad 68be b3cb 0bbe 18e7 85bc 2a84 c7bd
00000150: 08bf 62be 92ad 903d 412d ea3d 4786 eebd
00000160: d2f8 563c ccdb 0bbc bc41 5abd 1f0e 0ebe
00000170: 1421 dc3d 4e00 7ebc aff7 a43d 96c1 e83d

gru.bias_hh_l0 f4 [96]
-0.044685114 0.17180905 0.20325972 0.05913007 -0.094375014 -0.08381785 -0.07736812 0.11467082
-0.044478137 0.1667019 0.09077936 0.036167182 0.040027346 0.22243118 -0.11734806 0.042298984
0.1194623 -0.008817856 -0.025306975 -0.009822989 0.17530853 0.16220441 0.1626693 0.18767346
-0.06912093 0.08451908 0.06487049 -0.0019302351 -0.0293394 -0.04381802 0.01458428 0.18732223
0.035088737 0.15200756 0.11471975 -0.017400075 0.16330777 -0.102575235 0.03342663 -0.2085837
-0.10506399 -0.108814016 0.15519305 0.00070482324 0.13394482 -0.060832825 -0.1268486 0.15319763
-0.09145449 -0.0097919395 -0.17006585 -0.12347911 0.024412595 -0.10493555 -0.07045533 0.05527277
-0.15709117 0.13667369 -0.11930877 0.15023765 -0.054440297 0.020457597 -0.1162179 -0.107555486
-0.110887714 0.056190927 -0.11246504 -0.10642979 0.07878552 0.07948315 0.15570033 0.018843316
-0.13218221 -0.10700247 -0.046938363 0.037409395 -0.11094447 -0.027199918 -0.18350679 0.21786085
-0.18578099 -0.05153658 0.23223592 -0.03659791 0.056044213 -0.10285877 -0.19223417 -0.018403566
0.09559236 -0.10181372 0.1419426 -0.14040141 0.16756059 -0.065842606 0.038397513 0.116863854
00000000: bd07 37bd b6ee 2f3e 5123 503e 5f32 723d
00000010: b047 c1bd b1a8 abbd 2d73 9ebd 89d8 ea3d
00000020: b52e 36bd e7b3 2a3e 87ea b93d 0a24 143d
00000030: b7f3 233d 00c5 633e 2e54 f0bd b341 2d3d
00000040: a6a8 f43d c578 10bc 9350 cfbc 9af0 20bc
00000050: 1484 333e ea18 263e c892 263e 792d 403e
00000060: 468f 8dbd 5718 ad3d d2da 843d f1ff fcba
00000070: 2e59 f0bc 867a 33bd e7f2 6e3c 66d1 3f3e
00000080: 35b9 0f3d dfa7 1b3e 30f2 ea3d 9a8a 8ebc
00000090: 273a 273e f712 d2bd 5dea 083d f796 55be
000000a0: ca2b d7bd e2d9 debd edea 1e3e e3c3 383a
000000b0: d528 093e d72b 79bd 99e4 01be d7df 1c3e
000000c0: 7e4c bbbd 5f6e 20bc be25 2ebe 9ee2 fcbd
000000d0: ecfc c73c 73e8 d6bd e24a 90bd b365 623d
000000e0: 82dc 20be 30f4 0b3e 2858 f4bd e6d7 193e
000000f0: cafc 5ebd b196 a73c a603 eebd 0d46 dcbd
00000100: 1919 e3bd 7528 663d 1254 e6bd ddf7 d9bd
00000110: 4d5a a13d 10c8 a23d e86f 1f3e 4c5d 9a3c
00000120: c65a 07be 1c24 dbbd 7142 40bd 983a 193d
00000130: db36 e3bd 5dd2 debc 34e9 3bbe ea16 5f3e
00000140: 5f3d 3ebe 0518 53bd 41cf 6d3e b1e7 15bd
00000150: 9e8e 653d 9ea7 d2bd 09d9 44be 13c3 96bc
00000160: edc5 c33d b683 d0bd 6759 113e 63c5 0fbe
00000170: 0195 2b3e 7dd8 86bd b646 1d3d 5156 ef3d

gru.weight_ih_l0_reverse f4 [96, 32]
0.15481481 0.14008744 -0.048972573 0.096084304 0.015584269 0.17103183 0.16057944 -0.0628323
0.016980989 -0.012821717 0.021275349 -0.13655788 -0.12199675 0.14226843 0.15163425 0.07441536
0.060930513 0.18327507 0.12598693 0.07635627 -0.04100132 0.004360159 -0.050264712 0.038351875
-0.108494304 0.09687525 0.12524912 0.1883953 0.018091897 0.07011962 -0.086312 -0.09319206
-0.017994538 0.0074153915 -0.050205104 -0.004300883 0.04375766 0.18245196 -0.12625979 0.14165176
-0.09603678 0.097042985 -0.12956582 0.13724266 0.009011975 -0.07937669 0.10773011 -0.042165905
-0.14058805 -0.18636297 -0.1426099 0.031543653 -0.12440889 0.13952307 0.17794143 0.118367635
0.02989505 -0.025001232 0.03650622 0.022412285 -0.043750037 0.03996709 0.10089183 -0.21066621
-0.0320956 0.066194616 0.15617132 -0.01821779 0.028620409 0.15265787 0.060531378 0.005963908
-0.14109668 0.13311967 -0.11207868 0.048514783 -0.12903564 0.18378188 0.1642877 -0.15217037
-0.012195635 0.163318 0.0071727145 -0.11572909 0.069414206 -0.047331844 -0.091354586 -0.088555306
-0.0012833709 0.121873 0.093366675 -0.09192503 0.1041858 0.19949032 0.039625045 0.22760026
-0.038274467 0.13807258 -0.10621568 -0.03353847 -0.17908078 -0.10110097 -0.07971118 0.063949406
0.17318304 -0.17611161 -0.030290974 -0.11889694 -0.0791085 -0.16868073 -0.07770318 0.005140834
0.033129383 -0.0432818 -0.1263355 0.018478 -0.0028025184 0.06352015 0.10212448 -0.18061358
0.11217255 -0.024048114 0.026074382 -0.11811476 -0.051214516 0.047990695 0.067513324 -0.11002709
0.11473545 0.13050818 -0.006370778 -0.12017726 0.0819726 -0.15237282 -0.13651395 0.13978183
0.18934004 0.12802567 -0.12303927 0.18863043 0.071993336 -0.13807298 -0.15850411 0.060611248
0.07360243 -0.08848779 0.197236 -0.1030229 0.06739053 -0.11044664 0.13049586 0.22452697
-0.023380263 0.010363747 0.08505311 -0.03813491 0.21151602 -0.12863767 -0.1489654 -0.066323526
0.06063745 -0.12411167 0.15302576 -0.16098744 0.033877116 0.09637282 -0.0034740241 -0.102325164
-0.17799594 -0.04983355 -0.036364317 -0.12847549 0.09515125 -0.10475768 -0.076936156 0.04059862
0.06178668 -0.19897191 0.13431543 0.15494518 -0.101759486 -0.15225205 -0.16546871 -0.024697727
-0.12037497 0.10201954 -0.11812619 0.061379094 0.18477309 0.07886663 -0.17035851 0.02022241
0.07120278 0.051596086 -0.029222833 -0.06293052 -0.10007743 -0.053024802 0.13984942 0.061641637
-0.10478416 -0.056478735 -0.16111267 -0.16570376 -0.07006127 -0.11859733 0.042330973 0.005264108
-0.0058101155 -0.19128262 -0.07316723 -0.012478188 0.050107703 -0.1351739 0.037096363 0.039309524
-0.12208703 -0.08154232 0.097645484 -0.085964516 -0.026155729 0.0063338224 0.046463806 -0.021135947
-0.036302984 0.16842106 -0.003043978 0.075131886 0.042842895 -0.12654793 0.026533347 0.0533036
0.01846811 0.1139973 -0.16531838 -0.007552219 -0.14695023 -0.06783158 0.15957183 -0.14452419
0.11203404 -0.048983492 0.12020316 0.1798718 0.074040346 -0.048878156 -0.10901424 0.08290686
0.026102735 -0.047194183 0.12104397 0.016204795 -0.06591347 -0.14644404 -0.054280415 0.19302599
00000000: c687 1e3e 1573 0f3e 7797 48bd d9c7 c43d
00000010: 2955 7f3c f822 2f3e f06e 243e 39ae 80bd
00000020: b71b 8b3c 2e12 52bc a449 ae3c d4d5 0bbe
00000030: 6fd9 f9bd d1ae 113e 0246 1b3e 1567 983d
00000040: 4692 793d 76ac 3b3e b802 013e ad60 9c3d
00000050: 00f1 27bd aadf 8e3b 5fe2 4dbd db16 1d3d
00000060: 4332 debd 8866 c63d 4e41 003e b3ea 403e
00000070: 7535 943c e09a 8f3d 59c4 b0bd 7bdb bebd
00000080: 4869 93bc d0fc f23b dea3 4dbd 6cee 8cbb
00000090: 3b3b 333d b0d4 3a3e 3f4a 01be 290d 113e
000000a0: eeae c4bd 79be c63d e7ac 04be 5789 0c3e
000000b0: f6a6 133c 3f90 a2bd 9ba1 dc3d 28b6 2cbd
000000c0: 50f6 0fbe efd5 3ebe 5408 12be eb33 013d
000000d0: 17ca febd 23df 0e3e 4736 363e bb6a f23d
000000e0: 77e6 f43c 62cf ccbc 8c87 153d f899 b73c
000000f0: 3d33 33bd 88b4 233d 60a0 ce3d e2b8 57be
00000100: ad76 03bd 0b91 873d 60eb 1f3e 7a3d 95bc
00000110: 5975 ea3c 5852 1c3e c0ef 773d e36c c33b
00000120: a67b 10be 8650 083e 8289 e5bd 70b7 463d
00000130: eb21 04be 5131 3c3e 093b 283e 8dd2 1bbe
00000140: 33d0 47bc d53c 273e 1709 eb3b 6003 edbd
00000150: 0929 8e3d 09df 41bd 1d18 bbbd 7c5c b5bd
00000160: c836 a8ba 8d98 f93d 0737 bf3d 3143 bcbd
00000170: 5d5f d53d 3147 4c3e df4d 223d 0b10 693e
00000180: b0c5 1cbd e662 0d3e 9b87 d9bd a25f 09bd
00000190: f460 37be 060e cfbd 9d3f a3bd e8f7 823d
000001a0: e556 313e 9a56 34be c724 f8bc 3d80 f3bd
000001b0: a303 a2bd a4ba 2cbe d822 9fbd 7174 a83b
000001c0: adb2 073d 4248 31bd 185e 01be 2d5f 973c
000001d0: 75aa 37bb da16 823d a426 d13d c4f2 38be
000001e0: b9ba e53d 8d00 c5bc f199 d53c 27e6 f1bd
000001f0: 50c6 51bd e491 443d 6d44 8a3d e255 e1bd
00000200: 6bfa ea3d f0a3 053e f6c1 d0bb 7f1f f6bd
00000210: 40e1 a73d 9f07 1cbe 50ca 0bbe f822 0f3e
00000220: 5be2 413e 2919 033e 03fc fbbd 5628 413e
00000230: 3e71 933d 0163 0dbe e74e 22be 8043 783d
00000240: dfbc 963d 1639 b5bd 3cf8 493e acfd d2bd
00000250: 0c04 8a3d d931 e2bd b5a0 053e 66ea 653e
00000260: f787 bfbc b5cc 293c 5330 ae3d 5a33 1cbd
00000270: a897 583e 98b9 03be 638a 18be a1d4 87bd
00000280: fa5e 783d 422e febd c9b2 1c3e e4d9 24be
00000290: bbc2 0a3d 1d5f c53d 74ac 63bb db8f d1bd
000002a0: 9144 36be 441e 4cbd c0f2 14bd 148f 03be
000002b0: a9de c23d 328b d6bd b490 9dbd bd4a 263d
000002c0: 0814 7d3d 4bbf 4bbe fc89 093e f3a9 1e3e
000002d0: 4767 d0bd f6e7 1bbe a170 29be e352 cabc
000002e0: 2787 f6bd 9fef d03d 25ec f1bd a568 7b3d
000002f0: 2835 3d3e d484 a13d 7672 2ebe 78a9 a53c
00000300: c3d2 913d 6b56 533d b964 efbc b7e1 80bd
00000310: 65f5 ccbd 8930 59bd b034 0f3e f17b 7c3d
00000320: 1499 d6bd 3f56 67bd b8fa 24be 3fae 29be
00000330: 487c 8fbd 28e3 f2bd 3e63 2d3d 8a7e ac3b
00000340: c862 bebb 97df 43be b3d8 95bd 5071 4cbc
00000350: bc3d 4d3d 076b 0abe 5bf2 173d 0603 213d
00000360: c408 fabd a9ff a6bd 5bfa c73d 2a0e b0bd
00000370: 8a44 d6bc f48b cf3b d550 3e3d 4b25 adbc
00000380: 70b2 14bd 9276 2c3e 7a7d 47bb bfde 993d
00000390: 087c 2f3d c895 01be 765c d93c e054 5a3d
000003a0: 6f4a 973c 6b77 e93d 3949 29be 9b78 f7bb
000003b0: 1f7a 16be 49eb 8abd cc66 233e 26fe 13be
000003c0: 1a72 e53d eaa2 48bd 132d f63d 5030 383e
000003d0: 77a2 973d 7634 48bd dc42 dfbd 12cb a93d
000003e0: 67d5 d53c b04e 41bd e7e5 f73d ebbf 843c
000003f0: a4fd 86bd 6df5 15be 2455 5ebd 9ba8 453e

gru.weight_hh_l0_reverse f4 [96, 32]
0.20825528 0.1336137 0.052101936 0.12200555 0.17177247 -0.17774726 0.012929683 0.11685783
0.016742261 -0.075145 -0.18790077 0.20376866 0.058025584 0.05522856 0.07589424 -0.044690643
-0.06505008 0.15482228 -0.12583432 -0.012675141 0.07823262 0.10725472 0.077930056 -0.15507397
-0.05623785 0.099501275 0.06931823 0.070016615 -0.11027345 0.14929153 0.17105785 0.15681055
0.087344766 0.18040733 -0.031210689 0.16267459 0.15720433 -0.13353369 -0.05113768 0.022865513
-0.18996923 0.12225914 -0.21446037 0.098855264 0.013255138 0.07955671 -0.20475005 0.22592977
0.07019979 -0.016062899 -0.18620837 -0.2367567 -0.23379566 0.13112436 -0.047606036 -0.12732802
-0.0022249743 -0.14680542 0.098808706 -0.059164453 -0.07878926 0.08994338 0.19694173 0.048311528
0.040442884 -0.12859389 -0.02152069 -0.13937068 0.08167841 0.1219794 -0.051590156 0.026617492
-0.17506829 0.06364989 -0.13367026 0.11381192 0.07264522 -0.15665595 -0.18114915 -0.09083563
-0.019589148 -0.08960313 0.14252105 -0.11107015 0.12967503 0.16764383 -0.0651853 0.03606647
-0.1354076 -0.14210536 -0.10820604 0.043000106 0.06670752 0.07970397 -0.08014187 -0.03711069
0.22061509 0.08004587 -0.19446397 -0.08499995 -0.018420033 -0.07605233 0.19542523 -0.121806845
-0.13403496 -0.04502191 0.029670969 0.17214209 -0.07491471 0.11464715 -0.24626055 0.031897675
0.09941173 -0.05037074 0.024795651 -0.102729306 0.0358725 0.04480886 0.046049267 0.0618463
0.14743298 -0.16238508 -0.17235218 -0.008979883 0.025210267 0.10009806 -0.027647432 0.19948399
0.102413885 -0.05338176 0.10778963 0.14162862 -0.07472318 -0.14994256 0.07078723 -0.17229585
0.102531485 0.1316084 0.0081516635 0.032791965 -0.22570433 0.01961267 0.028627513 0.022325935
0.15011485 -0.039365105 -0.080585435 -0.057417694 -0.014105978 -0.0008992236 0.044958398 -0.08580338
-0.031436015 0.0032431227 -0.0032703339 -0.06617315 0.011675174 -0.06088928 0.06183037 0.060582116
0.12626815 0.035297897 0.07577798 0.20169029 -0.08149538 0.0573179 0.10342859 -0.042414613
0.08873559 0.08375687 -0.08495825 0.067890495 0.055481117 -0.10586677 -0.05556866 0.17413631
-0.008598614 0.011600415 0.06198875 -0.1197876 0.065921925 -0.060589377 0.08145688 -0.019819288
0.053173944 0.053238798 -0.18267775 0.0572981 0.09094549 -0.13529176 0.13643615 0.043352675
0.10466969 0.027259061 0.010859002 0.017098786 -0.053761847 -0.21636857 0.10330232 -0.1899551
-0.013515688 -0.14258271 -0.1317363 0.106341325 -0.009421021 -0.13010038 -0.2210128 -0.092592776
0.07844537 0.12630941 -0.048619263 0.045986347 0.032419756 0.13400957 -0.06367709 0.08290828
0.1577303 0.052215107 0.06433705 -0.04775139 -0.042571057 0.080209516 0.0072851754 -0.0017854227
-0.043057248 0.09062605 0.16168131 -0.07164738 -0.14942347 0.0982957 0.1631177 0.077715
-0.03809993 0.14869183 -0.15161075 0.0645885 -0.06433116 -0.008381576 -0.0629431 -0.18894929
-0.13891955 -0.1173601 -0.06920075 0.06072026 -0.04248524 0.024062134 -0.009610154 -0.14070882
0.118929096 0.150989 0.041600008 -0.047699142 -0.012760717 -0.0394879 0.041787907 0.10367918
00000000: df40 553e 08d2 083e d768 553d 0cde f93d
00000010: 1fe5 2f3e 6103 36be 05d7 533c 2853 ef3d
00000020: 1127 893c 9fe5 99bd 0f69 40be bba8 503e
00000030: 3cac 6d3d 5837 623d 706e 9b3d 890d 37bd
00000040: fa38 85bd bb89 1e3e b6da 00be 65ab 4fbc
00000050: 6d38 a03d 5da8 db3d cb99 9f3d b6cb 1ebe
00000060: a959 66bd 53c7 cb3d b7f6 8d3d df64 8f3d
00000070: 0cd7 e1bd e1df 183e ca29 2f3e f292 203e
00000080: d0e1 b23d b3bc 383e 8fad ffbc 2b94 263e
00000090: 2cfa 203e 0ebd 08be be75 51bd 7550 bb3c
000000a0: 4b87 42be 0063 fa3d 809b 5bbe a174 ca3d
000000b0: 142c 593c a1ee a23d ffa9 51be 225a 673e
000000c0: e8c4 8f3d 5796 83bc 68ad 3ebe 5970 72be
000000d0: 2168 6fbe 7745 063e 8cfe 42bd 4762 02be
000000e0: e0d0 11bb 2954 16be 385c ca3d 6d56 72bd
000000f0: 435c a1bd 3c34 b83d 18ab 493e 4fe2 453d
00000100: 70a7 253d 1eae 03be 284c b0bc 30b7 0ebe
00000110: 0347 a73d 56d0 f93d 3350 53bd ed0c da3c
00000120: 1a45 33be e05a 823d dbe0 08be 3916 e93d
00000130: 04c7 943d 6b6a 20be 2a7f 39be 0808 babd
00000140: 6c79 a0bc d981 b7bd 0af1 113e bf78 e3bd
00000150: 88c9 043e d3aa 2b3e df7f 85bd 6fba 133d
00000160: 4aa8 0abe 1184 11be 219b ddbd e120 303d
00000170: f49d 883d d63b a33d 6c21 a4bd 6101 18bd
00000180: ece8 613e 17ef a33d 9021 47be 7414 aebd
00000190: 9ce5 96bc 53c1 9bbd 8d1d 483e de75 f9bd
000001a0: 7640 09be e568 38bd 8810 f33c 0446 303e
000001b0: e26c 99bd 20cc ea3d ba2b 7cbe 23a7 023d
000001c0: 6198 cb3d 8d51 4ebd 4020 cb3c be63 d2bd
000001d0: 0bef 123d 7f89 373d 289e 3c3d 8c52 7d3d
000001e0: acf8 163e 4648 26be 177d 30be 5c20 13bc
000001f0: c385 ce3c 3600 cd3d de7c e2bc 8845 4c3e
00000200: 5fbe d13d d5a6 5abd cfc0 dc3d 1807 113e
00000210: 7708 99bd 8b8a 19be e5f8 903d 536e 30be
00000220: 07fc d13d 5ac4 063e 8e8e 053c de50 063d
00000230: 091f 67be c0aa a03c 3f84 ea3c e1e4 b63c
00000240: b5b7 193e 4e3d 21bd fa09 a5bd d12e 6bbd
00000250: c31c 67bc e0b9 6bba 4c26 383d afb9 afbd
00000260: 0dc3 00bd 928a 543b 1953 56bb ca85 87bd
00000270: 3b49 3f3c 0a67 79bd d841 7d3d f424 783d
00000280: 704c 013e 8794 103d 7c31 9b3d e687 4e3e
00000290: 0de7 a6bd 2dc6 6a3d 5ed2 d33d f2ba 2dbd
000002a0: 01bb b53d b988 ab3d 97fe adbd 2c0a 8b3d
000002b0: 2b40 633d add0 d8bd f79b 63bd ca50 323e
000002c0: 33e1 0cbc ab0f 3e3c eae7 7d3d 3453 f5bd
000002d0: 1302 873d 912c 78bd ddd2 a63d 0f5c a2bc
000002e0: eccc 593d ed10 5a3d e00f 3bbe 6ab1 6a3d
000002f0: a141 ba3d ec89 0abe ebb5 0b3e 9392 313d
00000300: 105d d63d 654e df3c f5e9 313c c112 8c3c
00000310: 6235 5cbd b98f 5dbe 2b90 d33d 9783 42be
00000320: e770 5dbc 3401 12be e1e5 06be 7bc9 d93d
00000330: a05a 1abc 0939 05be 2e51 62be 48a1 bdbd
00000340: f7a7 a03d 4157 013e fe24 47bd 2e5c 3c3d
00000350: 94ca 043d ce39 093e 2269 82bd d1cb a93d
00000360: 0d84 213e 82df 553d 25c3 833d f696 43bd
00000370: fd5e 2ebd e344 a43d 7bb8 ee3b d804 eaba
00000380: cc5c 30bd 279a b93d c98f 253e ddbb 92bd
00000390: 7702 19be 424f c93d 5408 273e 0b29 9f3d
000003a0: ac0e 1cbd ac42 183e d93f 1bbe fa46 843d
000003b0: 0ec0 83bd e152 09bc 50e8 80bd ec7b 41be
000003c0: ed40 0ebe 7e5a f0bd 1fb9 8dbd cfb5 783d
000003d0: 0105 2ebd f41d c53c e873 1dbc f915 10be
000003e0: 1991 f33d dc9c 1a3e c564 2a3d 2d60 43bd
000003f0: 5412 51bc 10be 21bd cc29 2b3d c055 d43d

gru.bias_ih_l0_reverse f4 [96]
0.06142301 0.17897832 0.14569972 0.11905413 0.03786675 -0.12082279 -0.045214172 -0.11731787
-0.12359762 0.15153529 0.036481038 0.064136334 0.039954558 -0.0036630577 0.002511983 0.042933594
-0.008811979 0.06139467 0.19055967 -0.08657605 0.038864672 0.16213591 -0.06084909 0.12763333
0.05732179 -0.13738422 0.063951984 -0.011945501 0.039276235 -0.13213085 -0.030787705 0.18367267
-0.14098066 0.15969342 -0.13662182 -0.011817956 0.169138 -0.11224091 0.14929137 -0.080301195
-0.02627034 0.111507855 -0.055299673 -0.023809146 0.1232097 -0.07473556 0.118723236 0.0027980274
-0.12403616 0.056284517 -0.07640659 -0.13600259 0.15922394 0.017631207 -0.028063789 0.16434012
0.13196608 -0.0303091 0.00914919 -0.038192254 0.04579362 0.13346957 0.048339598 0.14267369
0.22511187 0.15877147 -0.07748982 0.18917039 0.1276831 -0.075554244 0.16268145 -0.022212835
-0.16298762 0.13924591 -0.18091965 0.0790423 -0.08480241 -0.07365526 -0.099138945 0.1009013
0.08748571 0.13139527 -0.09816612 -0.16484545 -0.026911758 0.0833021 -0.2099125 -0.16512711
0.04748882 -0.16190673 0.106251545 -0.17001945 0.12334688 0.09889104 0.061244655 0.10484775
00000000: b296 7b3d 1846 373e 4f32 153e a7d2 f33d
00000010: 2a1a 1b3d f071 f7bd 7f32 39bd 5a44 f0bd
00000020: c020 fdbd 112c 1b3e 246d 153d e959 833d
00000030: 64a7 233d e90f 70bb 15a0 243b 23db 2f3d
00000040: 1e60 10bc fa78 7b3d 1322 433e c94e b1bd
00000050: 9030 1f3d f506 263e e53c 79bd 50b2 023e
00000060: 41ca 6a3d 73ae 0cbe 42f9 823d 10b7 43bc
00000070: 1ee0 203d 4f4d 07be 7f36 fcbc b014 3c3e
00000080: 3c5d 10be ac86 233e 97e6 0bbe 1aa0 41bc
00000090: 8332 2d3e 90de e5bd d6df 183e f474 a4bd
000000a0: e534 d7bc 3b5e e43d e981 62bd 660b c3bc
000000b0: 5e55 fc3d f50e 99bd 2b25 f33d 1c5f 373b
000000c0: ac06 febd 988a 663d 0f7b 9cbd 4344 0bbe
000000d0: 9a0b 233e 526f 903c 08e6 e5bc c748 283e
000000e0: 1e22 073e ca4a f8bc 7ce6 153c 7b6f 1cbd
000000f0: 1792 3b3d 3fac 083e beff 453d 0d19 123e
00000100: ba83 663e fd94 223e fcb2 9ebd e2b5 413e
00000110: 5cbf 023e 2fbc 9abd f795 263e b1f7 b5bc
00000120: 3ae6 26be 7b96 0e3e 0043 39be eee0 a13d
00000130: e3ac adbd 92d8 96bd 5c09 cbbd 57a5 ce3d
00000140: b52b b33d 7b8c 063e 520b c9bd 3fcd 28be
00000150: 0c76 dcbc 4b9a aa3d 4df3 56be 1517 29be
00000160: a383 423d e1ca 25be 699a d93d 9419 2ebe
00000170: 4a9d fc3d 6387 ca3d addb 7a3d 6bba d63d

gru.bias_hh_l0_reverse f4 [96]
0.20376775 0.12009675 -0.03246563 0.07529215 0.005549935 0.0007988294 0.15078402 -0.11345923
-0.032134607 -0.033982012 0.035705104 -0.04859922 0.14613968 0.04957001 -0.035743468 0.13520052
0.074881464 0.009203649 0.014048829 0.24495935 0.039341677 -0.040733162 0.05713964 -0.100216664
0.027711254 0.11145343 -0.075990714 0.03450893 0.0064705196 0.12398604 -0.0081018815 0.18202193
-0.14450623 -0.12874861 0.10031136 0.13568963 -0.06678282 -0.15377626 0.0118271625 -0.06097919
-0.17376763 0.0011548145 -0.16399473 -0.16917582 -0.15166296 -0.05240345 -0.034617733 0.14063564
0.027397782 0.05300414 -0.0401833 0.16172935 0.1401731 -0.010302367 0.1633664 -0.10396042
-0.06899239 -0.141161 0.04565893 -0.019720053 -0.055364955 0.1439125 0.050507218 0.038007647
-0.08527392 0.076236956 0.021953981 0.011463991 0.14765985 -0.16369744 -0.047368463 -0.078412674
-0.095302306 -0.14108753 0.0038922767 -0.05183423 0.019439688 0.13975108 -0.074356705 -0.042033322
-0.0052821836 -0.14641261 -0.021185236 -0.20419583 -0.18535222 -0.09195971 -0.028274698 0.09036649
0.06855296 0.08139932 -0.04749397 -0.0001986964 0.095938 0.086437084 0.16268235 -0.024809198
00000000: 7ea8 503e 49f5 f53d aefa 04bd c532 9a3d
00000010: 3bdc b53b 8968 513a 2067 1a3e 505d e8bd
00000020: 949f 03bd b930 0bbd 843f 123d fa0f 47bd
00000030: a4a5 153e ec09 4b3d be67 12bd 0172 0a3e
00000040: 745b 993d e7ca 163c 0f2d 663c a0d6 7a3e
00000050: bd24 213d d1d7 26bd 410b 6a3d 653e cdbd
00000060: b602 e33c b241 e43d 05a1 9bbd 3c59 0d3d
00000070: a706 d43b 65ec fd3d c1bd 04bc f563 3a3e
00000080: 71f9 13be add6 03be 0b70 cd3d 39f2 0a3e
00000090: 6ec5 88bd 8677 1dbe b7c6 413c 51c5 79bd
000000a0: 24f0 31be 255d 973a 3cee 27be 6d3c 2dbe
000000b0: 894d 1bbe 00a5 56bd 53cb 0dbd ca02 103e
000000c0: 5071 e03c de1a 593d 3e97 24bd 619c 253e
000000d0: 8a89 0f3e 42cb 28bc 8649 273e 33e9 d4bd
000000e0: e24b 8dbd 828c 10be dc04 3b3d f38b a1bc
000000f0: 5dc6 62bd cc5d 133e a8e0 4e3d e8ad 1b3d
00000100: 18a4 aebd 1f22 9c3d d6d8 b33c 77d3 3b3c
00000110: 2534 173e 4da0 27be 6f05 42bd d396 a0bd
00000120: db2d c3bd 4079 10be 9115 7f3b 2150 54bd
00000130: fb3f 9f3c e81a 0f3e 5448 98bd 222b 2cbd
00000140: 2b16 adbb 30ed 15be a98c adbc b618 51be
00000150: f9cc 3dbe 5f55 bcbd 57a0 e7bc 1112 b93d
00000160: 7f65 8c3d b0b4 a63d 0989 42bd 2959 50b9
00000170: 247b c43d ed05 b13d 3496 263e a93c cbbc
