logs/exp0/weights/epoch65.pt (torch, 348934 bytes, 45 tensors)

conv_block1.0.weight f4 [32, 4, 10]
000000 3a ec da 3b bf 1a 4f be ba 6a 18 3e 62 1f 9a bc
       0.0066809924 -0.20225047 0.14884463 -0.018813793
000010 fe e2 81 bb f8 64 e2 3d 83 ce 37 bd 42 ac 10 be
       -0.003963827 0.110544145 -0.04487468 -0.14128211
000020 b9 90 00 3e 3e 65 07 be d9 c5 a6 3d f4 c5 cf bd
       0.12555207 -0.13222215 0.08143205 -0.101451784
000030 7f 32 f3 bb c6 a1 5e 3d 0a 44 f2 bd 0b 98 a5 3d
       -0.007421791 0.054353498 -0.11829384 0.080856405
000040 6e 00 9e 3d 42 a1 f3 3b d6 42 77 bd 5d ed 3f bd
       0.07714926 0.007434995 -0.060366474 -0.046857227
000050 92 8b d5 bd 7a 02 a4 3d a1 38 64 3c 7e 39 eb bc
       -0.104270115 0.08008285 0.013929517 -0.028713938
000060 d1 c6 47 3d 12 c9 05 be 1d d2 5d 3d 0f aa a8 3d
       0.04877359 -0.13064983 0.054155458 0.08235561
000070 42 70 4b be 73 24 00 bd b4 f7 2d be 4c 20 a1 3d
       -0.19867042 -0.03128476 -0.16989022 0.07867488
000080 12 49 ba 3c d8 45 30 bd a1 2e 27 bd 9e 31 3a bd
       0.02273992 -0.04303536 -0.040815953 -0.045457475
000090 33 0c cf bd 07 2f 37 3d b8 45 4e 3c 3c 2e 80 3c
       -0.10109749 0.044722583 0.012589864 0.015647046
0000a0 fa 42 7f bc 2b 33 e4 bd 16 de 95 3d 8f ec c2 bd
       -0.015579933 -0.11142572 0.0731775 -0.09517776
0000b0 30 28 aa bc 47 d3 37 3e fa 8a c5 bd b8 64 e1 bc
       -0.020771116 0.1795169 -0.09645648 -0.027513847
0000c0 de 55 f3 3d 8a c7 51 3d 96 76 ac 3d e0 af a3 3d
       0.11881612 0.051215686 0.08421056 0.0799253
0000d0 20 93 2b be e9 c3 e8 3d 34 d3 33 be 08 a5 79 3c
       -0.16755342 0.11365492 -0.17561036 0.0152371
0000e0 e3 f8 fe 3b c9 ad 85 bd 92 d4 2b bc e0 84 85 3d
       0.0077811345 -0.065272875 -0.010487692 0.065194845
0000f0 7c 35 bb bd 62 ec 82 3a 85 57 16 bd 9d e7 63 bd
       -0.09141061 0.000998866 -0.03670456 -0.055640806
000100 7e 35 ac bc 94 e9 0c bd c4 d8 b2 bd 83 cf dc 3d
       -0.0210216 -0.034402445 -0.08732751 0.10781767
000110 48 85 f7 bd 5c 2c ea bc 88 4f d2 3d c2 0a 87 3d
       -0.12085968 -0.028585605 0.10269076 0.06593849
000120 84 5c 42 3c 40 90 4f bd ae 3c 1d bd 3f 0c a2 bc
       0.011862878 -0.050674677 -0.038387947 -0.01978123
000130 88 bb e2 bd 51 54 78 3b 70 a5 e9 bc 10 8a 99 3d
       -0.11070925 0.0037892053 -0.02852127 0.074970365
000140 28 b2 5a 3d 2b 55 ea bd 2c 80 01 be 9e 74 c5 bd
       0.05339256 -0.11442026 -0.1264655 -0.096413836
000150 ce 63 1d 3e 0b a4 01 be 60 3f b4 bd a7 90 05 3e
       0.15370104 -0.12660234 -0.0880115 0.13043462
000160 a0 ec 31 be 54 cd 90 bb 8d b8 5e 3d 6d 78 0c 3d
       -0.17375422 -0.0044190083 0.05437522 0.034294534
000170 a8 fc 72 3c 42 8a 3d 3d dc 22 9d bc 80 6f d9 3d
       0.014830746 0.04627443 -0.019181661 0.1061697
000180 0d a2 fa 3d 11 fc 04 3e aa ca 28 3e 0f 35 e3 bc
       0.1223794 0.1298678 0.1648356 -0.027735261
000190 5a b2 45 3d 54 eb f4 bd b4 7f 43 3d 84 9b fc bd
       0.048265792 -0.11958948 0.04772921 -0.1233435
0001a0 ba 26 28 ba 18 2c ca 3d 53 24 f8 3d ae 09 b6 bd
       -0.0006414462 0.098716915 0.12116303 -0.08888565
0001b0 c8 d5 a3 3b cd 10 42 bd 31 f2 ec bd ff 72 01 be
       0.00499985 -0.047379304 -0.11569632 -0.12641524
0001c0 de 35 bc 3d 60 f4 5e 3d e0 0d a6 bd 2e 95 d1 bd
       0.09189962 0.054432273 -0.08108115 -0.10233532
0001d0 92 fd 91 3d 6f 2d 0e bb 53 d2 a4 bc 77 23 cb bb
       0.07128443 -0.002169456 -0.020119822 -0.006199296
0001e0 00 93 24 3d e5 bc 19 be 2e a0 91 bd 8a a4 d7 bd
       0.040179253 -0.15013464 -0.0711063 -0.1052943
0001f0 f8 d6 1a bd 57 86 02 3d 7e 6e 7e bd 4d 0c 19 be
       -0.037802666 0.031866398 -0.062117092 -0.14946099
000200 22 37 1c 3c b7 43 d1 3c e6 63 85 bd 7a 18 36 be
       0.009534629 0.025544984 -0.06513195 -0.17782775
000210 66 e7 14 be 47 e5 08 be 75 81 e5 bd aa bd 5d bd
       -0.14541396 -0.13368712 -0.112063326 -0.054135956
000220 f1 94 21 3d 76 6f 2d bd 5f 71 fd bd 84 af 5e 3d
       0.039448682 -0.042342626 -0.123751394 0.054366603
000230 06 b7 8e bd 45 c2 bb 39 28 cf 1b 3b 20 0b 13 3e
       -0.06968503 0.00035812162 0.0023774598 0.14359713
000240 b8 87 0a be 05 e9 93 3d 5c 05 d5 3d 99 60 77 bd
       -0.13528335 0.07222179 0.10401413 -0.060394857
000250 a4 14 08 3e 75 55 5b bc aa e2 99 3d b9 d5 80 3d
       0.13289124 -0.013387074 0.07513936 0.06290764
000260 e3 b8 c6 3d ca ac 52 3c 4c 56 19 bd 6b 11 7d 3d
       0.09703233 0.012858579 -0.037435815 0.06178419
000270 f0 b1 c7 3d ed be 7d 3d 55 66 bd 3d 59 ac c4 3d
       0.09750736 0.06194966 0.09248034 0.09603185
000280 3c a1 2d bd 5c 9c 04 bd f7 0c 80 3c 72 15 78 bd
       -0.042390093 -0.03237568 0.015631182 -0.060567327
000290 b8 49 85 bd da a4 00 3e 45 79 a6 bd cc 71 ab bd
       -0.06508201 0.12562886 -0.08128599 -0.083713144
0002a0 35 4b 77 3d 84 d1 87 bd 5b 41 86 3d 5c 94 72 3d
       0.060374457 -0.06631759 0.06555434 0.059223518
0002b0 d2 86 64 bd 91 f5 d1 3d 00 58 49 bb a4 ac 14 be
       -0.055792637 0.10251916 -0.0030722618 -0.14518982
0002c0 c1 82 d9 b9 bc 7a cd 3d 23 6d 08 be 1e 49 fe 3d
       -0.00041486885 0.10033175 -0.13322882 0.1241629
0002d0 fa 3b d9 bd 54 7e 65 3d c5 4e 2c be b0 63 1b 3d
       -0.10607143 0.05602868 -0.16826923 0.037936866
0002e0 6d 73 9d 3c e7 09 37 3b 4d 3b 51 be e0 18 d0 3d
       0.019220078 0.0027929486 -0.20432778 0.101609945
0002f0 94 03 19 be 64 9c 07 3d 0a ce 46 3d f1 08 d2 bc
       -0.14942771 0.03310813 0.048536338 -0.02563903
000300 67 35 d4 bd 8b 30 8a bc ba 32 41 be 9c 7a 00 3c
       -0.10361748 -0.01686885 -0.18867007 0.007841732
000310 ba 92 9f 3d 8c 7f 8f 3d 02 99 37 be a1 c3 a6 3d
       0.07791658 0.070067495 -0.17929462 0.08142782
000320 60 49 d9 3c 77 9e d5 3d a0 2e 54 bd e8 f2 a7 bd
       0.026524246 0.104306154 -0.051802278 -0.082006276
000330 56 a8 51 3d c8 7c 2e be b4 6f d5 3d f5 5b 22 3e
       0.05118593 -0.17039788 0.10421696 0.15855391
000340 01 8d 85 be bc 3b cd bd 41 6c 22 3d e4 f2 00 3c
       -0.2608414 -0.10021159 0.03965402 0.00787041
000350 09 be 40 be 4e b6 90 bb 08 b3 b5 3c 93 b0 f1 3d
       -0.18822493 -0.0044162637 0.022180095 0.11801257
000360 d7 11 12 bd 80 0b e7 bd 2d 19 33 3e ac 88 01 be
       -0.035661545 -0.1128149 0.17490073 -0.12649792
000370 61 fe 3a 3c 50 e9 89 bd b3 35 8d 3d ff 02 05 bd
       0.011413188 -0.06733954 0.06895008 -0.03247356
000380 6f a2 2d be 0b e1 b4 bd 02 a5 2a 3c 70 ef 3b be
       -0.16956495 -0.08831986 0.0104153175 -0.18353057
000390 38 78 5e be be cb 13 3d 3c 2e 8b 3d 4b 99 cf 3c
       -0.21725547 0.036082976 0.06795928 0.02534165
0003a0 91 c0 5a bd a5 ed 83 3d 62 59 c6 3d 1e 4c c5 bc
       -0.053406302 0.064418115 0.09685017 -0.024084147
0003b0 1e 21 53 bd d2 c2 ab 3d a7 3d 44 bd dc 7a 6b 3d
       -0.051545255 0.083867684 -0.04791036 0.057490215
0003c0 4c 06 e2 3d 8d 95 96 3d d4 46 28 3d d4 ca 3f 3d
       0.11036357 0.07352743 0.041083172 0.04682429
0003d0 58 32 e6 bd 1f 58 41 3e 08 e7 6d 3d 51 01 0f 3e
       -0.11240071 0.18881272 0.058081657 0.13965346
0003e0 ca a9 f7 3d 12 c6 eb 3d 42 8b 74 bd 9e 4e 1d 3b
       0.120929316 0.11512388 -0.05970312 0.0024003158
0003f0 43 2d 0f 3d 11 a5 8a 3b 22 c4 d0 bd 4a 29 5d bd
       0.034955274 0.004231103 -0.10193659 -0.053994454

conv_block2.0.weight f4 [32, 32, 10]
000000 aa 63 59 bc 90 ff 43 bd 0f 8f 88 3c d4 84 48 bd
       -0.013268391 -0.047851145 0.016669778 -0.0489548
000010 0e ba b5 3c 6e 35 03 3d 87 9a 03 3c 9c 69 f1 3d
       0.022183444 0.032033376 0.008032448 0.117877215
000020 57 8a bc 3d 8b 76 bf 3d 81 05 be 3d 91 a5 f7 3d
       0.09206074 0.09348782 0.092783935 0.12092126
000030 bf 3b 08 3e cb 74 bf 3c 10 a7 86 3d 6a cc d7 3d
       0.13304041 0.02337112 0.065748334 0.10537036
000040 a2 34 60 3d 08 1f e4 3d 99 3e 94 3d a2 47 42 bc
       0.054737695 0.11138731 0.07238502 -0.011857899
000050 6e 3f a2 bc d5 71 88 3c ba 03 2f bd 97 fd 54 3c
       -0.019805636 0.016655842 -0.042728163 0.012999914
000060 17 05 fa bc 9c 8f 93 3d 0e 2c 63 3d ae ac 44 bd
       -0.030520005 0.07205126 0.055461936 -0.048016243
000070 ec cc e7 3c 8b 80 ab bd 8a 24 d2 bd 20 5f 25 3d
       0.028295957 -0.08374127 -0.102608755 0.04037392
000080 1c 05 7a bc 05 a3 aa bd b4 22 a8 bd c2 51 95 3d
       -0.015260007 -0.08331875 -0.08209744 0.07290985
000090 7b 16 01 bd 9d c7 85 bd 16 3e 3d bd 07 26 1f bc
       -0.03151558 -0.06532214 -0.046201788 -0.009713656
0000a0 de 7f 43 3d c4 77 7a 3b eb 86 e8 3d 10 00 b0 3d
       0.047729366 0.0038218359 0.113538586 0.08593762
0000b0 85 9c 70 bd 84 56 0e 3e 0b 05 36 bd 30 06 b8 3d
       -0.05874302 0.1390019 -0.044438403 0.08985555
0000c0 22 17 a5 3c e1 3c a0 3d 90 0e 73 bc 74 78 99 3c
       0.020152632 0.07824112 -0.014835015 0.018734194
0000d0 5c 07 a8 3c 53 6f c4 3d d6 fb d2 bc 6d 2f 75 3d
       0.020511322 0.09591546 -0.02575485 0.059859682
0000e0 31 42 87 bc 4e 9b 54 3d fe bb 03 3e ec ad f6 3d
       -0.016511055 0.051905923 0.12864682 0.12044892
0000f0 1a fb 77 3d f6 7f 84 3d 96 73 f3 3d 68 13 2f 3e
       0.060542203 0.06469719 0.11887281 0.17097247
000100 21 ae 73 3e 86 0a b9 3d 0f 3f bc 3d 65 aa 3d 3e
       0.23796894 0.0903521 0.09191715 0.18522032
000110 25 76 04 3d 8e fc 86 3d 41 9e 49 3e 41 e0 26 3d
       0.032339234 0.0659114 0.19689275 0.04074121
000120 3e 84 fa 3c 2d 14 03 3d 97 30 6f 3d 12 b5 c7 3d
       0.030580636 0.032001663 0.05839595 0.09751333
000130 06 b8 b4 3d 49 42 c4 3d a4 10 17 3e e4 aa 29 3e
       0.08824162 0.095829554 0.14752442 0.16569096
000140 7e f1 1c 3d 16 8e a0 3d d6 4b 01 3d 26 81 9e bc
       0.038316242 0.07839601 0.031566463 -0.019348692
000150 a8 5b ab 3d 0a f4 70 bd 3f 50 92 bc 54 77 c1 bb
       0.083670914 -0.058826484 -0.01786053 -0.0059041176
000160 17 f5 e5 3c 30 32 a4 bc 91 5e 85 3c 70 7d 80 3c
       0.02807097 -0.020043463 0.016280444 0.015684813
000170 57 a6 31 3d 84 17 98 bd 39 1f f5 bd 21 da 06 be
       0.043371525 -0.0742636 -0.11968846 -0.13169147
000180 92 04 ec bd e5 74 39 3c 4d 09 fc bd 84 fb 1e 3c
       -0.11524309 0.011319374 -0.123064615 0.009703521
000190 c8 a6 c3 3d f2 bc bc 3d aa e6 04 3e dd d8 a5 bb
       0.095532954 0.09215726 0.12978616 -0.0050612525
0001a0 b4 fe 11 3e e5 b3 74 bc b4 3a c1 3d 3e ef d7 3d
       0.14257318 -0.014935468 0.09435025 0.10543679
0001b0 9b 2d 87 bd e0 95 ec 3d 66 0f 2d 3c 34 5f cd bd
       -0.066004954 0.11552024 0.010562753 -0.10027924
0001c0 67 df a1 3d 39 7d 9d 3d 3f 00 86 3d 8a 2e 49 3d
       0.07903939 0.076899 0.06543016 0.04911665
0001d0 fb f3 2c bd 81 81 bd 3d 51 29 ab bd 66 be ea bc
       -0.042224865 0.092532165 -0.0835749 -0.028655242
0001e0 37 b6 ce bd 03 2a 07 bd ba 39 fb bc 1c 69 04 3d
       -0.100933485 -0.03299905 -0.030667175 0.032326803
0001f0 c4 80 da bd 50 8e 07 be e3 b4 1a 3c 81 99 43 3d
       -0.10669091 -0.13237882 0.009442541 0.047753815
000200 82 29 87 3b 4a a8 0b be 50 59 e9 bd 29 4c bb bd
       0.004124821 -0.13638416 -0.11393988 -0.09145386
000210 55 13 b6 bd 17 35 c4 bd 81 84 1d be 7d 3e b7 bd
       -0.08890406 -0.095804386 -0.15382577 -0.089474656
000220 28 aa ad bd 61 9d 8b 3b b4 24 0c bd 76 b9 09 be
       -0.0847972 0.0042607044 -0.03421469 -0.13449654
000230 2d f7 69 3d 2b 28 42 3d c5 d1 b9 3d 02 e5 10 3e
       0.05712049 0.04740159 0.090732135 0.1414986
000240 68 33 de 3d 21 5e 91 3d ae 9d 71 bd 61 e7 98 3d
       0.10849649 0.07098032 -0.058988266 0.07466007
000250 4f 28 4b 3c 68 d2 f0 3d 3b 8a c7 3d c5 d6 a7 3d
       0.012399747 0.11758882 0.09743162 0.08195261
000260 90 e5 a8 bd 15 08 8a 3c e9 c4 7f 3d 8a b6 85 3d
       -0.082469106 0.016849557 0.062443648 0.06528957
000270 b6 b9 3d bd b3 e9 42 3c b1 64 b6 3d 3e 05 8b 3c
       -0.046319686 0.011896539 0.08905924 0.016970273
000280 a5 38 55 3d b6 c2 b5 bd 1f bd a8 bd d2 57 06 bc
       0.052055974 -0.08875029 -0.08239197 -0.008199649
000290 db e7 d8 3d 5a 4b 43 3d d3 a9 7b 3d fc 21 6a bd
       0.10591098 0.047679283 0.061441254 -0.057161316
0002a0 56 89 8b 3d 46 84 a3 bc aa 4c 25 b9 e2 49 10 3e
       0.06813304 -0.019960534 -0.00015764186 0.14090684
0002b0 91 05 2a 3e 27 90 da 3d 35 42 8a 3c 18 0e 2d 3e
       0.16603686 0.10672026 0.016877273 0.16899908
0002c0 47 f1 43 3d bf 7d 4f 3d 50 7a ae 3d 2a c9 41 bc
       0.047837522 0.05065703 0.08519423 -0.011827746
0002d0 ba e8 15 bd 8d 4c 8c bc 73 6e 02 be 63 e6 08 3c
       -0.0365989 -0.017126346 -0.12737446 0.00835571
0002e0 fd e7 fb bb c9 a3 d6 bd 33 56 36 bd e7 9d ba bd
       -0.0076875673 -0.10480458 -0.0445158 -0.09112149
0002f0 aa 45 a6 bc d7 ea 28 bd 76 5f 84 bc dd 74 09 3e
       -0.02029689 -0.041239586 -0.0161588 0.13423486
000300 cb 3d 36 bc 4c 89 14 3d 92 16 3e bd 18 83 36 bc
       -0.011123131 0.03626375 -0.046408243 -0.011139654
000310 59 56 2a 3d 23 93 dd 3d 51 20 11 3c a2 f3 0c 3d
       0.041586254 0.1081908 0.0088578025 0.034412034
000320 61 51 4c bd 9d 59 99 bc 61 31 75 3c 75 7b 2d bd
       -0.049882296 -0.018719489 0.014965386 -0.042354066
000330 71 b6 18 bd 99 74 87 bd fb fa 33 bd 7a d7 16 3d
       -0.037283365 -0.06614036 -0.043940526 0.03682659
000340 9f 74 24 bc 00 58 91 bc d2 84 82 bd 49 10 37 3d
       -0.01003757 -0.017742157 -0.0637299 0.044693265
000350 33 00 8e bd cc cb 8e bd 80 08 61 bd 96 3b 80 bd
       -0.06933632 -0.06972465 -0.054939747 -0.06261365
000360 70 4d d5 bc 06 78 d8 3d 89 23 28 bb 5f 4b a7 bd
       -0.026037902 0.10569768 -0.0025655946 -0.08168673
000370 80 d8 21 3d c4 32 33 3d 83 9a 40 3d 18 e9 07 3e
       0.03951311 0.043749586 0.047022354 0.13272512
000380 01 03 ee 3b e8 f9 95 bc c3 48 05 3e ed 50 89 3d
       0.0072635417 -0.018307641 0.13016038 0.067048885
000390 3b 05 15 3e 92 0b 38 3d 4c 36 b7 3c a3 e2 af 3d
       0.14552777 0.04493291 0.022364758 0.085881494
0003a0 43 35 00 3e 45 a5 41 3e 88 9c 75 3d 44 07 52 3d
       0.12520318 0.18910702 0.059963733 0.05127646
0003b0 e9 6d 1b 3e dc c0 2e 3e c3 58 0d 3e f9 56 82 3d
       0.15178646 0.17065758 0.13803391 0.06364245
0003c0 fd 0e 89 3d 29 f8 dd 3d 31 fd 91 bd 9d 8d f4 bc
       0.06692312 0.108383484 -0.071283706 -0.029852683
0003d0 fb 45 18 bd ab 43 a4 3d 15 06 be bd fc 46 31 bd
       -0.037176114 0.08020719 -0.09278504 -0.043280587
0003e0 ec 11 e9 3d 62 f6 9c 3b 55 49 d2 bd cc d0 ef bd
       0.113803715 0.0047901133 -0.10267893 -0.11709747
0003f0 16 63 34 bc fd f7 0e be d3 bd d0 bd dc 9e 0a 3d
       -0.011009952 -0.13961788 -0.10192456 0.033842906

gru.weight_ih_l0 f4 [96, 32]
000000 d6 86 50 3d be 73 0c 3e f2 ab 0a 3d ce 1b bc 3e
       0.05090984 0.13716027 0.033855386 0.36739963
000010 7a 3b 01 3b c7 b8 1e be 08 34 90 3e 90 25 a1 bc
       0.0019719289 -0.15500174 0.28164697 -0.019671232
000020 a1 b2 de 3c c4 18 a2 3d 3d 1f 08 3e 70 e3 45 3e
       0.027184786 0.0791488 0.13293166 0.19325042
000030 34 5e b2 bb 27 5c 48 3e f7 f8 0f be 48 ac ee 3d
       -0.005443359 0.19566403 -0.14059816 0.11653954
000040 e2 29 0d 3e 77 21 e0 3e eb ee ab bd ba c3 36 bc
       0.13785508 0.43775532 -0.08395179 -0.011155063
000050 e7 d6 32 3d b8 91 8c 3e f7 4b 10 be 9e 09 e5 3d
       0.043661978 0.27454925 -0.14091478 0.11183475
000060 37 59 e8 3b 49 b1 4f 3e 06 28 32 3e 24 13 20 bd
       0.0070907134 0.20282473 0.1739808 -0.039080754
000070 d2 4f b8 bc 6a f9 60 3e 9c 89 80 3d d6 6d 94 3d
       -0.022498999 0.21970144 0.06276247 0.07247512
000080 81 21 73 3e d9 76 4a 3d b7 cc 7f 3d 0c bf 62 be
       0.2374325 0.04942975 0.06245109 -0.22143191
000090 ea 0d 53 3e f3 1e 1d 3d b0 fb 71 3e ed 69 52 3c
       0.20610777 0.038359594 0.23631167 0.0128426375
0000a0 1d b9 c5 3c 4d 69 a2 bd a7 78 11 be cb 8b 00 be
       0.02413612 -0.07930241 -0.14206181 -0.12553327
0000b0 ef ca e3 bd a6 bb 17 3e 9e 51 7d 3d 1f 63 9e bd
       -0.11122691 0.14817676 0.061845414 -0.077337496
0000c0 0d 13 61 3e 2f b0 00 3e 3b 15 80 3d a1 00 ab 3d
       0.21979924 0.12567209 0.062540494 0.08349729
0000d0 7b bc 85 bb 34 c8 0c 3d 89 75 68 3d cb 8b 3d 3e
       -0.0040813065 0.034370616 0.056752715 0.18510358
0000e0 e8 c6 d4 3d c0 7a f7 3d 14 af df 3c fc 37 42 3e
       0.10389501 0.120839596 0.027305163 0.18966669
0000f0 1f ca 76 bd 42 ff 2d 3e 94 00 0f bc e0 ab bb 3d
       -0.06025135 0.16991904 -0.008728165 0.09163642
000100 45 17 8d 3d bd 57 11 3e a5 50 ea 3c ff ee ac 3d
       0.06889204 0.14193626 0.028602907 0.084440224
000110 ff 33 8b 3d 50 08 38 be ae 93 52 3d ef c9 53 3e
       0.06797027 -0.17971921 0.05141037 0.206825
000120 fe ed cf bd c4 e3 7f 3e 77 da 32 3e 6d ca 12 3e
       -0.10152815 0.2498923 0.1746615 0.14335032
000130 23 3f 7b 3d e1 35 1a 3d 22 c6 36 3d d3 97 40 bd
       0.06133951 0.03764904 0.044622548 -0.04701979
000140 39 eb 2c 3e 4a 79 85 3c e6 30 74 3e d8 00 06 be
       0.16886605 0.016293187 0.23846778 -0.1308626
000150 5f b4 c0 bd 05 3e ac 3c 4c 39 f1 bd d4 52 25 bc
       -0.09409403 0.021025667 -0.11778507 -0.010090549
000160 7c d7 6f 3e 77 3c 78 bd a5 8b 4b be 2a d9 20 3c
       0.23422045 -0.06060454 -0.19877489 0.009817401
000170 a6 f5 cb 3d 1e 1e c8 3d 7f f7 77 be 5b 9a 77 3e
       0.09958963 0.097713694 -0.24215506 0.24179976
000180 48 6e 82 bd f5 f6 f0 bc 9a 65 7e bd 5e 80 26 be
       -0.06368691 -0.029414633 -0.062108614 -0.16259906
000190 60 54 84 bd 55 06 5f bc 43 2b 9c 3d 96 3f 01 be
       -0.06461406 -0.0136123495 0.07625439 -0.12621912
0001a0 67 6f 31 3e c9 c8 be 3d ac 92 0c bc fb e5 95 bd
       0.17327653 0.093156405 -0.008579891 -0.07319256
0001b0 26 77 0c be 07 e0 ed 3d 6c e4 ff 3c d7 cb 53 3e
       -0.13717327 0.116149954 0.03123685 0.20683227
0001c0 5b 03 f5 3d 0c 05 53 bd 51 2f 91 be 85 89 3c 3e
       0.11963531 -0.051518485 -0.28356412 0.18411835
0001d0 13 e6 1d be 04 ba 21 3e f7 a4 a2 bd e3 cf f3 bc
       -0.15419798 0.15793616 -0.07941621 -0.029762214
0001e0 12 9e a3 bd 61 45 89 bd 2e bb bb bc 6d ad 37 3e
       -0.07989134 -0.06702686 -0.022916403 0.1793725
0001f0 81 a3 ba bd f1 97 18 3e 7b ce 2c 3e 5a 11 20 3d
       -0.09113217 0.14901711 0.16875641 0.039079048
000200 8f e4 e6 bd 5c c2 d1 bc 6d c7 a5 3d 15 40 cd bd
       -0.11274063 -0.025605373 0.08094678 -0.10021988
000210 53 50 b4 bd 75 9d 8b bd b7 09 dd 3d 36 f6 73 bc
       -0.08804383 -0.06817142 0.107928686 -0.014890244
000220 3e 91 51 bc 0f c0 05 be f9 5a be 3d 10 f7 9e 3d
       -0.012790976 -0.13061546 0.092946954 0.07761967
000230 8d e7 b2 3d cb 29 20 3e 9d 38 65 3d 2b 67 06 3d
       0.08735571 0.15640943 0.055962194 0.032813232
000240 6f 2a 38 3c ce 8c f4 3d 25 43 f0 3c b9 58 2a 3e
       0.011240586 0.11940919 0.029328892 0.16635408
000250 1c 6b d5 bb 33 c7 28 3e da 27 33 3b 86 6d ac 3d
       -0.0065130126 0.16482238 0.0027336986 0.084193274
000260 7f 9e 40 3d f7 bb 78 3e 5f 74 73 3e 27 26 be bd
       0.047026154 0.24290453 0.23774861 -0.09284621
000270 3a 6c 95 bd 5f 44 d1 3c 25 e6 04 be 65 79 ba 3d
       -0.07296033 0.025545297 -0.12978418 0.091051854
000280 91 64 ff 3d 8d 72 87 3e fc 52 7a 3c 17 80 da 3e
       0.124703534 0.26454583 0.015278574 0.4267585
000290 04 2d bc bd d5 0f 05 bd a2 54 e6 3d af 81 63 3e
       -0.091882735 -0.0324858 0.11246611 0.22217439
0002a0 8a eb 2d 3b a4 f6 6c 3e 0d 1d 2c 3e 5c 8f 32 3e
       0.0026538097 0.23140961 0.16807957 0.174375
0002b0 e5 27 eb bd 82 a2 59 3e a6 75 17 be fd 79 c8 bd
       -0.11482219 0.21253398 -0.14790973 -0.097888924
0002c0 58 c5 b1 3e ab c3 8f 3e 1e e8 2a 3e 06 37 49 3e
       0.34720874 0.2807897 0.16690108 0.19649896
0002d0 1d 90 89 3e e2 2b b3 3d a8 8b 0c be b6 5a 37 3e
       0.26867762 0.08748604 -0.1372515 0.17905697
0002e0 14 b3 fe 3c 53 34 50 be 02 84 0e be f6 42 03 3d
       0.03109125 -0.2033246 -0.13917544 0.03204628
0002f0 33 95 46 3e 82 94 51 3e 09 6a 25 be 91 50 b3 3d
       0.19392852 0.20466807 -0.1615373 0.08755601
000300 b8 b5 06 be a2 74 a0 bd 2e 38 86 be a9 f6 62 be
       -0.13155258 -0.07834746 -0.26214737 -0.22164406
000310 70 c0 1e 3e 36 96 75 3e 22 45 77 bd 57 2f 27 be
       0.15503097 0.23983082 -0.060368665 -0.16326652
000320 40 e0 90 bd f1 55 af bc 5d 48 49 bc 32 f6 76 3c
       -0.07074022 -0.021403285 -0.012285319 0.015073346
000330 2b 25 a4 3d f0 24 9c bc 59 14 1c 3e 8c 46 9e 3d
       0.08014902 -0.019060582 0.15242137 0.077282995
000340 e3 3f 04 bd 9f d8 50 be 6b 73 ac be b4 03 22 3e
       -0.03228749 -0.20395134 -0.33681807 0.15821725
000350 2d ca 93 be 29 4f 1b bd 47 f6 ed 3d 40 81 67 be
       -0.28865185 -0.03791729 0.11619239 -0.22607899
000360 ab b9 a1 be 6f 56 52 3e d3 c0 76 3e bf 42 42 bd
       -0.31586966 0.20540784 0.24096994 -0.047426935
000370 3a 00 1a be e4 4a 31 be d8 54 93 3d 0b 5d b4 be
       -0.15039149 -0.17313725 0.07193917 -0.35227236
000380 aa b5 a9 3d d7 63 bf bd ba 1c f7 3d cd de 4e be
       0.08286603 -0.09345215 0.12066026 -0.20202179
000390 f9 10 22 be 9a 01 75 bd 5f 44 a3 3c f5 01 33 3e
       -0.15826787 -0.05981598 0.019930063 0.17481215
0003a0 57 7a 3a bd 8d 99 2b 3e f1 c8 e0 bd 71 27 67 3c
       -0.04552683 0.16757794 -0.109758265 0.014108525
0003b0 0a 38 2b bd ae 8e 92 3d 7f f7 9a bd 70 7c 22 3e
       -0.04180149 0.0715612 -0.075667374 0.15867782
0003c0 83 7b ed 3d c4 cc da bd ff f5 23 3e 15 7b 19 3e
       0.115958236 -0.10683587 0.16011809 0.14988358
0003d0 c4 f0 0b 3e 54 59 d3 3d 4e 31 76 3d b3 ce 67 3e
       0.13666064 0.10319772 0.060105614 0.22637443
0003e0 33 e1 b9 bd ac 07 01 3e 1a 78 ea bd 4b dc 9e 3d
       -0.090761565 0.12600583 -0.11448689 0.07756861
0003f0 33 84 7a 3e 52 b7 ff bd f2 28 60 3d 39 e2 d0 bc
       0.24464492 -0.124861374 0.05472655 -0.025498496

gru.weight_hh_l0 f4 [96, 32]
000000 17 7f df bd 18 00 98 3d 6b dd 1e be d0 ca 3f be
       -0.10912912 0.07421893 -0.15514152 -0.1872971
000010 bf e1 8a 3e 17 a3 19 3d 45 e9 63 3d 52 9f 0f 3d
       0.27125356 0.03750905 0.055642385 0.03506405
000020 e7 66 ea bb 5c 0d 5f be 95 a0 39 be be 51 c0 3d
       -0.00715338 -0.2178244 -0.18127663 0.09390591
000030 9b b5 69 bc 0a 8b 99 be 87 36 30 3d db 16 23 3e
       -0.0142644895 -0.2998889 0.04302075 0.15926687
000040 5c 4b 91 bd 8a 42 c2 3c 0d 37 b5 3d 4c fd 5d 3c
       -0.07094452 0.023713369 0.08848391 0.01354916
000050 c2 ca ef bd 07 c7 1f 3e ac d0 da bc b7 c0 b2 bd
       -0.11708595 0.15603267 -0.02671083 -0.08728164
000060 38 bc 34 bd b8 c7 e8 bc 65 9a d8 3d c2 09 35 be
       -0.044124812 -0.028415546 0.105763234 -0.17679504
000070 e5 a6 e2 3d 63 8e 12 be fa 44 97 3d d7 7b 99 bd
       0.11066989 -0.14312129 0.07386203 -0.07494324
000080 10 24 00 3d 86 c7 1e 3d d3 81 13 bd c0 fb f3 3d
       0.031284392 0.0387645 -0.036012482 0.11913252
000090 59 c8 4e 3e df f8 87 bc 52 6d 85 3e 34 8f fd 3d
       0.20193614 -0.016598163 0.26059967 0.123808295
0000a0 e6 da 92 3d 22 09 c2 3c b6 30 84 3e 7c 56 05 3e
       0.07170658 0.023685995 0.25818413 0.13021272
0000b0 55 86 83 bd c5 89 29 be 92 9b 40 bc c2 3d 52 be
       -0.06422106 -0.16556461 -0.011755841 -0.20531371
0000c0 40 4f 1a 3e 1a 99 c8 3a d2 23 1e be 62 55 b1 3e
       0.15069294 0.0015304417 -0.15443352 0.34635454
0000d0 20 6b 9c 3a 31 f3 4f be 1b b8 27 be ae 55 17 3e
       0.0011933781 -0.20307614 -0.16378824 0.14778778
0000e0 13 b3 b0 bd 63 c6 de 3c 58 cc 14 be 20 f7 62 ba
       -0.08627906 0.027194208 -0.14531076 -0.00086580403
0000f0 33 5f ec 3d 5c 6c c0 3d f0 3f 85 bd f7 a7 de 3d
       0.11541595 0.09395668 -0.06506336 0.108718805
000100 af d7 e1 3d 9e 80 92 3e 7e 76 9f bd 48 57 53 be
       0.110274665 0.28613752 -0.077862725 -0.20638764
000110 9a f1 53 3d a3 cb 16 bd 7f bc 6c 3c f7 69 33 be
       0.05174408 -0.036815297 0.014449238 -0.17520891
000120 33 d2 14 bd d3 58 17 bd f7 53 9a bd fa f5 e9 bd
       -0.036333274 -0.036949944 -0.07535546 -0.114238694
000130 07 23 95 be 67 4c 1e bd 24 c3 03 be bc 26 41 3e
       -0.29128286 -0.03864708 -0.12867409 0.18862432
000140 16 85 30 be 88 a8 73 3e d8 4a 3e 3c 4d 85 ab bd
       -0.17238268 0.23794758 0.011614524 -0.083750345
000150 14 5d 88 bb 33 b3 31 be 5a 69 3e be e4 12 45 bd
       -0.0041614864 -0.17353515 -0.18594876 -0.04811372
000160 9b 04 be 3c 82 1a 8d 3d 41 86 e4 bd 55 f0 10 be
       0.023195555 0.068898216 -0.111584194 -0.1415418
000170 3d 37 33 3d 81 81 19 3d b5 a1 45 3e a7 a9 75 3e
       0.04375385 0.03747702 0.19299968 0.23990498
000180 a6 a3 a4 3d a4 dc 34 be 27 ea c8 bd 8e 22 22 3d
       0.08039026 -0.17662293 -0.09810286 0.039583735
000190 0f fb bd 3c 31 43 cb bd cd 59 21 bd 09 36 00 bc
       0.023191003 -0.09924925 -0.03939228 -0.007825383
0001a0 de 4c 25 be 3b 3a cf 3c 15 44 84 bd 31 59 dc 3d
       -0.16142604 0.025296321 -0.06458298 0.107591994
0001b0 37 af 4d be b7 5a 58 bd 22 fa d4 3d 1e 76 8d 3e
       -0.2008637 -0.052820887 0.103992715 0.2762918
0001c0 2a ff 27 bd af a7 66 be fe 1c 2a 3e 8e 1e c1 bd
       -0.041014828 -0.22524904 0.16612622 -0.09429656
0001d0 f7 a6 5c 3a ee 38 e4 3d a7 15 33 be 64 a5 f0 bc
       0.00084172137 0.11143671 -0.17488728 -0.02937574
0001e0 84 1a 9b 3d 05 6f 4b 3d 7c 0a 43 bd aa cf 54 3d
       0.07573417 0.049666423 -0.04761742 0.051955856
0001f0 54 9d b3 bd 51 90 bb bd be 9c c3 3d b8 69 c0 bb
       -0.08770242 -0.091583855 0.095513806 -0.0058719777
000200 7c 0f 4b be 64 90 60 3e 9e 4d 0a be f6 1d 32 3c
       -0.19830126 0.2193008 -0.13506171 0.010871401
000210 40 79 3c 3c a8 c7 56 be c3 fd 9e 3d d1 4f c7 bc
       0.011503518 -0.209746 0.07763245 -0.024330052
000220 b0 48 29 3e 37 fa fa 3d 8c 62 b9 3d 60 08 5f 3d
       0.16531634 0.12254756 0.090519994 0.054451346
000230 05 1b 27 be 3f 14 d0 bc 14 96 e1 bd 91 01 74 bd
       -0.16318901 -0.02540028 -0.11014953 -0.059571806
000240 ba 99 6b be f4 d3 e4 bd fd e8 a1 3c d4 ae 0e 3d
       -0.23007861 -0.11173239 0.019764418 0.034834698
000250 69 41 18 be 63 6b 5e bd eb f5 40 be 1f 6d 2b 3e
       -0.14868702 -0.05430163 -0.1884381 0.16740845
000260 48 41 f7 bd 0a 5e 79 bd 47 cb bd bd 4b 41 6e be
       -0.12072998 -0.0608807 -0.09267288 -0.23267095
000270 db 6a 9f 3d 73 12 7a 3d 8d a7 48 3e e3 d2 c0 bd
       0.07784053 0.06105275 0.19595166 -0.094152234
000280 0d d5 0b bd ba c9 65 3e 12 6d ea 3d 7c 8f a8 bd
       -0.034138728 0.22440234 0.11446585 -0.082304925
000290 ef 15 2e 3e 94 cf 9d bc e4 4c d3 3c 05 33 15 3e
       0.17000555 -0.01926402 0.0257935 0.14570244
0002a0 92 63 ff bc 3a 17 7b bd 29 b4 3f 3c a0 77 80 bd
       -0.031175409 -0.061301447 0.011700668 -0.06272817
0002b0 b3 44 26 be f9 bf f4 3d 56 22 8e 3e 4e ab 10 be
       -0.16237144 0.119506784 0.2776057 -0.14127848
0002c0 97 9d 57 be 3d 24 35 be 7e 58 79 be 8a de 94 bd
       -0.2105621 -0.17689605 -0.24350163 -0.072690085
0002d0 88 c9 a0 3d 75 e2 8c bd 4e c1 11 bd 14 92 00 3d
       0.07850939 -0.06879131 -0.03558474 0.03138931
0002e0 f2 a3 52 3d ee d6 b1 be b9 3a b4 3c f3 eb 42 3e
       0.05142588 -0.3473429 0.022000657 0.1903532
0002f0 c7 a3 40 be 9a 61 98 bd 90 79 72 be 3a 7a 79 3c
       -0.18812476 -0.07440491 -0.23679185 0.015226895
000300 c3 a9 92 3d 57 e3 bf 3d 66 e6 ef bc 52 6a 58 bd
       0.07161286 0.093695335 -0.029284667 -0.05283577
000310 a0 2e 0f be 44 eb 55 3c e8 72 31 be 29 84 8a 3c
       -0.1398263 0.01305658 -0.1732899 0.016908722
000320 94 f8 19 3e c1 a8 35 be c7 a5 5d be 98 8c d8 bc
       0.15036231 -0.17740156 -0.2164527 -0.026434228
000330 d0 e1 64 3e be 30 0b 3e b6 9a c6 3a 2f e3 cb bd
       0.22351766 0.13592812 0.0015152309 -0.09955441
000340 9b 1f c9 3d 54 8e c6 3b 1c 52 01 3e 9e c4 32 bd
       0.098204814 0.0060594473 0.12628978 -0.04364454
000350 32 ee 0d 3b 1e 28 b7 bd 84 44 14 be 7e 98 a7 3d
       0.0021656868 -0.089431986 -0.14479262 0.081833825
000360 a0 65 cb 3d 2e 64 5f 3e 92 af be bd 27 9c cb 3d
       0.09931493 0.2181556 -0.09310831 0.09941893
000370 fc fa 0a 3e e5 f2 99 3d eb 08 f7 bd 68 ae b0 bd
       0.13572305 0.075170316 -0.12062248 -0.08627015
000380 47 e9 01 bd 08 c2 0e 3e 5a 85 58 3d 9d b8 37 3d
       -0.03171661 0.13941205 0.05286155 0.044853795
000390 99 cd 03 be 96 f6 08 3e 69 39 3a 3d 10 14 f3 39
       -0.12871398 0.13375315 0.045464907 0.0004636352
0003a0 97 47 39 3e 84 87 37 3e 36 33 23 bd 43 65 88 3c
       0.18093716 0.17922789 -0.03984376 0.016649848
0003b0 99 d2 11 bd ea a7 3d 3e f1 69 fa bc 6e 49 ed bd
       -0.035601232 0.18521085 -0.030568095 -0.11586271
0003c0 04 cc 8a bd 5a 77 50 bd 44 6a 1e be 67 39 07 bd
       -0.06777194 -0.050895073 -0.15470225 -0.033013728
0003d0 39 3a ce bc f5 79 31 be 5e ee dc bc f9 a4 83 3e
       -0.025174247 -0.17331679 -0.026969131 0.25711802
0003e0 35 74 46 bd d2 c9 39 be 78 7c dc bd 81 75 bb 3d
       -0.048450667 -0.18143395 -0.10765928 0.091532715
0003f0 aa c6 6e be e7 7a 10 3d 43 ce 73 bd 10 a0 fc bd
       -0.23317972 0.03527346 -0.05952288 -0.12335217

gru.bias_ih_l0 f4 [96]
000000 f6 26 06 3e a0 4d 3d bd 03 fc 5b 3e ee cb c6 bd
       0.131008 -0.046216607 0.21482854 -0.09706865
000010 80 46 dd 3d 60 ff f8 ba 8f d5 25 be 72 1c e8 bc
       0.108044624 -0.0018997006 -0.16194747 -0.028333876
000020 df f4 8b 3e 63 f3 df bc 03 80 7c 3d d2 71 ad bc
       0.2733526 -0.027337736 0.06164552 -0.021172438
000030 ed 62 e7 bd 17 5d 0a 3e 55 70 ff bd d7 98 d8 bc
       -0.112981655 0.13512073 -0.124725975 -0.026440067
000040 04 80 b2 3d 8c b8 c6 bd 05 ad da 3c 1a f8 a2 bc
       0.08715823 -0.09703168 0.02669383 -0.019893695
000050 ae 17 f1 3d 49 82 93 bd 75 f1 7f 3e f0 e8 02 3e
       0.11772095 -0.07202584 0.24994452 0.12784171
000060 9c 14 2a bc 82 49 f2 bd eb b7 19 3e 55 3f 76 3c
       -0.01038089 -0.11830427 0.15011565 0.015029748
000070 01 e9 2b 3e 5e 93 1e 3e 19 3a 80 3d 48 3f b0 3e
       0.16788103 0.15485904 0.06261081 0.3442328
000080 7b 2d 21 be b7 e6 9b 3d 17 3c 4f bd 22 22 4b 3e
       -0.15740006 0.07612365 -0.050594416 0.1983724
000090 f2 f2 e0 3c 23 22 07 be 5c 83 26 3e be 5a 0e bd
       0.027459595 -0.13196616 0.16261047 -0.034754507
0000a0 0c 11 43 3d cf cc ad 3d 0b 21 a7 3e 33 99 4a 3e
       0.04762368 0.0848633 0.32642397 0.19785003
0000b0 1c d7 8d 3d ac 6b 9e 3d e0 ce 31 bd d5 07 b3 bd
       0.069257945 0.077353805 -0.043410182 -0.08741728
0000c0 b8 bc cc 3d 8a a3 5d 3e 98 f0 a8 3a c1 50 5c 3e
       0.09996933 0.21644416 0.0012889085 0.2151518
0000d0 8f b1 c9 bc 46 51 f9 bd 99 34 5e bb 40 da 88 bd
       -0.0246208 -0.12173705 -0.0033905862 -0.06682253
0000e0 b0 e0 38 3e 87 20 1c bd 43 da 5e 3d 3d 93 ff bd
       0.18054461 -0.038116958 0.05440737 -0.12479255
0000f0 a9 4f d4 3c f0 a2 79 3e 15 15 e5 bd 12 99 3d bd
       0.025916891 0.24378562 -0.11185662 -0.046288557
000100 4b 88 2c 3c 60 ce 2d 3e 37 51 2e 3d db c7 81 bc
       0.010530542 0.16973257 0.04255792 -0.015842369
000110 ac 9c 47 3d 91 3f 5b be 6c 0b b4 3d ee 43 5c be
       0.0487334 -0.21410967 0.08791241 -0.21510288
000120 16 96 d2 bd 07 ea 39 3c b6 85 44 3e e4 ff 61 3e
       -0.10282533 0.0113473 0.19191632 0.22070271
000130 21 53 13 bd 4f 5f a6 bd a6 c5 d4 3c 5f e1 7f 3d
       -0.03596795 -0.081236474 0.025973152 0.06247079
000140 c5 21 5b be 99 2f 19 be 49 a6 30 bd ef e5 dd bd
       -0.21399601 -0.14959563 -0.043127332 -0.10834872
000150 b3 12 73 be 22 4f aa 3d f8 8d cd 3d 14 5e 05 be
       -0.23737602 0.08315875 0.10036844 -0.13024169
000160 dc 79 75 ba e5 30 10 39 0d 1b 32 bd 86 8f 21 be
       -0.0009364167 0.00013751125 -0.04348283 -0.15777406
000170 88 a1 e7 3d 37 19 d6 bc 74 1e cb 3d 1a 44 06 3e
       0.113101065 -0.02613507 0.09917918 0.13111916

gru.bias_hh_l0 f4 [96]
000000 63 9a 90 bc 0e 16 68 3e eb f9 81 3e 50 a2 c0 3d
       -0.017651742 0.22664663 0.25385985 0.09405959
000010 5f 38 89 bd b7 e1 c4 bc b3 7b cd bd d3 c7 28 3e
       -0.06700205 -0.02403341 -0.100333594 0.16482477
000020 ed b6 20 3d 12 c9 73 3e 95 68 3e 3e 62 45 ca 3d
       0.03923695 0.23807171 0.18594582 0.09876515
000030 fd 19 57 bb 16 4e 90 3e 10 10 dd bd b6 06 44 3d
       -0.0032821887 0.28184575 -0.10794079 0.047857963
000040 09 57 8c 3e 15 b8 46 3d 56 76 d6 3c 09 7f 01 3d
       0.27410153 0.048515398 0.026179474 0.03161529
000050 d4 81 90 3e 1b 09 54 3e f8 e4 85 3e 4a ad 63 3e
       0.2822405 0.20706598 0.26151252 0.22234073
000060 13 7e 9b bd 55 f9 9d 3d 5b 6b c6 3d c8 8a 6c 3d
       -0.07592406 0.07713572 0.09688445 0.05774954
000070 b9 89 1c 3c dc b0 19 3d fd 0c 7c 3d fd 49 95 3e
       0.00955432 0.037522182 0.061535824 0.2915801
000080 09 ac 4a bd e3 ae 6f 3e c6 14 40 3e d5 b7 ed 3c
       -0.04948047 0.23406558 0.18757924 0.029018322
000090 26 b3 67 3e e0 68 c6 bd e2 fe 26 3d 19 27 61 be
       0.22626933 -0.09687972 0.04077042 -0.21987571
0000a0 4a 33 58 bc 11 ac 94 3c 92 fc 7b 3e f6 76 05 3e
       -0.013195822 0.018148454 0.24608067 0.13033661
0000b0 14 f5 57 3e b5 a3 b9 bd d7 c5 0d be 6c 09 09 3e
       0.21089584 -0.09064428 -0.13845001 0.133825
0000c0 c4 3c 04 3d 77 c7 28 3d c8 b1 f4 bd b9 69 02 bb
       0.032284513 0.04120585 -0.119479716 -0.0019899441
0000d0 f9 b3 83 3c 77 3e 11 be e1 e9 13 be 04 8b 27 3e
       0.016077029 -0.14183985 -0.14444686 0.16361624
0000e0 ba 23 1b be c5 0e ed 3d 01 83 48 bd 1a 53 07 3e
       -0.15150347 0.11575083 -0.04895306 0.13215294
0000f0 d6 67 65 bd d8 8c 04 3e 82 e8 1b be bb 49 c6 3c
       -0.05600723 0.12944353 -0.15225413 0.02420508
000100 45 6a fc bd 17 1e 50 3d c4 03 d8 bd 4e 01 db bd
       -0.12324957 0.050809946 -0.10547593 -0.10693608
000110 a3 94 9a 3d fd f8 94 3d fc 49 17 3e 8b 7c 8d bc
       0.075478815 0.07274053 0.14774317 -0.0172713
000120 fe 76 0e be 89 43 f1 bd 64 0d 14 bc 69 05 76 3d
       -0.1391258 -0.117804594 -0.009036396 0.060063753
000130 f1 18 e7 bd 0f 65 46 bd 99 0d 42 be 9a 39 64 3e
       -0.11284054 -0.04843622 -0.189505 0.22287598
000140 3a e1 2e be 81 46 77 bd 08 59 72 3e a7 b6 50 bd
       -0.17078105 -0.060369972 0.23666775 -0.05095544
000150 d8 52 33 3d 10 ee be bd 7f 0b 4b be 47 56 01 bd
       0.043780178 -0.093227506 -0.19828604 -0.03157642
000160 8c f8 b5 3d 1a 5b bd bd 72 1b 25 3e 06 f9 16 be
       0.08885297 -0.09245892 0.16123751 -0.14743432
000170 6d fa 31 3e 7f 6f 99 bd c5 ab 60 3d e1 e1 0b 3e
       0.17380686 -0.07491969 0.054851312 0.13660385

gru.weight_ih_l0_reverse f4 [96, 32]
000000 86 ab 2a 3e fd 44 28 3e e4 75 58 bd b9 e8 48 3e
       0.16666993 0.16432567 -0.052846804 0.19620027
000010 3b 7a 88 3d 83 d7 38 3e 42 a9 45 3e 42 1d 82 bd
       0.066639386 0.18050961 0.19302848 -0.06353237
000020 1e 37 44 3d 64 9c 3d 3b 53 7f 7d 3d cb 2f ca bd
       0.047904126 0.0028932327 0.061889004 -0.09872397
000030 ba 6c ab bd be f2 1d 3e be ea 3a 3e 32 bf f7 3d
       -0.08370347 0.1542463 0.1825361 0.120970145
000040 bb 13 aa 3d 67 96 5e 3e cc f8 27 3e 88 fd e3 3d
       0.083045445 0.21737061 0.16403502 0.111323416
000050 7a 37 1f bd 34 3c 0e 3d 2a 1d 2b bd c5 94 2f 3d
       -0.038871266 0.034725383 -0.04177586 0.042866487
000060 9e 69 ed bd 64 cb 26 3e d8 a3 22 3e 04 e3 57 3e
       -0.115924105 0.16288525 0.15882814 0.21082693
000070 3c 85 f8 3b 22 28 b5 3d 30 e4 84 bd 85 02 d2 bd
       0.007584242 0.08845545 -0.06488836 -0.10254387
000080 20 36 7f bd a2 24 19 3c 44 aa bb bd 7f 96 1a be
       -0.062307477 0.009347113 -0.09163335 -0.15096472
000090 70 7d 91 3d 53 b8 8d 3e a6 8c f7 bd 2b 0f d2 3d
       0.071040034 0.2767969 -0.120873734 0.10256799
0000a0 00 cc 58 bd 8e 40 a0 3d b1 51 e7 bd 05 50 13 3e
       -0.052928925 0.07824813 -0.11294878 0.14385994
0000b0 f4 63 f5 3c 6c 2d f9 bd 0b db 1d 3e 68 5a 82 3d
       0.029954888 -0.12166867 0.1541559 0.063649
0000c0 76 f8 3e be 06 fe 42 be ee 75 13 be 69 a6 56 3d
       -0.18649468 -0.19042215 -0.14400455 0.052404795
0000d0 49 88 1d be 57 1b 08 3e af ae 5e 3e 0e a9 bb 3d
       -0.1538402 0.1329168 0.21746324 0.09163104
0000e0 18 1c e1 bb 57 7c 7a 3d 1d 1c ca 3d a2 61 32 3d
       -0.006869804 0.061153736 0.098686434 0.04355014
0000f0 77 3f a0 bd b5 87 56 3c 71 d5 0b 3e a1 85 76 be
       -0.07824605 0.0130938785 0.1365564 -0.24074413
000100 a8 4d d5 3c fb f3 0f 3e 70 b4 69 3e 94 36 68 bd
       0.026038006 0.14057915 0.22822738 -0.056692675
000110 8f a9 a8 3d f5 0d 6b 3e da a5 08 3e f3 02 98 3d
       0.08235466 0.22954543 0.13344517 0.074224375
000120 03 84 03 bd 71 c6 40 3e 11 47 45 bd 35 7d da 3d
       -0.032108318 0.188257 -0.048163477 0.106684126
000130 4f 8d 8c bd 12 7a 8b 3e ba 08 88 3e 8e ac be bd
       -0.0686289 0.2724157 0.26569158 -0.09310256
000140 2a d8 fb 3c 97 be 50 3e 00 30 c6 bc 56 75 1c bd
       0.030742723 0.20385204 -0.02419281 -0.038197838
000150 53 79 11 3e 7b 73 b7 3c c0 74 30 3d 2b cd 21 bc
       0.14206438 0.022393933 0.04308009 -0.009875576
000160 ba 04 a1 3d f3 fc 45 3e 9e 91 30 3e e3 5e 80 3b
       0.0786223 0.19334774 0.17243049 0.0039175614
000170 53 f4 3e 3e 9a 52 82 3e 70 6b 1b 3e d9 86 92 3e
       0.1864789 0.25453645 0.15177703 0.28618506
000180 dd ee e3 bc 92 3c 28 3e 47 b9 b7 bd c9 f4 31 be
       -0.02782386 0.16429356 -0.08970886 -0.17378534
000190 dd f9 0d be 48 ec 2b 3d 2f f3 40 bd 50 31 90 3d
       -0.13864847 0.041973382 -0.047106918 0.070406556
0001a0 43 34 69 3e 02 ce 24 be 17 41 8e 3a 60 60 c9 bd
       0.22773843 -0.1609421 0.0010853139 -0.09832835
0001b0 49 99 26 bd 19 15 1c be 07 02 d3 bc 0d d6 e4 3d
       -0.040673528 -0.15242423 -0.025757803 0.111736394
0001c0 f3 1d 2e 3d 0e cc c1 bc 03 7a e3 bd 54 68 63 3d
       0.04250903 -0.023656871 -0.11107256 0.055519417
0001d0 c0 34 81 3c e7 6b af 3d 7d a3 33 3e c3 67 24 be
       0.015772223 0.085655026 0.17542835 -0.16055207
0001e0 05 41 e1 3d e3 e7 3a 3d d9 d0 cc 3d 3c 52 92 bd
       0.109987296 0.0456313 0.10000772 -0.07144591
0001f0 22 8d 15 bd c3 6a 43 3d 5c f5 f1 3d 69 ac c4 bd
       -0.036511548 0.047709238 0.11814377 -0.09603197
000200 b0 17 15 3e fb 04 21 3e 54 49 4c 3c 36 ce 35 be
       0.14559817 0.15724556 0.012468655 -0.17754444
000210 5f 01 04 3e d1 27 17 be 59 15 c5 bd 96 15 24 3e
       0.12891148 -0.14761283 -0.09623212 0.1602386
000220 cc c9 62 3e 68 dc 1e 3e 87 0f a0 bd bc 84 6e 3e
       0.22147292 0.15513766 -0.078154616 0.23292822
000230 b1 1b d9 3d 41 77 c1 bd 8e 8e f4 bd de 57 92 3d
       0.10600985 -0.09446574 -0.11941253 0.071456656
000240 6f 84 e1 3d b6 6a 27 bd 8d ed b5 3d e1 a5 84 bd
       0.11011588 -0.04087325 0.088832 -0.064769514
000250 a7 a3 bc 3d e2 67 93 bd 7e 5b 18 3e 61 47 83 3e
       0.09210902 -0.071975484 0.14878651 0.25640395
000260 29 0d cf bb 81 b5 39 3d 65 6a d6 3d e9 5b 2a bb
       -0.0063187075 0.04533911 0.10469512 -0.0025994724
000270 54 67 6b 3e 11 a4 ba bd 6e 6a e9 bd 84 b2 a0 bd
       0.22988635 -0.091133244 -0.11397253 -0.07846549
000280 32 74 90 3d 23 32 01 be eb b4 28 3e 2c ed 3e be
       0.070534125 -0.12616782 0.16475265 -0.18645161
000290 c1 bf 0d 3c ba 8a 07 3d 9f ac 92 3b 4d 2b ad bd
       0.008651675 0.033091284 0.0044761444 -0.084555246
0002a0 10 5f 81 be 62 40 07 bd 2e 1f 64 bd 3b ae 24 be
       -0.2526784 -0.033020385 -0.055693798 -0.16082089
0002b0 51 7d 94 3d bd 4e c0 bd 5e eb 16 be 41 40 6d bd
       0.07250465 -0.09390018 -0.14738223 -0.057922605
0002c0 d2 49 bc 3d b5 e5 51 be 5b b1 39 3e 20 ce 11 3e
       0.091937676 -0.20497783 0.18134062 0.14238787
0002d0 dd af c3 bd 7b 30 29 be 15 5f 68 be 84 f7 2a bc
       -0.09555028 -0.165224 -0.22692521 -0.010434989
0002e0 0d ca cb bd a2 b3 e7 bc f8 41 86 be d8 50 0e 3d
       -0.099506475 -0.028283898 -0.26222205 0.034745067
0002f0 c1 fc 45 3e 0e 4d a9 3d 3f 2b 88 be 20 8a 87 3d
       0.19334699 0.0826665 -0.26595494 0.06618142
000300 72 0d ba 3d 9f 34 80 3d 29 b5 b0 bc f3 e2 11 bc
       0.09084596 0.06260037 -0.021570759 -0.008904207
000310 4b 7d 76 bd a2 51 1a be ca 03 29 3e b7 f0 64 3d
       -0.060178082 -0.15070203 0.16505352 0.055893626
000320 49 79 ea bd 53 1f f6 bc 8c 75 08 be 89 68 0e be
       -0.114489146 -0.030044233 -0.1332609 -0.13907064
000330 c0 d5 3d bd 69 60 c6 bd fc b1 e3 3c bf b9 d5 bc
       -0.046346426 -0.096863575 0.02779483 -0.026089547
000340 2e 9e b6 3c 04 2e 22 be 04 e5 fc bc c0 03 19 3c
       0.022292223 -0.15837866 -0.030870922 0.009339273
000350 23 f1 57 3d dc a0 de bd 39 c9 4a bb 3b 1f 57 3d
       0.0527202 -0.10870525 -0.0030942692 0.052520018
000360 d7 b0 f2 bd 05 77 a5 bd be 50 92 3d a3 30 97 bd
       -0.11850136 -0.08079342 0.071443066 -0.073823236
000370 c7 68 bf bc 66 30 f0 3c ee ea b2 3c bc 37 93 bc
       -0.023365391 0.029319953 0.021840539 -0.017970912
000380 65 ba 6c 3e e8 b9 d6 3e dc 12 82 3e 58 9c 84 3e
       0.23117979 0.4193871 0.25405014 0.2590053
000390 5d 36 74 3e e1 02 cb 3d e5 fe 80 3e a1 16 b3 3e
       0.23848863 0.099126585 0.2519447 0.34978202
0003a0 f9 69 87 3e d5 10 ae 3e 94 b9 72 3d 7d 93 51 3e
       0.26448038 0.33997217 0.059259012 0.20466419
0003b0 f6 0a 83 3d 1a 27 40 3e ed 04 d1 3e b0 f9 6c 3d
       0.06398575 0.18764916 0.4082407 0.057855308
0003c0 57 58 bd 3e ec 50 1e 3e eb e9 8a 3e b8 84 d5 3e
       0.3698146 0.15460557 0.2713159 0.4170282
0003d0 6f c2 ac 3e 5b 02 3d 3e 25 53 0e 3e 62 08 af 3e
       0.3374209 0.1845793 0.13898905 0.34186083
0003e0 96 b2 92 3e 27 28 26 3e c4 97 ae 3e 6f e6 8b 3e
       0.28651875 0.16226254 0.34100163 0.27324244
0003f0 5e b6 4c 3e ec af 97 3d 3a 9b 39 3e 8b 50 f2 3e
       0.19991443 0.07406601 0.1812562 0.47327074

gru.weight_hh_l0_reverse f4 [96, 32]
000000 e8 a7 5a 3e 08 1b 1a 3e 35 71 18 3d ac 45 25 3e
       0.21353114 0.15049374 0.037217338 0.16139859
000010 a0 31 3c 3e 63 03 20 be fa ae 8c 3c 69 82 af bc
       0.18378305 -0.15626292 0.01717328 -0.02142449
000020 a4 e2 2a 38 e4 3c 26 3d fb c7 68 be 4b 42 4a 3e
       4.0742234e-05 0.040585414 -0.22732536 0.19751851
000030 55 fc 96 3d e9 3d c5 3c 35 6c 84 3d 5e 83 29 bd
       0.07372347 0.024077373 0.06465951 -0.041385047
000040 95 b6 be bd dd 8d 0c 3e e5 32 04 be b4 e5 70 bc
       -0.093121685 0.13725992 -0.1291004 -0.014703203
000050 3c 53 8d 3d ba 08 f1 3d 35 8f 38 3d 11 44 96 be
       0.06900641 0.117692426 0.045058448 -0.29348806
000060 99 ac 02 be 47 2b b1 3d 61 4f 98 3d 95 95 be 3d
       -0.12761153 0.086508326 0.07437015 0.09305874
000070 de 06 a7 bd 7a ec 55 3e b5 fb 86 3e 70 dd 19 3e
       -0.08155607 0.2089099 0.26363912 0.15025878
000080 b2 9e 7f 3d e4 cd 25 3e 29 75 bd bc db 4b 3c 3e
       0.062407203 0.16191822 -0.023127155 0.18388312
000090 6d dc 23 3e 8e 0e b2 bd 88 a3 8e bd 73 20 7a be
       0.16002055 -0.08694182 -0.06964785 -0.24426441
0000a0 a0 0d 3b be 28 d7 b0 3e 02 c1 80 be c3 4e 85 3d
       -0.18266916 0.3453915 -0.25147253 0.06509163
0000b0 32 dc c8 3c 77 93 c8 3c bd 77 40 be 96 5a 4c 3e
       0.02451906 0.02448438 -0.18795677 0.19956431
0000c0 a7 bd 9d 3d d7 2d 3a bd 5d 22 1c be 02 72 48 be
       0.07702189 -0.045453873 -0.15247484 -0.1957474
0000d0 a7 21 54 be b6 12 37 3e ef 4a 50 bd 9f 0d 83 be
       -0.20715962 0.17878231 -0.050852712 -0.2559633
0000e0 c9 23 2a be a4 a3 0d be 4f ab ab 3d 0c 97 f9 bc
       -0.16615213 -0.13831955 0.08382284 -0.030467533
0000f0 c5 05 af bd fc fc 07 3e df 18 95 3e 22 2b 0d 3c
       -0.08546022 0.132801 0.29120538 0.008616241
000100 3b 8d a9 3d 1c 9c d5 bd 07 d0 3a bd ee 63 02 be
       0.08278891 -0.10430166 -0.045608547 -0.12733433
000110 e4 9e ba 3d a3 2a ef 3d 59 7b 73 bc 6f 4f 08 3d
       0.09112337 0.11678054 -0.014860951 0.03327888
000120 7a 62 63 be d9 c4 89 3d 53 b4 2a be a5 26 92 3d
       -0.22205535 0.06726999 -0.1667035 0.07136277
000130 f0 9b a3 3d 1e 9f c0 bd 7d 38 5d be 02 da 3d bd
       0.07988727 -0.09405349 -0.2160358 -0.046350487
000140 2a 4a 24 bc ca ba b5 bc 8a 73 c7 3d 15 f8 0c be
       -0.010027448 -0.022183795 0.09738834 -0.13766511
000150 78 fc cc 3d 98 40 3f 3e 16 c7 e9 bd 64 d3 82 3d
       0.10009092 0.18676984 -0.11414926 0.06387976
000160 f0 a9 05 be b6 3e 5a be 47 5c be bd 05 62 c7 3c
       -0.13053107 -0.21312985 -0.09294944 0.024338732
000170 60 05 d2 3d 99 0f a7 3d 27 e1 ee bd 5c 53 45 bc
       0.102549314 0.08157272 -0.11664038 -0.0120438
000180 75 7f 74 3e 7c 28 2f 3e 9d 33 59 be 97 7d 9b 3d
       0.23876746 0.17105287 -0.21211095 0.07592314
000190 44 c6 22 3c 9a c3 37 bd f8 a2 58 3e 38 25 8b be
       0.0099349655 -0.044864275 0.21155918 -0.27176833
0001a0 30 e7 2a be 2d 31 33 3d 24 f0 f2 bb d9 c4 0b 3e
       -0.16689754 0.04374807 -0.007413881 0.1364931
0001b0 6e c5 41 bd 57 db 04 3e b2 d5 84 be 93 33 50 3d
       -0.047307424 0.12974297 -0.25944287 0.050830435
0001c0 90 c0 b6 bb 67 f9 58 bd ce 41 2b 3c ad a7 f3 bd
       -0.0055771545 -0.052972224 0.010452701 -0.11897216
0001d0 da 8a 31 3b 43 5c 73 3c 97 97 90 3b 36 1f 72 bd
       0.0027090819 0.01485354 0.004412602 -0.059111796
0001e0 b2 42 a9 3d 5e 92 49 be e2 6c 29 be 7e d9 63 bc
       0.08264674 -0.19684741 -0.16545442 -0.013906835
0001f0 e2 bd c5 3d 16 0f 2e 3e cc 0b a3 3d 17 c7 5e 3e
       0.09655358 0.16997942 0.079612345 0.21755634
000200 2f 31 fa 3d 34 5a 14 bd 9e 10 42 3d 98 dc 2d 3e
       0.12216412 -0.036218837 0.04737913 0.16978681
000210 b2 d4 a1 bd aa e9 cb bd 87 18 a6 3d 47 57 80 be
       -0.079018965 -0.09956677 0.08110147 -0.25066587
000220 81 23 81 3d ee 45 52 3e ed 4f 02 bd f8 e0 e4 bb
       0.063056 0.20534489 -0.031814504 -0.006984826
000230 d8 62 3b be 4c 69 3a 3d 06 0d 5f 3c 15 c0 3b 3d
       -0.18299425 0.045510575 0.013613945 0.04583748
000240 76 d9 0f 3e e6 81 8a bc 7c 53 d6 bd 0c 2b 62 bd
       0.14047799 -0.016907644 -0.10465142 -0.055216834
000250 89 87 08 bd 62 7a 22 3c 35 93 28 3b 7a 79 66 be
       -0.03333238 0.009916874 0.0025722508 -0.22507277
000260 a4 89 8b bd d2 18 0f bd 4e 93 9e 3d b2 7b 61 bd
       -0.06813362 -0.03493578 0.0774294 -0.055049606
000270 2a 77 49 3d c7 f7 2c 3d 18 4b 47 3e 39 75 83 3d
       0.04918591 0.042228486 0.1946224 0.06418843
000280 62 91 e2 3d 03 21 08 3d 86 20 29 3e de 6e 6c 3e
       0.11062886 0.033234607 0.16516313 0.23089167
000290 74 31 75 bc 4c 00 8e bd 96 fb 08 3e ce 03 03 bd
       -0.014965404 -0.069336504 0.13377222 -0.03198605
0002a0 ec ac c3 3d 60 2b a7 3d f8 76 ba bd 7a 7b 52 3e
       0.095544666 0.0816257 -0.09104723 0.20554915
0002b0 00 bd 43 3c 79 df 0b be ca 9b 88 bd 23 11 33 3e
       0.011946917 -0.13659467 -0.066703394 0.17487006
0002c0 36 1b 1d bd 93 7f 11 bc ec a6 52 3d ba df 1f be
       -0.03835603 -0.008880514 0.05142872 -0.15612689
0002d0 81 2a 6b 3a 0d ce 45 bd cf ca d4 3d 0a cb e5 3b
       0.0008970872 -0.04829221 0.10390245 0.0070127295
0002e0 f8 01 7c 3d f4 5d bc 3d b0 93 5e be 66 bf ee 3d
       0.061525315 0.09197608 -0.21736026 0.116576
0002f0 47 a6 49 3d e0 81 7b bd ba a5 29 3e a7 73 dc bb
       0.04923084 -0.061403155 0.16567126 -0.006727654
000300 4d e2 ec 3d a5 b5 76 3d 9c d1 7f bb 43 a1 97 3d
       0.11566601 0.060231823 -0.003903485 0.07403805
000310 d6 31 0a bd 3f 25 56 be 9c 57 e4 3d 6f 1e 9d be
       -0.033738934 -0.20912646 0.11149523 -0.3068728
000320 71 85 f8 bc 19 b4 48 bd 04 be 24 be 42 16 18 3e
       -0.030337067 -0.04899988 -0.1608811 0.1485224
000330 5b 12 57 bc 8d b5 0c be 1b d3 74 be d2 1a ac bd
       -0.013126935 -0.13741131 -0.23908655 -0.08403553
000340 b3 23 64 3c f0 9c da 3d 82 0c 78 bd 62 a7 17 3d
       0.013924527 0.10674465 -0.060558803 0.037024863
000350 0f c3 bc 3b 4a 8a f9 3d ed 79 b7 bd 39 be e5 bc
       0.0057605575 0.1218458 -0.08958802 -0.028044807
000360 d5 46 fa 3d 65 84 5f 3d 0b 88 98 3d 4b 4e 92 bb
       0.122205414 0.05456962 0.07447823 -0.0044648997
000370 ca 90 a5 ba 32 9a 50 3e 2c 73 e5 3d aa 98 df ba
       -0.0012631651 0.20371321 0.11203608 -0.0017059047
000380 a3 79 d6 ba af e5 ec 3d 6a 78 b1 3d 3e 33 4c bd
       -0.0016363155 0.11567246 0.08665545 -0.049853556
000390 b0 d3 f7 bd f7 74 ce 3d aa ab 4d 3e 22 08 ac 3d
       -0.12100923 0.10080903 0.20085016 0.08399989
0003a0 a2 89 c8 bd 23 a8 1b 3e 46 51 43 be 8d 38 54 bd
       -0.097918764 0.15200858 -0.19073972 -0.051811744
0003b0 8c 60 5d bd bd 04 ae 3d f3 d1 c9 bd a1 e5 13 be
       -0.054047152 0.084969975 -0.09854498 -0.14443065
0003c0 97 b3 1a be db a6 10 bc a4 47 ef bd 46 30 07 3d
       -0.1510757 -0.008828844 -0.11683586 0.03300502
0003d0 31 d3 a1 bd c4 31 bc 3c 89 92 94 bd 98 15 83 be
       -0.0790161 0.022972949 -0.07254512 -0.25602412
0003e0 d5 42 e0 3d 2a 32 82 3d 45 59 70 3d d0 ce b0 bd
       0.10950247 0.06357224 0.058678884 -0.08633196
0003f0 b6 c7 1d 3d 03 0b a9 bc b8 fb 19 3d 10 bb 11 3e
       0.038520537 -0.020635134 0.037593573 0.14231515

gru.bias_ih_l0_reverse f4 [96]
000000 2c 9f 98 3d af 77 32 3e 04 d3 46 3e 8d 87 18 3e
       0.074522346 0.17428468 0.19416434 0.14895459
000010 c9 1c 99 3d 51 92 ea bd f4 6c 1a bd 4b 2e 70 bd
       0.074761935 -0.11453689 -0.037701562 -0.0586379
000020 f5 81 de bd 30 8c 67 3e 49 39 1d 3d 6b e0 1a 3e
       -0.10864631 0.22612071 0.03838471 0.15124671
000030 62 52 67 3d a4 e4 76 bb 6b 9c d5 3b ce b1 8a 3d
       0.05647505 -0.0037672902 0.0065188906 0.06772195
000040 60 72 ac 3d 50 42 92 3d 55 d2 4f 3e 8f f8 a6 bd
       0.08420253 0.07141554 0.20295079 -0.081528775
000050 58 f8 e3 3c 33 79 45 3e 4f dd 02 bd dd 44 3d 3e
       0.02782838 0.19284515 -0.031949338 0.184833
000060 3e b5 97 3d 86 43 da bd 5c f2 f4 3d 21 eb 5d bc
       0.07407616 -0.1065741 0.11960289 -0.013544829
000070 91 9d 26 3d 27 84 dd bd a4 05 22 bd eb f5 67 3e
       0.04067761 -0.10816222 -0.03955616 0.22652404
000080 c7 9e ac bd 8f a9 54 3e a9 99 42 3d 2d 8f d5 3d
       -0.08428722 0.20767806 0.047509823 0.10427699
000090 16 92 82 3e b7 de 58 bd 2d 2b 48 3e b9 fb ff 3d
       0.2550208 -0.052946772 0.1954772 0.12499184
0000a0 ec 3d 2a bd 7a 7c 70 3e 77 31 f3 3c 31 f2 92 bc
       -0.04156296 0.23484984 0.029686673 -0.017937751
0000b0 77 25 9c 3e 40 28 e2 3d fc 05 45 3e 2c 5a cd bc
       0.30497333 0.11042833 0.19240564 -0.025067411
0000c0 80 d7 8b 3c 6a f8 fe 3d 7d 31 f8 bc 00 c0 db bc
       0.017070532 0.12449725 -0.030297035 -0.026824951
0000d0 6b 73 83 3e 8f 30 ea 3d de a3 cd bb 4d dc 72 3e
       0.25673994 0.11435043 -0.006275638 0.2371685
0000e0 81 94 eb 3d ec 1c c5 bc 92 68 2c 3d ea 80 ad bd
       0.11502934 -0.024061643 0.042091914 -0.08471854
0000f0 76 73 12 3e c6 ac 95 3e c5 1a 0c 3e 6f 59 b2 3e
       0.14301857 0.29233378 0.13682087 0.34833857
000100 a8 6b 77 3e 69 cc 2d 3e 5e 28 82 bd a3 9e 3e 3e
       0.24162161 0.16972508 -0.06355356 0.18615203
000110 00 bb f6 3d f0 16 a9 bd 9c 9a 28 3e e5 fc a1 3b
       0.12047386 -0.08256328 0.16465229 0.0049434775
000120 8a 3c 26 be f8 f2 11 3e c2 2b 38 be da b8 b4 3d
       -0.16234031 0.14252841 -0.17985442 0.0882432
000130 72 19 a4 bd 11 0a 82 bd 3a 2a d0 bd 75 2e 03 3e
       -0.08012666 -0.06349576 -0.10164304 0.1281069
000140 06 cc aa 3d 63 8e 04 3e 72 b6 e6 bd 34 bf 27 be
       0.08339696 0.12944941 -0.112652674 -0.16381532
000150 e6 bc e5 bc e0 5e 4a 3d e8 6d 5f be 3f 78 35 be
       -0.028044175 0.049406886 -0.2181927 -0.17721651
000160 af 9c 17 3d 47 a7 41 be 6a 91 cb 3d 6d bb 2a be
       0.03701466 -0.18911467 0.09939845 -0.1667306
000170 cc e5 00 3e 46 de ea 3d 35 33 56 3d 0c 8e d4 3d
       0.1258766 0.114681765 0.05229493 0.10378656
