logs/exp0/weights/epoch45.pt (torch, 348934 bytes, 45 tensors)

conv_block1.0.weight f4 [32, 4, 10]
000000 c3 4c fd 3c e5 73 38 be 61 77 12 3e 50 69 a0 3a
       0.030920392 -0.1801296 0.14303352 0.0012238417
000010 3f 07 82 3c 6f 89 ef 3d e6 dd 03 bd df fc 03 be
       0.015872596 0.11696135 -0.03219404 -0.12889431
000020 5d f5 03 3e ea cf d7 bd d3 82 a1 3d d2 51 98 bd
       0.12886567 -0.10537703 0.07886281 -0.07437481
000030 05 13 45 3c 66 0d 77 3d 31 29 b5 bd ff 4b cc 3d
       0.01202846 0.060315512 -0.08845747 0.099754326
000040 75 8b a3 3d 23 6d ae 3c 74 bc 16 bd f9 0a 4e bd
       0.07985584 0.021292275 -0.036800817 -0.050303433
000050 94 86 e8 bd 34 c3 9f 3d ca 96 b5 3c 60 83 eb bc
       -0.11353794 0.07800904 0.022166628 -0.028749168
000060 a3 44 20 3d e9 7b f2 bd 7b 13 64 3d 09 5d a7 3d
       0.039127957 -0.1184004 0.05568264 0.08172042
000070 98 37 34 be 3c 07 da bc 61 68 1c be 24 6a a6 3d
       -0.17599332 -0.026614778 -0.15274192 0.081257135
000080 fe 4a f7 3c 75 b2 2e bd b7 f6 25 bd d9 ad 8d bd
       0.030187126 -0.04265066 -0.04051849 -0.069179244
000090 cb c5 ae bd ee 1d 4d 3d af e1 53 b8 9f a1 b8 3c
       -0.0853382 0.05007737 -5.0516504e-05 0.022538004
0000a0 c3 6c 55 bb 64 c5 a0 bd c3 a2 92 3d 00 98 b2 bd
       -0.0032566048 -0.07850149 0.071599506 -0.08720398
0000b0 2b 1f ed 3b 5d 41 3a 3e 9b 90 ae bd a9 e9 93 3b
       0.0072363815 0.18188997 -0.08523675 0.0045139384
0000c0 2f 99 01 3e 6c 47 29 3d 3f 32 b3 3d 96 dc ad 3d
       0.12656091 0.04132788 0.08749818 0.08489339
0000d0 c7 6c 22 be 49 1e ed 3d 7a 39 26 be 00 de 3f 3c
       -0.15861808 0.11578042 -0.16232863 0.011710644
0000e0 5e 77 57 bb 81 49 80 bd df fc bb bb 0f 77 58 3d
       -0.0032877545 -0.0626402 -0.0057369317 0.052847918
0000f0 c3 81 ca bd 02 b5 49 bb 18 b4 26 bd 5d 3e 46 bd
       -0.09888031 -0.0030778055 -0.040699095 -0.048399318
000100 c9 52 13 bd 54 98 08 bd c7 3d a3 bd d0 32 d1 3d
       -0.035967622 -0.033348396 -0.079707675 0.1021477
000110 67 72 f0 bd e6 b5 9f b9 88 45 da 3d d4 c6 81 3d
       -0.117405705 -0.00030462368 0.10657793 0.063367516
000120 22 b3 ef 3c c1 d5 59 bd fa 0c 11 bd 5b 54 bb ba
       0.029260222 -0.053182367 -0.035412766 -0.0014292108
000130 5e 69 c0 bd 1a 31 a2 3b 0b 2d 1f bd 26 89 a9 3d
       -0.09395097 0.004949701 -0.038861316 0.08278112
000140 9f 79 53 3d 43 1d e4 bd d4 69 e8 bd f4 6f bc bd
       0.05162966 -0.11138394 -0.1134831 -0.09201041
000150 aa 09 1e 3e e2 1b e9 bd 73 49 a9 bd 73 38 0a 3e
       0.15433374 -0.11382271 -0.082659625 0.13498096
000160 e1 55 1d be 65 6a d2 bb 7a bb 64 3d c9 44 28 3d
       -0.15364791 -0.0064213746 0.055842854 0.041081224
000170 56 db 4a 3c 1b 8a 80 3d 12 83 a6 bc a8 08 ce 3d
       0.012381395 0.062763415 -0.020326171 0.10060245
000180 90 22 0d 3e 06 15 04 3e 76 f8 24 3e 96 89 2c bd
       0.13782716 0.12898645 0.16110405 -0.0421234
000190 1d 56 93 3d de 01 d2 bd 0b 3e 89 3d d2 63 d9 bd
       0.07194159 -0.102542624 0.06701287 -0.10614742
0001a0 29 1b 0c 3c 1c 38 de 3d 40 06 13 3e 9d f6 82 bd
       0.008551397 0.10850546 0.14357853 -0.06394694
0001b0 e6 0d d2 3c 0c 5a aa bc 14 09 e7 bd b4 16 03 be
       0.025641393 -0.02079489 -0.112810284 -0.1280163
0001c0 b7 44 b9 3d a2 1a 4a 3d 34 2f 81 bd 79 b2 cd bd
       0.090463094 0.049341805 -0.063078314 -0.100438066
0001d0 ce 52 74 3d a8 69 2c 3b 7e b6 cc bc 94 c3 1a 39
       0.05964928 0.0026308093 -0.024989363 0.00014759443
0001e0 38 35 56 3d 1c 35 ee bd 98 b7 50 bd f9 db 8c bd
       0.052296847 -0.116312236 -0.05095634 -0.06877894
0001f0 42 17 d8 bc 69 8a 4b 3d e9 df 72 bd cc 29 06 be
       -0.026378278 0.049692545 -0.05929557 -0.13101882
000200 cb f2 1e 3d c9 47 14 3d 52 17 47 bd 06 b8 1f be
       0.038805764 0.036201272 -0.048606224 -0.15597543
000210 6a c0 12 be 25 af 0c be 7b dd cd bd 4b 68 83 bd
       -0.14331213 -0.13738687 -0.1005201 -0.06416377
000220 e4 83 68 3d 37 43 30 bd bc e1 b6 bd 8f 12 78 3d
       0.056766406 -0.04303285 -0.08929774 0.060564574
000230 18 5f 36 bd 50 3b a0 bb ea e1 a9 3c 84 5f 15 3e
       -0.044524282 -0.004889883 0.020737607 0.14587218
000240 3b 48 dd bd 98 5d b1 3d 0a 9c fa 3d 57 d7 44 bd
       -0.108047925 0.0866043 0.12236793 -0.048056927
000250 8a ab 04 3e a8 f4 a5 39 33 3d 89 3d cc 4a 85 3d
       0.12956062 0.00031653536 0.06701126 0.06508407
000260 3f b6 c4 3d cc 72 9a 3c c6 2b 39 bd 0a 7c 7f 3d
       0.09605073 0.018853568 -0.04520776 0.062374152
000270 86 13 bc 3d 0c 57 8a 3d 93 d8 ae 3d 0c b5 c9 3d
       0.09183411 0.06754884 0.08537402 0.09848985
000280 24 1e 25 bd 68 0b 84 bc 6b 97 b0 3c 3f 70 4a bd
       -0.040311947 -0.01611872 0.021556577 -0.049423452
000290 ca 7d 35 bd a9 08 00 3e 86 e7 96 bd ec f3 5f bd
       -0.044309415 0.12503304 -0.07368378 -0.05467598
0002a0 e4 04 6b 3d f7 3e 47 bd c7 1b 97 3d 83 04 86 3d
       0.05737771 -0.048644032 0.07378345 0.06543829
0002b0 a9 79 31 bd dd 01 de 3d c7 99 a1 3b 7a 1e ed bd
       -0.043328915 0.10840199 0.0049316618 -0.115780786
0002c0 41 5a 38 3b 1e 3a db 3d b4 63 11 be 99 0a fc 3d
       0.0028129967 0.10704444 -0.1419819 0.12306709
0002d0 c0 a6 c9 bd 7b 39 6a 3d e8 f2 34 be 1f 03 3f 3d
       -0.09846258 0.057183724 -0.17670786 0.046633836
0002e0 3f 9e 98 3a d7 b3 a5 3c 42 2b 41 be 97 72 c6 3d
       0.0011643841 0.020227356 -0.18864158 0.09689825
0002f0 94 c4 f9 bd 64 88 49 3d 1d 1d 45 3d 33 fe 0e bd
       -0.121956974 0.049202338 0.048123468 -0.034910392
000300 7a b3 d3 bd 5b 3c b6 bc 1d 3d 29 be b6 12 00 3b
       -0.10336967 -0.022245577 -0.16527219 0.0019542403
000310 cc c2 a7 3d 10 0e 99 3d 61 3f 22 be e2 98 a1 3d
       0.081914514 0.07473385 -0.1584449 0.07890488
000320 10 8b 5f 3d 4f 24 e6 3d 50 ad ef bc 28 8a 92 bd
       0.05457598 0.11237394 -0.029257447 -0.071552575
000330 f9 f9 4a 3d 2a 1b 15 be bd 09 07 3e ab 42 24 3e
       0.0495548 -0.14561144 0.13187309 0.16041057
000340 04 a2 54 be f5 67 b1 bd ae 57 66 3d 66 6d 43 3c
       -0.20764929 -0.08662406 0.05623596 0.011927938
000350 ab 12 32 be c2 b8 ab 3c 1b 6b 12 3d a4 bd fb 3d
       -0.17389934 0.020962123 0.035746675 0.122920305
000360 f2 8b 2f bd 30 85 cf bd 08 b2 21 3e 10 6b fd bd
       -0.04285807 -0.101328254 0.1579057 -0.12373936
000370 8f cb 1e bb c1 0f 74 bd 28 20 94 3d 2a 7b 2f bd
       -0.0024230217 -0.059585337 0.07232696 -0.042842068
000380 e7 50 2a be 5f b8 b9 bd 4f 67 57 3c 4c c4 37 be
       -0.16632424 -0.09068369 0.013147189 -0.17945975
000390 79 ea 2d be de 47 29 3d d4 8f 88 3d 43 90 cd 3c
       -0.16983975 0.041328304 0.06668058 0.025093203
0003a0 e8 5b 8c bd ad 2d 7a 3d a9 27 c8 3d b6 90 a8 bc
       -0.06853467 0.061078716 0.097731896 -0.020576816
0003b0 18 90 93 bd 13 47 b7 3d 3c 54 e6 bc 09 6b 6e 3d
       -0.07205218 0.08949103 -0.028116338 0.058207545
0003c0 7c 22 f1 3d 5a ff 98 3d 66 99 23 3d d7 02 4b 3d
       0.117741555 0.074705794 0.039941214 0.049563255
0003d0 77 25 b8 bd 82 c9 3e 3e d8 04 84 3d 44 ce 0d 3e
       -0.08991521 0.18631557 0.06446236 0.13848215
0003e0 6f 7b e2 3d 31 4a dd 3d 68 d2 10 bd ba df bd 3c
       0.11058699 0.108051665 -0.03535691 0.02317797
0003f0 b3 8c 49 3d 1f 5f a2 3b 01 68 c5 bd 8f 15 5f bd
       0.049206447 0.004955187 -0.09638978 -0.05446392

conv_block2.0.weight f4 [32, 32, 10]
000000 20 15 2e bc 08 30 15 bd 26 f3 84 3c 1a 12 45 bd
       -0.010625154 -0.03642276 0.016229223 -0.048112966
000010 ed 22 ca 3c de 0a cc 3c 95 98 2e 3c 6f 42 00 3e
       0.024674857 0.024907526 0.010656496 0.12525342
000020 96 39 bd 3d 54 97 b6 3d b0 fa a6 3d ff 35 f3 3d
       0.09239499 0.08915582 0.081532836 0.11875533
000030 c0 f2 0f 3e 7a 17 be 3c 86 06 55 3d ee 11 d3 3d
       0.14057446 0.023204554 0.052008174 0.10306154
000040 fb a5 84 3d 20 cf e2 3d 9e 3e 85 3d 38 f9 84 bc
       0.06476971 0.11074662 0.06506084 -0.016232118
000050 c1 62 e0 bc f9 1c a4 3c f1 64 34 bd d0 80 96 3c
       -0.02739084 0.020033346 -0.044041578 0.01837197
000060 4d 93 cf bc 74 45 93 3d a6 7d 7f 3d 82 ee 45 bd
       -0.025338793 0.071909815 0.062375687 -0.048323162
000070 13 2b 60 3c 31 ac af bd fa 84 d7 bd 40 64 17 3d
       0.013682145 -0.08577765 -0.1052341 0.03696084
000080 d2 46 81 bc 53 4e 98 bd 4f ab 91 bd 5e 73 89 3d
       -0.01578084 -0.07436814 -0.07112753 0.06711458
000090 5c 2e 29 bd ee 4d 9d bd de e2 82 bd ee 37 fd 3a
       -0.041303977 -0.076808795 -0.06390928 0.0019319037
0000a0 72 36 31 3d 64 c1 2d 3c 2c 8c e7 3d 5c c8 c2 3d
       0.043264814 0.01060519 0.113060325 0.09510872
0000b0 6a 10 71 bd 32 87 f9 3d ac 02 07 bd f8 a1 b7 3d
       -0.058853544 0.121839896 -0.032961532 0.0896644
0000c0 c5 ac a9 3a b0 02 9d 3d ba 8c c4 bc c3 8d 95 3c
       0.0012945166 0.07666528 -0.023992885 0.018256074
0000d0 fe fb 62 3c 4c 64 d5 3d f6 53 1b bd b2 9f 7b 3d
       0.013854025 0.10419521 -0.03792187 0.061431594
0000e0 de ea cc bc 4a 38 e1 3c a1 04 f3 3d ee fb ed 3d
       -0.025014337 0.027492661 0.11866117 0.116203174
0000f0 c3 23 5a 3d ca 13 7c 3d d6 b7 e6 3d 36 58 36 3e
       0.05325676 0.06154231 0.11265533 0.17807087
000100 af 01 66 3e 1a 1b bc 3d 0c 68 b2 3d 3a 8e 38 3e
       0.2246158 0.09184857 0.087112516 0.18023005
000110 91 97 0b 3d 32 cb 58 3d 31 23 2b 3e 30 e2 f4 3c
       0.034080092 0.052928157 0.16712643 0.02989301
000120 55 06 6b 3c c4 28 bb 3c ae f6 23 3d 30 55 c4 3d
       0.014344771 0.022846587 0.040030174 0.09586561
000130 ae 90 a1 3d 9b 70 c4 3d e7 49 0b 3e 7e cf 24 3e
       0.078889236 0.0959179 0.1360241 0.16094777
000140 68 c5 a5 3c 2d 1a 9e 3d 7e 93 15 3d 69 51 22 bc
       0.020235732 0.077198364 0.036517613 -0.009907105
000150 d6 98 8a 3d e0 5d 62 bd fd 76 d9 bc 39 4b 59 39
       0.067674324 -0.055265307 -0.026545996 0.00020722755
000160 96 12 af 3c 3d 10 d2 bc 4f b7 c0 3c 72 9d 8e 3c
       0.021371167 -0.025642509 0.023524908 0.01740906
000170 6b d7 55 3d 4e 81 85 bd 5f 5a eb bd 6b 50 03 be
       0.05220739 -0.065188035 -0.11491846 -0.12823646
000180 d1 57 e2 bd 0d 73 35 3c 89 df fc bd 01 46 d7 3c
       -0.11051906 0.0110747935 -0.123473234 0.026278498
000190 64 c7 ab 3d 55 74 aa 3d 8d de ef 3d 41 f3 33 bc
       0.0838764 0.0832297 0.1171237 -0.010983289
0001a0 67 d5 e6 3d 5f 11 fc bc 2b 4a a0 3d 6b 2b e1 3d
       0.11271172 -0.030770002 0.078266464 0.109946094
0001b0 64 f1 65 bd 9e 25 de 3d e6 2a bb 3b 36 09 c8 bd
       -0.05613841 0.10847019 0.005711901 -0.09767382
0001c0 5f 65 97 3d 7e 40 97 3d d7 14 98 3d 54 d8 32 3d
       0.07392382 0.07385348 0.0742585 0.043663338
0001d0 33 ae 25 bd 24 6a b7 3d 1d c2 a2 bd ee 56 04 bd
       -0.040449332 0.089557916 -0.079471804 -0.032309465
0001e0 4b 0b b5 bd a8 d4 bd bc b6 f7 d0 bc 09 32 23 3d
       -0.088400446 -0.023172691 -0.025508743 0.03984264
0001f0 25 ca cc bd a2 d0 fa bd 74 12 83 3c 36 bc 3d 3d
       -0.099994935 -0.12246825 0.01600001 0.04632207
000200 56 0d 2f bb b9 ad fd bd f1 0c e9 bd 23 c9 ac bd
       -0.002671083 -0.123866506 -0.113794215 -0.08436801
000210 c7 e6 af bd 49 3e c7 bd 97 ac 12 be 0f cb 8e bd
       -0.08588939 -0.09728677 -0.1432365 -0.06972324
000220 39 8f b1 bd 6b 37 56 3c 9c cb 17 bd 38 d1 11 be
       -0.08669896 0.013074736 -0.03705941 -0.14239967
000230 13 4a 47 3d fc 59 0e 3d aa 6a 9e 3d d1 bc 03 3e
       0.048654627 0.034753785 0.07735188 0.12864996
000240 55 d7 be 3d 4d 04 77 3d 8c a1 85 bd 62 21 91 3d
       0.09318415 0.060306836 -0.06524953 0.070864454
000250 10 31 d1 bb 78 9c da 3d 98 40 be 3d ef 98 b4 3d
       -0.0063840225 0.10674375 0.09289664 0.08818232
000260 57 c1 a0 bd 7d 19 ca 3c fa 39 6e 3d e4 a3 87 3d
       -0.07849377 0.024670357 0.05816076 0.066230565
000270 0f 28 34 bd 2c 78 65 3c f4 2f c9 3d 49 f4 e9 3c
       -0.043983515 0.014005702 0.098235995 0.028558867
000280 fe 27 3f 3d 91 f0 b3 bd 2f ab 9c bd 52 37 50 bc
       0.046669 -0.08786119 -0.07649838 -0.012708502
000290 98 e2 d2 3d 25 9b 44 3d 03 5a 83 3d 42 07 74 bd
       0.102971256 0.04799952 0.06413653 -0.059577234
0002a0 49 c0 7f 3d 62 c3 09 bd 0c c1 30 bb ad 46 0e 3e
       0.062439237 -0.033633597 -0.0026970534 0.13894148
0002b0 d4 f4 20 3e 90 b5 d0 3d 76 d0 7d 3b ec 5e 29 3e
       0.15718395 0.1019088 0.0038728989 0.16540116
0002c0 36 04 23 3d f8 88 47 3d 7e ef b8 3d 1b cd 9d bb
       0.039798938 0.048714608 0.090300545 -0.0048157102
0002d0 6f f8 09 bd b3 f7 4e bc 6f 5a fc bd 25 01 92 3c
       -0.03368419 -0.012632298 -0.12321936 0.017822811
0002e0 33 f0 48 3c c4 93 cc bd 03 b7 14 bd 61 9c ba bd
       0.012264299 -0.099891216 -0.036307346 -0.09111858
0002f0 70 a0 b1 bc c6 50 2d bd 54 25 8f bc 27 58 f7 3d
       -0.021682948 -0.04231336 -0.017473854 0.120773606
000300 32 9d b6 bc 69 8a d9 3c 27 d3 39 bd 19 0f 7d bc
       -0.022291753 0.026555257 -0.045367386 -0.015445494
000310 9c 07 46 3d 4f d6 e6 3d 80 cd b7 3b c4 f1 bf 3c
       0.0483471 0.11271345 0.0056092143 0.023430713
000320 d6 d7 2d bd 8e 53 8f bc fe 86 23 3c a6 45 3b bd
       -0.042442165 -0.017495897 0.009980915 -0.04572072
000330 5f 4d 29 bd c5 10 82 bd 94 60 2d bd c7 bc 23 3d
       -0.041333552 -0.06350855 -0.042328432 0.039974954
000340 75 58 23 bc ba f3 a1 bc ce 1f 7b bd 96 4c 45 3d
       -0.00996982 -0.019769538 -0.06130963 0.04816874
000350 00 5d 90 bd 31 4e 7f bd 25 ee 82 bd 6c 9d 86 bd
       -0.07048988 -0.06233043 -0.06393079 -0.065729946
000360 75 c4 dd bc 14 da cc 3d 9e e5 c0 bb 56 ed bb bd
       -0.027071217 0.100025326 -0.0058867475 -0.091761276
000370 8a 3f 07 3d 84 1b 18 3d 09 cf 4a 3d 4e 2f 0a 3e
       0.03301958 0.037135616 0.04951385 0.13494608
000380 5e 4e ae bb 69 92 cf bc 1c 69 fb 3d 8e 17 7f 3d
       -0.0053194007 -0.025338368 0.122759074 0.062278323
000390 aa 96 13 3e 81 92 2b 3d c6 63 b3 3c 08 95 a2 3d
       0.14412943 0.041887764 0.021898162 0.07938582
0003a0 40 01 c6 3d ae ff 27 3e 97 1a 1a 3d f8 22 d4 3c
       0.09668207 0.16406128 0.037623014 0.02589558
0003b0 3d d6 20 3e 97 17 24 3e d6 4a 08 3e 78 0b 38 3d
       0.15706725 0.16024624 0.13309798 0.044932812
0003c0 0f db 42 3d 43 5c cf 3d 63 0e 8a bd cb 3f e6 bc
       0.04757219 0.101250194 -0.06741025 -0.02810659
0003d0 b6 bf 17 bd 3e 68 8d 3d f3 77 99 bd 09 8d f3 bc
       -0.037048064 0.06904648 -0.074935816 -0.029730337
0003e0 ef 10 db 3d 3d 36 d7 3b 32 54 a5 bd bb c1 eb bd
       0.10696589 0.006567745 -0.080726996 -0.115115605
0003f0 0c c3 7a bc 1b 8f 00 be 94 8b d3 bd cc 2c 2b 3d
       -0.015305292 -0.1255459 -0.10329357 0.04179077

gru.weight_ih_l0 f4 [96, 32]
000000 cd 82 4f 3d e2 1c 09 3e 0f 3f 11 3d bd 8e b5 3e
       0.05066185 0.13389924 0.035460528 0.35460463
000010 10 1c 35 3c d5 65 fe bd 51 e4 88 3e ba 9f 65 bc
       0.011054054 -0.12421767 0.26736692 -0.014015133
000020 7a e3 28 3c fb 65 b4 3d 0f e1 0a 3e 44 d5 44 3e
       0.010308141 0.08808514 0.13562416 0.1922198
000030 e3 fa d3 3a d9 b5 4e 3e 04 8b ce bd 23 b2 00 3e
       0.0016172793 0.20186557 -0.10085109 0.12567954
000040 60 a7 df 3d 56 64 ce 3e 8b ac 7e bd 8b 96 dd 3b
       0.10920596 0.40310925 -0.06217627 0.006762331
000050 74 28 69 3d 39 3a 86 3e 2f 5a 1e be e0 a6 fc 3d
       0.056923345 0.26216295 -0.1546409 0.123365164
000060 9a a3 7a 3c 90 2e 5b 3e 4f 6f 45 3e da 6f 8d bc
       0.015297795 0.21404481 0.19280742 -0.017265249
000070 33 6a 63 bc 16 64 4a 3e d7 61 30 3d 01 d1 a3 3d
       -0.0138803 0.19764742 0.043062057 0.07998849
000080 d4 bd 75 3e 6c 79 41 3d 4c 1e bc 3d df 7d 48 be
       0.23998195 0.047234938 0.09185466 -0.19579266
000090 9a 76 4a 3e c9 87 0a 3b 6b 9d 65 3e 4f d5 36 3d
       0.19771805 0.0021138063 0.22423331 0.04463702
0000a0 cf a1 c0 3c ed ac 82 bd bd 66 1b be 21 de 0a be
       0.023514656 -0.06380639 -0.1517591 -0.13561298
0000b0 56 22 fa bd 1f 97 21 3e 31 03 a2 3d ab 1c ce bd
       -0.1221358 0.15780304 0.07910765 -0.10064062
0000c0 6a 88 55 3e 08 c1 f9 3d 4a 19 f9 3d ad 49 9d 3d
       0.20852819 0.12195021 0.12163027 0.07680068
0000d0 72 7e d0 3c 5d 14 e0 3c b3 3d c2 3d fa 6e 55 3e
       0.025450919 0.02735346 0.094844244 0.20843115
0000e0 9e 44 03 3e 9b 1b 04 3e 4d 5b be 38 9f 97 4e 3e
       0.12819144 0.12901156 9.076912e-05 0.20175026
0000f0 61 c4 ff bc 56 ba 27 3e ef 3e 1d bc 91 47 04 3e
       -0.03122157 0.16379675 -0.009597524 0.12917925
000100 36 94 81 3d a1 7b 11 3e b4 38 04 3d 90 3b 84 3d
       0.06327097 0.14207317 0.03228064 0.06456673
000110 0b 01 8e 3d c9 3d 0a be f9 a6 82 3d d0 21 4d 3e
       0.06933793 -0.13500132 0.06379504 0.2003243
000120 9d 30 a7 bd 9c ec 77 3e 8d e0 2c 3e 89 a2 0c 3e
       -0.08163569 0.24211353 0.16882534 0.13733877
000130 eb 68 87 3d 22 ec 04 3d e8 b1 8a 3d 8b ca 87 bc
       0.066118084 0.032451756 0.06772214 -0.016576072
000140 f4 71 2b 3e dd e2 5a 3c 86 b9 40 3e cb 63 05 be
       0.16742688 0.0133597525 0.18820772 -0.13026349
000150 64 10 c4 bd 3a ab a8 3c 3d 74 a3 bd 2f 3e 31 bc
       -0.09573439 0.02058946 -0.07981155 -0.010818048
000160 24 25 6a 3e f6 b2 35 bd 76 8e 3b be 26 ec 73 3c
       0.2286573 -0.044360124 -0.18316063 0.014887845
000170 4e 69 d0 3d bf 8d af 3d b0 f9 5b be b7 79 74 3e
       0.10176335 0.08571958 -0.21481967 0.23874556
000180 7e 4c 88 bd 0a 10 22 bd de 37 95 bd 4e 43 fc bd
       -0.06655215 -0.039566077 -0.072860464 -0.12317525
000190 e2 85 9a bd 94 9a 4f bd 64 ee 8a 3d 06 be 0a be
       -0.07545067 -0.050684527 0.06783751 -0.1354905
0001a0 24 7f 17 3e 7c b7 ba 3d bd f8 9e bc 10 ae aa bd
       0.14794594 0.09117028 -0.019405717 -0.08333981
0001b0 40 b3 15 be 38 88 df 3d cd a0 09 3c 37 b7 3b 3e
       -0.1461916 0.109146535 0.008400154 0.1833161
0001c0 47 6e ec 3d 72 63 7e bd f3 9a 71 be b0 fd 2e 3e
       0.11544471 -0.062106557 -0.23594265 0.17088962
0001d0 d8 73 26 be 5a 9a 1b 3e 0b 6a e5 bd 3a 13 22 bd
       -0.16255128 0.15195599 -0.11201867 -0.039569117
0001e0 c5 2a b2 bd 8a 5a be bd 43 dc 4f bd 75 cd 27 3e
       -0.08699564 -0.09294613 -0.050747167 0.1638697
0001f0 3c 45 cd bd 23 fb 15 3e a5 93 15 3e 1e 79 3a 3d
       -0.10022971 0.14646582 0.14607103 0.045525663
000200 0a 5b 03 be 86 6b 38 bd 1e 66 8c 3d 5c 8c 99 bc
       -0.12827697 -0.045024417 0.06855415 -0.018743686
000210 f9 f8 dc bd 46 90 99 bd 07 09 ba 3d a4 12 cc bc
       -0.10789675 -0.07498221 0.09083753 -0.024911232
000220 f6 25 cd bc c9 89 16 be 61 9e 87 3d eb 89 4f 3d
       -0.025042515 -0.14700998 0.06622005 0.05066864
000230 37 05 8c 3d f6 5c 12 3e 9f 02 3a 3d 9e fb e5 3b
       0.06836932 0.14293274 0.045412656 0.0070185205
000240 1f c1 22 bc 0c 5d c1 3d 06 c3 30 3d 60 cd 1a 3e
       -0.009933739 0.094415754 0.04315474 0.15117407
000250 c3 16 8f bc 53 85 14 3e 7a c9 52 bc 41 96 95 3d
       -0.017466908 0.14503984 -0.012865419 0.07304049
000260 0c 0a 27 3d 04 53 5e 3e c9 6c 5f 3e 27 db dc bd
       0.040781066 0.21711355 0.21818842 -0.107839875
000270 a7 17 a8 bd 5d e2 f5 3b 11 3a 07 be a3 ee b2 3d
       -0.08207636 0.0075037912 -0.13205744 0.087369226
000280 91 d4 c7 3d ed 59 77 3e f5 eb 99 bc d3 26 c5 3e
       0.09757341 0.24155398 -0.01878927 0.38506183
000290 4d 2c b7 bd ec 2a 41 bd 0b 9a cf 3d 07 38 3f 3e
       -0.089439966 -0.047160074 0.10136803 0.18673716
0002a0 16 82 32 bc d5 48 4e 3e 24 9f 1b 3e 6a 3c 2d 3e
       -0.010895273 0.2014497 0.15197426 0.16917577
0002b0 93 23 0a be 4a 58 39 3e bc ae 2b be 65 ce f4 bd
       -0.13490133 0.18100086 -0.16765875 -0.11953429
0002c0 36 7f ac 3e bb a1 87 3e 83 9a f9 3d 03 82 2e 3e
       0.33690804 0.26490578 0.12187674 0.17041783
0002d0 30 0a 81 3e 92 72 89 3d de 5a 3d be 7d ea 1a 3e
       0.25203085 0.06711306 -0.18491694 0.15128513
0002e0 48 64 6d bc 7b ea 63 be 10 d9 23 be 91 b5 a5 3c
       -0.014489241 -0.22257416 -0.16000772 0.02022818
0002f0 a0 16 1e 3e e4 fd 39 3e 39 75 38 be a2 2e 42 3d
       0.15438318 0.18163258 -0.18013467 0.047407754
000300 7c d3 ff bd 84 29 bd bd b5 52 85 be 0e d4 31 be
       -0.12491509 -0.09236434 -0.26039663 -0.17366049
000310 69 37 d9 3d a4 01 52 3e 8d 6b ae bd c1 e8 1c be
       0.10606272 0.20508438 -0.085166074 -0.15323164
000320 85 68 d7 bd 29 41 9e bc 8f 5b 15 bd 0f ca ab bc
       -0.105179824 -0.01931818 -0.03646427 -0.020970372
000330 cc ca 38 3d e8 26 81 bc 86 e0 03 3e e9 36 38 3d
       0.045115277 -0.015765622 0.12878618 0.04497424
000340 f1 c5 08 bd 9f 8e 62 be 27 ea 87 be 98 44 06 3e
       -0.033391897 -0.22124718 -0.26545832 0.13112104
000350 61 35 91 be da db 55 bd d8 10 ca 3d f7 62 61 be
       -0.28361037 -0.05221162 0.09866494 -0.22010408
000360 d1 1a 9c be d9 8f 3e 3e e5 7f 5a 3e 50 ce 9c bd
       -0.3048921 0.18609561 0.2133785 -0.076565385
000370 00 61 10 be 7b 32 31 be e9 73 12 3d fe aa a3 be
       -0.14099503 -0.17304413 0.03575507 -0.31966394
000380 16 ff be 3d e8 18 a4 bd e5 79 f8 3d fc fa 29 be
       0.093259975 -0.08012563 0.121326245 -0.16599649
000390 74 22 13 be e0 5c c1 bd 47 b5 27 3d ed 1b 3d 3e
       -0.14368612 -0.094415426 0.040944364 0.18467684
0003a0 44 4f 00 bd c7 30 40 3e 30 80 cd bd 20 c1 06 3d
       -0.031325594 0.18768607 -0.100342155 0.032899022
0003b0 b5 42 90 bc c8 46 9b 3d 21 39 9c bd bf 32 0f 3e
       -0.017609933 0.0758186 -0.07628084 0.13984202
0003c0 96 ce 02 3e 16 bb af bd 85 39 30 3e 4b cb 26 3e
       0.12774119 -0.08580606 0.17209442 0.16288488
0003d0 7d 96 04 3e 5f 73 06 3e 82 78 6f 3d a1 ca 5e 3e
       0.12948032 0.13129948 0.058464535 0.21756984
0003e0 0c 08 b9 bd 85 ea f9 3d 3c 46 e0 bd 3e 5b b3 3d
       -0.09034738 0.12202934 -0.10950896 0.087576374
0003f0 2e aa 7b 3e 66 45 d9 bd cf 12 76 3d cd 3a 8d bc
       0.24576637 -0.1060894 0.06007653 -0.017239952

gru.weight_hh_l0 f4 [96, 32]
000000 89 6b da bd ec 23 9d 3d 17 5f 17 be a1 ae 3f be
       -0.10665042 0.07672867 -0.14782368 -0.1871896
000010 c7 3e 7c 3e 9d 1a ed 3c cd 4d 41 3d c3 ec e5 3c
       0.24633323 0.028943354 0.047193337 0.028066998
000020 d7 55 2e 3b 29 47 45 be 0e 7d 31 be 76 29 b6 3d
       0.0026601458 -0.19265427 -0.17332861 0.08894627
000030 9e e4 a1 bc 2e ed 90 be 27 70 18 3d 9f e8 1a 3e
       -0.019762333 -0.28305954 0.03721633 0.151278
000040 8a 13 9e bd 7f 1c 19 3d 84 a8 a4 3d 12 d0 c9 3c
       -0.077185705 0.03738069 0.08039954 0.024635348
000050 d3 8e 02 be b8 e1 17 3e 55 53 14 bd 9f 4a a1 bd
       -0.12749796 0.14832199 -0.036212284 -0.07875561
000060 57 5f 41 bd d0 e4 9f bc ae b6 c2 3d 06 76 3d be
       -0.047210064 -0.019518286 0.095075 -0.18502054
000070 03 38 ce 3d 77 5a 10 be 08 2d 81 3d 88 9b c8 bd
       0.10069277 -0.1409701 0.06307417 -0.0979529
000080 e2 7e 63 3d 21 c0 80 3d ee 49 7c bc b1 f6 c0 3d
       0.055540927 0.06286646 -0.015398486 0.09422053
000090 a3 61 45 3e 18 8a 75 bc 04 35 5c 3e 62 e1 d0 3d
       0.19275527 -0.014986537 0.21504599 0.10199238
0000a0 aa a0 90 3d d8 1d a8 3c a0 03 48 3e 72 a3 d0 3d
       0.07061894 0.020522043 0.19532633 0.10187425
0000b0 bf 04 b3 bd 0a 83 16 be 55 e9 88 ba 75 05 70 be
       -0.087411396 -0.14698425 -0.0010445515 -0.23439582
0000c0 8f 74 bb 3d d9 ab e9 3c 4d c0 26 be 27 c3 96 3e
       0.09153091 0.028524326 -0.16284294 0.29445764
0000d0 1b 14 93 3c 40 05 5f be e1 d8 21 be d3 fe 25 3e
       0.017953923 -0.21779346 -0.15805389 0.16210489
0000e0 52 35 e3 bd e9 4b 9b 3b 97 b7 20 be e9 f5 34 3c
       -0.110941544 0.004739274 -0.15695034 0.011044958
0000f0 6f 2a cb 3d 9c f6 eb 3d 57 d6 93 bd 91 1c c5 3d
       0.09920203 0.115216464 -0.072186165 0.09624589
000100 19 78 d7 3d 89 2b 73 3e 7d cb 81 bd 02 27 2e be
       0.10520954 0.23747076 -0.063376404 -0.17007068
000110 da 73 32 3d 1a ed 27 bd df e9 ad 3c f6 b3 2f be
       0.043567516 -0.040997602 0.021229682 -0.17158493
000120 90 4d ae bc c9 9e 5c bc fb 64 30 bd 91 25 fd bd
       -0.021277219 -0.013465592 -0.043065052 -0.12360681
000130 fc db 7f be b2 ed e8 bc d4 33 11 be a2 bd 3a 3e
       -0.24986261 -0.028433654 -0.14179927 0.18236402
000140 27 d4 c4 bd 40 b5 54 3e 8f 79 08 3c dd 36 6b bd
       -0.09610777 0.20772266 0.008329763 -0.05742537
000150 74 33 54 3c 13 46 2f be 33 c5 44 be 94 eb 6d bd
       0.0129517205 -0.17116575 -0.1921585 -0.058085993
000160 ea f9 e0 3c ee 46 a3 3d 2d bb f8 bd 3b 4c 0a be
       0.027462918 0.07972513 -0.12145076 -0.13505642
000170 1a 4a 3e 3d 00 f0 03 3d a9 4f 45 3e b0 be 65 3e
       0.046457388 0.032211304 0.19268669 0.22436023
000180 96 1c c1 3d e2 ef 17 be 23 dd dc bd f2 cd 7d 3b
       0.094292805 -0.14837602 -0.10784366 0.003872749
000190 6a 3d 1a 3c e5 5a b6 bd 21 8c 60 bd 93 5d 10 3b
       0.009414056 -0.089040555 -0.054821137 0.002202843
0001a0 4e 06 30 be 20 aa 81 3c 2e a7 a7 bd ed 3b bf 3d
       -0.17189905 0.015828192 -0.08186184 0.09337602
0001b0 46 ea 53 be 5a 70 0f bd a5 da ea 3d 4c 18 87 3e
       -0.20694837 -0.035019256 0.114674844 0.26385725
0001c0 62 12 79 bd f1 1c 37 be 75 40 2e 3e 6f 5f dc bd
       -0.060808547 -0.17882134 0.17016776 -0.1076039
0001d0 4f e2 ce 3b 7c 8f ef 3d 21 16 27 be be 7e ac bc
       0.006313599 0.11697289 -0.16317035 -0.02105653
0001e0 24 ae a5 3d dc 80 19 3d b5 51 23 bd df 22 83 3d
       0.08089855 0.037476406 -0.039872844 0.064031355
0001f0 50 5a a9 bd 3f e3 a1 bd 75 4d cb 3d 0f aa 3b bc
       -0.08269179 -0.07904672 0.09926883 -0.011454119
000200 ac 68 36 be b5 d7 59 3e 5a 88 1c be 77 34 1e 3c
       -0.17813367 0.21273692 -0.15286389 0.009656063
000210 49 a4 b1 3c d6 64 45 be 18 4a 87 3d c1 d9 f2 bc
       0.021684783 -0.19276747 0.06605929 -0.029644849
000220 74 c9 0c 3e f9 24 c9 3d c3 81 88 3d 32 89 87 3d
       0.13748723 0.09821505 0.06665375 0.06617965
000230 ac 9b 0f be c5 d6 0f bd e6 46 b7 bd 21 44 34 bd
       -0.14024228 -0.03511693 -0.0894907 -0.044010285
000240 ee db 51 be c7 8a 06 be 52 87 2c 3d 58 86 f0 3a
       -0.20494053 -0.13138877 0.04212124 0.0018350584
000250 11 00 17 be 36 cb 0f bd a7 17 2f be 43 8d 11 3e
       -0.14746119 -0.035105906 -0.17098866 0.14214043
000260 2a 4c c0 bd ea e5 a8 bd 20 b6 90 bd 21 c3 69 be
       -0.09389527 -0.082469776 -0.070659876 -0.22828342
000270 8b 84 cd 3d d0 ad 0e 3d 4f a3 5b 3e d9 c4 a7 bd
       0.10035046 0.03483373 0.21449016 -0.081918426
000280 8b 90 0d bd 1a 3e 5a 3e a9 a0 ed 3d 68 3d 7a bd
       -0.034561675 0.21312752 0.11602909 -0.061093718
000290 b8 6f 17 3e 5a 09 11 bd 67 5b ea 3c cc 04 2c 3e
       0.14788711 -0.03540931 0.028608037 0.16798705
0002a0 71 bb 73 bc bd a4 36 bd 1e 39 37 bb 05 b5 aa bd
       -0.0148762325 -0.0445907 -0.0027957628 -0.08335308
0002b0 3a 31 15 be 84 eb 0b 3e ee e2 8a 3e 45 8d 1c be
       -0.1456956 0.13664061 0.2712626 -0.15288265
0002c0 9e c9 4e be ac ce 1f be dd b5 85 be a7 b2 90 bd
       -0.20194098 -0.15606183 -0.26115313 -0.07065325
0002d0 42 87 bf 3d 13 f7 9f bd d1 32 0e bd 95 0d 50 3d
       0.0935197 -0.078107975 -0.03471643 0.050794203
0002e0 2c 0c 53 3d 6a c8 ad be a6 f3 02 3c 53 5f 52 3e
       0.05152528 -0.33941966 0.007992661 0.20544176
0002f0 31 bf 51 be 0c ae 76 bd 09 4f 82 be bd 0c bd bb
       -0.2048309 -0.060224578 -0.25450924 -0.005769341
000300 cd e6 86 3d ff 71 fa 3d c0 ce 37 bd a9 fe 91 bd
       0.065869905 0.12228774 -0.044874907 -0.07128651
000310 d6 a1 04 be 6b bf 69 3c a9 7b 2b be 60 d2 9c 3b
       -0.1295236 0.014266829 -0.16746391 0.004785821
000320 2a 54 0c 3e 77 7a 45 be ee 24 55 be 45 78 56 bc
       0.13703981 -0.19284998 -0.20814869 -0.013090198
000330 5e a7 6c 3e 1c 68 fe 3d 42 90 9d 3c c4 8a b3 bd
       0.2311072 0.12422201 0.019233827 -0.08766702
000340 83 db 92 3d 63 45 a1 bb dc b9 0f 3e c9 2d 82 bd
       0.07170775 -0.0049216016 0.14035743 -0.06356389
000350 ea db 36 bc af f8 9a bd 4e 6d 16 be 79 4d 91 3d
       -0.01116083 -0.07566964 -0.14690134 0.07094855
000360 aa d9 ea 3d 4f b4 46 3e a8 10 9e bd d2 2b b2 3d
       0.114672974 0.1940472 -0.07718021 0.08699764
000370 c2 da 19 3e b6 24 89 3d ae 94 de bd ad 74 97 bd
       0.15024856 0.06696455 -0.10868202 -0.07395301
000380 bd 0f 39 bd 05 4a 15 3e 2d d8 50 3d 55 74 15 3d
       -0.045181025 0.14579017 0.05098741 0.036487896
000390 c6 70 db bd c0 a9 cb 3d 9b 86 5e 3d 41 08 29 bd
       -0.10714869 0.099444866 0.05432759 -0.041267637
0003a0 16 5f 21 3e 72 b2 23 3e ff 2c 98 bd e5 52 c1 3b
       0.15758929 0.1598604 -0.07430457 0.0058997744
0003b0 94 7b 81 bd 28 e7 20 3e b7 34 f9 bc 0a 27 b8 bd
       -0.06322399 0.15713179 -0.030420644 -0.08991821
0003c0 51 16 ff bd 8c bd 4a bb 91 a2 1f be f9 3b 63 bd
       -0.124554284 -0.0030935733 -0.15589358 -0.055477116
0003d0 11 1e 78 bd c0 9d 26 be a0 f5 5f bd 51 34 85 3e
       -0.06057555 -0.16271114 -0.054677606 0.26016477
0003e0 b8 20 78 bd 7c a7 2f be ba 81 fe bd 00 46 84 3d
       -0.060578078 -0.17153734 -0.12427087 0.06458664
0003f0 94 e8 7b be 67 5f 6e 3d be 34 f0 bc 81 e4 de bd
       -0.2460044 0.05819645 -0.029322024 -0.108834274

gru.bias_ih_l0 f4 [96]
000000 8b d9 0d 3e e1 fc 62 bd 5c 12 56 3e d7 52 de bd
       0.13852517 -0.055416945 0.20905441 -0.10855644
000010 95 d7 ed 3d 4f 0a a5 bc 58 d4 17 be 63 61 45 bc
       0.11613385 -0.020146517 -0.14827096 -0.012047145
000020 7a d8 70 3e 1f eb 2f bd 52 ac 00 3d 83 ea fd bc
       0.2352008 -0.04294884 0.031414337 -0.030995613
000030 16 4f cf bd a4 91 0a 3e e5 42 eb bd a8 ee cb bc
       -0.10122506 0.1353212 -0.114873685 -0.024894074
000040 d6 39 8b 3d 7f d2 b4 bd 96 5e 27 3c ac 6b 4a bc
       0.06798141 -0.088292114 0.010215422 -0.012354773
000050 61 e7 e0 3d 72 81 a1 bd 44 fa 76 3e a7 b0 01 3e
       0.10981632 -0.07886018 0.24118906 0.12665044
000060 e9 55 f0 bb 29 1b f2 bd 51 b5 0c 3e 21 2b 27 3c
       -0.00733446 -0.11821587 0.13741042 0.010203154
000070 2b ea 1a 3e d2 61 25 3e c6 62 56 3d db 10 a1 3e
       0.1512839 0.16150597 0.05234029 0.31458172
000080 52 05 08 be 8c bb b6 3d 16 f7 6b bd bc 5b 43 3e
       -0.1328328 0.089224905 -0.057608686 0.19077963
000090 97 b8 b5 3c f1 b6 0b be 14 b5 1e 3e 02 0c 2f bd
       0.022182746 -0.13644005 0.15498763 -0.04273606
0000a0 05 fb d9 3c 56 a0 8a 3d 1a c3 a4 3e 4e f0 3b 3e
       0.026608953 0.06768863 0.321801 0.18353388
0000b0 22 75 6e 3d 84 fb 9e 3d 91 ea 2e bd 40 14 e3 bd
       0.058217175 0.077628165 -0.04270417 -0.11087847
0000c0 7e da d7 3d f9 b9 5b 3e 5c 6f b6 bc 38 e0 5a 3e
       0.10539721 0.21457662 -0.022269897 0.21374595
0000d0 46 59 b1 bc ba a3 05 be 04 d9 83 3c e0 c0 a2 bd
       -0.021649014 -0.13050738 0.016094692 -0.07946944
0000e0 4b e0 18 3e a4 31 54 bd 21 e9 33 3d 07 f3 04 be
       0.14929311 -0.051805153 0.0439235 -0.12983333
0000f0 a1 d5 aa 3c 05 54 6e 3e d9 8c f3 bd 96 30 47 bd
       0.02085382 0.23274238 -0.11892099 -0.04863032
000100 de 58 f2 39 46 4d 26 3e 07 8c 2b 3d ee 2a 5f bc
       0.00046224048 0.16240415 0.041881587 -0.013621075
000110 52 66 62 3d c4 0a 61 be af cc bd 3d 49 2c 5e be
       0.05527336 -0.21976763 0.09267556 -0.21696581
000120 66 e7 bc bd 1e 99 6b 3c c1 bc 39 3e 4b 0a 59 3e
       -0.09223823 0.014379768 0.1813841 0.21195333
000130 93 b3 0c bd cc 79 9b bd 5f eb e7 3c 85 ec 81 3d
       -0.034350943 -0.0759159 0.028310476 0.06343941
000140 df 48 5b be c8 bc 15 be f9 17 06 bd 6b ee d4 bd
       -0.21414517 -0.14622796 -0.032737706 -0.10397037
000150 91 62 73 be 2c f5 a9 3d 7d c4 ce 3d 47 c6 03 be
       -0.23768069 0.08298716 0.10096071 -0.12868606
000160 59 c1 bf 3b 3a f1 1d bb ce a7 56 bd 64 0f 25 be
       0.0058519063 -0.002410008 -0.052406125 -0.16119152
000170 d3 fc de 3d c0 2b f4 bc 5a ff d3 3d 5b a1 fb 3d
       0.10888066 -0.029806018 0.10351439 0.122866355

gru.bias_hh_l0 f4 [96]
000000 f1 0d 26 bc 54 aa 5e 3e be 0a 7e 3e 67 1b a9 3d
       -0.01013516 0.21744663 0.24808785 0.0825718
000010 e3 4d 71 bd 31 2e 2d bd dc 78 b1 bd 17 75 39 3e
       -0.05891217 -0.04228038 -0.0866563 0.18111072
000020 41 4b 8e 3a 78 cc 63 3e fd 73 1f 3e fb 26 b6 3d
       0.0010856168 0.22245967 0.1557159 0.08894154
000030 cc d5 0a 3c 9c 68 90 3e 9b e2 c8 bd 55 5c 4a 3d
       0.008473825 0.2820481 -0.098088466 0.04940446
000040 90 85 82 3e 37 84 6a 3d 34 f1 1e 3c ef 5f 20 3d
       0.25492525 0.057254996 0.009701062 0.03915399
000050 12 76 8c 3e 43 09 4d 3e 84 69 81 3e e9 74 62 3e
       0.2743383 0.20023064 0.25275815 0.2211491
000060 9a 40 95 bd ae 27 9e 3d d6 65 ac 3d 7d c5 58 3d
       -0.072877124 0.07722412 0.08417861 0.052922715
000070 dd c2 e6 bb 3f ec 34 3d a7 fb 51 3d 90 1b 86 3e
       -0.0070422725 0.044170614 0.051265385 0.26192904
000080 87 17 cc bc 0b 19 7d 3e cf e5 38 3e f1 85 af 3c
       -0.024913562 0.24716584 0.18056415 0.021426173
000090 0d 4c 62 3e c4 92 cf bd bf c5 07 3d db 53 69 be
       0.22099324 -0.10135415 0.03314757 -0.22785895
0000a0 7e 20 0c bd 68 5d 7f 3a a1 40 77 3e c2 9b ed 3d
       -0.034210674 0.00097413966 0.24145748 0.11601974
0000b0 2e a7 4c 3e dd 13 b9 bd bb 0c 0d be 8b 06 e2 3d
       0.19985649 -0.09036992 -0.13774388 0.11036404
0000c0 22 78 1a 3d 32 20 21 3d b8 78 12 be 49 90 5e bb
       0.037712224 0.039337344 -0.14303863 -0.0033960512
0000d0 17 0c 9c 3c d7 39 1a be a1 eb ff bd b0 97 1a 3e
       0.019048734 -0.15061127 -0.124961145 0.15096927
0000e0 1f 24 3b be 4d 06 d1 3d 23 74 73 bd ac 29 02 3e
       -0.18275498 0.1020628 -0.05943693 0.12711209
0000f0 df 24 7a bd 44 7c f2 3d 3d 24 23 be e0 1b b3 3c
       -0.06107032 0.11840108 -0.15931793 0.021863878
000100 43 39 07 be 5b 22 4a 3d 66 79 d6 bd a4 75 d3 bd
       -0.13205437 0.04934917 -0.10472374 -0.103251725
000110 e3 7a a7 3d ee 25 8a 3d 9c f0 20 3e 55 de 81 bc
       0.08177736 0.06745516 0.15716785 -0.015853086
000120 68 97 08 be 3f e4 e8 bd f8 d7 67 bc 42 d7 57 3d
       -0.13339007 -0.113716595 -0.014150612 0.05269552
000130 c8 b5 e2 bd fa 5b 31 bd 12 b8 42 be 76 a0 63 3e
       -0.11069828 -0.043300606 -0.1901553 0.2222918
000140 f3 6e 2f be 45 c4 6b bd b0 12 79 3e c0 33 42 bd
       -0.17132168 -0.057560224 0.24323535 -0.047412634
000150 f8 f1 2f 3d 2b 48 ba bd 26 bd 4a be d6 71 f7 bc
       0.04295537 -0.09095796 -0.19798717 -0.030205648
000160 83 2c c3 3d 08 67 c6 bd 95 64 1a 3e fc 1d 1a be
       0.09529974 -0.096876204 0.15077431 -0.150505
000170 34 bf 2f 3e e3 09 a0 bd 62 bc 6f 3d eb 5e 05 3e
       0.17162782 -0.07814386 0.058529265 0.1302449

gru.weight_ih_l0_reverse f4 [96, 32]
000000 be 5c 29 3e cf cf 1e 3e f3 b5 53 bd 7e dc 1a 3e
       0.16539285 0.1550896 -0.051687192 0.15123174
000010 18 1c 47 3d 39 1b 34 3e a0 36 3c 3e 0f 10 71 bd
       0.048610777 0.1758851 0.18380213 -0.058853205
000020 98 0b 1e 3d 72 b6 e5 39 7b 0e 4c 3d 44 4d e4 bd
       0.038585275 0.00043814216 0.049818497 -0.1114755
000030 02 42 be bd a5 2f 1d 3e 46 32 2f 3e 9c 51 c8 3d
       -0.09289934 0.15350206 0.17109022 0.09781191
000040 05 31 a0 3d 55 c0 58 3e d4 4a 19 3e b1 9a cd 3d
       0.0782185 0.21167119 0.14969951 0.10039271
000050 39 72 1a bd a9 a3 d3 3c 4e 75 2b bd 77 d9 2e 3d
       -0.037706587 0.025834875 -0.041859917 0.04268786
000060 c7 0e e1 bd 1f 98 0c 3e ff 9e 16 3e 7c 57 53 3e
       -0.10989147 0.13729905 0.1470909 0.20638841
000070 8f d9 66 3c de 4f b3 3d 39 1f 95 bd b4 74 bb bd
       0.014089956 0.08755468 -0.07281346 -0.09153119
000080 a2 4f 4d bd d8 ff 07 3c 13 4e b2 bd 54 0b 05 be
       -0.050124772 0.008300744 -0.08706298 -0.12992603
000090 cb e4 7a 3d 48 c8 77 3e 44 6f fc bd 16 a7 da 3d
       0.06125335 0.24197495 -0.1232591 0.106764
0000a0 5a 0e 86 bd b7 6f aa 3d 73 27 f1 bd a0 37 13 3e
       -0.06545706 0.08322089 -0.117751025 0.14376688
0000b0 ab cc b7 3c f5 b7 e9 bd 85 53 0d 3e 2c da ae 3c
       0.02243646 -0.1141204 0.13801391 0.021344267
0000c0 c7 35 2f be 75 3f 40 be 93 c7 29 be 09 30 3b 3d
       -0.17110358 -0.18774207 -0.16580038 0.045700107
0000d0 e6 e3 19 be 65 9e 0a 3e 47 15 4d 3e d2 51 bb 3d
       -0.15028343 0.13536985 0.20027648 0.09146465
0000e0 ad e5 c8 ba 24 3d 1f 3d 0d 31 a8 3d 1a bc 1d 3d
       -0.0015327238 0.038876668 0.08212481 0.038509466
0000f0 10 45 98 bd 9a 73 c4 3c 89 5f fb 3d d1 e7 71 be
       -0.074350476 0.023980904 0.12274081 -0.23623587
000100 8d 56 4f 3c 5f 75 00 3e 26 4a 57 3e 3b 1c 0a bd
       0.012654913 0.12544774 0.21024379 -0.03371833
000110 e9 5c 88 3d af 4d 5b 3e 5d 40 eb 3d 23 7b 69 3d
       0.06658346 0.21416353 0.11486886 0.057002198
000120 d4 a5 65 bd 41 04 31 3e b6 9b 84 bd 62 31 b5 3d
       -0.05606635 0.17286779 -0.06475012 0.0884731
000130 78 f1 a9 bd a6 48 80 3e 4f bd 77 3e b6 12 df bd
       -0.0829801 0.25055426 0.24193309 -0.10892241
000140 1f 5c b5 3c 7b 15 48 3e 96 b3 5e 3b a8 be 6d bd
       0.022138653 0.19539444 0.0033981553 -0.058043152
000150 65 68 00 3e 65 27 de 3b 9c 65 e7 3b 93 e8 ed bc
       0.12539823 0.0067795985 0.0070616733 -0.029041564
000160 fa e2 64 3d 0f 69 29 3e 9b d7 19 3e e0 d3 af bc
       0.055880524 0.16543983 0.15023653 -0.021463335
000170 48 85 2a 3e 1b 4b 77 3e e3 ce fb 3d a0 c0 8d 3e
       0.16652405 0.24149744 0.1229532 0.27686024
000180 fb 42 b1 bc 81 74 27 3e b1 f8 b8 bd 3f 09 0b be
       -0.021638384 0.16353036 -0.09031809 -0.13577746
000190 15 77 16 be 76 d1 dc 3a 84 42 55 bd 1a d0 9d 3d
       -0.14693864 0.0016847092 -0.052065387 0.07705708
0001a0 be 8e 59 3e 31 f5 1e be 51 e4 46 ba 91 5a d2 bd
       0.21245858 -0.1552322 -0.00075871224 -0.102711804
0001b0 7b aa 42 bd f7 c5 1a be 89 69 0f bd 28 8f 93 3d
       -0.047525864 -0.1511458 -0.035012756 0.07205039
0001c0 21 02 48 3d 3c b4 cd bc 2b 81 e3 bd ff 6d 51 3d
       0.048830155 -0.025110357 -0.11108621 0.05113029
0001d0 fc c1 86 3c 17 8f af 3d dc c9 1d 3e bc 30 24 be
       0.01644992 0.08572214 0.15409034 -0.16034216
0001e0 05 90 f9 3d 71 76 ff 3c 76 5f a1 3d 8b e9 a1 bd
       0.12185673 0.031184407 0.07879536 -0.07905873
0001f0 0f d2 0b bd f6 7a 67 3d ed 96 d2 3d da 8c b5 bd
       -0.034135874 0.05651375 0.10282693 -0.08864756
000200 57 de 14 3e 74 be 20 3e c3 2b 55 3c 68 c7 1d be
       0.14537941 0.15697652 0.013010922 -0.15408099
000210 34 65 f5 3d dc 29 0c be bc 6f d3 bd 32 fe 1f 3e
       0.119821936 -0.13687843 -0.10324046 0.15624312
000220 99 f2 62 3e 77 2b 1d 3e 11 32 b2 bd 83 c9 65 3e
       0.22162856 0.15348612 -0.08700956 0.22440152
000230 68 cb d6 3d f2 17 d2 bd 2c fb fd bd 25 45 a8 3d
       0.104880154 -0.102584735 -0.12401423 0.08216313
000240 93 e5 db 3d 99 51 3d bd 4a 89 0f 3e fd 08 92 bd
       0.10737147 -0.046220396 0.14017215 -0.07130621
000250 92 6d bb 3d 5d 2e a1 bd 2b e3 19 3e cb d8 7c 3e
       0.09151758 -0.07870171 0.15028064 0.24692075
000260 28 d3 12 bb 39 b0 1e 3d 6e 21 dd 3d 3b d1 b7 bb
       -0.002240369 0.038742278 0.10797392 -0.005609659
000270 6a 79 6c 3e 0f 85 c5 bd 12 bc f1 bd 4a ec 7e bd
       0.23093191 -0.096445195 -0.1180345 -0.06223706
000280 40 a8 89 3d 38 a2 fe bd 8a f9 26 3e 47 c2 2a be
       0.06721544 -0.124332845 0.16306129 -0.16675673
000290 d7 a3 bf 3c 45 51 5a 3d ae 2e 04 3b 83 af b3 bd
       0.023393555 0.05330016 0.0020169425 -0.087737106
0002a0 78 a3 66 be 91 7d 0f bd 80 49 43 bd 0e a9 18 be
       -0.22523296 -0.03503186 -0.047677517 -0.14908239
0002b0 24 1a a2 3d 3c 35 c7 bd ca cf f3 bd 18 d2 c5 bc
       0.07915142 -0.097269505 -0.11904867 -0.024148032
0002c0 36 ac a8 3d 52 9d 51 be f5 4e 39 3e 47 37 19 3e
       0.08235972 -0.20470169 0.18096526 0.14962493
0002d0 45 1c c3 bd 6e 1a 24 be bd c0 52 be 35 ad 4d bc
       -0.09526876 -0.16025707 -0.20581336 -0.012553503
0002e0 ad 6a d0 bd 05 5d ad 3b 6f 79 50 be d2 14 44 3d
       -0.10176597 0.00529063 -0.20358823 0.04787142
0002f0 d2 95 45 3e bc 22 a3 3d ff b4 6c be 9b 27 5e 3d
       0.19295433 0.079656094 -0.2311592 0.05423699
000300 4d 7b c4 3d 62 11 84 3d 09 61 76 bc 87 29 b8 bc
       0.0959383 0.06448628 -0.015037783 -0.02248074
000310 d0 6a 85 bd c2 2c df bd a4 c0 2a 3e 93 26 88 3d
       -0.065145135 -0.10897209 0.16675049 0.066479824
000320 8d 02 db bd d0 8d f3 bc 31 2a 0a be 32 5b 0e be
       -0.10693846 -0.029730707 -0.13492657 -0.13901976
000330 d2 cd 3b bd 8f b0 be bd 2e e8 13 3d a7 08 11 bc
       -0.045850582 -0.0931102 0.036110096 -0.008852161
000340 e4 61 d1 3c a4 52 1f be af 38 40 bd 27 53 13 3c
       0.025559373 -0.15558869 -0.046929058 0.008991993
000350 35 73 74 3d e5 2d e2 bd 35 4d 49 3c d9 6e 65 3d
       0.059680182 -0.1104391 0.012286474 0.056013916
000360 6c 0b de bd aa ee a8 bd 48 6b a5 3d 8c 9d 8d bd
       -0.10842022 -0.082486466 0.08077103 -0.06914815
000370 17 f0 74 bc 59 60 07 3d d8 f7 ff 3c cf ed f0 bb
       -0.01494982 0.03305087 0.03124611 -0.0073525677
000380 f3 76 3c 3e 9b 5a cc 3e 71 1b 60 3e 1c eb 5f 3e
       0.1840475 0.39912876 0.21885468 0.21867031
000390 03 21 70 3e 24 fa d6 3d e7 1b 73 3e d9 b2 91 3e
       0.23450093 0.10496929 0.23741113 0.28456762
0003a0 de d9 78 3e 0f 8d 9e 3e 37 26 2d 3d 33 0c 42 3e
       0.2430186 0.30966994 0.042272773 0.18949966
0003b0 14 7c 5b 3d f8 57 1d 3e 3f ff c5 3e 62 00 88 3d
       0.053585127 0.15365589 0.386713 0.06640698
0003c0 44 47 a5 3e 98 64 10 3e 08 ad 84 3e a1 3b cb 3e
       0.32280934 0.14100873 0.25913262 0.3969393
0003d0 bf 41 98 3e c0 2f 27 3e 5e d2 04 3e 1c 40 9a 3e
       0.2973766 0.16326809 0.12970874 0.30127037
0003e0 12 14 7c 3e ea a0 10 3e 05 f5 ab 3e 7e 4e 7f 3e
       0.24617031 0.14123884 0.33585373 0.24932286
0003f0 b3 4e 28 3e 56 79 36 3d f9 93 30 3e 58 47 d6 3e
       0.16436271 0.04454931 0.17243947 0.41851306

gru.weight_hh_l0_reverse f4 [96, 32]
000000 08 19 5c 3e de 85 15 3e 96 dc 4c 3d 58 64 1a 3e
       0.21493924 0.14601848 0.050015055 0.1507734
000010 83 b8 3f 3e 9c 69 29 be 8e 44 9e 3c c4 9c ab 3c
       0.1872273 -0.16544193 0.019319799 0.020948775
000020 76 74 80 3b c6 54 d6 3b ac da 68 be 2c df 4d 3e
       0.003920133 0.0065408675 -0.22739667 0.20104665
000030 53 5b 86 3d de e5 23 3d 42 f2 81 3d 59 4b 2a bd
       0.065603875 0.04001414 0.06345035 -0.041575763
000040 8c 8a 93 bd b1 16 12 3e 30 0f 05 be da b8 94 bc
       -0.0720416 0.14266469 -0.12994075 -0.01815455
000050 85 53 88 3d 71 7d fb 3d d6 32 64 3d ed 14 7f be
       0.06656555 0.122797854 0.055712543 -0.24910326
000060 93 e6 e0 bd 40 19 b3 3d f8 f5 96 3d 90 31 ac 3d
       -0.109814785 0.087450504 0.073711336 0.08407891
000070 68 aa b7 bd 93 af 3f 3e 86 9b 78 3e a3 ec 1f 3e
       -0.08968049 0.1871932 0.24278077 0.15617613
000080 28 07 90 3d fc 52 2d 3e 4d 17 a4 bc 64 fd 3f 3e
       0.07032615 0.16926187 -0.020030642 0.18749005
000090 48 bc 2b 3e d5 60 c4 bd 8e 52 81 bd c2 62 2d be
       0.16771042 -0.09588782 -0.06314574 -0.16932204
0000a0 b0 9a 3d be fd ba 95 3e d7 dc 80 be f6 bc 97 3d
       -0.1851604 0.29244223 -0.25168487 0.07409088
0000b0 64 c9 81 3c 3b 86 23 3d f9 ac 45 be 89 96 52 3e
       0.0158431 0.039922934 -0.19304265 0.20565237
0000c0 9d 9e aa 3d 13 85 0e bd c5 0a 24 be 29 88 54 be
       0.08331034 -0.03479488 -0.16019733 -0.20755066
0000d0 d6 91 5f be f6 27 2d 3e 70 4f 47 bd 80 99 63 be
       -0.21832976 0.16909775 -0.048659742 -0.22226524
0000e0 1e 82 f5 bd d0 66 12 be 90 6c af 3d 98 bf 62 bd
       -0.119877085 -0.14297032 0.085656285 -0.0553585
0000f0 de eb a4 bd 2f 2b 0a 3e 9a cc 8e 3e 3e d3 cb 3c
       -0.080528006 0.13493036 0.27890474 0.024881002
000100 a6 96 84 3d 26 b0 f7 bd 7f c7 40 bd 92 16 11 be
       0.064740464 -0.120941445 -0.047065254 -0.14168766
000110 c6 a1 9e 3d 16 d8 04 3e 89 aa 01 bd a5 08 28 3c
       0.077456996 0.12973055 -0.031656776 0.010255967
000120 09 87 51 be 34 f4 af 3d 16 d8 1d be 0f 0b 97 3d
       -0.20461668 0.085915 -0.15414461 0.07375156
000130 e6 c8 bb 3d b6 52 f0 bd 94 4c 4d be bc b7 85 bd
       0.09169178 -0.11734526 -0.20048743 -0.06529185
000140 08 f7 a2 3b 0f 27 f5 bc d1 da ec 3d 99 c6 fa bd
       0.004973296 -0.029925851 0.115651734 -0.12244911
000150 3c 30 ee 3d 5d 1c 4f 3e 56 aa c7 bd 59 05 5b 3d
       0.11630294 0.20225663 -0.09749286 0.053471897
000160 8f 93 19 be 9e b6 42 be 82 76 ac bd e4 8e 2f 3d
       -0.14997695 -0.19014975 -0.08421041 0.04286088
000170 86 35 af 3d 04 97 80 3d e5 68 d4 bd cb 99 eb bc
       0.08555131 0.06278804 -0.103715695 -0.028759858
000180 c6 c0 79 3e 7f 63 24 3e 82 c8 49 be d9 ba 55 3d
       0.24389943 0.1605358 -0.19705394 0.052180145
000190 8e ce 89 3c 17 0f 5d bd 5e fe 5e 3e 7d ef 5a be
       0.016822126 -0.05396947 0.21776721 -0.2138042
0001a0 21 bf 26 be 98 dd 91 3c f4 54 13 bc c2 70 12 3e
       -0.16283847 0.01780586 -0.008992422 0.14300826
0001b0 2b a6 75 bd 38 51 07 3e dd 15 88 be 03 a3 59 3d
       -0.059972923 0.13214576 -0.2657918 0.053133976
0001c0 ba 52 8f 3c 81 b1 50 bd 5b 51 ef 3b 5f 15 02 be
       0.017495502 -0.05095053 0.0073033995 -0.12703465
0001d0 c4 11 25 bb 58 6a fd 3c 5d 56 46 3c 66 e9 bf bc
       -0.002518759 0.030934498 0.012105552 -0.023426723
0001e0 cd ca c7 3d e8 ed 45 be a5 b1 31 be 98 4c 30 bc
       0.09755478 -0.19329035 -0.17352922 -0.010760449
0001f0 fd c3 ab 3d 06 5b 27 3e e0 54 73 3d ce e6 69 3e
       0.08386991 0.16343316 0.059407115 0.22841951
000200 ec b5 f1 3d a1 98 42 bd 68 6b 8a 3d 7a ee 1e 3e
       0.11802277 -0.04750884 0.06758767 0.15520659
000210 9b c3 99 bd ae b5 d2 bd cf 8e 9e 3d 85 9f 7a be
       -0.07508012 -0.10288559 0.07742082 -0.24474914
000220 42 f1 94 3d 33 eb 55 3e b0 7a f4 bc 59 2e ec bb
       0.07272579 0.20890503 -0.029843658 -0.0072076735
000230 d1 a3 3c be b7 2d 21 3d ba 14 64 3c 34 8a 1d 3d
       -0.18421866 0.039350238 0.013920957 0.03846188
000240 ea 86 22 3e 02 c8 a1 bc 29 9a c9 bd c7 44 5e bd
       0.15871778 -0.019748691 -0.09843857 -0.05426481
000250 ce ec ef bc bf 5e a0 3c e9 17 3b 3c 11 80 49 be
       -0.029287722 0.019576428 0.011419275 -0.1967776
000260 ad ce 98 bd 32 a1 e1 bc 01 2c 8c 3d 72 79 3f bd
       -0.07461295 -0.027542684 0.068443306 -0.04674668
000270 c8 63 2c 3d ef b7 0b 3c 8b f4 2c 3e 1d 15 63 3d
       0.042087346 0.00852774 0.1689016 0.055440057
000280 38 c9 06 3e 82 59 8a 3d 4f 34 0d 3e 41 fd 87 3e
       0.13162696 0.067553535 0.13789485 0.26560405
000290 6f 8e 04 bd ee 53 fa bc 03 a9 04 3e bd 1b 0f bd
       -0.032362398 -0.030557599 0.12955098 -0.034938563
0002a0 61 b3 b7 3d c5 29 b1 3d 54 9e b9 bd aa 00 1f 3e
       0.08969761 0.08650545 -0.09063402 0.15527597
0002b0 ce da 8f 3c 00 54 03 be 61 6a 86 bd ae 0d 3a 3e
       0.017560389 -0.12825012 -0.06563259 0.18169281
0002c0 95 f0 81 bd 47 1d 68 bc ac a1 5e 3d 16 fc 21 be
       -0.063447155 -0.0141671365 0.0543534 -0.1581882
0002d0 d9 7f 1a 3c 06 83 8d bd c9 55 af 3d e0 2d 75 bc
       0.009429895 -0.06909756 0.08561284 -0.014964551
0002e0 ce 2a 83 3d 9e 74 98 3d b7 7a 6c be 47 59 e7 3d
       0.06404649 0.07444118 -0.23093687 0.11296325
0002f0 e2 ba d1 3d 01 04 84 bd a1 33 2a 3e c7 a5 e0 3c
       0.10240723 -0.06446076 0.16621257 0.027422799
000300 e2 45 f2 3d 7a e6 63 3d cd 42 85 3c be a1 7c 3d
       0.11829735 0.05563972 0.016267205 0.061677687
000310 63 f4 d2 bc bf c2 5b be ea 52 ec 3d 31 3d 8d be
       -0.025751298 -0.21461008 0.11539252 -0.27585748
000320 ff 7a fe bc ec 61 75 bd 0f 55 2e be f0 c1 08 3e
       -0.031064508 -0.05990784 -0.17024635 0.13355231
000330 f0 0e fd bb 95 46 05 be f3 ee 75 be a3 fc a5 bd
       -0.007722728 -0.13015206 -0.24016933 -0.08104827
000340 a8 35 1f 3d 6a cb ee 3d ea 72 7c bd 9b 38 0b 3d
       0.03886953 0.11659892 -0.061633028 0.03398953
000350 22 05 73 3b b0 e7 08 3e 64 2a b4 bd 91 e0 df ba
       0.0037081917 0.13369632 -0.08797148 -0.0017080476
000360 4f bd f7 3d 7d 61 4c 3d 47 72 95 3d be e8 2e bb
       0.120966546 0.04989766 0.07297187 -0.0026689018
000370 91 6d 07 bc be 1a 27 3e 0b 32 ad 3d 39 a4 01 3b
       -0.008265869 0.16318795 0.084568106 0.0019781722
000380 6c fa 53 bc c4 0b d8 3d 36 51 ab 3d f5 7d 72 bd
       -0.012938123 0.10549119 0.08365099 -0.059202153
000390 a1 fc 05 be ae c5 e2 3d 83 e6 41 3e 4a bd 8b 3d
       -0.13084652 0.11072861 0.1893559 0.068232134
0003a0 91 5e b0 bd e3 4c 27 3e 42 70 3b be 49 b3 52 bd
       -0.08611787 0.16337924 -0.18304542 -0.05144051
0003b0 c8 ba 3d bd 24 bf 81 3d 52 3c b5 bd db 49 20 be
       -0.046320707 0.06335285 -0.08849396 -0.15653174
0003c0 22 2e 10 be ad a9 9b bc 09 da d5 bd 5c ce 32 3d
       -0.14080098 -0.019001806 -0.104419775 0.04365383
0003d0 e0 b6 89 bd 32 5a 09 3d 64 f6 78 bd bf 9c 8a be
       -0.06724334 0.033533283 -0.06078185 -0.27072713
0003e0 04 89 c5 3d f5 1e a0 3d 6a a0 86 3d 3d e9 9a bd
       0.09645274 0.078184046 0.06573565 -0.07564018
0003f0 44 59 db 3c 83 5a d6 bc 3f 0a b6 3d 5d 4b 05 3e
       0.026775964 -0.026166206 0.08888673 0.1301703

gru.bias_ih_l0_reverse f4 [96]
000000 cc e8 91 3d 32 2d 33 3e 0e a8 34 3e 83 62 16 3e
       0.071244806 0.1749771 0.17642233 0.14686017
000010 fd 9c 89 3d bc 5d f0 bd cf d0 08 bd 39 42 90 bd
       0.06719396 -0.117366284 -0.03340226 -0.07043881
000020 7b a5 f0 bd ed 41 62 3e c0 02 2e 3d 4a 95 07 3e
       -0.11750313 0.22095461 0.04248309 0.13240543
000030 ba 8d 55 3d e9 96 72 3b b4 7e da 3b 7b 7e 71 3d
       0.052137114 0.003701622 0.006667936 0.05895851
000040 82 2b 91 3d 38 1a 9c 3d 7b 78 3d 3e f2 9e a4 bd
       0.070883766 0.07622188 0.18502991 -0.08038129
000050 1d bb fc 3c 14 ad 52 3e 1e eb 08 bd 6a 6f 1a 3e
       0.030850941 0.20573837 -0.03342735 0.15081564
000060 b6 1a 96 3d a1 79 05 be 78 e7 d9 3d 51 33 81 3c
       0.073293135 -0.13034679 0.10639852 0.01577154
000070 c1 68 6a 3d a8 fc e4 bd 35 cd 18 bd b2 9b 63 3e
       0.057228807 -0.11181003 -0.037305076 0.22227362
000080 2a 61 de bd 2b 3b 4c 3e 22 9e 95 3c 8f 0e c2 3d
       -0.10858376 0.19944446 0.01826388 0.09475433
000090 68 13 73 3e 53 a8 a6 bd 20 ff 4d 3e df 9b d4 3d
       0.23737872 -0.08137574 0.20116854 0.103812926
0000a0 5c 04 81 bd ca 1e 60 3e d0 a8 34 3d 0b 1f 9e bc
       -0.062996596 0.21886745 0.044106305 -0.019301912
0000b0 0e fb 97 3e 63 c3 bf 3d 16 f4 44 3e 13 26 2f bd
       0.29683727 0.09363439 0.19233736 -0.04276092
0000c0 64 0c b8 3b 26 1d 14 3e ec 60 2b bd a6 27 55 bd
       0.0056167115 0.14464244 -0.04184048 -0.052039765
0000d0 2b f2 83 3e b7 eb dd 3d 7a 4a 0a bc cc 6f 71 3e
       0.25770697 0.10835975 -0.008440608 0.23577803
0000e0 3d 7f f1 3d 68 6c d7 bc 83 62 28 3d 73 09 a8 bd
       0.11791847 -0.02629681 0.041109573 -0.08204927
0000f0 ab 81 03 3e 30 ae 8c 3e 46 b7 ff 3d 2e 56 b0 3e
       0.12842433 0.27476645 0.124861285 0.3444075
000100 89 87 6d 3e 0c e1 29 3e ba 8a a5 bd 14 3f 3f 3e
       0.23196234 0.16589755 -0.080831006 0.18676406
000110 04 e6 ee 3d 89 d3 9e bd 01 f7 24 3e 6f 30 6b 3b
       0.11664966 -0.07755191 0.1610985 0.0035887023
000120 71 66 29 be ba c9 0c 3e 81 99 3d be 61 d2 9f 3d
       -0.16542985 0.13748828 -0.18515588 0.078037985
000130 a1 3d 9d bd 84 e9 6f bd 5d 69 c8 bd 54 a4 f3 3d
       -0.076777704 -0.058572307 -0.097857215 0.118965775
000140 02 fd aa 3d c6 31 fc 3d 41 38 da bd ed 0f 25 be
       0.08349039 0.12314181 -0.10655261 -0.16119356
000150 da 21 bc bc 94 3d 3f 3d c9 ed 59 be 61 cd 37 be
       -0.02296536 0.046689585 -0.21282114 -0.1794944
000160 41 ac 25 3d c2 ee 3c be b5 0c d3 3d 4b 01 26 be
       0.040447477 -0.18450454 0.10305158 -0.1621143
000170 4a 5f fb 3d cc 0d f1 3d 20 83 59 3d f5 17 d5 3d
       0.12274034 0.1177021 0.053103566 0.1040496
