logs/exp0/weights/epoch85.pt (torch, 348934 bytes, 45 tensors)

conv_block1.0.weight f4 [32, 4, 10]
00000000: f03e f4bb 3c1b 5abe 6b2c 243e 44cf 13bd
00000010: 5dae 5abc f943 e23d 2048 1cbd 1608 1ebe
00000020: b73e 043e 4ec4 0bbe 5ae1 ae3d 152e 08be
00000030: fc39 90bc 6157 643d 5493 13be 0745 8a3d
00000040: 3f1d 973d bd51 85bb e450 9fbd 233e 3abd
00000050: d595 b9bd 5a40 b43d 2e16 303c c555 c1bc
00000060: f3db 773d b7d1 01be 573f 483d 3f4c bd3d
00000070: 3e66 55be d7ae 08bd de67 40be ad0e a73d
00000080: bbd7 463c 18c4 32bd 724c 27bd 3a8d 13bd
00000090: 1401 d3bd 40c3 203d 7af6 a53c 75ed 753c
000000a0: 0b10 53bc 9b5f 09be 7d52 a13d e052 debd
000000b0: 15d4 d6bc 5686 3a3e 7c09 d8bd b087 1cbd
000000c0: 7306 e53d c4e2 723d f38b 9d3d c698 8b3d
000000d0: dbed 30be 0012 e63d dda6 44be 337b 7c3c
000000e0: c342 af3c 1401 8bbd a325 85bc b963 873d
000000f0: 4fbf b1bd b5e7 cd3b 3e15 cabc f032 66bd
00000100: ebc7 9fbc 55bd f4bc df93 c0bd c5e8 da3d
00000110: 3cae e0bd 4b75 3ebd 06fe ce3d 5c30 9a3d
00000120: 0ae3 bbbc edb1 4abd 304e 09bd 284f 36bd
00000130: 16a8 04be d37b d83b a9e0 d6bc c468 973d
00000140: 33e0 6d3d b307 fbbd 7ad4 0ebe 6fbe cdbd
00000150: d536 153e 798e 1abe f09c b2bd d921 eb3d
00000160: e8eb 31be a4cd 1a3b a6db 713d 5c27 0f3d
00000170: 6289 d93c 7850 113d 96c3 39bb 004c f73d
00000180: cc9c ca3d 3ccc 053e 49ff 303e da56 e1bc
00000190: 76c7 503c e4be 0cbe 8ec9 cf3c 31cd 18be
000001a0: 7ced 4639 0a58 bc3d 7111 cc3d 968d c9bd
000001b0: 0c29 9bbc 19b8 a5bd a391 f1bd 8a85 febd
000001c0: e698 bd3d 4062 7b3d bba0 cabd 96ab dfbd
000001d0: 4f5c a93d b5a2 533b 6cf5 dabc 5f09 4fbc
000001e0: ae99 f43c 9a55 26be 02b9 cbbd 1aa2 0abe
000001f0: 98b0 50bd 0c24 b63c d21a 92bd 24e7 38be
00000200: 2080 66bc cf2f b63c 35fc aabd d0f9 48be
00000210: bf50 1bbe e585 08be cb3d f6bd 260f 0bbd
00000220: b4b2 ec3c c966 19bd bc82 36be 63ea 523d
00000230: b2be 95bd a3f9 99bb bca4 1ebc 1ce4 0e3e
00000240: b60c 12be bc9c 5e3d ae0a cb3d 2e4e 92bd
00000250: 7d3f 0f3e 9144 99bc ee26 9f3d 891e 7d3d
00000260: 5834 d33d b787 6e3c 7f8c 02bd 7a85 703d
00000270: f9ce c93d 57cd 823d fbae c43d e8b8 b83d
00000280: c443 2cbd 1200 22bd 7493 3b3c 6f4d 98bd
00000290: 513f 9cbd 07e5 fe3d cf32 babd e993 cebd
000002a0: 3e8f 853d 6ab4 adbd c1ab 603d 2670 513d
000002b0: 7aed 7dbd 5d0c d13d 12c3 15bc 65f5 3ebe
000002c0: e157 a2bb 22c2 d43d e5e0 04be 9064 063e
000002d0: 7cf1 dcbd a37e 753d 279b 24be fe27 dc3c
000002e0: 8e2e 0a3d 5386 ebba b8f0 61be b760 cf3d
000002f0: 08f8 30be fb4c 533c ff00 583d c8a4 b1bc
00000300: 6c4a d4bd 8642 fbbb c5ca 58be 6885 7d3c
00000310: 6965 a23d 9cc0 803d 0cf1 49be af86 b23d
00000320: 2ce6 3e3c ff33 b53d 6a64 80bd 750f b5bd
00000330: e903 483d d23d 50be 8789 aa3d bd66 283e
00000340: 3ece 93be 7153 dbbd 0ebe 0c3d 5cdd 8e3c
00000350: 7644 4abe 74da 96bc 3066 c23c 0897 003e
00000360: 4281 88bc d1c2 f3bd eea8 423e 94b1 01be
00000370: 1a7c 493c c66b 7fbd 9d74 853d 4c7e e8bc
00000380: fc3a 29be 3e44 c2bd 0af5 ea3b 2754 40be
00000390: 9b2f 80be fb53 173d 69d6 aa3d 1f7f d13c
000003a0: ffd2 ecbc 55fc 9d3d 58f4 c03d f1e8 8bbc
000003b0: ea05 f2bc 2fa2 aa3d b62a 84bd d3fa 7d3d
000003c0: 2ea3 cd3d 5822 8d3d daa6 213d 3575 4d3d
000003d0: afff fcbd efc8 433e 8082 6e3d 3766 153e
000003e0: 255d 0f3e 0509 ed3d c79c b0bd eb15 0cbb
000003f0: 2bad c13c b8f1 9ebb db9e bdbd cee9 89bd
-0.007453792 -0.21299452 0.16032569 -0.036086336 -0.0133472355 0.11048121 -0.03815472 -0.15432772
0.12914549 -0.13649103 0.08539076 -0.13298829 -0.017605774 0.055747394 -0.1441167 0.06751447
0.07378625 -0.004068582 -0.077791005 -0.045469414 -0.09061781 0.088013366 0.010747476 -0.023600468
0.060512494 -0.12677656 0.04888853 0.092430584 -0.20839784 -0.033369865 -0.18789622 0.08157096
0.012136395 -0.04364404 -0.04084439 -0.036023356 -0.1030294 0.039248705 0.02025913 0.015010227
-0.012882243 -0.13415377 0.078770615 -0.10855651 -0.026224175 0.18215308 -0.10548684 -0.03821534
0.11182871 0.05929829 0.07692709 0.068162486 -0.17278235 0.11233902 -0.19204278 0.015410232
0.02139414 -0.06787315 -0.016253298 0.066108175 -0.08679067 0.006283725 -0.024668332 -0.05620092
-0.019504508 -0.029875437 -0.09403204 0.106889285 -0.109707326 -0.046498578 0.10107045 0.07528755
-0.02293541 -0.04948609 -0.03352183 -0.044509083 -0.12954745 0.006606558 -0.026230173 0.07393029
0.05807514 -0.12257328 -0.13948241 -0.10046088 0.14571698 -0.15093412 -0.0872134 0.11481065
-0.17375147 0.0023621107 0.059047364 0.034949645 0.026554767 0.03547713 -0.0028345338 0.12075043
0.09893188 0.1306619 0.17284884 -0.027507234 0.012742868 -0.13744694 0.025364663 -0.14922024
0.00018971221 0.091964796 0.09964264 -0.098414585 -0.018940471 -0.080917545 -0.11795356 -0.12427814
0.09257679 0.061372995 -0.09893938 -0.10921399 0.082695596 0.0032293026 -0.026728354 -0.012636512
0.029858436 -0.16243592 -0.09947397 -0.135384 -0.050949663 0.022233985 -0.07134022 -0.18056923
-0.014068633 0.022239594 -0.08348886 -0.19626546 -0.15167521 -0.13332327 -0.12023505 -0.033949994
0.028893806 -0.03745154 -0.17823309 0.05149306 -0.07311763 -0.0046989485 -0.00968283 0.13954204
-0.14262661 0.054348692 0.09914146 -0.07143818 0.13989063 -0.018709453 0.07771097 0.0617967
0.10312718 0.014558724 -0.03187227 0.058721043 0.0985393 0.06386822 0.096036874 0.09019643
-0.042056814 -0.03955085 0.01144873 -0.07436644 -0.07629264 0.12446027 -0.09091722 -0.100868054
0.06521462 -0.08481677 0.054851297 0.051132344 -0.061994053 0.10207436 -0.009140747 -0.18648298
-0.0049543236 0.103885904 -0.12976415 0.13124299 -0.10788247 0.059935223 -0.16074811 0.026874539
0.033735804 -0.0017969109 -0.22064483 0.10125869 -0.17282116 0.012896772 0.052735325 -0.02168502
-0.10365757 -0.0076678423 -0.211711 0.015473701 0.07929499 0.06286737 -0.19720858 0.08717095
0.011651557 0.08847808 -0.062691525 -0.08840839 0.048831854 -0.20336083 0.083270125 0.16445442
-0.28868288 -0.107092746 0.034360938 0.017439537 -0.19752678 -0.018414713 0.023730367 0.12557614
-0.016663197 -0.11902393 0.19009754 -0.12665397 0.0122976545 -0.06235864 0.06516383 -0.028380536
-0.16526407 -0.094856724 0.007170324 -0.18782102 -0.2503632 0.036945324 0.08341677 0.025573311
-0.028909205 0.07714144 0.09421605 -0.017078849 -0.029543836 0.08331715 -0.06453459 0.062006783
0.1004089 0.06891316 0.039465763 0.050160605 -0.12353455 0.19119619 0.058229923 0.14589773
0.14000376 0.11573986 -0.08623653 -0.0021375369 0.023642143 -0.0048505925 -0.09258815 -0.06734048

conv_block2.0.weight f4 [32, 32, 10]
00000000: ab8e e3bc 58d4 62bd 8e7f 8438 0517 79bd
00000010: 9f21 5c3c 068b f73c bb5e 143c bfd9 fa3d
00000020: 1f36 c63d ed33 ce3d 2074 b73d 58c4 ed3d
00000030: d85e ef3d b6e3 813c 1c31 833d ac38 cc3d
00000040: cf8c 2e3d a7e4 e43d 185a 723d b9bc c8bb
00000050: 4a3b c8bb 0b61 b13c 42dd 10bd 2f9a 563c
00000060: e57d 1dbd 56a8 943d f29c 513d 5c0b 68bd
00000070: 72b5 dc3c fbed abbd 5680 f7bd 4911 1a3d
00000080: 3c1e 0fbd 987e d5bd 0054 c0bd c275 893d
00000090: 0b02 21bd b6e8 79bd 15d1 10bd 51e5 e5bc
000000a0: 34d4 5e3d 5116 8d3b 8b09 033e 3a0b c93d
000000b0: 6d4c 86bd e054 1a3e 247b 65bd b2ed dc3d
000000c0: bc60 dc3c 66f8 b03d 72df ccbb ba94 b23c
000000d0: 3768 af3c 7573 ac3d 71e2 4dbc 6e14 523d
000000e0: 7d6c afbb 2180 933d 36a4 f93d dae4 eb3d
000000f0: f989 893d 03da 893d d9c6 0e3e c25b 293e
00000100: b8e3 813e bff9 a93d 9a23 c03d af88 383e
00000110: 712f 853c 1a59 9f3d ee8d 593e c285 6d3d
00000120: 9084 473d 24db 4b3d 244e b63d 3f2f cd3d
00000130: fa76 a83d 268c ae3d bc1e 153e 11f1 263e
00000140: 2b33 733d b4d0 a83d 249b 1d3d eaac 05bd
00000150: 3405 bc3d a2ac a3bd d5d7 11bc 8b54 7ebc
00000160: 81b7 9e3c 3532 87bc 7b7e 673b ff80 26bb
00000170: acbc 8e3c a4d5 d1bd 260f 01be 82bd 14be
00000180: 58d0 04be 3f06 2a3c 81c4 06be 1a58 5abb
00000190: def6 ed3d c4dc e03d cb8e 323e a43a 493c
000001a0: e74c 303e 2764 433c 43b8 e93d 071a de3d
000001b0: 8c48 88bd 02ca f93d 9c6d 973c 14b6 c3bd
000001c0: 714c b53d e361 a53d 8919 8d3d c941 5d3d
000001d0: 5aeb 44bd 652c d03d 60bd 92bd 5a74 03bd
000001e0: 8d26 e6bd b56c 6abd fbcc 54bd cff5 803c
000001f0: 1338 ffbd 7db1 19be 2833 86bb cc92 2d3d
00000200: ce09 133c f786 1dbe 5305 f6bd ff8f ebbd
00000210: 12d3 c0bd 39c2 edbd 16ac 2bbe a98f f1bd
00000220: 30f6 a0bd c551 e3bb 49b8 1cbd bd2c 08be
00000230: 5dbf 823d f1aa 8c3d 2db4 dd3d 1295 1a3e
00000240: 12ec f83d 328d a53d 10ea 55bd 1c24 ab3d
00000250: 529b 0c3d 5ad5 073e 59b7 d53d f887 953d
00000260: 358c bcbd ea54 2e3b 4d98 9c3d 2b39 783d
00000270: 8fe8 3bbd d143 6c3c bbe3 943d 2a9a a7bb
00000280: 21fb 7f3d 4ae3 9cbd 7f4b a4bd e5a6 ddba
00000290: fa8f dd3d fcd4 353d 49df 893d 7e42 48bd
000002a0: 4b18 9e3d dfc8 6dbb 4723 2cba 509d 133e
000002b0: 364b 2f3e babf f53d d566 0c3d 8e0e 333e
000002c0: 9c33 343d c003 593d a606 9c3d 9eed adbc
000002d0: 829b 40bd 045a 94bc ea34 0abe 11f8 a5bb
000002e0: bc71 e3bc f1b6 e6bd b37f 5cbd 2372 b4bd
000002f0: f340 b9bc 5d2c 59bd 9dd3 45bc 9a36 133e
00000300: 636c 16bb ff95 4b3d 56cf 51bd 7215 98bc
00000310: f3fe bf3c 2505 d73d 8cff 633c 310d 1a3d
00000320: 579f 4abd 9e66 06bc 41ea b23c a039 10bd
00000330: fd94 17bd 2315 81bd 2d56 35bd ba43 093d
00000340: 0903 17bc 733f 67bc 42ef 8bbd 8324 673d
00000350: 4f6a 6ebd 7681 83bd d17c 2dbd 2b2a 5abd
00000360: a7b1 acbc ed46 ed3d 14bd 953c c70a 98bd
00000370: e124 383d 972a 4e3d 9a7d 543d 9f82 0a3e
00000380: c5b9 cf3c d9fc 2fbc e440 0d3e c6a7 8a3d
00000390: 01cf 183e 38d4 403d 4c19 c73c db52 b23d
000003a0: e4a0 273e 3b9e 5a3e d1de 953d b3d8 803d
000003b0: 2f19 1b3e 32b6 2f3e e6b3 0c3e 004e ac3d
000003c0: 1ec8 c03d e8ef fb3d e445 91bd e72d edbc
000003d0: 5c8c 23bd 0bba b33d 6986 c3bd 3b81 23bd
000003e0: 94a8 e53d 9e1a 423c bfe2 f0bd e38b 01be
000003f0: e99a bebc 52eb 1dbe c3cd ccbd 15c2 a93c
-0.02777799 -0.055378288 6.3180094e-05 -0.06081297 0.01343575 0.030217659 0.009055789 0.12248563
0.096782915 0.10068498 0.08957696 0.11609715 0.11688012 0.015855651 0.06405851 0.09971747
0.042614754 0.111764245 0.05916795 -0.006126013 -0.0061105834 0.021652719 -0.035367258 0.013098284
-0.03845014 0.0725867 0.051175065 -0.05665146 0.026941989 -0.083950005 -0.12085025 0.03761414
-0.034940943 -0.104245365 -0.09391022 0.06711914 -0.03930859 -0.061012946 -0.035355646 -0.028063448
0.05440159 0.004305639 0.12796609 0.098165944 -0.06557546 0.1507144 -0.05602564 0.10787524
0.026901595 0.08641128 -0.0062522227 0.021799434 0.021411998 0.08420459 -0.012566195 0.051289015
-0.005353509 0.07202173 0.12189524 0.11518259 0.06715769 0.067310356 0.13943042 0.16538909
0.25369048 0.082995884 0.093817905 0.1802089 0.016257973 0.07780667 0.21245548 0.05798889
0.048710406 0.049769536 0.08901623 0.10018777 0.08225818 0.08522825 0.14562505 0.16302897
0.05937497 0.08242932 0.03847803 -0.032635607 0.0918068 -0.079919115 -0.008901556 -0.015523086
0.01937461 -0.016503433 0.003532319 -0.0025406478 0.01742395 -0.10245827 -0.12603435 -0.14525416
-0.12970102 0.010377466 -0.13160898 -0.0033316673 0.11619352 0.10979608 0.17437284 0.012282047
0.17216836 0.011925734 0.11412098 0.10844808 -0.06654462 0.12196733 0.018484883 -0.09556213
0.08852471 0.08075311 0.06889636 0.054017816 -0.04807601 0.101647176 -0.07165027 -0.032093383
-0.11237822 -0.057232577 -0.051953297 0.01574221 -0.12461867 -0.15009113 -0.004095454 0.042376325
0.008974506 -0.15383516 -0.12012734 -0.115020745 -0.094152585 -0.11609311 -0.16764864 -0.11794979
-0.078594565 -0.006937238 -0.038261686 -0.13298316 0.06384156 0.06868542 0.108253814 0.15095928
0.12154402 0.080835715 -0.052225173 0.08356497 0.034327812 0.13264981 0.104353614 0.073013246
-0.0920643 0.0026600906 0.076462366 0.060601395 -0.045876082 0.014420466 0.07269999 -0.0051148133
0.062495355 -0.076605394 -0.08022212 -0.00169107 0.10818477 0.04439257 0.067320414 -0.048891537
0.07719477 -0.0036283059 -0.0006566536 0.14415479 0.17118534 0.119994596 0.034277756 0.17486021
0.04399453 0.052982092 0.076184556 -0.021231469 -0.047023304 -0.018109329 -0.13496748 -0.005064972
-0.027764194 -0.11265362 -0.05383272 -0.08810832 -0.022613978 -0.053020824 -0.012074378 0.14376298
-0.0022952787 0.049703594 -0.05122312 -0.018564913 0.023436999 0.10499028 0.013915908 0.037610237
-0.049468365 -0.008203177 0.021840217 -0.035211205 -0.03700732 -0.0630286 -0.044271637 0.033511855
-0.009217032 -0.014114249 -0.06832744 0.056431305 -0.058206853 -0.06421177 -0.042355362 -0.05326287
-0.021080805 0.11585794 0.018278636 -0.074239306 0.044957045 0.050333586 0.051877595 0.1352639
0.025357137 -0.010741436 0.13794285 0.067702815 0.14922716 0.047077388 0.024304055 0.0870721
0.16369969 0.21349423 0.073178895 0.06291332 0.15146326 0.17159346 0.13740501 0.08413315
0.09413169 0.12301618 -0.07093409 -0.028952552 -0.03992878 0.08775719 -0.09547121 -0.039918166
0.11213794 0.011847166 -0.117619984 -0.12651019 -0.023267226 -0.15421799 -0.100001834 0.020722428

gru.weight_ih_l0 f4 [96, 32]
00000000: ac2c 6a3d 781e 043e fc6e c43c 86f3 cc3e
00000010: 2313 56bc e000 36be 58ae 993e 0eac d2bc
00000020: 65aa eb3c 107d 973d 06a6 023e 9350 483e
00000030: 0964 4dbc 63db 493e 61bd 2abe 415e c33d
00000040: 0896 243e 7bce f03e aad4 b9bd 8308 01bd
00000050: 9ed6 0b3d a355 903e 85ad 17be 0bb2 d63d
00000060: b49b 103b ed70 343e 7ade 433e 9849 80bd
00000070: 851a f0bc 845c 6e3e d4c3 8a3d 9836 863d
00000080: 8e88 803e 572f 7a3d cfac 1c3d 9f2c 77be
00000090: 2ed2 713e 1123 0a3d 9c2a 7b3e 2b7e bebb
000000a0: 7d35 923c 891e b5bd 1e74 efbd d85f e1bd
000000b0: 3912 acbd ce05 173e eb33 163d 73c0 4bbd
000000c0: 172a 793e a7ab 0b3e 7235 573c 3d73 c93d
000000d0: 1d23 a1bc d68d 553d 1b32 00bc a8ac 223e
000000e0: e165 923d 81a8 e03d ede4 0c3d cbce 3d3e
000000f0: 6493 aabd ee44 3e3e c8b5 0bbd fcc5 723d
00000100: 2d54 a63d 8e9d 0d3e afa8 b63c 23ec a83d
00000110: 8bbe 4e3d 2066 71be f3e3 0e3d dc2d 553e
00000120: baab 05be 5be7 843e 81ce 313e 9242 133e
00000130: 140c 593d 4a80 4f3d 5acf b33c 601f c2bd
00000140: ec63 2f3e 33c7 703c 1790 7d3e d8b0 0bbe
00000150: a69f abbd dc9f 9f3c 64ff 1cbe 99e5 c5ba
00000160: d48f 7a3e ebe7 a2bd 7025 6bbe b36c 2e3b
00000170: 54c5 c23d 9b4f d53d b64d 95be 7316 753e
00000180: b546 8abd 8484 a1bc 0340 41bd 534e 46be
00000190: 4e79 5abd 808f ab3c 02ef a63d 45ae f8bd
000001a0: 02b3 4d3e a4d3 b53d 689d c4ba b1ad 84bd
000001b0: 966d 06be 8468 ec3d e175 683d aad4 653e
000001c0: 0faa f43d 2e50 40bd 980e 9dbe fe0e 473e
000001d0: d17e 15be 9e54 213e d913 33bd e9e2 9abc
000001e0: 24a8 91bd d8cc 32bd ce05 2eba c446 483e
000001f0: a5a2 a6bd 872b 143e 49a7 4b3e 7933 fc3c
00000200: cad9 e5bd 1eb3 9eba 2f9a 903d 8eaa 2cbe
00000210: 0568 69bd 43fc bcbd f494 f03d f217 26bd
00000220: c0b6 773c c137 06be e56e fd3d 46d8 ee3d
00000230: 808d e73d a80a 1c3e 860f 7f3d 7c23 f63c
00000240: 822d 873c d553 153e 39f9 c0bc 2dc2 3f3e
00000250: 185e 93bc d799 3c3e 8b1a 723c 634a 973d
00000260: 9359 ee3c 8ce0 893e cec4 833e 5130 86bd
00000270: e002 bfbd 6aff 143d f51b 07be 8fe4 513d
00000280: a9bf 223e 9e6d 923e 6733 d63c 13e3 e53e
00000290: 66dd a5bd 352f 8a3c afd6 0c3e a1a1 833e
000002a0: 7b5f b83c af80 883e 75ff 4d3e 1060 3e3e
000002b0: a08b a5bd e78b 7f3e dc94 18be 0d37 81bd
000002c0: 3d2e bf3e 2004 a13e 651d 3f3e 2051 5f3e
000002d0: f234 963e eed8 003e 0f13 debd ba5a 4d3e
000002e0: 1241 733d c3b9 4dbe 232a b9bd 60ea 353d
000002f0: 8108 513e debc 753e e0e0 12be 09cd e93d
00000300: f446 12be b741 85bd b6b4 80be 555d 89be
00000310: 6925 383e e15a 943e 2352 1fbd 2e7b 27be
00000320: aeac 07bd 4e22 bbbc 1acb 823b eeb3 233d
00000330: 7cee cd3d 4ee4 dbbc ba34 343e 492d e03d
00000340: 9358 04bd 4d3e 49be 407a cbbe cc55 323e
00000350: 8abd 94be f382 efbc 3abf 1c3e 561c 67be
00000360: d68e a0be bdcd 613e 4847 8d3e 4a3b b2bc
00000370: a23e 13be 8f55 35be 3ec5 e43d ea87 bdbe
00000380: d14c 8c3d 0e47 edbd 7d86 013e 0b40 6bbe
00000390: bd1e 37be e413 4fbd c9ea 14bc 353f 2d3e
000003a0: 04bf 87bd d055 1f3e 3579 05be eb0c a7bb
000003b0: 319d 7dbd 15f9 383d 08ef 55bd cb8a 303e
000003c0: 0dd0 d43d aace 04be 9c5f 233e 3bc7 0a3e
000003d0: fa2f 0a3e 879e 8d3d 80c4 723d 62c4 5f3e
000003e0: 9870 c6bd 3d9e 043e dda5 06be 4d90 7e3d
000003f0: 7a6b 783e 334c 12be f9fd 5a3d 5436 c6bc
0.05717151 0.12902248 0.023978703 0.40029544 -0.013066086 -0.17773771 0.30015826 -0.025716808
0.028767774 0.07396901 0.12758645 0.19561987 -0.012536057 0.19712596 -0.16673805 0.09539462
0.16072857 0.47032532 -0.090737656 -0.031502258 0.03414022 0.28190336 -0.14812286 0.10483178
0.0022065463 0.17621203 0.19127837 -0.06264037 -0.02930952 0.2327748 0.067756325 0.06553382
0.25104183 0.061080303 0.03825074 -0.24138115 0.23615333 0.03372485 0.24527973 -0.0058133802
0.01784777 -0.08843715 -0.116920695 -0.11004609 -0.08401913 0.14748308 0.036670607 -0.04974408
0.24332462 0.13639699 0.013135301 0.09836433 -0.019670064 0.05213722 -0.007824446 0.15886176
0.07148338 0.109696396 0.03439801 0.18535917 -0.08328894 0.18580982 -0.034108907 0.059270844
0.08121524 0.13829634 0.022297231 0.082481645 0.050474685 -0.23574114 0.034885358 0.20818275
-0.1305379 0.2595776 0.17363931 0.14380863 0.052990034 0.050659455 0.021949459 -0.094786406
0.17127961 0.01469593 0.24761997 -0.1364168 -0.0838006 0.019485407 -0.15331799 -0.0015098333
0.24468929 -0.07954391 -0.229635 0.0026615083 0.095102936 0.10415574 -0.2916085 0.23934345
-0.067517675 -0.019716509 -0.047180187 -0.19365816 -0.05333834 0.02094245 0.08151056 -0.12142614
0.20087817 0.08878258 -0.0015000524 -0.064784415 -0.13127741 0.11543372 0.056753043 0.22444406
0.119464986 -0.046951465 -0.30675197 0.19439313 -0.14599158 0.15754935 -0.0437201 -0.018907027
-0.071121484 -0.043652385 -0.0006638438 0.19558245 -0.08136491 0.1446973 0.19888033 0.030786263
-0.112231806 -0.0012107824 0.07060658 -0.16861936 -0.056983966 -0.092278026 0.117471606 -0.04055018
0.015119255 -0.13107206 0.12374667 0.11662345 0.11306286 0.1523844 0.062270664 0.030046217
0.016501192 0.1458276 -0.023556339 0.18726416 -0.017989203 0.1841806 0.014776836 0.07387235
0.029095447 0.26929128 0.25736088 -0.065521844 -0.0932672 0.036376394 -0.13194259 0.05124336
0.15893425 0.28599256 0.026147557 0.44899806 -0.08098869 0.016868213 0.1375377 0.2570925
0.022506466 0.26660678 0.2011698 0.18591332 -0.08083272 0.24955712 -0.14900535 -0.06309328
0.37339965 0.3144846 0.18663557 0.2180829 0.2933727 0.12582752 -0.10843479 0.2005414
0.059388228 -0.20090394 -0.0904124 0.04441297 0.204134 0.23997828 -0.14343596 0.114160605
-0.14284879 -0.06506675 -0.25137872 -0.2682902 0.17983021 0.28975585 -0.03889669 -0.16355583
-0.033123665 -0.022843506 0.0039914967 0.039966516 0.10055253 -0.026842263 0.17598239 0.109461375
-0.032311033 -0.19652672 -0.39741707 0.17415541 -0.29050857 -0.029237246 0.15307322 -0.22569403
-0.31358975 0.22051139 0.27593446 -0.021756787 -0.14379361 -0.1770842 0.111704335 -0.37017757
0.06850589 -0.11585818 0.1264896 -0.22973649 -0.1788282 -0.05055608 -0.00908918 0.16918643
-0.0662823 0.15560079 -0.13034518 -0.0050979755 -0.061917488 0.045159418 -0.05222991 0.17240445
0.10391245 -0.12969461 0.15954441 0.13552563 0.13494864 0.06915002 0.05926943 0.21852258
-0.09689444 0.12950988 -0.1314921 0.062149335 0.24259749 -0.1428688 0.053464863 -0.024195828

gru.weight_hh_l0 f4 [96, 32]
00000000: adc9 ecbd ecfc 9d3d 2f44 24be 0df2 3fbe
00000010: 1a75 8f3e fca2 293d d0ca 543d 1be1 2f3d
00000020: f4a9 5fbc 7be0 6cbe 5560 3dbe 6887 a23d
00000030: 8253 89bc e776 9cbe a741 373d 3e9f 283e
00000040: 113a 8dbd 0472 c23c 7c29 bf3d da36 893c
00000050: 64d5 e6bd 3b17 243e 3135 b3bc dc9d b1bd
00000060: 7252 33bd 4043 f7bc bb1a e43d ad48 2ebe
00000070: 9c02 ee3d 8f4d 0bbe ebb6 9e3d 86cc 84bd
00000080: fae7 f4bb c18e f53c 0e77 40bd 8fa1 093e
00000090: 6704 503e a76a e7bc f5a9 9e3e f324 123e
000000a0: 1284 9a3d 3d2d e13c b70c 9d3e 176a 123e
000000b0: 4ee2 43bd c79e 33be 5a7a d3bc 53c2 3fbe
000000c0: 3193 453e 17c3 09bc 0edf 1fbe efd1 c83e
000000d0: b9ad 17bc df95 4abe b53c 35be aace 133e
000000e0: cb9a 9dbd 34b0 413d 2a77 11be 1a2d cdbb
000000f0: 688d f13d 534f a13d 3d0c 86bd 9c48 ef3d
00000100: 3697 e53d 9d6f a33e aee0 9cbd e12e 69be
00000110: e6d8 413d 3dbe 0cbd 15a4 633b da9d 30be
00000120: a63f f1bc 28c4 1ebd a901 cebd a412 f0bd
00000130: a870 a5be 680b 17bd ca77 fcbd c339 3c3e
00000140: b64f 73be f4fb 893e dc99 c4ba 6d1d c5bd
00000150: 47f6 eabb 5f7c 3dbe 5809 3bbe 0920 febc
00000160: 0a03 003c a661 863d f56f f1bd e8cc 0ebe
00000170: 3f33 0e3d b6c8 643d 9b11 373e 0801 703e
00000180: 7985 8a3d d333 51be 3c75 adbd 68ff 983d
00000190: 72a4 043d 5bb4 ddbd cef7 e1bc cced c7bc
000001a0: 7990 16be eef6 163d b940 59bd 9596 fd3d
000001b0: fc84 36be 4917 8bbd afcb be3d 8be7 8d3e
000001c0: 52d0 74bc 7809 91be 0267 223e eaa1 bebd
000001d0: 92a2 abba 0dc8 da3d be40 3dbe 5b1e 25bd
000001e0: 4c47 983d a8c0 703d 91df 69bd f423 2a3d
000001f0: 60c0 c0bd e34f e4bd d7ea bf3d 5a28 fe3b
00000200: eb18 6bbe e4c3 453e 54f4 f9bd 6e7c ed3c
00000210: 0826 dbbb 9b95 67be b2d4 cb3d 0bd1 cc3b
00000220: 4125 403e 2d67 133e 218c fb3d 38d2 293d
00000230: 9544 49be 2fcd 7dbc 3a5c 04be 59c8 77bd
00000240: 1fbe 77be 0aa6 d1bd 9f2b 663b a461 ad3d
00000250: bb40 14be 92b6 89bd 332b 53be 3a55 403e
00000260: 3251 0ebe 52c2 12bd f346 debd 39e0 6dbe
00000270: 7756 763d 81e9 ac3d 99d8 393e 9671 e9bd
00000280: 65f5 39bd 5b9d 623e 1f6d ed3d 7948 b0bd
00000290: 064f 343e 2197 63bb 3da5 f33c 8c27 173e
000002a0: 58ef 0fbd 4055 82bd 1ba5 e83c 3799 6cbd
000002b0: 4695 34be 02c3 eb3d ad84 903e 96da 0fbe
000002c0: 69e3 3ebe 895e 3cbe b36c 75be 4186 7abd
000002d0: a708 9d3d b03e 8abd 9a04 44bd 2b38 d93c
000002e0: b460 483d d487 a6be 3d02 d63c a1fc 413e
000002f0: bfcd 3cbe e8ac 9ebd b6a6 6fbe c400 a03c
00000300: b484 5c3d b629 873d 7ee8 80bc 25b8 1dbd
00000310: f3bd 12be 7cbf aebb 80f7 26be 4d68 5b3c
00000320: 2130 233e e1b1 2abe 0311 53be 5f8b 06bd
00000330: 45d8 633e 994c 103e 1019 aabc 53de d5bd
00000340: 3ee4 113e c565 c33b a199 f23d c92b 0fbd
00000350: 97dd db3b 04db c5bd 9986 26be d3a1 b03d
00000360: 3f43 ba3d 505c 793e 879a d3bd 1489 ce3d
00000370: c51c 013e 3896 9e3d a266 00be 28d3 bebd
00000380: 2c49 3dbc 5f24 133e 441f af3d b0e4 743d
00000390: c173 1dbe 7665 2a3e 4b60 693c ef11 983c
000003a0: 637d 493e fc0d 4b3e 64b1 93bc 5a35 da3c
000003b0: 0d16 85bc 239a 5a3e 8688 21bd 5ad5 0ebe
000003c0: 11fb c4bc 69c2 9ebd 2faf 20be 5b5b 15bd
000003d0: e42c 9b3c 4a0a 36be 720b 7e3b 3b09 893e
000003e0: a0e7 17bd a8d5 48be 9218 d6bd fc72 f03d
000003f0: 3c20 72be 55d0 083d 5234 a7bd 4880 0bbe
-0.11561904 0.07714257 -0.16041635 -0.18744679 0.2801903 0.0414152 0.05195123 0.042939287
-0.01365136 -0.23132508 -0.18493779 0.07935983 -0.016763452 -0.30559465 0.044740345 0.16466996
-0.06895841 0.023736008 0.093340844 0.016749788 -0.1127117 0.16024487 -0.02187595 -0.086726874
-0.043779798 -0.030183434 0.11137911 -0.17019911 0.116215914 -0.13603805 0.077497326 -0.06484322
-0.007473943 0.029975297 -0.04698854 0.13440536 0.2031418 -0.028249098 0.30989042 0.14271908
0.07544722 0.027487392 0.30673763 0.14298283 -0.047823243 -0.17541037 -0.025815178 -0.18726473
0.1929443 -0.008408329 -0.15612432 0.39222667 -0.009257727 -0.19783734 -0.17698939 0.14434305
-0.0769554 0.04728718 -0.14205614 -0.00626148 0.11794549 0.07876458 -0.06545303 0.11683771
0.11210482 0.31921092 -0.07660042 -0.22771789 0.04732599 -0.034361113 0.0034735252 -0.17247716
-0.029449295 -0.038761288 -0.100589104 -0.117223054 -0.32312512 -0.036876112 -0.123275355 0.1838141
-0.23760876 0.26950037 -0.0014999467 -0.09624753 -0.007170472 -0.18504475 -0.18265283 -0.031021135
0.007813225 0.06561594 -0.11788932 -0.13945353 0.03471684 0.055855475 0.1787781 0.23437893
0.06763739 -0.20429926 -0.08469626 0.0747059 0.03238339 -0.10825416 -0.027583983 -0.024405383
-0.1470355 0.036856584 -0.05304024 0.12382237 -0.17824167 -0.06791551 0.09316193 0.27715716
-0.014942246 -0.28327537 0.15859607 -0.093082264 -0.0013094714 0.10682688 -0.18481728 -0.040312152
0.07435474 0.05877748 -0.057097975 0.041538194 -0.094116926 -0.1114805 0.09370964 0.007756275
-0.22958724 0.19313008 -0.12204805 0.028989997 -0.0066878833 -0.22615664 0.09952678 0.006250506
0.18764211 0.14394827 0.12282587 0.041460246 -0.19655068 -0.015490814 -0.12925807 -0.0604938
-0.24193619 -0.102367476 0.0035121215 0.08465889 -0.14477818 -0.06724276 -0.20621948 0.18782511
-0.13898161 -0.03582985 -0.10853376 -0.23230065 0.060141053 0.08442975 0.18149032 -0.11398618
-0.045400042 0.22130339 0.11593079 -0.08607573 0.1760827 -0.003472753 0.029741878 0.1476118
-0.035140365 -0.063639164 0.02839904 -0.057763305 -0.17635068 0.11511804 0.28226224 -0.14048228
-0.18641438 -0.18395437 -0.23967247 -0.06116319 0.07667666 -0.06750238 -0.04785595 0.02651604
0.04892035 -0.32525504 0.026124114 0.18944027 -0.18437861 -0.07747823 -0.23403439 0.019531615
0.053837493 0.065997526 -0.01573586 -0.038505692 -0.14330272 -0.0053328853 -0.16305351 0.013391566
0.15936328 -0.16669418 -0.20611958 -0.03284776 0.22250469 0.1409172 -0.020763904 -0.104427956
0.14247224 0.0059630596 0.11845709 -0.034953866 0.006709765 -0.096609145 -0.16262282 0.086246155
0.090948574 0.2435162 -0.10332208 0.10084739 0.12608631 0.07743496 -0.12539151 -0.093176186
-0.01155309 0.14369343 0.08550885 0.059788406 -0.15376188 0.16640267 0.014244149 0.018563239
0.19676737 0.19829553 -0.018028922 0.026636768 -0.016245866 0.21347861 -0.03943684 -0.13948575
-0.024045499 -0.077519245 -0.15691827 -0.036464076 0.018942304 -0.17777362 0.0038764146 0.26764855
-0.03708613 -0.19612753 -0.10453905 0.117406815 -0.23645109 0.033401806 -0.08164276 -0.13623154

gru.bias_ih_l0 f4 [96]
00000000: 90ec 003e 958c 37bd ea05 583e 32e5 b1bd
00000010: 2341 c83d 5ba5 0b3a 1eb9 2abe 049d 39bd
00000020: e4b2 933e 7446 7bbc ebaa 753d d00a e1bb
00000030: 1dac efbd 4824 0b3e ddee 08be 4cb5 f3bc
00000040: d789 a33d f26f c5bd ec2c 2f3d dcb1 b3bc
00000050: 9ad1 f43d c561 74bd 482e 853e 31bf 023e
00000060: 18a0 233b 3098 06be 88d1 203e 5305 6f3c
00000070: dcf4 373e 005c 1d3e 726b 973d b192 c03e
00000080: cccf 2fbe 80dc 853d 7920 20bd 684d 4f3e
00000090: bb93 813d ff2d 0abe 114f 2a3e 2e78 9fbc
000000a0: 9407 583d 9b04 b33d 15f6 a73e 1bfe 553e
000000b0: 3ccc 9e3d 867b 903d 1118 4cbd 8af5 9dbd
000000c0: 3d33 ce3d 9718 653e 3f85 363c 84fd 623e
000000d0: 8a1e 27bd 4132 edbd d3eb ebbb 8d6d 6dbd
000000e0: 40f4 523e 4580 2ebc 5d47 603d dc16 05be
000000f0: 9375 933c 25b7 823e 979d d7bd f185 46bd
00000100: a7ca 663c 9b39 313e c678 253d f703 a5bc
00000110: 0c9b 373d 892e 56be 07c5 b03d 449c 58be
00000120: 6810 dbbd f716 e73b 2294 453e 9958 6f3e
00000130: dd61 f7bc 84fc babd 77af cb3c c963 7a3d
00000140: 202a 5fbe eb7e 1ebe 2062 25bd 437e e4bd
00000150: 31f8 73be e792 c23d 29a5 ce3d 5261 08be
00000160: 9ac0 923b fba5 613b 6a66 13bd 9388 1ebe
00000170: d4ee 043e 39a0 b2bc 8c35 ce3d 5f3f 103e
0.12590241 -0.044811804 0.21096006 -0.08686294 0.09778049 0.0005327069 -0.16672179 -0.045315757
0.2884742 -0.015336622 0.059977453 -0.006867744 -0.1170275 0.13588059 -0.13372369 -0.029749535
0.07985275 -0.096404925 0.04276745 -0.021935396 0.11954041 -0.059663553 0.26011872 0.12768246
0.002496725 -0.13143992 0.1570493 0.014588672 0.179645 0.15367126 0.073935404 0.37611917
-0.17169112 0.06536198 -0.03909347 0.20244372 0.063270055 -0.13494109 0.16631724 -0.019466486
0.052741602 0.08741113 0.32804933 0.20897715 0.07753798 0.0705481 -0.04982764 -0.077128485
0.10068367 0.22372662 0.011140167 0.22167021 -0.04080061 -0.11581851 -0.0071997433 -0.057965804
0.20600986 -0.010650699 0.054755557 -0.12997001 0.0180004 0.25530353 -0.10528105 -0.04846758
0.014086402 0.17307131 0.04039838 -0.020143492 0.0448256 -0.20916189 0.0863133 -0.2115336
-0.106964886 0.007052298 0.1929479 0.23373641 -0.030198032 -0.09130195 0.024863942 0.06113032
-0.21793413 -0.15478103 -0.040376782 -0.11156895 -0.23825146 0.09500676 0.100900955 -0.13318375
0.0044785263 0.0034431207 -0.03598634 -0.15481786 0.1298173 -0.021804916 0.10068807 0.14086674

gru.bias_hh_l0 f4 [96]
00000000: 2f6c babc 7c86 693e 7efe 7f3e 0c89 d53d
00000010: bc3d 9ebd c8f4 b0bc 4542 d7bd 9c64 173e
00000020: c8a5 5e3d 9009 803e 68b3 3c3e 5491 e73d
00000030: 031b f0bb 45b2 903e 147d efbd c078 363d
00000040: 6a99 883e 7949 493d 9411 2d3d 6d44 f23c
00000050: 2070 913e edb1 603e 851a 8b3e 8883 633e
00000060: 741e 81bd b712 833d f99e d43d f8bb 6a3d
00000070: c3a5 ae3c 7fd2 143d d337 953d 669d a53e
00000080: ca99 82bd e4a9 643e 93db 4b3e 2388 073d
00000090: 3e2f 863e 6480 ccbd 942c 363d 837f 51be
000000a0: 0e59 04bc f68a a93c e5a6 7d3e dedb 103e
000000b0: 0f70 603e db93 c7bd 2e58 14be 6692 133e
000000c0: 282a 073d 319d 463d b684 e0bd 846a 943b
000000d0: 9bb0 d7b8 cf2e 0bbe 7ad0 17be ce9c 303e
000000e0: 2a10 01be 78a7 123e e715 47bd c805 023e
000000f0: 64ea 82bd 2058 103e ba2c 15be 3570 b43c
00000100: 2be0 f7bd 5776 593d cb35 e0bd 656d e6bd
00000110: 8e07 953d 35a1 a33d b59e 163e 1a5e 85bc
00000120: 4c83 0fbe 44f1 fabd 219b 17bc d597 923d
00000130: aa22 dfbd 0083 6ebd 7283 3ebe e70f 643e
00000140: c187 30be be73 82bd 2312 763e 6f06 50bd
00000150: d13c 333d d9dc abbd 0053 49be 2b48 0abd
00000160: 7894 cc3d fd88 abbd ca34 2c3e 4223 14be
00000170: 4c5e 3f3e d585 91bd e66d 653d 1c4a 143e
-0.022756664 0.22805208 0.24999425 0.1042653 -0.07726619 -0.021601096 -0.10510687 0.14784473
0.05435732 0.25007296 0.18427813 0.11307016 -0.007327439 0.2826101 -0.11693779 0.04454875
0.26679546 0.049142335 0.042253092 0.029573644 0.28405857 0.21942873 0.2716867 0.22218144
-0.063046366 0.06400054 0.10381884 0.057308167 0.021319276 0.036333557 0.07286038 0.32346648
-0.06376989 0.22330433 0.1990798 0.033088814 0.26207918 -0.09985426 0.044476107 -0.20458798
-0.008077873 0.020696145 0.24770696 0.14146373 0.21917747 -0.09744998 -0.14486763 0.14411315
0.032999188 0.048489753 -0.109628126 0.004529299 -0.00010284894 -0.13592075 -0.14825621 0.17247316
-0.12603822 0.14321697 -0.048604872 0.12697518 -0.06392363 0.14096117 -0.14567843 0.02202616
-0.121033035 0.053091373 -0.1094776 -0.11251334 0.072768316 0.07989732 0.1470898 -0.016280223
-0.1401493 -0.12253049 -0.009253294 0.07157866 -0.108952835 -0.0582304 -0.1860483 0.22271691
-0.17239286 -0.06369732 0.24030356 -0.050787386 0.04375917 -0.08391733 -0.19660568 -0.03376023
0.09989256 -0.08375738 0.16817012 -0.14466575 0.18688315 -0.071056046 0.05601301 0.14481395

gru.weight_ih_l0_reverse f4 [96, 32]
00000000: 6352 3f3e c51a 3f3e 23bf 2ebd 69ba 8a3e
00000010: 62fb b93d d655 3a3e 8881 5d3e b09f 72bd
00000020: 08e3 743d dd54 793c 9cdd b23d d9ba 9bbd
00000030: a506 7fbd a867 333e 0392 423e 454d 133e
00000040: 3f05 ea3d 30a9 753e 2ebb 443e 0355 043e
00000050: a43d e4bc d850 773d 7238 3dbd 01b3 5e3d
00000060: d528 e1bd ae6d 3e3e ab32 303e ed8c 633e
00000070: 8a64 733c 1fbc e83d 3350 7abd fcd6 bebd
00000080: c8f2 84bd 2a27 623c 0189 bdbd d457 16be
00000090: f46e a53d af61 9a3e 1f07 e7bd fbca c03d
000000a0: 90dd 29bd 4585 943d df01 d3bd 987a 1a3e
000000b0: c6f6 2c3d a366 fcbd 5298 243e 48c7 bb3d
000000c0: e6aa 3dbe 0866 42be 1b0f 00be 41cb 7b3d
000000d0: 6c8b 20be d47c 0e3e 99c8 6a3e fd2d bb3d
000000e0: 492d 19bc b3f3 a63d 31af ef3d a4dc 533d
000000f0: fe51 aebd 7e29 673c 984d 1a3e fd59 7dbe
00000100: 9dc4 bb3d a2cc 493e 467f 8f3e 68b0 83bd
00000110: 3738 103e ab8f 803e 4514 4e3e 7e7e 063e
00000120: 99cb 0e3c d642 813e fdb7 5b3c b27f 273e
00000130: dc4d c3bb 3a8f ae3e 88c8 a23e ac4f 75bd
00000140: dee5 c43d ab07 883e 8fba cfbc c6c0 c13c
00000150: ea42 4f3e 5841 b83d d5df be3d 1e38 563d
00000160: 8c54 0d3e 7467 7b3e 419b 603e 70e3 663d
00000170: f2bc 783e 35ac a43e b0ce 433e 06f1 aa3e
00000180: e188 febc 113c 293e 5cd9 aebd 3ef2 3ebe
00000190: 2245 06be d526 7b3d df65 11bd 3b24 783d
000001a0: 269d 763e 663a 2ebe 54fc 0c3c 5f94 adbd
000001b0: b136 0fbd 91a0 1bbe 31d8 d0bc 464d 0f3e
000001c0: 5c73 423d 30c5 8ebc 97ef ecbd 71cb 743d
000001d0: abfb 3f3c 6e72 b83d aaa6 493e e0ca 26be
000001e0: 2f23 d03d 735c 6e3d c7ef 003e db9e 7dbd
000001f0: c0af 2fbd 4782 433d cffb 0f3e ef1e d6bd
00000200: 527a 203e 0b8e 273e 45a8 423c ebef 40be
00000210: 7543 073e f41e 21be 0943 b5bd da23 223e
00000220: f241 593e d42a 233e 6d59 8dbd bbcb 723e
00000230: e774 dd3d 2f04 afbd 5610 fcbd 34f9 643d
00000240: 4834 f33d d2ec 17bd b522 f03c 6653 68bd
00000250: e4c6 ba3d 56f9 7dbd 31f8 0b3e 33ec 873e
00000260: 4e5c 09bc 44ad 4d3d 0bc7 cb3d 41fb 60bb
00000270: ee7f 673e ff82 a3bd c86a ecbd 9b21 c0bd
00000280: 51e3 963d d52b 03be 90dc 2a3e 41ab 40be
00000290: b988 f6bb ce2e 733c a15b 053c a86d acbd
000002a0: cb84 8bbe b229 0bbd 587e 81bd adcc 2dbe
000002b0: 7a4c 853d 012c bfbd d0fe 25be 7c85 babd
000002c0: 2da6 c43d 0abd 53be 439d 3b3e 316f 0a3e
000002d0: bae0 c6bd fa08 2ebe 6a51 72be 4af1 37bc
000002e0: 846f c9bd d068 50bd bf4c 99be 274b d23c
000002f0: 9249 433e dc29 ac3d 7edb 8ebe 3657 8d3d
00000300: 6bff c03d c920 863d 3de2 bdbc 6e97 42bb
00000310: 43d6 57bd 6ec7 3bbe 82b8 273e 4ce5 3b3d
00000320: a825 f1bd 6eb1 c4bc 4b24 fabd b7aa 08be
00000330: 2b74 29bd 6322 c0bd 883e ce3c 7aec 2fbd
00000340: b729 b83c 269d 20be 4719 a9bc b180 813c
00000350: 2822 553d f0b6 cebd f98c 56bc 78a6 593d
00000360: e69b fdbd cbfc 8abd f34c 8a3d ded6 96bd
00000370: 1f75 01bd f86d 173d 54d6 893c 5301 dbbc
00000380: 7b3c 883e ba91 da3e 9b85 853e d1f7 aa3e
00000390: b661 633e 2849 593d d611 803e 61c6 c63e
000003a0: 456d 8b3e e45f b13e 00ab 693d f421 4f3e
000003b0: 75e2 4b3d 4e57 573e 9011 c73e 6b38 b13c
000003c0: a223 ce3e 9317 1f3e 8d74 913e 6441 d33e
000003d0: e962 ba3e b888 3a3e 9bde e93d 692f b63e
000003e0: 251c 9e3e 71d5 1c3e 21b3 a83e fc39 923e
000003f0: 9a94 5d3e 12ab b83d aa2a 213e d87c 043f
0.18683772 0.18662556 -0.04266275 0.27095345 0.090811506 0.18196806 0.21631444 -0.05923432
0.059786826 0.015217987 0.08733675 -0.07603998 -0.062262196 0.1752001 0.19001012 0.14384945
0.11426782 0.23990321 0.19212028 0.12923054 -0.027861424 0.060379833 -0.04619641 0.05436993
-0.10994116 0.18596527 0.17206828 0.22221728 0.014855513 0.11364006 -0.06111164 -0.09318349
-0.06491619 0.013803283 -0.09254647 -0.14681941 0.08077803 0.30152652 -0.11280655 0.094137155
-0.041471064 0.07251982 -0.10303091 0.15085828 0.04222753 -0.12324264 0.1607373 0.09168869
-0.18522224 -0.18984234 -0.12505762 0.061473135 -0.15678185 0.13914806 0.22928084 0.09139631
-0.009349176 0.08151951 0.11703337 0.05172409 -0.085117325 0.014109014 0.15068662 -0.24741359
0.091683604 0.19706967 0.2802679 -0.06430131 0.14083944 0.2510961 0.2012492 0.1313419
0.008715534 0.25246304 0.013410565 0.16357306 -0.0059602093 0.34093648 0.31793618 -0.059890434
0.09614156 0.2656835 -0.025357513 0.023651492 0.2024037 0.08996838 0.09320036 0.05229961
0.13801783 0.24551183 0.21934225 0.056369245 0.24290827 0.32162634 0.19121814 0.3338701
-0.031071128 0.1652682 -0.08537552 -0.18647096 -0.1311231 0.06131633 -0.035497542 0.060581427
0.24083385 -0.17014465 0.008605082 -0.08475565 -0.034964267 -0.1519797 -0.025493713 0.13994321
0.047473297 -0.01742801 -0.11569136 0.05976433 0.011717717 0.09006201 0.19692484 -0.16288328
0.10162961 0.058193635 0.12591468 -0.061919075 -0.042892218 0.047731664 0.14060901 -0.10455119
0.15671661 0.16362779 0.011880939 -0.18841521 0.13209327 -0.15734464 -0.088506766 0.15833989
0.21216562 0.15934306 -0.06901822 0.2371053 0.10813313 -0.0854572 -0.12307803 0.05590172
0.11875206 -0.037091084 0.029313425 -0.05672016 0.091199666 -0.062005363 0.13668896 0.26547393
-0.008383824 0.050214067 0.09950074 -0.0034329446 0.22607395 -0.0798397 -0.115438044 -0.0938141
0.07367576 -0.1280969 0.166857 -0.18815328 -0.007523623 0.014842702 0.008139522 -0.08419353
-0.2724975 -0.03397531 -0.06322926 -0.16972609 0.06508727 -0.09334565 -0.16210485 -0.091074914
0.09602008 -0.20677581 0.1832171 0.13518979 -0.09710832 -0.16995612 -0.2366387 -0.011226961
-0.09835723 -0.050881207 -0.29941365 0.025670601 0.19071034 0.084064215 -0.27901834 0.069014
0.09423717 0.06549222 -0.023179168 -0.002969231 -0.05269457 -0.18337795 0.16378978 0.04587297
-0.117747605 -0.024010386 -0.122139536 -0.13346373 -0.041370552 -0.09381559 0.025176302 -0.04295013
0.022480829 -0.15684947 -0.020641936 0.015808435 0.052034527 -0.10093486 -0.013095134 0.053137273
-0.12383251 -0.06786498 0.06752958 -0.073652014 -0.031605836 0.03697011 0.016825832 -0.02673403
0.26608643 0.42689306 0.26078495 0.33392194 0.22205243 0.053048283 0.25013608 0.38823226
0.27231804 0.3464347 0.057047844 0.20227796 0.049776513 0.21029398 0.38880587 0.021633347
0.4026156 0.15536337 0.28409234 0.41260827 0.36403587 0.18216217 0.11419412 0.35583046
0.30880848 0.15315796 0.32949165 0.28559864 0.21638718 0.09017004 0.15738931 0.51752996

gru.weight_hh_l0_reverse f4 [96, 32]
00000000: 8083 593e 5f4b 163e f491 3b3d 1b33 253e
00000010: b9b2 3c3e d2f1 1cbe a547 8b3c 95b1 41bd
00000020: 9da1 d0bb 5129 9c3d 62cc 6ebe b0e3 513e
00000030: 37bb ab3d 1863 243c 3d31 773d 26c2 24bd
00000040: 60c1 b4bd 51a6 143e 143e 05be d2f3 4abc
00000050: aef8 8f3d d094 033e f0a5 063d 034a a4be
00000060: cb98 14be ced0 b23d 2eb5 9d3d 78af da3d
00000070: bb1a aebd 0bc4 573e 014c 873e 4e7a 123e
00000080: 4a04 593d 7825 1b3e 50ea d4bc 2e98 353e
00000090: 4b03 193e b77d a0bd 10a7 a0bd e28d 97be
000000a0: 6236 3bbe 0a78 c73e 3b2e 7ebe e27f 783d
000000b0: 7e7e 0c3d 120f 8c3c 97e7 3cbe 5de2 453e
000000c0: 8e7c bd3d 622a 57bd d2b4 14be 1344 3cbe
000000d0: 0dce 46be 3734 4b3e fc68 55bd 7b49 94be
000000e0: b9a8 51be 1748 09be c688 c33d 4222 cdbb
000000f0: a330 c2bd e826 023e cde9 973e 42f4 53bb
00000100: df2e c13d 748d c3bd 312f 42bd 485e f6bd
00000110: 5a37 ce3d 098d dc3d 98b6 4ebb ed9a 3a3d
00000120: 534f 72be f549 663d 95bb 36be 709e 913d
00000130: bfa9 9d3d 8d8b 7ebd 6305 6bbe c74b 02bd
00000140: 0a4e 64bc f490 243d c904 a83d 2d95 16be
00000150: f2f3 b43d ed3c 3a3e 67b8 02be bf40 903d
00000160: 8e23 f8bd b4ad 6ebe 9a6c c3bd 849a 6c3c
00000170: 5d8e df3d 493f a13d 000d 13be d5f7 a2ba
00000180: 4266 6e3e 71a7 333e 211b 6bbe b5ec bd3d
00000190: 5364 86ba 8f1e 07bd dae8 4f3e af3a a3be
000001a0: 28fd 2fbe 2886 ba3d afc7 01bc 5cab 043e
000001b0: 275b 04bd 5d46 0b3e 8d5f 82be 4003 493d
000001c0: 20bf e4bb 17a8 5fbd 1ece 593c 1952 e1bd
000001d0: 402a 183c 3688 2c3c b3dc 67bb ab2a d3bd
000001e0: a2f5 863d 30ef 4dbe 25f5 19be 606d 6dbc
000001f0: d6f6 c13d 9fc6 293e 0221 c73d 41c7 513e
00000200: e67c fd3d 97d6 f8bc 17c5 bc3c 2f35 363e
00000210: 4d69 babd 2605 c5bd dad7 a83d 24a1 81be
00000220: e5ac 6a3d 9c77 503e a4a7 01bd 9a6d 7cbb
00000230: ed13 38be a235 7a3d 21c8 843c f332 4b3d
00000240: d615 0b3e b36d 49bc efe8 dcbd cee2 4bbd
00000250: 37b5 0fbd 3ae3 123c 51eb ea3a 1b18 6fbe
00000260: d1be 79bd 0cc0 0dbd 09eb c43d edfd 7cbd
00000270: aed0 293d 528c 833d c1d5 5b3e 3cdc 8d3d
00000280: da65 c73d 0856 833c 08a9 483e 0cb8 5a3e
00000290: 803e 3b3a 2825 c6bd f0c8 0e3e 4698 dcbc
000002a0: 42a2 cc3d ea77 9b3d cddf c1bd df5c 7c3e
000002b0: 80c3 ff3b 608c 0abe 21c5 8abd fb6c 313e
000002c0: f3aa 56bc c66c 93bb d90e 453d c170 1cbe
000002d0: a037 34bc 159a 16bd 4b7e f23d e53e fe3c
000002e0: ed7e 883d bf38 dc3d 25dd 48be d9a6 dd3d
000002f0: a34f a93b 993d 76bd 04fa 293e a7c3 d4bc
00000300: 6753 ef3d 4446 873d 4cdb 11bd 7ef7 b43d
00000310: ccfb 37bd 705e 4fbe f961 df3d ae7c a6be
00000320: a295 12bd b315 29bd 6a3f 1cbe fb18 253e
00000330: 9e9c 5ebc 5335 0cbe d8f3 76be 649c abbd
00000340: 91c1 11bb fc9b d63d 0304 81bd 0ba7 203d
00000350: 3402 ef3b f7c4 ed3d 1f9c bfbd 133a 35bd
00000360: a268 fb3d b4d8 5e3d ab8e ac3d 0a03 05bc
00000370: 4929 d13b 4ef8 763e 5906 0c3e 191e 74b9
00000380: 4fdb aab9 2c33 ed3d d7e6 a93d 6d6a 4cbd
00000390: b9bd f4bd 9175 c73d f1a8 503e ceb0 b83d
000003a0: 4a63 cdbd 96d7 183e d7f9 41be bb84 48bd
000003b0: 78e7 5fbd f419 c83d 2650 cdbd b8bd 11be
000003c0: 2c30 1cbe f63d 843b 797b f6bd 96f7 f63c
000003d0: 8477 a8bd 9289 a53c 5e01 97bd 4922 80be
000003e0: a8f0 e93d a46b 7c3d 13eb 6b3d 9c53 b3bd
000003f0: 27cb 263d 1a74 f4bc 55a3 903c 8a23 143e
0.2124157 0.1467719 0.04579349 0.16132776 0.18427552 -0.15326622 0.017001936 -0.047288496
-0.006366922 0.07625068 -0.23320153 0.20497012 0.08385318 0.010033391 0.06034969 -0.040224217
-0.08825946 0.1451657 -0.13011962 -0.012387233 0.07029854 0.12849736 0.032873094 -0.32087716
-0.14511411 0.087312326 0.07700573 0.10677999 -0.08501192 0.21070878 0.26425174 0.14304468
0.052982606 0.15151012 -0.025990635 0.17733833 0.14942662 -0.07836478 -0.07844365 -0.29600435
-0.18282464 0.3895877 -0.24822323 0.060668834 0.03430032 0.01709703 -0.1844772 0.19324632
0.092522725 -0.052530654 -0.14522102 -0.18385343 -0.1941454 0.19844137 -0.052102074 -0.2896231
-0.20474519 -0.13406406 0.09547572 -0.0062601874 -0.09481933 0.12710154 0.29670563 -0.0032341634
0.09432768 -0.095484644 -0.047408286 -0.120297015 0.10069151 0.10769088 -0.003154194 0.045557905
-0.23663072 0.056222875 -0.17844994 0.07110298 0.07698392 -0.062144805 -0.22951274 -0.03181055
-0.013934622 0.0401773 0.08204038 -0.14705344 0.088355914 0.18187304 -0.12765656 0.07043599
-0.121161565 -0.2330845 -0.095421985 0.014441136 0.109158255 0.07873399 -0.14360428 -0.0012433479
0.23281196 0.17544343 -0.22959568 0.09273664 -0.0010253288 -0.032988127 0.2030367 -0.3188071
-0.17186415 0.091076195 -0.007921143 0.12955993 -0.032313492 0.1360106 -0.25463524 0.049075365
-0.0069807917 -0.054603662 0.013293771 -0.11001987 0.009287417 0.010530522 -0.003537935 -0.10310873
0.065898195 -0.20110774 -0.15034921 -0.014491409 0.09470908 0.16579674 0.097230926 0.20486166
0.12377338 -0.030375762 0.023043199 0.17793725 -0.09102116 -0.096201226 0.082442954 -0.25318253
0.05729379 0.20358127 -0.031654015 -0.0038517476 -0.17976351 0.061086304 0.01620871 0.049609136
0.13582548 -0.012294221 -0.10786616 -0.049776845 -0.03508493 0.008965308 0.0017922913 -0.2334904
-0.060972992 -0.03460698 0.09615142 -0.0617656 0.041458778 0.06423248 0.2146826 0.06926772
0.097362235 0.016032234 0.1959573 0.21359271 0.0007142797 -0.09675056 0.13943839 -0.026928078
0.09991886 0.07591231 -0.09466515 0.24644803 0.007805288 -0.13530111 -0.067758806 0.17326729
-0.013102281 -0.004499051 0.048109863 -0.15277387 -0.01099959 -0.036768038 0.11840495 0.03103585
0.06664834 0.10753011 -0.1961561 0.10822839 0.005166964 -0.060117338 0.1659928 -0.0259722
0.116858296 0.06605199 -0.03560953 0.08836268 -0.044917867 -0.20250869 0.10907359 -0.32516998
-0.035787232 -0.04128046 -0.15258566 0.1612281 -0.013587145 -0.13692217 -0.24116457 -0.083794385
-0.0022240619 0.104789704 -0.06299593 0.039221805 0.007293964 0.11609834 -0.093559496 -0.044244837
0.122758165 0.054405883 0.08425649 -0.0081184 0.0063830954 0.24118158 0.13674296 -0.00023280866
-0.00032588324 0.11582026 0.08295982 -0.049906183 -0.11950249 0.09739221 0.20376946 0.09018098
-0.100287035 0.1492599 -0.18942963 -0.048954707 -0.054664105 0.09770575 -0.10025053 -0.14232528
-0.15252751 0.0040357066 -0.12035269 0.030147355 -0.08225921 0.0202072 -0.07373308 -0.25026157
0.11422855 0.06162609 0.05759723 -0.087561816 0.040721085 -0.029840518 0.017656008 0.14466682

gru.bias_ih_l0_reverse f4 [96]
00000000: af3c ad3d aa8c 323e 3697 583e 4185 1c3e
00000010: 05ab a73d 3237 debd ad11 1ebd 1195 68bd
00000020: 00b8 d7bd 25d7 673e 851f 4b3d 7315 273e
00000030: 05fc 843d 20a6 7cbc b73f 543c e70c 9e3d
00000040: 73f7 c13d ce8a a73d 3e23 683e 1ed5 a5bd
00000050: 359e 093d b3d1 313e a496 54bc 1a72 503e
00000060: 551e 963d a3c7 bbbd c02c 0c3e 27a8 03bd
00000070: cf9a f63c 0d8f c2bd f846 21bd c4ed 653e
00000080: 0c20 a9bd 1fc7 5c3e 19df 973d 803a fc3d
00000090: 11dc 873e e203 50bd dfad 4b3e 460b 133e
000000a0: b6c2 0a3a 9e4c 803e c345 203c c502 89bc
000000b0: a4a2 a43e cd15 013e 9600 3e3e d8d1 45bc
000000c0: 9108 d83c fe6e 003e 0976 98bc 54bb d0bb
000000d0: 5d94 833e 1133 ed3d 2757 d4bb 53fb 773e
000000e0: 6e98 f83d e4bd 84bc 6d59 3f3d c1dc bbbd
000000f0: 9a74 193e 885e a03e 343e 1f3e 9a5a b33e
00000100: cae9 7f3e 01b1 303e b5d2 57bd b371 3e3e
00000110: a8af ff3d 5eb9 b4bd 335e 2c3e 534d ab3b
00000120: 056f 26be 597d 183e 4428 3cbe ce15 c83d
00000130: b781 abbd f8b6 95bd c3de dcbd 1d53 073e
00000140: c746 aa3d c6f6 0a3e f93d f1bd f93b 27be
00000150: 75a8 01bd 3741 5f3d 4102 63be b2cd 35be
00000160: e5ab 013d c240 44be 1f0d c93d 4572 27be
00000170: d6f0 053e 1853 e43d 42d7 573d 8320 c83d
0.0845884 0.17436472 0.21151432 0.15285207 0.08186916 -0.108503714 -0.038591076 -0.056782786
-0.10533142 0.22640665 0.049590606 0.16316776 0.064933814 -0.015420467 0.012954644 0.07717305
0.09471025 0.08180772 0.22669694 -0.080972895 0.033598144 0.1736515 -0.012975369 0.20356026
0.07330004 -0.09168937 0.13688946 -0.032142784 0.030103115 -0.09499941 -0.03937432 0.22453982
-0.082580656 0.21560334 0.074155994 0.123158455 0.26535085 -0.050784953 0.19890545 0.14359769
0.00052932964 0.25058454 0.0097822575 -0.016724953 0.32155335 0.12605973 0.18554911 -0.012073956
0.026371272 0.1254234 -0.018610971 -0.0063699875 0.2569913 0.11582006 -0.006480116 0.24216966
0.12138449 -0.016203828 0.046716142 -0.09172965 0.14985886 0.31322122 0.15551072 0.3503006
0.24991527 0.17255022 -0.05269118 0.1859806 0.12484676 -0.088244185 0.16832809 0.0052277236
-0.16253288 0.14891566 -0.18374735 0.09769784 -0.083743505 -0.07310289 -0.10784676 0.13215299
0.08314281 0.13570699 -0.117793985 -0.16331472 -0.031654794 0.054505553 -0.22168829 -0.17754248
0.031658072 -0.19165328 0.09816956 -0.16352184 0.13080153 0.111486614 0.05269552 0.09771826

gru.bias_hh_l0_reverse f4 [96]
00000000: 5161 683e c382 ec3d 2398 083d 2c6a df3d
00000010: a7f7 4a3d 14ed 563c ae2f 213e ddc6 58bd
00000020: 473c 63bc c47c 273d e5f1 473d c892 4e3d
00000030: 253a 2f3e 71e1 1a3d 8643 cfbc e881 2d3e
00000040: 8eaf 363e 759f f23c a18f 4d3d 404a 803e
00000050: 5a92 0b3d 5958 efbc 2111 d73d c8fd c6bc
00000060: 70f4 323d 2bec 203e 3119 48bb e278 6a3c
00000070: a30d 31bb 74fc 243e c0b5 88bc 093d 643e
00000080: 7958 b0bd d02b 95bd f346 9f3e c994 8a3e
00000090: d412 f13c 2a13 bdbd 6ea9 7b3d 30d4 263e
000000a0: 647e 16be 6998 0f3e e092 cabd 81fb 25be
000000b0: fa30 3f3d 94f3 173e 42ec 033d ffc7 003e
000000c0: 6e12 363e 8b26 fa3d 5148 903c 902d 953e
000000d0: 45a7 733e d0fd b33d 3a63 3d3e cc0d d6bc
000000e0: 48f8 a2bd 2a1b 02be 5572 aa3d eb07 96bd
000000f0: de78 473d ceb6 a53e 5e76 213e bd87 7b3e
00000100: 250a 7cbd ee3f c23d 5eb2 2b3d 9ce9 0c3c
00000110: 3f8c 123e 7373 42be 337b 0cbd eee4 51bd
00000120: 7b23 cdbd acd8 02be e3b0 34bc 071a 2cbd
00000130: a86e 143c 0168 103e ea25 a2bd 8d6f 65bc
00000140: af8f 2ebc f72e 13be 658c e0bc 9812 4dbe
00000150: 944c 3ebe 386b f7bd 7c7f 17bd 0358 983d
00000160: f2b4 823d 107e 473d 51cb 57bd 96c3 fe3b
00000170: 0f67 d53d c932 d43d f4ca 1d3e 281f 6fbc
0.22693373 0.11548378 0.033348214 0.109089226 0.049552586 0.013118047 0.15740845 -0.052924026
-0.013869352 0.04089047 0.048814673 0.05043295 0.17112024 0.037812654 -0.025300752 0.16944087
0.17840406 0.02961705 0.050185803 0.25056648 0.03407512 -0.029216932 0.10501314 -0.024290934
0.043690145 0.15715091 -0.0030532593 0.014311047 -0.0027016185 0.16111928 -0.016688228 0.22288908
-0.08610625 -0.07283747 0.31108817 0.2706664 0.029427923 -0.09232171 0.061440878 0.1629188
-0.14696652 0.14022984 -0.098912954 -0.16209222 0.046677567 0.14839011 0.032207735 0.12576292
0.17780468 0.12214383 0.017612608 0.29136324 0.23794277 0.08788645 0.18494883 -0.026129626
-0.07957512 -0.12705675 0.08322588 -0.07325729 0.048699252 0.3236603 0.1576781 0.24563499
-0.061533112 0.0948485 0.04191815 0.008600619 0.14311312 -0.18989353 -0.03429718 -0.051243715
-0.10016533 -0.12777966 -0.011028501 -0.04201701 0.009059586 0.14102174 -0.07917388 -0.014003647
-0.010654374 -0.14373384 -0.027410695 -0.20026624 -0.185839 -0.12080997 -0.036986813 0.07438662
0.06382169 0.048704207 -0.052684132 0.0077747805 0.104200475 0.10361249 0.15409452 -0.014594831
