logs/exp0/weights/epoch80.pt (torch, 348934 bytes, 45 tensors)

conv_block1.0.weight f4 [32, 4, 10]
0	0xbba1e6aa	-0.0049408274
1	0xbe56f736	-0.20992741
2	0x3e209718	0.15682638
3	0xbd0c0307	-0.034182575
4	0xbc3eba4e	-0.011641098
5	0x3ddfde2f	0.1093105
6	0xbd235a3d	-0.03988098
7	0xbe183fb1	-0.14868046
8	0x3e023821	0.12716724
9	0xbe0b1291	-0.13581301
10	0x3dadea74	0.08491984
11	0xbe00c8de	-0.12576625
12	0xbc6e8e12	-0.014560239
13	0x3d678f63	0.05653323
14	0xbe0b2e50	-0.13591886
15	0x3d937199	0.071994014
16	0x3d9942cf	0.07483446
17	0xbb30ff5b	-0.0027007672
18	0xbd951bed	-0.07280717
19	0xbd3cfde9	-0.046140585
20	0xbdbf7a6d	-0.09349523
21	0x3db00b09	0.08595855
22	0x3c3a91aa	0.011387268
23	0xbcd3ee58	-0.025870487
24	0x3d6a597f	0.057214256
25	0xbe02ef89	-0.12786688
26	0x3d519a90	0.051172793
27	0x3db96764	0.09052923
28	0xbe50665b	-0.20351546
29	0xbd0988df	-0.033577796
30	0xbe3e0b26	-0.1855894
31	0x3da4c4d7	0.08045357
32	0x3c7b8f58	0.015354
33	0xbd2ce296	-0.042208277
34	0xbd27231d	-0.04080497
35	0xbd1c1513	-0.038106035
36	0xbdd6d79f	-0.10490345
37	0x3d1fdb14	0.03902729
38	0x3c963485	0.01833559
39	0x3c7e2a91	0.015513078
40	0xbc94b2ef	-0.018151728
41	0xbe03b85b	-0.12863295
42	0x3d904146	0.070437
43	0xbdddd50e	-0.108316526
44	0xbcf45c4d	-0.029829169
45	0x3e376a14	0.1791156
46	0xbdd7ccea	-0.10537131
47	0xbd2a2538	-0.0415394
48	0x3de0b902	0.109727874
49	0x3d64fe9f	0.055906888
50	0x3d9e22fe	0.07721518
51	0x3d8b19df	0.06792044
52	0xbe325010	-0.17413354
53	0x3de4452e	0.111460075
54	0xbe439fec	-0.19103974
55	0x3c531ab8	0.012884788
56	0x3c936968	0.017994598
57	0xbd8ccc69	-0.06874926
58	0xbc8984b3	-0.016786909
59	0x3d857cac	0.0651792
60	0xbdb2a954	-0.08723703
61	0x3b80616e	0.0039178645
62	0xbce106f8	-0.027469143
63	0xbd719511	-0.05898005
64	0xbcaea1de	-0.021317419
65	0xbd0a7f2b	-0.033812683
66	0xbdc5c2eb	-0.09656318
67	0x3dd881c7	0.10571628
68	0xbde8451c	-0.113413066
69	0xbd395de6	-0.045255564
70	0x3dc8c861	0.09803844
71	0x3d8e0797	0.069350414
72	0xbc549176	-0.012974134
73	0xbd58abb6	-0.05289813
74	0xbd10c8be	-0.035347693
75	0xbd24ab47	-0.040202405
76	0xbe03eb68	-0.12882769
77	0x3b2dbb7a	0.002650945
78	0xbcef053b	-0.029177299
79	0x3d8dfb38	0.06932682
80	0x3d621245	0.055193204
81	0xbdf65d7f	-0.12029552
82	0xbe0c12f7	-0.1367911
83	0xbdc7f76e	-0.0976399
84	0x3e193b60	0.14964056
85	0xbe13baa3	-0.14426665
86	0xbdb1d30d	-0.08682833
87	0x3df565dd	0.119823195
88	0xbe32cacc	-0.17460173
89	0xb982be9e	-0.00024937553
90	0x3d75b6d6	0.05998882
91	0x3d16e3cb	0.036838334
92	0x3cc9b8ea	0.024624307
93	0x3d17979a	0.037009813
94	0xbbf88304	-0.0075839777
95	0x3df47842	0.11937
96	0x3ddb930c	0.10721406
97	0x3e06ec87	0.13176166
98	0x3e2fede0	0.17180586
99	0xbcdbc2a5	-0.026826212
100	0x3cb48a94	0.022038735
101	0xbe09c683	-0.13454632
102	0x3d09e3df	0.03366458
103	0xbe0f6b8e	-0.14005873
104	0xb925fc8e	-0.0001582971
105	0x3dc009b4	0.09376851
106	0x3dd36a2a	0.103229836
107	0xbdbffe5b	-0.09374686
108	0xbc5ea2f5	-0.013588657
109	0xbd97e734	-0.07417145
110	0xbde7c7b3	-0.113173865
111	0xbdfd158b	-0.123576246
112	0x3dbcee41	0.09225131
113	0x3d76da08	0.060266525
114	0xbdc13107	-0.09433179
115	0xbddaf0a3	-0.10690429
116	0x3da6a3ad	0.081366874
117	0x3ab22d33	0.0013593793
118	0xbcb9b863	-0.02267093
119	0xbbd9aadb	-0.006642682
120	0x3d051e47	0.032499578
121	0xbe2622d4	-0.16224223
122	0xbdb721e7	-0.08942013
123	0xbe063839	-0.13107385
124	0xbd41797e	-0.047235005
125	0x3cbbdd5c	0.0229327
126	0xbd85dd0d	-0.06536303
127	0xbe32c889	-0.1745931
128	0xbc0ad690	-0.008474007
129	0x3cbf096a	0.023319919
130	0xbd9f42dd	-0.07776425
131	0xbe431b9e	-0.19053504
132	0xbe193fa0	-0.14965677
133	0xbe0b56b3	-0.13607292
134	0xbdf80b70	-0.121115565
135	0xbd1fbc23	-0.03899778
136	0x3cf4fcbc	0.02990567
137	0xbd26b9ef	-0.040704664
138	0xbe28802e	-0.16455147
139	0x3d4bcab0	0.049753845
140	0xbd96e7d9	-0.0736844
141	0xbb1ac2cd	-0.0023614645
142	0xbc27327f	-0.01020491
143	0x3e10bc3f	0.1413431
144	0xbe103e5d	-0.1408629
145	0x3d757c8a	0.059933223
146	0x3dc7ecff	0.09762
147	0xbd855e87	-0.0651217
148	0x3e0c2edb	0.13689749
149	0xbc88ac61	-0.01668376
150	0x3d9b75e1	0.07590843
151	0x3d7afbc5	0.061275262
152	0x3dcf0d9c	0.10110018
153	0x3c62df39	0.013847166
154	0xbd0acb0f	-0.033885058
155	0x3d6f5cf3	0.058438253
156	0x3dc7b466	0.09751205
157	0x3d7ff36f	0.062488016
158	0x3dc31966	0.09526329
159	0x3db9b25e	0.09067224
160	0xbd37d25f	-0.04487836
161	0xbd25f88f	-0.040520247
162	0x3c2f9bf0	0.010718331
163	0xbd8fdaba	-0.07024141
164	0xbd9ca783	-0.07649138
165	0x3dff4c7c	0.1246576
166	0xbdbcdaa1	-0.09221388
167	0xbdcb97e1	-0.09941078
168	0x3d7e992f	0.062157806
169	0xbda3551c	-0.07975218
170	0x3d687527	0.05675235
171	0x3d53e030	0.051727474
172	0xbd74bd29	-0.05975071
173	0x3dccefa2	0.10006644
174	0xbbddfc2b	-0.0067744455
175	0xbe36b8d2	-0.17843941
176	0xbbac15eb	-0.0052516363
177	0x3dd0c59b	0.1019394
178	0xbe055e3c	-0.13024229
179	0x3e0223d3	0.12708978
180	0xbdd8daea	-0.105886295
181	0x3d6cff97	0.057860937
182	0xbe25b6e9	-0.16183056
183	0x3ce8aaa8	0.028401688
184	0x3cece0b1	0.028915735
185	0xbb28ef00	-0.002577722
186	0xbe5e5382	-0.21711543
187	0x3dce14da	0.10062571
188	0xbe2b2e91	-0.16716982
189	0x3c634035	0.013870289
190	0x3d4fd6d6	0.050741993
191	0xbcacda1a	-0.021100093
192	0xbdd89d7e	-0.10576914
193	0xbc2c1fd4	-0.010505635
194	0xbe5228d4	-0.20523387
195	0x3c41c717	0.011827252
196	0x3da1d5b3	0.07902088
197	0x3d838a0f	0.06422817
198	0xbe45b973	-0.19309025
199	0x3db13b10	0.086538434
200	0x3c53ec63	0.012934777
201	0x3dbadaad	0.0912374
202	0xbd73a4c0	-0.05948329
203	0xbdbe2575	-0.09284488
204	0x3d3c4a08	0.04596904
205	0xbe494dc6	-0.19658574
206	0x3db508f5	0.08839599
207	0x3e273dec	0.16332215
208	0xbe903161	-0.28162673
209	0xbdd6c363	-0.10486486
210	0x3d15cda2	0.03657306
211	0x3c8825ca	0.016619582
212	0xbe4a2e68	-0.19744265
213	0xbc719684	-0.014745358
214	0x3cbfd0a8	0.023414925
215	0x3dfc9fea	0.12335189
216	0xbccbfe1c	-0.024901442
217	0xbdf1669d	-0.1178715
218	0x3e3db0cb	0.18524472
219	0xbe0260b4	-0.12732202
220	0x3c415515	0.01180007
221	0xbd867b14	-0.06566444
222	0x3d8677b0	0.06565797
223	0xbce717a8	-0.028209522
224	0xbe2a62ab	-0.16639201
225	0xbdbc9b56	-0.092093155
226	0x3c1fae38	0.009746127
227	0xbe3e6393	-0.18592672
228	0xbe76ab6b	-0.24088828
229	0x3d13ce4d	0.036085416
230	0x3da030e5	0.07821826
231	0x3cc831cc	0.024437808
232	0xbd12b4f5	-0.035817105
233	0x3d9767d0	0.073928475
234	0x3dc40cbd	0.09572742
235	0xbcb0a5f1	-0.021563502
236	0xbd19fc7b	-0.0375943
237	0x3da5aee6	0.0809
238	0xbd77ece1	-0.06052864
239	0x3d72b5fd	0.05925559
240	0x3dd100a3	0.102051996
241	0x3d8ce7ed	0.06880174
242	0x3d249cae	0.040188484
243	0x3d4de659	0.050268505
244	0xbdfc6404	-0.12323764
245	0x3e41c987	0.18924533
246	0x3d6da22f	0.058016
247	0x3e1407cc	0.144561
248	0x3e0923cc	0.13392562
249	0x3dea71fd	0.11447523
250	0xbda72e22	-0.08163096
251	0xbaffff3d	-0.0019531023
252	0x3cdbdf9b	0.026840022
253	0xbba63264	-0.005071925
254	0xbdbb1456	-0.09134738
255	0xbd7fa60f	-0.062414225

conv_block2.0.weight f4 [32, 32, 10]
0	0xbce134f8	-0.027491078
1	0xbd576933	-0.05259056
2	0x3b4e7329	0.0031501746
3	0xbd624964	-0.055245772
4	0x3c9a8b8a	0.018865366
5	0x3cf2ef67	0.029655172
6	0x3bd67a03	0.0065453066
7	0x3dfb4aa0	0.12270093
8	0x3dbe880c	0.09303293
9	0x3dc4b5ef	0.096050136
10	0x3db696f8	0.08915514
11	0x3def3fb5	0.11682073
12	0x3df670e0	0.12033248
13	0x3c6666f6	0.014062634
14	0x3d87312e	0.06601177
15	0x3dcce2ac	0.10004172
16	0x3d2c738f	0.042102393
17	0x3de006d4	0.10938802
18	0x3d72c136	0.05926629
19	0xbc06c18b	-0.008224855
20	0xbc2b6e78	-0.0104633495
21	0x3cb4987a	0.022045363
22	0xbd16f947	-0.036858823
23	0x3c20ff48	0.009826489
24	0xbd151216	-0.0363942
25	0x3d8dee9a	0.06930275
26	0x3d4926e5	0.04910936
27	0xbd597587	-0.0530906
28	0x3cc13cc7	0.023588551
29	0xbdad4c86	-0.08461861
30	0xbde7edf3	-0.11324682
31	0x3d0dffcf	0.034667786
32	0xbcf6f899	-0.030147837
33	0xbdd32562	-0.103098646
34	0xbdbb787f	-0.09153842
35	0x3d85fa9c	0.065419406
36	0xbd1ac54a	-0.037785806
37	0xbd783b6a	-0.060603537
38	0xbd155754	-0.036460236
39	0xbceaf8d7	-0.02868311
40	0x3d548133	0.051881026
41	0x3b826810	0.0039796904
42	0x3e04552a	0.12923113
43	0x3db7f306	0.089819
44	0xbd858833	-0.065201186
45	0x3e1b51de	0.15167949
46	0xbd65468c	-0.055975482
47	0x3dc7377d	0.097273804
48	0x3c9e1ab0	0.019299835
49	0x3da69fa4	0.08135918
50	0xbc2df8b2	-0.010618376
51	0x3cca0973	0.024662709
52	0x3cb8e7f6	0.022571545
53	0x3dad3787	0.084578566
54	0xbc9896e2	-0.018626634
55	0x3d5b6b0a	0.053568877
56	0xbc13c3ef	-0.009018882
57	0x3d894a74	0.06703654
58	0x3df67a75	0.120350756
59	0x3df3bcc6	0.1190124
60	0x3d80d01e	0.06289695
61	0x3d8557ea	0.06510909
62	0x3e083ce9	0.13304485
63	0x3e2ba520	0.16762209
64	0x3e7faaca	0.24967495
65	0x3da8379b	0.08213731
66	0x3db4df95	0.088317074
67	0x3e37f5dd	0.17964883
68	0x3ca562e1	0.02018875
69	0x3d9a9694	0.07548252
70	0x3e549eed	0.2076375
71	0x3d5b0a14	0.053476408
72	0x3d4b0158	0.04956183
73	0x3d3575bc	0.044301733
74	0x3da62ef3	0.081144236
75	0x3dd0fa74	0.1020402
76	0x3da79681	0.08183003
77	0x3dadae2c	0.08480486
78	0x3e156162	0.1458793
79	0x3e2b7840	0.1674509
80	0x3d4f8d06	0.0506716
81	0x3daaae64	0.083340436
82	0x3d044040	0.032287836
83	0xbcf35473	-0.029703354
84	0x3db5db15	0.08879677
85	0xbd9d5088	-0.07681376
86	0xbc549f0e	-0.012977375
87	0xbca40d53	-0.020025885
88	0x3cbe95cb	0.023264786
89	0xbc9ae9d8	-0.018910334
90	0x3b9ba91c	0.004750384
91	0x39c547f8	0.0003762839
92	0x3ca94c34	0.02066622
93	0xbdcb7486	-0.099343345
94	0xbe034431	-0.12818982
95	0xbe127d80	-0.14305687
96	0xbe0631d3	-0.13104944
97	0x3c1deb75	0.009638657
98	0xbe06f7a2	-0.13180402
99	0xb9a354a0	-0.00031152833
100	0x3de2cbbd	0.11074016
101	0x3dc84f4a	0.09780748
102	0x3e25ac3a	0.1617898
103	0x3c01de2d	0.007926506
104	0x3e2daae6	0.16959724
105	0xba2c656a	-0.0006576391
106	0x3de10a89	0.109883375
107	0x3dd687b4	0.10475102
108	0xbd89b6b7	-0.06724303
109	0x3deded8c	0.11617574
110	0x3c429779	0.011876934
111	0xbdca88a4	-0.098893434
112	0x3daaa132	0.08331527
113	0x3d9e465f	0.07728266
114	0x3d877c7f	0.066155426
115	0x3d55fec3	0.052244913
116	0xbd41f2a2	-0.047350533
117	0x3dc865c3	0.097850345
118	0xbd9cf5a9	-0.076640435
119	0xbcf7ee93	-0.030265128
120	0xbde3de74	-0.11126414
121	0xbd61f2b8	-0.055163115
122	0xbd4878da	-0.048943378
123	0x3c92e882	0.017933134
124	0xbdf98345	-0.12183241
125	0xbe192a93	-0.14957647
126	0xbbc4312e	-0.005987308
127	0x3d2c016b	0.04199354
128	0x3c1a2290	0.009407654
129	0xbe1d21ac	-0.15344876
130	0xbdf9cf21	-0.1219771
131	0xbdd85795	-0.1056358
132	0xbdbf1510	-0.09330189
133	0xbde36955	-0.11104075
134	0xbe2b7b21	-0.16746189
135	0xbdeab859	-0.11460943
136	0xbdaeedaa	-0.085414246
137	0xbbcead25	-0.0063072615
138	0xbd20d90b	-0.03926949
139	0xbe098169	-0.13428272
140	0x3d842cf6	0.06453888
141	0x3d8204fd	0.06348608
142	0x3dd68cdc	0.104760855
143	0x3e17e67e	0.1483402
144	0x3df9732b	0.1218017
145	0x3da1bc5c	0.07897255
146	0xbd59b4db	-0.053150993
147	0x3da51434	0.08060494
148	0x3cee6689	0.029101627
149	0x3e06f0c6	0.13177785
150	0x3dccd61b	0.10001775
151	0x3d9aa8c8	0.07551724
152	0xbdbeb73d	-0.09312294
153	0x3b2b041c	0.0026094979
154	0x3d8ef79c	0.069808215
155	0x3d6cf729	0.057852898
156	0xbd4b0e25	-0.049574036
157	0x3c0ee7cd	0.008722258
158	0x3d9898ef	0.07451045
159	0x39d43b8c	0.00040480157
160	0x3d678f5a	0.056533195
161	0xbda7f7a1	-0.08201528
162	0xbda53a4f	-0.08067762
163	0xbadcf383	-0.001685724
164	0x3dd59998	0.10429686
165	0x3d43a640	0.04776597
166	0x3d83a18a	0.064272955
167	0xbd526d64	-0.051373854
168	0x3d9c2a07	0.076252036
169	0xbc2a4f42	-0.010394873
170	0xbaf31c3d	-0.0018547844
171	0x3e12b224	0.14325768
172	0x3e2ec1f3	0.17066173
173	0x3df06a5e	0.11739038
174	0x3ce69136	0.028145414
175	0x3e328d06	0.17436609
176	0x3d430f8a	0.04762224
177	0x3d562def	0.0522899
178	0x3da0a2c7	0.07843547
179	0xbc9a70f4	-0.018852688
180	0xbd476749	-0.048682485
181	0xbcb26a2d	-0.021779144
182	0xbe096c22	-0.13420156
183	0xbb97f6fb	-0.0046375967
184	0xbcf3961e	-0.029734667
185	0xbdebd489	-0.11515147
186	0xbd5d4f29	-0.05403057
187	0xbdb687de	-0.08912633
188	0xbcc5c47b	-0.02414154
189	0xbd58ebe7	-0.05295935
190	0xbc544b53	-0.012957412
191	0x3e1340b2	0.14380148
192	0x3aa5905f	0.0012631527
193	0x3d357fd9	0.04431138
194	0xbd495b6b	-0.04915945
195	0xbc591374	-0.013249267
196	0x3d07059c	0.032964334
197	0x3dd3d5d0	0.10343516
198	0x3c3e61cc	0.011619996
199	0x3d0d9a95	0.03457125
200	0xbd501d5a	-0.05080924
201	0xbc3c3fe0	-0.011489838
202	0x3c791aa2	0.015204104
203	0xbd1bdc40	-0.038051844
204	0xbd1a2c75	-0.037640054
205	0xbd8be40b	-0.06830605
206	0xbd462204	-0.048372284
207	0x3d0251c4	0.03181626
208	0xbc36d292	-0.011158602
209	0xbc9e94e0	-0.019358099
210	0xbd95b92d	-0.0731071
211	0x3d54372c	0.05181043
212	0xbd77fdda	-0.060544826
213	0xbd8b37e3	-0.06797769
214	0xbd3db3fd	-0.04631423
215	0xbd690301	-0.05688763
216	0xbcb312c5	-0.021859536
217	0x3de4756b	0.11155208
218	0x3c5acdd3	0.013354736
219	0xbd9cfcd5	-0.076654114
220	0x3d2bdcc5	0.04195859
221	0x3d419b1b	0.04726706
222	0x3d53ed4d	0.05173998
223	0x3e079ae0	0.13242674
224	0x3cbad7a9	0.022807913
225	0xbc5c616f	-0.013450964
226	0x3e0ead66	0.13933334
227	0x3d8f1261	0.069859274
228	0x3e16bda1	0.14720775
229	0x3d3c581d	0.04598247
230	0x3cc58348	0.024110451
231	0x3db68823	0.08912685
232	0x3e1e608a	0.15466514
233	0x3e5050bc	0.20343298
234	0x3d918d88	0.07107073
235	0x3d7abfd9	0.061218116
236	0x3e1bbab9	0.15207948
237	0x3e2ee7c2	0.17080596
238	0x3e0cfec8	0.13769066
239	0x3da541da	0.08069201
240	0x3daeddd7	0.08538406
241	0x3df98c14	0.12184921
242	0xbd951297	-0.07278936
243	0xbcef2418	-0.029192016
244	0xbd3c5304	-0.045977607
245	0x3dacf6e5	0.08445529
246	0xbdc83a65	-0.09776763
247	0xbd3a2ce4	-0.045452967
248	0x3de597a5	0.112105645
249	0x3bef2ee0	0.007299289
250	0xbde936f8	-0.113874376
251	0xbe00febb	-0.12597172
252	0xbc84f532	-0.0162302
253	0xbe1e5a40	-0.15464115
254	0xbdc75a81	-0.09734059
255	0x3ca62efb	0.020286074

gru.weight_ih_l0 f4 [96, 32]
0	0x3d69496f	0.056954797
1	0x3e07b60d	0.1325304
2	0x3ce8f6f2	0.028438065
3	0x3ecb0629	0.39653137
4	0xbc0e24e7	-0.00867579
5	0xbe2e9382	-0.17048457
6	0x3e978032	0.29589993
7	0xbcbffa12	-0.023434673
8	0x3ce9dfdd	0.02854913
9	0x3d9cab7f	0.07649898
10	0x3e057f95	0.1303695
11	0x3e44b723	0.19210486
12	0xbc187775	-0.0093058245
13	0x3e4c324c	0.19941062
14	0xbe25d1d9	-0.16193332
15	0x3dcfbdfe	0.1014366
16	0x3e256236	0.16150746
17	0x3eee5656	0.46550244
18	0xbdb4ca86	-0.08827691
19	0xbccf6fd5	-0.02532188
20	0x3d160f27	0.036635544
21	0x3e91bb35	0.2846314
22	0xbe141637	-0.144616
23	0x3de186d8	0.110120475
24	0x3b828370	0.0039829537
25	0x3e3ca6c9	0.18422998
26	0x3e3f0208	0.18653119
27	0xbd6bfac7	-0.057612207
28	0xbcd004ff	-0.025393007
29	0x3e7066ef	0.23476766
30	0x3d8074f9	0.06272311
31	0x3d8bb90f	0.068224065
32	0x3e7a4fda	0.24444523
33	0x3d669b95	0.05630072
34	0x3d3630ad	0.044480015
35	0xbe74c8f2	-0.2390478
36	0x3e652fbf	0.22381495
37	0x3d2485c6	0.04016664
38	0x3e7b348c	0.24531764
39	0xbab1bea1	-0.001356084
40	0x3c9c511c	0.019081645
41	0xbdadd4a5	-0.08487824
42	0xbdfd9776	-0.123824045
43	0xbded938f	-0.1160041
44	0xbdbb51b5	-0.09146444
45	0x3e1395a4	0.14412552
46	0x3d25e038	0.040497035
47	0xbd6fc5ac	-0.058538124
48	0x3e6e6ac3	0.23282914
49	0x3e07452e	0.13209984
50	0x3cd2d8e6	0.02573819
51	0x3dbbe45e	0.09174417
52	0xbc8a7e01	-0.016905786
53	0x3d4128cb	0.047158044
54	0x3be8ec99	0.0071082828
55	0x3e2b557d	0.1673183
56	0x3d9e44e4	0.077279836
57	0x3dde6879	0.1085977
58	0x3d0e894d	0.03479891
59	0x3e3a59bd	0.18198295
60	0xbd9dec14	-0.07711044
61	0x3e398c0d	0.18119831
62	0xbcd1c69b	-0.025607398
63	0x3d85f8d4	0.06541601
64	0x3d9ed4ed	0.07755456
65	0x3e0fd812	0.14047268
66	0x3cb83852	0.022487793
67	0x3daf3574	0.08555117
68	0x3d6c1e9e	0.057646386
69	0xbe641581	-0.22273828
70	0x3d20ee41	0.039289717
71	0x3e4f6b4e	0.20255777
72	0xbdf8cd55	-0.12148539
73	0x3e825264	0.25453484
74	0x3e32f8b3	0.17477684
75	0x3e1490fd	0.14508434
76	0x3d64bee8	0.055846125
77	0x3d4a545a	0.04939685
78	0x3ce8298b	0.028340122
79	0xbda79f45	-0.08184675
80	0x3e2f7f36	0.17138371
81	0x3c7b1a94	0.015326161
82	0x3e79972c	0.24374074
83	0xbe09ec74	-0.13469106
84	0xbdb03677	-0.08604138
85	0x3ca489fb	0.020085325
86	0xbe1453be	-0.1448507
87	0xbbf0a683	-0.0073440685
88	0x3e78d121	0.24298526
89	0xbd98b665	-0.07456664
90	0xbe60a602	-0.21938327
91	0x3ba8adb3	0.0051476597
92	0x3dc31f93	0.09527507
93	0x3dd51e3f	0.104061596
94	0xbe8e200e	-0.2775883
95	0x3e74a1e2	0.23889878
96	0xbd85bf47	-0.06530624
97	0xbcb60eb9	-0.022223817
98	0xbd51825b	-0.051149707
99	0xbe40fb51	-0.1884587
100	0xbd653aa8	-0.055964142
101	0x3c40398d	0.011732471
102	0x3da520ef	0.08062922
103	0xbdfa60c2	-0.12225486
104	0x3e466efe	0.19378278
105	0x3db9e017	0.09075945
106	0xbb613c31	-0.0034368152
107	0xbd869971	-0.065722354
108	0xbe072875	-0.13199027
109	0x3ded435c	0.115851134
110	0x3d5389f4	0.051645234
111	0x3e60465e	0.21901843
112	0x3df4941e	0.119423136
113	0xbd41f96f	-0.04735702
114	0xbe9c2b20	-0.30501652
115	0x3e443617	0.19161259
116	0xbe1790e3	-0.14801364
117	0x3e21ce4a	0.1580135
118	0xbd563da5	-0.052304883
119	0xbcb7e0e4	-0.022446103
120	0xbd9475a2	-0.07248999
121	0xbd4ce4e8	-0.05002299
122	0xbbd5fcdc	-0.0065303873
123	0x3e431f8a	0.19055
124	0xbda9b7e1	-0.08287025
125	0x3e14fdf8	0.14550006
126	0x3e44be69	0.1921326
127	0x3d0b95ab	0.03407828
128	0xbded475d	-0.11585877
129	0xbc09db0f	-0.008414044
130	0x3d94464d	0.07239971
131	0xbe207986	-0.15671358
132	0xbd856826	-0.06514005
133	0xbdadc03d	-0.08483932
134	0x3de7bf04	0.1131573
135	0xbd0af4ff	-0.033925053
136	0x3bd41ce0	0.0064731687
137	0xbe0476a0	-0.12935877
138	0x3def373f	0.11680459
139	0x3dd8b83d	0.10582016
140	0x3dd64543	0.104624294
141	0x3e17c274	0.14820272
142	0x3d845c76	0.06462948
143	0x3d0b26dc	0.033972606
144	0x3c4a97bc	0.012365278
145	0x3e094e32	0.13408735
146	0xbc503445	-0.0127077745
147	0x3e399e1d	0.18126722
148	0xbc68554f	-0.014180495
149	0x3e3762f0	0.17908835
150	0x3c1f0ce2	0.009707661
151	0x3d9e5470	0.07730949
152	0x3d0f5f52	0.035003014
153	0x3e85c007	0.26123068
154	0x3e80c34e	0.25149006
155	0xbd96ac25	-0.07357053
156	0xbdbae132	-0.09124984
157	0x3d070102	0.032959945
158	0xbe05e895	-0.13077004
159	0x3d6f9b22	0.058497556
160	0x3e1ce35a	0.15321103
161	0x3e900780	0.28130722
162	0x3ccbc68a	0.024874944
163	0x3ee37eb9	0.4443262
164	0xbdaa7ac1	-0.08324195
165	0x3b1e4204	0.0024148235
166	0x3e040a38	0.12894523
167	0x3e7d6700	0.24746323
168	0x3c7b9660	0.015355676
169	0x3e8442b2	0.25832134
170	0x3e496a77	0.1966952
171	0x3e3bbe2a	0.1833426
172	0xbdb39e90	-0.08770478
173	0x3e76f0c8	0.24115288
174	0xbe1103ae	-0.1416156
175	0xbd8dfc8d	-0.06932936
176	0x3ebdcec2	0.37071806
177	0x3e9b2a70	0.30305815
178	0x3e38adf9	0.18035115
179	0x3e5dbe81	0.21654703
180	0x3e92632a	0.2859128
181	0x3dee6809	0.11640937
182	0xbdeed524	-0.11661747
183	0x3e4ae5da	0.19814244
184	0x3d5c34b4	0.0537612
185	0xbe4b05f3	-0.19826488
186	0xbdd06c58	-0.10176915
187	0x3d28c31a	0.04120169
188	0x3e5007b2	0.20315436
189	0x3e6ceb4c	0.23136634
190	0xbe18cf6d	-0.14922877
191	0x3de024b3	0.109445
192	0xbe0d0ad1	-0.13773657
193	0xbd898c8d	-0.06716261
194	0xbe812361	-0.25222304
195	0xbe852567	-0.26005098
196	0x3e327617	0.1742786
197	0x3e8c4032	0.27392727
198	0xbd315493	-0.043293547
199	0xbe27d8ec	-0.16391343
200	0xbd3436a1	-0.04399741
201	0xbc9c2217	-0.019059224
202	0x3a3ecb84	0.0007278251
203	0x3d1149f2	0.03547091
204	0x3dc8b266	0.09799652
205	0xbcb7b210	-0.022423774
206	0x3e2eb622	0.17061666
207	0x3dcbe8ac	0.09956488
208	0xbd03f216	-0.032213293
209	0xbe49fc2f	-0.19725107
210	0xbec2de92	-0.38060433
211	0x3e2f36f2	0.17110804
212	0xbe9498ef	-0.2902293
213	0xbcf6681c	-0.03007894
214	0x3e1281db	0.14307348
215	0xbe65e213	-0.22449522
216	0xbea0e870	-0.31427336
217	0x3e5e823a	0.21729365
218	0x3e89406f	0.2680697
219	0xbcda3f0e	-0.026641395
220	0xbe153d34	-0.14574128
221	0xbe32ea1c	-0.17472118
222	0x3dc9fd9e	0.09862827
223	0xbebc8185	-0.36817566
224	0x3d980e50	0.07424605
225	0xbdd80e50	-0.10549605
226	0x3e01ee5a	0.1268858
227	0xbe5e8064	-0.21728665
228	0xbe35af4c	-0.17742652
229	0xbd537e78	-0.051634282
230	0x3ac76b69	0.0015214506
231	0x3e319671	0.17342545
232	0xbd838724	-0.064222604
233	0x3e240c0f	0.16020225
234	0xbdf9eae0	-0.12203002
235	0xba0925e2	-0.000523178
236	0xbd5ff3df	-0.054675933
237	0x3d6387a7	0.05554929
238	0xbd6de8d6	-0.058083378
239	0x3e2e31d4	0.17011195
240	0x3de26426	0.11054258
241	0xbdf74c3e	-0.12075089
242	0x3e23a4c0	0.15980816
243	0x3e0dee3b	0.13860409
244	0x3e0dadd9	0.13835849
245	0x3da53235	0.08066217
246	0x3d7657db	0.06014238
247	0x3e65bd90	0.22435594
248	0xbdbdb02b	-0.09262117
249	0x3e02b185	0.12763031
250	0xbe05a1a4	-0.13049942
251	0x3d839d2e	0.06426464
252	0x3e7c6aad	0.24650069
253	0xbe0965f6	-0.13417801
254	0x3d5ac308	0.053408653
255	0xbcaab393	-0.02083758

gru.weight_hh_l0 f4 [96, 32]
0	0xbde54e57	-0.11196583
1	0x3da25c69	0.07927782
2	0xbe219795	-0.1578048
3	0xbe431893	-0.19052343
4	0x3e8f6c4a	0.28012305
5	0x3d20cb81	0.039256576
6	0x3d57af3c	0.05265735
7	0x3d1ebba2	0.03875316
8	0xbc3bf23a	-0.0114713255
9	0xbe69ddc8	-0.22838509
10	0xbe3bec75	-0.1835192
11	0x3da9efdf	0.08297705
12	0xbc93122e	-0.017953005
13	0xbe9aa435	-0.30203405
14	0x3d335746	0.043784402
15	0x3e257ea8	0.16161597
16	0xbd92f2bc	-0.07175204
17	0x3cce6cce	0.025198366
18	0x3db9c1eb	0.0907019
19	0x3c74faa7	0.014952338
20	0xbdec0dfc	-0.11526105
21	0x3e218a85	0.15775497
22	0xbcc6cc0f	-0.024267225
23	0xbdae5914	-0.08513084
24	0xbd3cf085	-0.046127815
25	0xbce20df2	-0.02759454
26	0x3ddee3bc	0.10883281
27	0xbe319cbd	-0.17344947
28	0x3de75b61	0.11296726
29	0xbe0cd3aa	-0.13752618
30	0x3d9944ce	0.074838266
31	0xbd88b2c4	-0.06674722
32	0x3bd23de4	0.0064160693
33	0x3d07e74d	0.03317957
34	0xbd3a5784	-0.045493618
35	0x3e05a76a	0.13052145
36	0x3e4f8bd4	0.20268184
37	0xbcbeb4aa	-0.023279507
38	0x3e97c026	0.29638785
39	0x3e0d33b0	0.13789248
40	0x3d979279	0.07400984
41	0x3cd711b8	0.026253566
42	0x3e97da33	0.2965866
43	0x3e0f8fa2	0.14019635
44	0xbd565966	-0.05233135
45	0xbe310aa9	-0.17289223
46	0xbca2cc44	-0.019872792
47	0xbe441f51	-0.19152571
48	0x3e3a30b3	0.1818264
49	0xbbbfbc10	-0.005851276
50	0xbe1ec92c	-0.15506428
51	0x3ec35249	0.38148716
52	0xbbe222e6	-0.006901133
53	0xbe4b36a0	-0.19845057
54	0xbe2f3dd6	-0.17113432
55	0x3e144eac	0.14483136
56	0xbda164d6	-0.07880561
57	0x3d32ca57	0.043649998
58	0xbe118f84	-0.14214903
59	0xbba69cd7	-0.0050846147
60	0x3df29723	0.11845233
61	0x3da7fd40	0.082026005
62	0xbd857525	-0.06516484
63	0x3deb97b3	0.11503544
64	0x3de52637	0.111889295
65	0x3e9dc9f4	0.3081814
66	0xbd9bed86	-0.076136634
67	0xbe613ac4	-0.21995074
68	0x3d42dbd3	0.047572922
69	0xbd0de22d	-0.034639526
70	0x3bdb6889	0.006695811
71	0xbe2e6a9a	-0.17032853
72	0xbcf5bc64	-0.029997058
73	0xbd1853c1	-0.03718925
74	0xbdc6a9ae	-0.097003326
75	0xbdf1b744	-0.11802533
76	0xbea18b9d	-0.3155183
77	0xbd147138	-0.036240786
78	0xbdfda5a5	-0.1238511
79	0x3e3cee00	0.18450165
80	0xbe651bf5	-0.22373946
81	0x3e86b9b8	0.26313567
82	0xb942868f	-0.00018551409
83	0xbdbe8ca1	-0.093041666
84	0xbba3774c	-0.0049885865
85	0xbe3c631e	-0.18397185
86	0xbe3bcf83	-0.18340878
87	0xbd09aa90	-0.033609927
88	0x3c1c23f8	0.00953006
89	0x3d86afa7	0.06576472
90	0xbdf18b42	-0.117941394
91	0xbe0df506	-0.13863
92	0x3d0fb60a	0.035085715
93	0x3d4c9519	0.049946878
94	0x3e393853	0.18087892
95	0x3e70a4cd	0.23500367
96	0x3d90b792	0.07066263
97	0xbe48d401	-0.19612123
98	0xbdb4805c	-0.08813545
99	0x3d85a332	0.06525268
100	0x3cf8a906	0.030354034
101	0xbdda1749	-0.106489725
102	0xbcfb9f5a	-0.030715633
103	0xbc9f1195	-0.019417563
104	0xbe1a792c	-0.15085286
105	0x3d0adc57	0.03390154
106	0xbd6151a5	-0.055009503
107	0x3df5c76e	0.12000929
108	0xbe3ec490	-0.1862967
109	0xbd849f78	-0.06475729
110	0x3dc41d2d	0.09575877
111	0x3e8d4d81	0.27598193
112	0xbca9f027	-0.020744396
113	0xbe89622a	-0.26832706
114	0x3e24521e	0.1604695
115	0xbdbf4471	-0.09339226
116	0xba577f08	-0.0008220528
117	0x3ddb78f2	0.10716428
118	0xbe3b1187	-0.18268405
119	0xbd195dac	-0.037442848
120	0x3d95e139	0.073183484
121	0x3d69bc2f	0.05706423
122	0xbd62a130	-0.0553295
123	0x3d34dce6	0.044155978
124	0xbdbf6071	-0.093445666
125	0xbdd018d3	-0.10160985
126	0x3dc09193	0.09402766
127	0x3b8d18d7	0.0043059397
128	0xbe627827	-0.22116147
129	0x3e4b5a6c	0.19858712
130	0xbdf9b676	-0.12193005
131	0x3cdf8b48	0.027288094
132	0xbba62f4d	-0.0050715567
133	0xbe663436	-0.22480854
134	0x3db8a7e8	0.090164006
135	0xbafd1d28	-0.0019311057
136	0x3e3d4ab4	0.18485528
137	0x3e10eb22	0.14152196
138	0x3df12d26	0.117761895
139	0x3d2fa683	0.042883407
140	0xbe3e708b	-0.18597619
141	0xbc833eac	-0.016021095
142	0xbe026e90	-0.12737489
143	0xbd7f367d	-0.062307823
144	0xbe713a36	-0.23557362
145	0xbdd1505f	-0.10220408
146	0x3bacc736	0.005272771
147	0x3d97d27f	0.07413196
148	0xbe140756	-0.14455923
149	0xbd85d567	-0.06534844
150	0xbe5049ad	-0.20340605
151	0x3e3e268f	0.18569396
152	0xbe0a9aba	-0.13535586
153	0xbd22d80d	-0.039756823
154	0xbddb16c9	-0.10697705
155	0xbe6f2074	-0.23352224
156	0x3d8008ac	0.06251654
157	0x3da7ef92	0.08199991
158	0x3e3b762a	0.18306795
159	0xbde4db20	-0.11174607
160	0xbd30fced	-0.04320996
161	0x3e642398	0.22279203
162	0x3debfc53	0.115227364
163	0xbdb0f3d4	-0.086402565
164	0x3e338808	0.1753236
165	0xbbf7ac45	-0.007558378
166	0x3cfd3c6b	0.030912599
167	0x3e14ffd7	0.1455072
168	0xbd0d95e8	-0.03456679
169	0xbd81ebb2	-0.063437834
170	0x3ccfd008	0.025367752
171	0xbd6f34e9	-0.05840007
172	0xbe312d6f	-0.17302488
173	0x3dec559f	0.115397684
174	0x3e8eeb7b	0.27914032
175	0xbe0fe00b	-0.1405031
176	0xbe46b04c	-0.1940319
177	0xbe3b1a2c	-0.18271703
178	0xbe7652c2	-0.24055007
179	0xbd831338	-0.0640015
180	0x3d9bb13f	0.076021664
181	0xbd8a291f	-0.067461245
182	0xbd3d62b9	-0.046236727
183	0x3cdf4d0d	0.02725842
184	0x3d49ec05	0.04929735
185	0xbea7b2e6	-0.32753676
186	0x3ccf5546	0.025309216
187	0x3e410073	0.18847828
188	0xbe3de58b	-0.18544595
189	0xbd9e693c	-0.077349156
190	0xbe6ff2d1	-0.23432471
191	0x3c9cf82f	0.019161312
192	0x3d6d6d3d	0.057965506
193	0x3d95caa4	0.07314041
194	0xbc9a1012	-0.018806491
195	0xbd2db339	-0.04240725
196	0xbe12118a	-0.14264503
197	0xbab19513	-0.0013548456
198	0xbe29e630	-0.16591716
199	0x3c738f02	0.014865639
200	0x3e215b3e	0.15757462
201	0xbe2d0756	-0.1689733
202	0xbe558b21	-0.20853855
203	0xbd01a112	-0.03164775
204	0x3e6233bf	0.22090052
205	0x3e0f6486	0.1400319
206	0xbc84e153	-0.016220724
207	0xbdd43f92	-0.103636876
208	0x3e06ef24	0.13177162
209	0x3bf36d91	0.007428833
210	0x3df53e58	0.11974782
211	0xbd0ee609	-0.034887347
212	0x3bbdb82e	0.005789778
213	0xbdc42242	-0.09576847
214	0xbe2298b9	-0.15878572
215	0x3daf9aed	0.085744716
216	0x3dbcfa06	0.09227376
217	0x3e742e3e	0.23845765
218	0xbdcf7ca9	-0.10131199
219	0x3dce2828	0.10066253
220	0x3e02b104	0.12762839
221	0x3d9fb75f	0.07798647
222	0xbdffbba0	-0.124869585
223	0xbdbc58da	-0.091966346
224	0xbc71ab75	-0.014750351
225	0x3e162939	0.14664163
226	0x3d99c627	0.07508498
227	0x3d5720a6	0.05252137
228	0xbe1396c3	-0.1441298
229	0x3e23d353	0.15998583
230	0x3cba759c	0.022761159
231	0x3c371130	0.011173531
232	0x3e4475e5	0.19185598
233	0x3e445104	0.1917153
234	0xbcd265d4	-0.025683321
235	0x3ce479a1	0.027890028
236	0xbcc38a82	-0.023869757
237	0x3e531426	0.20613155
238	0xbd0b7925	-0.03405108
239	0xbe0a5137	-0.13507544
240	0xbd1abb5c	-0.037776336
241	0xbd875483	-0.06607916
242	0xbe20993f	-0.15683459
243	0xbd2855e3	-0.041097533
244	0x3c4b85aa	0.012422005
245	0xbe3ae4c2	-0.18251327
246	0xbb0937d3	-0.0020937815
247	0x3e867ec2	0.26268584
248	0xbd32753f	-0.043568846
249	0xbe4763f6	-0.19471726
250	0xbde0d399	-0.10977859
251	0x3de8e98c	0.113726705
252	0xbe715a44	-0.2356959
253	0x3d15675d	0.036475528
254	0xbda102cd	-0.07861862
255	0xbe058f39	-0.13042916

gru.bias_ih_l0 f4 [96]
0	0x3e03ff7e	0.12890431
1	0xbd386adb	-0.04502378
2	0x3e575299	0.21027602
3	0xbdb755fe	-0.089519486
4	0x3dc9f8f5	0.09861938
5	0x3a437726	0.0007456414
6	0xbe29e06f	-0.16589521
7	0xbd1aeb50	-0.037822068
8	0x3e90d792	0.28289467
9	0xbc97a6fb	-0.01851224
10	0x3d7a1293	0.06105287
11	0xbc275805	-0.010213857
12	0xbdee0d73	-0.11623659
13	0x3e0ab263	0.13544612
14	0xbe07e2e0	-0.1327014
15	0xbcf701dd	-0.030152256
16	0x3da7ee3f	0.08199739
17	0xbdc33c9e	-0.09533046
18	0x3d1f1494	0.038837984
19	0xbcb62ad8	-0.022237226
20	0x3df31795	0.11869732
21	0xbd80be4c	-0.06286296
22	0x3e846163	0.2585555
23	0x3e00cfec	0.12579316
24	0xba1f9031	-0.0006086855
25	0xbe0042a9	-0.12525429
26	0x3e1ed5ea	0.15511289
27	0x3c79dc7e	0.015250323
28	0x3e35f1f5	0.1776808
29	0x3e1a8aec	0.15092057
30	0x3d917b41	0.07103587
31	0x3ebb4d18	0.36582255
32	0xbe2d3c78	-0.16917598
33	0x3d90f61a	0.0707819
34	0xbd362c5d	-0.044475902
35	0x3e4eb874	0.20187551
36	0x3d6efa49	0.05834416
37	0xbe0776da	-0.13228932
38	0x3e26738e	0.16255018
39	0xbcc0fc28	-0.023557737
40	0x3d5139bd	0.051080454
41	0x3db4ef20	0.08834672
42	0x3ea83aba	0.32857305
43	0x3e54c9ee	0.20780155
44	0x3d9c292e	0.07625042
45	0x3d945945	0.07243589
46	0xbd41e589	-0.047338042
47	0xbda65da4	-0.08123329
48	0x3dd2d008	0.10293585
49	0x3e63693d	0.22208114
50	0x3c121809	0.008916863
51	0x3e647173	0.22308902
52	0xbd1bac6a	-0.038006224
53	0xbdf2bfba	-0.11852975
54	0xbc693a7f	-0.014235138
55	0xbd769179	-0.060197327
56	0x3e49f083	0.19720654
57	0xbca3fefd	-0.020019049
58	0x3d582bb3	0.05277605
59	0xbe04e98d	-0.12979718
60	0x3ca4869e	0.020083722
61	0x3e81062b	0.25200018
62	0xbdd3d4f4	-0.10343352
63	0xbd4669cb	-0.048440736
64	0x3c52fac6	0.012877172
65	0x3e30b738	0.17257392
66	0x3d2dfddf	0.04247844
67	0xbca1e922	-0.019764487
68	0x3d3cdaec	0.046107218
69	0xbe58aea9	-0.21160378
70	0x3db246a7	0.08704882
71	0xbe5a7564	-0.21333843
72	0xbdd6f2c5	-0.10495523
73	0x3be332d3	0.006933549
74	0x3e4727ad	0.19448729
75	0x3e6a90ca	0.22906795
76	0xbd066414	-0.032810286
77	0xbdb36aa6	-0.08760576
78	0x3cc0983f	0.023510097
79	0x3d7a2e94	0.061079577
80	0xbe5eb3e1	-0.21748306
81	0xbe1c2ac4	-0.15250689
82	0xbd2f95a9	-0.042867336
83	0xbde4c802	-0.11170961
84	0xbe744a84	-0.2385655
85	0x3dba0979	0.09083838
86	0x3dcdf7d9	0.10057039
87	0xbe08444c	-0.13307303
88	0x3afbe469	0.0019217852
89	0x3b66d549	0.0035222343
90	0xbd1e83bf	-0.03869986
91	0xbe1fc21a	-0.15601388
92	0x3dfbadeb	0.122890316
93	0xbcbcdefd	-0.023055548
94	0x3dcc44e8	0.0997408
95	0x3e0cfbe8	0.1376797

gru.bias_hh_l0 f4 [96]
0	0xbca1d604	-0.01975537
1	0x3e694edb	0.22783987
2	0x3e7f4afe	0.24930951
3	0x3dd01840	0.10160875
4	0xbd9c85ea	-0.076427296
5	0xbcaf363a	-0.021388162
6	0xbdd59120	-0.10428071
7	0x3e1f10db	0.15533774
8	0x3d47cb88	0.048778087
9	0x3e7cd2a3	0.24689727
10	0x3e3dcd3a	0.18535319
11	0x3de0b6fc	0.109724015
12	0xbbd630aa	-0.006536563
13	0x3e90792c	0.28217447
14	0xbded6501	-0.115915306
15	0x3d34d25b	0.044145923
16	0x3e89b28e	0.2689404
17	0x3d4db02b	0.050216835
18	0x3d1cf93c	0.038323626
19	0x3cefcb71	0.029271813
20	0x3e9101b5	0.28321615
21	0x3e5d6b18	0.21622884
22	0x3e8a4da0	0.27012348
23	0x3e619443	0.22029214
24	0xbd877a75	-0.06615154
25	0x3d8fbdbb	0.0701861
26	0x3dd0a7cf	0.10188257
27	0x3d6d71db	0.05796991
28	0x3c9e8e91	0.01935509
29	0x3d098dcd	0.033582497
30	0x3d8f47a2	0.06996085
31	0x3ea057cd	0.31316987
32	0xbd7ae712	-0.061255522
33	0x3e6a36d0	0.22872472
34	0x3e4658ab	0.19369762
35	0x3d05349a	0.032520868
36	0x3e83a998	0.25715327
37	0xbdc7125e	-0.097203
38	0x3d26beb4	0.040709212
39	0xbe55aff0	-0.20867896
40	0xbc1f905c	-0.009739008
41	0x3cb13508	0.021631733
42	0x3e7e3047	0.24823104
43	0x3e0fa7b1	0.14028813
44	0x3e5f1e8c	0.21788996
45	0xbdc3b61c	-0.09556219
46	0xbe11cb8c	-0.14237803
47	0x3e0f5e73	0.14000873
48	0x3d1063cb	0.03525142
49	0x3d3fdfea	0.0468444
50	0xbde5126d	-0.11185155
51	0x3bc2e92f	0.005948208
52	0x3b306402	0.0026915078
53	0xbe0df5ac	-0.13863248
54	0xbe1f04e2	-0.15529206
55	0x3e2e53bf	0.17024134
56	0xbe0a13e7	-0.13484155
57	0x3e090fad	0.13384886
58	0xbd4f3191	-0.05058438
59	0x3e023319	0.12714805
60	0xbd7d4c27	-0.061840203
61	0x3e0cf65d	0.13765855
62	0xbe134857	-0.14383064
63	0x3cb4a866	0.022052955
64	0xbdf98003	-0.121826194
65	0x3d5757e3	0.05257405
66	0xbddaaf0f	-0.10677921
67	0xbde529bc	-0.11189601
68	0x3d9736d7	0.07383507
69	0x3d9d0c97	0.07668417
70	0x3e16b585	0.14717682
71	0xbc8affb0	-0.016967624
72	0xbe0e5a9c	-0.13901752
73	0xbdfb1253	-0.122593544
74	0xbbfc65a7	-0.0077025476
75	0x3d89dfa8	0.06732112
76	0xbde4b5e5	-0.11167506
77	0xbd5fa090	-0.054596484
78	0xbe4117e9	-0.18856777
79	0x3e63e55e	0.22255465
80	0xbe30c709	-0.17263426
81	0xbd7dfe1d	-0.06200992
82	0x3e73b0d7	0.23797928
83	0xbd541a66	-0.051782988
84	0x3d30c7e7	0.04315939
85	0xbdb33566	-0.08750419
86	0xbe49f902	-0.19723895
87	0xbd0afc03	-0.033931743
88	0x3dc51ba3	0.09624412
89	0xbdae6519	-0.085153766
90	0x3e29cd18	0.16582143
91	0xbe15415d	-0.14575715
92	0x3e395bd0	0.1810143
93	0xbd9400ec	-0.07226738
94	0x3d628e9c	0.055311784
95	0x3e1171b2	0.14203528

gru.weight_ih_l0_reverse f4 [96, 32]
0	0x3e3689d2	0.17826012
1	0x3e37e915	0.17960007
2	0xbd416ef9	-0.047224972
3	0x3e7c002c	0.2460944
4	0x3daf0782	0.08546354
5	0x3e370225	0.17871912
6	0x3e55b1c8	0.208686
7	0xbd83588d	-0.06413374
8	0x3d644976	0.05573412
9	0x3c3d7589	0.011563667
10	0x3da383e1	0.07984138
11	0xbda9ebf5	-0.08296958
12	0xbd8df9ab	-0.06932386
13	0x3e2af545	0.16695125
14	0x3e3f97b5	0.18710215
15	0x3e0b5699	0.13607253
16	0x3dd4fbc2	0.103995815
17	0x3e6e09d2	0.23245934
18	0x3e3a7ac0	0.18210888
19	0x3dfe5260	0.124180555
20	0xbd0bc6ca	-0.034125127
21	0x3d578d24	0.052624837
22	0xbd434565	-0.0476736
23	0x3d467d34	0.048459247
24	0xbde71361	-0.11282993
25	0x3e3a05c9	0.1816627
26	0x3e2cc6ab	0.16872661
27	0x3e5eff04	0.21776968
28	0x3c303979	0.01075589
29	0x3dd53e7b	0.10412308
30	0xbd7e9744	-0.062155977
31	0xbdcc93af	-0.09989106
32	0xbd868e66	-0.06570129
33	0x3c3bfdf1	0.011474119
34	0xbdc0912a	-0.09402688
35	0xbe1bd8b6	-0.15219387
36	0x3da11de0	0.07867026
37	0x3e96f8b9	0.29486635
38	0xbde93fac	-0.113890976
39	0x3dc2f985	0.09520248
40	0xbd37f078	-0.044907063
41	0x3d980d98	0.07424468
42	0xbdd82a59	-0.10554952
43	0x3e1775e1	0.14791061
44	0x3d1b6c40	0.037945032
45	0xbdfe9350	-0.124304414
46	0x3e233de1	0.15941574
47	0x3db16ad1	0.08662952
48	0xbe3eb0ac	-0.18622082
49	0xbe43d0b9	-0.1912259
50	0xbe06b685	-0.13155563
51	0x3d716a93	0.058939528
52	0xbe20cb72	-0.15702608
53	0x3e0caefc	0.13738626
54	0x3e675f71	0.22595002
55	0x3db8890b	0.09010514
56	0xbc0b54b2	-0.00850408
57	0x3d9d42c2	0.07678749
58	0x3de8b30a	0.11362274
59	0x3d48abfe	0.04899215
60	0xbdacf00c	-0.08444223
61	0x3c44ac71	0.012004004
62	0x3e158619	0.14601935
63	0xbe7c9c7d	-0.2466907
64	0x3d97ccd3	0.07412114
65	0x3e3a94be	0.18220803
66	0x3e87e233	0.26539764
67	0xbd6fa755	-0.05850919
68	0x3dfd585c	0.12370369
69	0x3e784861	0.2424636
70	0x3e3ac19d	0.1823792
71	0x3deddd5a	0.11614485
72	0xbafaa9f1	-0.0019124133
73	0x3e6f75ea	0.23384824
74	0xbb6b5f7c	-0.0035915067
75	0x3e181949	0.14853396
76	0xbcb712cc	-0.02234783
77	0x3ea46e84	0.32115567
78	0x3e9b982c	0.30389535
79	0xbd8ec6f8	-0.06971544
80	0x3d9f138e	0.07767402
81	0x3e7e9ce7	0.24864541
82	0xbcd73cdc	-0.026274137
83	0x3bcf28e4	0.006322013
84	0x3e3f9fa5	0.18713243
85	0x3d91eb3c	0.071249455
86	0x3da674f5	0.081277765
87	0x3d09b318	0.033618063
88	0x3dfa732b	0.12228998
89	0x3e6c4510	0.2307322
90	0x3e518635	0.20461352
91	0x3d309c31	0.043117706
92	0x3e699381	0.22810175
93	0x3e9adb26	0.30245322
94	0x3e3ba4d3	0.18324594
95	0x3ea3c8b1	0.31989053
96	0xbcf9f7ce	-0.03051367
97	0x3e298455	0.16554387
98	0xbdb085e6	-0.08619289
99	0xbe3f8577	-0.18703257
100	0xbe05e7e1	-0.13076736
101	0x3d6cf68c	0.057852313
102	0xbd1c18b5	-0.0381095
103	0x3d8423c9	0.06452138
104	0x3e737ad8	0.2377733
105	0xbe2ad516	-0.16682848
106	0x3c024386	0.007950669
107	0xbdb3387d	-0.08751009
108	0xbd115d41	-0.035489324
109	0xbe1b2c55	-0.1515363
110	0xbcbc1a96	-0.022961896
111	0x3e0c9d9c	0.13731998
112	0x3d3f56c3	0.0467136
113	0xbca35f0d	-0.019942785
114	0xbdec69f4	-0.115436465
115	0x3d727dda	0.059202053
116	0x3c56caf4	0.013109911
117	0x3dba077d	0.090834595
118	0x3e43f6d0	0.1913712
119	0xbe25e966	-0.16202316
120	0x3dd77d82	0.105219856
121	0x3d6bb989	0.057549987
122	0x3dfd15de	0.123576865
123	0xbd82a1c7	-0.06378513
124	0xbd275be9	-0.040859137
125	0x3d43106d	0.047623087
126	0x3e0a7874	0.13522512
127	0xbdd011b9	-0.1015963
128	0x3e1c38b2	0.15256003
129	0x3e247015	0.16058381
130	0x3c1ec016	0.009689352
131	0xbe432e9f	-0.19060753
132	0x3e04f426	0.1298376
133	0xbe207546	-0.15669736
134	0xbdbafa34	-0.09129754
135	0x3e1ff0d2	0.1561921
136	0x3e5b1604	0.21395117
137	0x3e1efa27	0.15525113
138	0xbd945a25	-0.07243756
139	0x3e71c0f5	0.23608764
140	0x3dd84972	0.105608836
141	0xbdb6f93e	-0.08934258
142	0xbdfa3755	-0.12217585
143	0x3d7d8a39	0.061899398
144	0x3deae12b	0.11468729
145	0xbd25232e	-0.040316753
146	0x3d424f1b	0.047438722
147	0xbd76c13f	-0.060242888
148	0x3db74a68	0.08949739
149	0xbd86dd43	-0.06585171
150	0x3e0eda52	0.1395047
151	0x3e85b114	0.26111662
152	0xbc208fd9	-0.009799921
153	0x3d4b9872	0.04970593
154	0x3dcf74fe	0.10129736
155	0xbbb1f7fa	-0.0054311724
156	0x3e653b90	0.22386003
157	0xbdb00905	-0.0859547
158	0xbdeb94be	-0.1150298
159	0xbdbed551	-0.093180306
160	0x3d97282b	0.07380708
161	0xbe0284a6	-0.12745914
162	0x3e2b45dd	0.1672587
163	0xbe4042f0	-0.18775535
164	0xbb5ba28e	-0.0033513638
165	0x3cce0bef	0.025152175
166	0x3c0453d0	0.008076623
167	0xbdaaf5cb	-0.083476625
168	0xbe895b6f	-0.2682757
169	0xbd08c038	-0.03338644
170	0xbd7a5bb9	-0.06112263
171	0xbe2c154c	-0.16804999
172	0x3d89a632	0.06721152
173	0xbdc27851	-0.09495605
174	0xbe217f90	-0.15771317
175	0xbda3f3de	-0.08005498
176	0x3dc48246	0.0959516
177	0xbe52ef9a	-0.20599213
178	0x3e3cf44b	0.18452565
179	0x3e0c7d70	0.13719726
180	0xbdc65f61	-0.09686161
181	0xbe2c0aaa	-0.16800943
182	0xbe6fb195	-0.23407586
183	0xbc20380c	-0.009778988
184	0xbdc7941e	-0.09745048
185	0xbd400867	-0.046883013
186	0xbe93ee73	-0.2889286
187	0x3ce7ecb7	0.028311117
188	0x3e4532fd	0.19257732
189	0x3daa872b	0.083265625
190	0xbe8cc16e	-0.27491325
191	0x3d8f5c0f	0.06999981
192	0x3dbe4c95	0.092919506
193	0x3d8551e3	0.06509759
194	0xbcc78489	-0.02435519
195	0xbb2c79b1	-0.002631765
196	0xbd5cff0e	-0.053954177
197	0xbe361039	-0.17779626
198	0x3e2849dc	0.16434425
199	0x3d3bd650	0.04585868
200	0xbdf1c939	-0.11805958
201	0xbcd5437b	-0.026033154
202	0xbe00afe6	-0.125671
203	0xbe0997f8	-0.13436878
204	0xbd300aad	-0.04297893
205	0xbdc1e6b3	-0.094678305
206	0x3ccc3078	0.024925455
207	0xbd23f0af	-0.040024456
208	0x3cb0a267	0.021561814
209	0xbe210307	-0.15723811
210	0xbcb21ed4	-0.021743216
211	0x3c5af0c9	0.013363072
212	0x3d4ea8a1	0.050453786
213	0xbdd21a97	-0.10258978
214	0xbc54f538	-0.012997918
215	0x3d53da64	0.051721945
216	0xbdfab5b6	-0.1224169
217	0xbd904aa9	-0.0704549
218	0x3d8dd015	0.06924454
219	0xbd9a26eb	-0.07526954
220	0xbcfb22f9	-0.030656325
221	0x3d0851e3	0.03328122
222	0x3c867b7c	0.016416304
223	0xbcd56698	-0.026049897
224	0x3e840a8b	0.25789294
225	0x3edae08c	0.4274944
226	0x3e85f526	0.26163596
227	0x3ea1a9b1	0.31574777
228	0x3e6997a2	0.2281175
229	0x3d894409	0.0670243
230	0x3e8256ce	0.25456852
231	0x3ec2e2b4	0.38063586
232	0x3e8bf30f	0.27333876
233	0x3eb2cc8f	0.3492169
234	0x3d74d5c9	0.059774194
235	0x3e544f2b	0.20733325
236	0x3d67f4a8	0.056629807
237	0x3e51c85d	0.20486589
238	0x3ecb7e4b	0.3974479
239	0x3d117392	0.035510607
240	0x3ec9953c	0.3937167
241	0x3e210f06	0.15728387
242	0x3e935106	0.28772753
243	0x3ed54b55	0.41659036
244	0x3eb85155	0.3599955
245	0x3e3f001b	0.18652384
246	0x3e007e95	0.12548287
247	0x3eb53c80	0.3539772
248	0x3e9d4555	0.3071696
249	0x3e20f66f	0.15719007
250	0x3eae32fd	0.34023276
251	0x3e90b3e8	0.28262258
252	0x3e5d01fc	0.21582788
253	0x3db4a833	0.08821144
254	0x3e2a2c91	0.16618563
255	0x3f01fb00	0.5077362

gru.weight_hh_l0_reverse f4 [96, 32]
0	0x3e5914b9	0.21199311
1	0x3e179f17	0.14806782
2	0x3d267723	0.04064096
3	0x3e26107f	0.1621723
4	0x3e3bb7cb	0.1833183
5	0xbe1c2ee7	-0.15252267
6	0x3c820361	0.015870752
7	0xbd29faf4	-0.041499093
8	0xbb9a122c	-0.0047018733
9	0x3d89b801	0.06724549
10	0xbe6b2eeb	-0.22967117
11	0x3e4f51b4	0.20246011
12	0x3da55ffc	0.08074948
13	0x3c49ba2e	0.012312455
14	0x3d7ff366	0.062487982
15	0xbd2aaeb0	-0.0416705
16	0xbdbb4734	-0.0914444
17	0x3e10ca60	0.141397
18	0xbe047f1b	-0.12939112
19	0xbc4a340a	-0.012341509
20	0x3d90ffcd	0.0708004
21	0x3dff2c6f	0.12459647
22	0x3d178439	0.03699133
23	0xbea18a7d	-0.3155097
24	0xbe102cbf	-0.1407957
25	0x3db255f5	0.08707801
26	0x3d9c4826	0.07630949
27	0x3dd1e54c	0.10248813
28	0xbdaa2272	-0.08307351
29	0x3e59d0e4	0.21271092
30	0x3e894a44	0.26814473
31	0x3e146a98	0.14493787
32	0x3d5f81ca	0.054567136
33	0x3e1d157f	0.15340231
34	0xbccb7f6c	-0.024841033
35	0x3e36fdda	0.17870274
36	0x3e1b1109	0.15143217
37	0xbda418e3	-0.08012559
38	0xbd9d981b	-0.076950274
39	0xbe92aeaf	-0.28648898
40	0xbe3a752f	-0.18208764
41	0x3ec2f127	0.3807461
42	0xbe7e6c66	-0.24846038
43	0x3d810341	0.06299449
44	0x3cffc7b5	0.031223157
45	0x3c8f9fb3	0.017532205
46	0xbe3d4201	-0.1848221
47	0x3e466c55	0.19377263
48	0x3db3861d	0.087658145
49	0xbd5744c1	-0.052555803
50	0xbe15b7e4	-0.1462093
51	0xbe3ec68a	-0.18630424
52	0xbe4997eb	-0.19686858
53	0x3e460145	0.19336422
54	0xbd503a5e	-0.050836913
55	0xbe8fdf36	-0.28099984
56	0xbe4932e0	-0.19648314
57	0xbe0968bf	-0.13418864
58	0x3dbc170c	0.09184083
59	0xbc3a2b0b	-0.011362801
60	0xbdbdc9e8	-0.09267026
61	0x3e0588c9	0.1304046
62	0x3e981e8f	0.29710814
63	0xbad44601	-0.0016195179
64	0x3dbe4f9f	0.0929253
65	0xbdc4e9e2	-0.09614922
66	0xbd3bb919	-0.04583082
67	0xbdf72139	-0.120668836
68	0x3dcd1080	0.10012913
69	0x3dde0db4	0.108424574
70	0xbb8f3655	-0.0043704906
71	0x3d376b74	0.04478021
72	0xbe7071e2	-0.23480943
73	0x3d699932	0.057030864
74	0xbe35abb4	-0.17741281
75	0x3d95a073	0.07305994
76	0x3d9c4d12	0.076318875
77	0xbd8ce488	-0.068795264
78	0xbe69338f	-0.22773574
79	0xbd0a36ce	-0.033743672
80	0xbc6cf9b6	-0.014463833
81	0x3cc8912d	0.024483288
82	0x3dabecce	0.08394776
83	0xbe15cfe2	-0.14630082
84	0x3db76def	0.08956515
85	0x3e39ba0c	0.18137378
86	0xbe008b85	-0.12553222
87	0x3d90ef38	0.07076877
88	0xbdf9409b	-0.12170526
89	0xbe6b2042	-0.22961524
90	0xbdc49dd8	-0.09600419
91	0x3c75ad25	0.014994894
92	0x3ddf813e	0.10913323
93	0x3da75dbf	0.081721775
94	0xbe0fbf10	-0.14037728
95	0xbb0bc6ab	-0.0021328132
96	0x3e6f8d37	0.23393713
97	0x3e3114b4	0.17293054
98	0xbe64c551	-0.22340895
99	0x3db71953	0.08940377
100	0x3af79971	0.0018890334
101	0xbd1400f5	-0.036133725
102	0x3e51f236	0.20502552
103	0xbe9e9ab5	-0.30977407
104	0xbe2fd09f	-0.17169426
105	0x3da35196	0.07974546
106	0xbbfe9bc1	-0.007770032
107	0x3e07f4d6	0.13276991
108	0xbd175cc7	-0.036953714
109	0x3e07e617	0.13271366
110	0xbe832b57	-0.25619003
111	0x3d494acc	0.049143597
112	0xbbd0ef72	-0.0063762004
113	0xbd6281ae	-0.055299453
114	0x3c4d33e3	0.012524578
115	0xbde5dd84	-0.112238914
116	0x3bf51042	0.0074787447
117	0x3c48e449	0.012261459
118	0xbaa65442	-0.0012689906
119	0xbdbb1fb5	-0.09136907
120	0x3d8bfb48	0.068350375
121	0xbe4d0860	-0.20022726
122	0xbe1e4be2	-0.15458634
123	0xbc60f933	-0.013731289
124	0x3dc4856c	0.09595761
125	0x3e2c4a63	0.16825251
126	0x3dbfc0b4	0.09362927
127	0x3e53af5c	0.20672363
128	0x3dfa3c1e	0.12218498
129	0xbd0028ec	-0.031289026
130	0x3cea0909	0.028568761
131	0x3e357fe3	0.17724566
132	0xbdb34d68	-0.087549984
133	0xbdc5694b	-0.09639224
134	0x3da583a0	0.08081746
135	0xbe80b241	-0.25135997
136	0x3d6dfeaf	0.058104213
137	0x3e4f053a	0.20216838
138	0xbcf1d6f5	-0.029521445
139	0xbb7c1fad	-0.0038471029
140	0xbe3ab736	-0.18233952
141	0x3d5f9c50	0.05459243
142	0x3c836c94	0.016042985
143	0x3d4260b7	0.047455516
144	0x3e0a4624	0.13503319
145	0xbc746a2b	-0.014917891
146	0xbddb18d7	-0.10698097
147	0xbd54d811	-0.05196387
148	0xbd0e93f2	-0.03480906
149	0x3bdc4322	0.00672187
150	0x3b4b128d	0.00309864
151	0xbe6d4087	-0.23169146
152	0xbd78fc9c	-0.060787782
153	0xbd0a7da2	-0.03381122
154	0x3db9128d	0.090367414
155	0xbd813cd3	-0.063104294
156	0x3d381fed	0.04495232
157	0x3d8117ec	0.06303391
158	0x3e5a9d1b	0.21348993
159	0x3d8d870e	0.06910525
160	0x3dcbbb5c	0.09947845
161	0x3c8cdc7b	0.017194977
162	0x3e425f6f	0.18981718
163	0x3e5e5d13	0.21715192
164	0xbb7fb5f4	-0.0039018365
165	0xbdbb6b1c	-0.09151289
166	0x3e0d42b3	0.13794975
167	0xbcf6ad18	-0.030111834
168	0x3dcaf547	0.09910064
169	0x3da0719f	0.078341715
170	0xbdc27137	-0.0949425
171	0x3e72494d	0.23660775
172	0x3c1691fe	0.009190081
173	0xbe0a9cdc	-0.135364
174	0xbd89ce05	-0.06728748
175	0x3e31e360	0.17371893
176	0xbc85ccfb	-0.016333094
177	0xbb9fea44	-0.0048802216
178	0x3d495b75	0.049159486
179	0xbe1b3139	-0.15155496
180	0xbc107fca	-0.00881953
181	0xbd1e1a6b	-0.038599413
182	0x3de9f184	0.114230186
183	0x3cc3b9b3	0.02389226
184	0x3d84f069	0.06491167
185	0x3dd65375	0.10465137
186	0xbe4b3797	-0.19845425
187	0x3de41587	0.111369185
188	0x3c45eaaf	0.012079879
189	0xbd796744	-0.060889497
190	0x3e29bbd4	0.16575557
191	0xbcc8aad8	-0.024495527
192	0x3dee5387	0.11637025
193	0x3d849c25	0.06475095
194	0xbce430c0	-0.027855277
195	0x3dafe683	0.085888885
196	0xbd2c046f	-0.041996416
197	0xbe507ca9	-0.20360054
198	0x3ddf6fd6	0.10910003
199	0xbea36694	-0.31914198
200	0xbd0f3643	-0.034963857
201	0xbd3730d9	-0.04472432
202	0xbe1d2bcf	-0.15348743
203	0x3e2357ed	0.1595151
204	0xbc71af37	-0.014751247
205	0xbe0d9303	-0.13825612
206	0xbe76cded	-0.24101992
207	0xbdac9e0c	-0.084285825
208	0x3a3baa0b	0.0007158822
209	0x3dd51300	0.104040146
210	0xbd80842e	-0.06275211
211	0x3d1e224a	0.03860692
212	0x3bd19553	0.0063959747
213	0x3dec4656	0.11536853
214	0xbdbd00de	-0.09228681
215	0xbd2767ab	-0.04087035
216	0x3dfeae1f	0.12435555
217	0x3d5e01cc	0.054200932
218	0x3da69119	0.08133144
219	0xbc2c41f5	-0.010513772
220	0x3bb9d22e	0.0056708073
221	0x3e70c256	0.23511633
222	0x3e08a46e	0.13343975
223	0xb90046a8	-0.00012233353
224	0x3a92deac	0.0011205277
225	0x3df10823	0.1176913
226	0x3dac2928	0.084062874
227	0xbd45a9a9	-0.048257504
228	0xbdf3317d	-0.118746735
229	0x3dc7e7c8	0.09761006
230	0x3e511c7f	0.20421027
231	0x3db8756e	0.09006773
232	0xbdcfb3e0	-0.1014173
233	0x3e180f91	0.14849688
234	0xbe43db9a	-0.1912674
235	0xbd5237d4	-0.051322773
236	0xbd62ab9a	-0.055339433
237	0x3dc731fe	0.09726332
238	0xbdcef3a2	-0.10105063
239	0xbe105c2d	-0.14097662
240	0xbe1db80e	-0.15402243
241	0x3ba0475d	0.0048913197
242	0xbdf7bb7c	-0.12096307
243	0x3cf2e5da	0.029650617
244	0xbda9790b	-0.0827504
245	0x3ca033e2	0.01955599
246	0xbd9b663d	-0.0758786
247	0xbe80c09e	-0.25146955
248	0x3dea66cc	0.11445388
249	0x3d732862	0.059364684
250	0x3d6924a9	0.056919727
251	0xbdb6a6e0	-0.08918548
252	0x3d2b9323	0.041888367
253	0xbccb6e2f	-0.024832813
254	0x3cab7385	0.020929107
255	0x3e1546f5	0.14577849

gru.bias_ih_l0_reverse f4 [96]
0	0x3da47c19	0.08031482
1	0x3e315a56	0.17319617
2	0x3e55b245	0.20868786
3	0x3e1b223e	0.15149781
4	0x3da0a7ac	0.07844481
5	0xbdde4a0f	-0.10853969
6	0xbd2088ca	-0.039192952
7	0xbd623a77	-0.055231538
8	0xbdd39156	-0.10330455
9	0x3e69fb5f	0.22849797
10	0x3d419b6d	0.047267366
11	0x3e228f58	0.15874994
12	0x3d794b9a	0.060863115
13	0xbc5ad957	-0.013357482
14	0x3c134ef3	0.008990991
15	0x3d97ac1b	0.074058734
16	0x3dbef5a5	0.09324197
17	0x3da3ea52	0.080036774
18	0x3e60c3c1	0.21949674
19	0xbda7433d	-0.081671216
20	0x3ceb612a	0.028732855
21	0x3e375f27	0.17907391
22	0xbcb7536c	-0.022378646
23	0x3e4e9afa	0.20176306
24	0x3d974159	0.07385511
25	0xbdc44bc8	-0.095847666
26	0x3e099d51	0.13438918
27	0xbd04b4d6	-0.03239902
28	0x3cf7cdb9	0.030249463
29	0xbdcd873e	-0.10035561
30	0xbd194594	-0.03741987
31	0x3e660594	0.22463065
32	0xbd9b346e	-0.075783595
33	0x3e59b007	0.21258555
34	0x3d8d3bc7	0.06896167
35	0x3deffeda	0.11718531
36	0x3e86ae68	0.26304936
37	0xbd4c03ae	-0.049808197
38	0x3e4d7fa1	0.20068218
39	0x3e0e4d0c	0.13896579
40	0xbb41bf72	-0.0029563573
41	0x3e7bb6d0	0.24581456
42	0x3c83274b	0.016009947
43	0xbcb2c2c7	-0.021821393
44	0x3ea030da	0.3128727
45	0x3df81fff	0.12115478
46	0x3e3fcc29	0.18730225
47	0xbc894497	-0.016756339
48	0x3cc4c773	0.024020886
49	0x3e027357	0.12739311
50	0xbc957800	-0.018245697
51	0xbbdfacf8	-0.0068260394
52	0x3e84ddb2	0.2595039
53	0x3df1d77e	0.1180868
54	0xbbfafd93	-0.007659623
55	0x3e75150d	0.23933811
56	0x3def2240	0.116764545
57	0xbc99c891	-0.018772395
58	0x3d3f8572	0.046758123
59	0xbdb8789d	-0.0900738
60	0x3e16be01	0.14720918
61	0x3e9e0054	0.30859625
62	0x3e1a120a	0.15045944
63	0x3eb2c13f	0.3491306
64	0x3e7e74b5	0.24849208
65	0x3e3044a0	0.17213678
66	0xbd576e58	-0.052595466
67	0x3e3f2fb7	0.18670546
68	0x3e0041cb	0.12525098
69	0xbdb4777d	-0.08811853
70	0x3e2c32d5	0.16816266
71	0x3b8ebd1d	0.00435604
72	0xbe23a7cf	-0.15981983
73	0x3e14cc66	0.14531097
74	0xbe3c2f33	-0.1837738
75	0x3dc4b247	0.09604316
76	0xbdaa4afd	-0.08315084
77	0xbd91a458	-0.07111424
78	0xbdd9a6cc	-0.10627517
79	0x3e079d2d	0.13243552
80	0x3da88a9c	0.08229563
81	0x3e0bdbfa	0.13658133
82	0xbdeea2dd	-0.116521575
83	0xbe29293a	-0.16519633
84	0xbd037c76	-0.032101117
85	0x3d572f99	0.052535627
86	0xbe647b82	-0.2231274
87	0xbe35af87	-0.1774274
88	0x3d092033	0.033477973
89	0xbe4314eb	-0.19050948
90	0x3dc55cb1	0.0963682
91	0xbe2a31e4	-0.16620594
92	0x3e05d400	0.13069153
93	0x3de87f3b	0.11352392
94	0x3d5a3825	0.0532762
95	0x3dcef2bb	0.10104891
