logs/exp0/weights/epoch95.pt (torch, 348934 bytes, 45 tensors)

conv_block1.0.weight f4 [32, 4, 10]
00000000: 84df 8fbc 427b 5dbe a114 2a3e 3e23 22bd
00000010: a38b b7bc 3598 e73d 2a48 29bd 3abe 27be
00000020: 8910 053e 1148 0cbe d37d af3d d4d3 17be
00000030: fde5 bfbc c381 633d 9044 20be 45d7 713d
00000040: 425e 903d 18d8 0dbc a374 b3bd a502 2bbd
00000050: f10e a7bd f0b5 b53d ce2e 103c 92f2 b2bc
00000060: d270 893d 3292 00be 563e 513d e739 c23d
00000070: 9e14 5dbe 83cc 13bd 590a 44be 5397 ae3d
00000080: 7b6c ca3b 6ac4 3fbd 9e6b 23bd 9608 07bd
00000090: 996e d1bd 1b77 233d 18a0 ce3c e5ff 2c3c
000000a0: f3b8 86bc eda5 05be e7aa ab3d 6664 f9bd
000000b0: 29e0 d1bc 81bb 393e 19f6 edbd 0429 2abd
000000c0: 0d09 db3d 9acf 803d 6dcb 9f3d 848f 803d
000000d0: 2d3d 35be 6130 ed3d 0c20 4fbe 69e9 963c
000000e0: e6b6 e73c 96e8 96bd 6516 7abc ba9a 7e3d
000000f0: 0f8d b1bd c980 903b 90cf aabc 6c23 75bd
00000100: 59b6 92bc 8740 ebbc 368b c7bd 1040 dd3d
00000110: d74f dcbd d44c 4dbd 7f7d cc3d 6da8 a43d
00000120: 2fad 1fbd cbf1 41bd 0e55 07bd 7643 58bd
00000130: bb22 08be a869 163c f101 c1bc 6037 9b3d
00000140: c4eb 7c3d abfa 01be 1af3 16be ba74 dabd
00000150: 5626 123e a8d4 2fbe e794 a1bd d49e e53d
00000160: 4ca1 2bbe dab9 733b 51a2 773d 901a df3c
00000170: bf7d 073d 9ec5 f33c dbbe 553b b37c 033e
00000180: 513d b73d 9ba1 023e 5aa5 383e 6dca cdbc
00000190: 335e bdbb 0d59 07be c958 603c 21d0 2dbe
000001a0: ffc1 6ebb b708 b43d 2529 b53d 88a0 dabd
000001b0: af01 1abd 33f4 b8bd c984 fabd e87c ffbd
000001c0: 3b38 be3d a889 8d3d caed ddbd c516 e0bd
000001d0: 3558 b03d a882 4e3b 5099 03bd 9216 9cbc
000001e0: cbe3 de3c 7a76 26be 7b2c ddbd 2d4d 1cbe
000001f0: 032b 5bbd 8010 a03c 08db 9abd fe1b 49be
00000200: d162 b1bc f512 bc3c e1dd b4bd 6d6e 51be
00000210: ebc4 23be b130 03be e79f 01be 5fc8 e3bc
00000220: 0446 c63c e0f2 19bd f521 51be d40e 573d
00000230: 9988 a6bd b7c6 fbbb 55b8 68bc 3e7d 0d3e
00000240: 7ebc 12be 05d8 473d 8cb0 c63d ec6e a0bd
00000250: dc8c 0e3e 0fdb a5bc a89a 9f3d 56fb 763d
00000260: 1e91 d63d 2d93 6f3c 80d3 05bd 1e46 633d
00000270: cdbf ca3d 7926 883d 93db ca3d f304 af3d
00000280: 6e37 30bd d76e 2bbd 9d3c 4f3c 11ef 9dbd
00000290: 2841 a9bd b1ac fe3d 3632 cdbd d353 d1bd
000002a0: 9fb5 8a3d d30f bebd 83ea 4e3d 197d 443d
000002b0: 96d6 8ebd 0146 d03d 788f 30bc 79ad 4ebe
000002c0: 057b 13bc c2d8 d93d 4ec5 05be 12d1 0a3e
000002d0: 7182 debd b00b 793d 5550 24be ac61 a53c
000002e0: ae13 213d 5633 4abb 62c5 69be 5fe1 cc3d
000002f0: 6d89 35be d79a 40ba 7f8d 653d f258 97bc
00000300: e62e d0bd 255f 2fbb 37a0 5cbe 643d 923c
00000310: e716 ac3d 28d0 793d 4eaf 52be 4e9f bc3d
00000320: e6bb 37bb 9cab a83d 0126 87bd af49 c2bd
00000330: 333d 303d 42c4 5dbe d619 923d 6d20 283e
00000340: 62fa 95be 0640 dbbd e4a4 103d a319 c13c
00000350: 1653 42be df86 ccbc 2edd ba3c 22d2 043e
00000360: c340 1ebc c668 fabd 6133 483e afc4 07be
00000370: 341f 7d3c b051 7ebd c6e2 6b3d be7e 04bd
00000380: 4f75 25be dedc c5bd 761e 483b 5b95 3dbe
00000390: 6b92 8abe d21b 153d 3004 ad3d 994e 9b3c
000003a0: 6c74 a7bc 6461 b33d 298a c03d 5c28 bfbc
000003b0: 912c 79bc 7ae7 a33d 1137 99bd 24a0 7f3d
000003c0: 81f9 bd3d 9a05 863d e2cf 203d 0ce3 573d
000003d0: 078c 02be 235d 423e 0fcd 583d f6e9 143e
000003e0: a091 183e 3ea9 f23d afa0 c9bd d1fa 63bb
000003f0: 0441 a63c f862 98bb 4d39 c7bd 0c68 7fbd
-0.017562635 -0.2162905 0.16609432 -0.03958439 -0.022405451 0.11308328 -0.041328587 -0.1638116
0.12994589 -0.13699366 0.08568921 -0.148269 -0.023425097 0.055543672 -0.15651155 0.059043188
0.07049228 -0.008657478 -0.08762481 -0.04175057 -0.08157147 0.088725924 0.008800222 -0.021844182
0.06710972 -0.12555769 0.05108484 0.094837 -0.21589896 -0.03608371 -0.19144572 0.085249566
0.0061774827 -0.046818174 -0.039897554 -0.032967173 -0.10226173 0.03990851 0.025222823 0.010559057
-0.016445613 -0.13051577 0.083822064 -0.121773526 -0.025619583 0.18137933 -0.11619205 -0.04154302
0.10695086 0.06289597 0.07802472 0.062773734 -0.17699118 0.11581493 -0.20227069 0.018421846
0.028285455 -0.07368581 -0.015264128 0.062159277 -0.08669483 0.0044098836 -0.020850927 -0.059848234
-0.017909216 -0.028717292 -0.09743349 0.108032346 -0.10757416 -0.050122097 0.09984874 0.08039937
-0.03898352 -0.047349732 -0.0330401 -0.05279871 -0.13294499 0.009180464 -0.023560496 0.07578921
0.06174828 -0.12693278 -0.14741173 -0.10666795 0.14272436 -0.17170966 -0.07889729 0.11211935
-0.16760749 0.0037189634 0.06045753 0.027234346 0.033078905 0.029757317 0.003261498 0.12840538
0.08947242 0.1275696 0.18031827 -0.025120938 -0.0057790517 -0.13217564 0.013693043 -0.16973926
-0.0036431549 0.08790725 0.08845738 -0.1067515 -0.03759926 -0.09030952 -0.12232358 -0.12474996
0.09288069 0.069110215 -0.1083637 -0.10941843 0.08610574 0.0031510983 -0.032128632 -0.019053731
0.02720823 -0.16256133 -0.107994996 -0.15263815 -0.053507816 0.019539118 -0.07561308 -0.19639584
-0.021653565 0.022958258 -0.088313825 -0.2045228 -0.15993087 -0.12811543 -0.12658654 -0.027805505
0.024203308 -0.03758514 -0.2042311 0.052504376 -0.08131523 -0.0076836008 -0.014204104 0.13817307
-0.14329717 0.048789997 0.097016424 -0.07833657 0.13920921 -0.020246057 0.0779317 0.060298286
0.10476898 0.014622492 -0.032672405 0.05548679 0.09899864 0.06647963 0.09905162 0.08545866
-0.043021612 -0.041853752 0.012648729 -0.07711614 -0.08264381 0.12435282 -0.100193426 -0.10221066
0.06772923 -0.09280362 0.050516617 0.047970865 -0.06974523 0.10169602 -0.010776393 -0.20183362
-0.009001498 0.106370464 -0.13063547 0.13556316 -0.108647235 0.06080216 -0.16046269 0.020188175
0.03932541 -0.0030853353 -0.22829202 0.100039236 -0.17728205 -0.00073472917 0.056043144 -0.01847503
-0.10165195 -0.0026759591 -0.21545492 0.017851539 0.08402806 0.06098953 -0.20574686 0.092100725
-0.002803558 0.08235857 -0.065990455 -0.0948671 0.043027114 -0.21656898 0.07133834 0.1641862
-0.2929259 -0.10705571 0.035313502 0.023571795 -0.18977007 -0.024966655 0.022810545 0.12970784
-0.009658995 -0.12227015 0.1955085 -0.13258623 0.015449334 -0.062089622 0.057589315 -0.032347433
-0.16158031 -0.09661268 0.0030535734 -0.18514006 -0.27064833 0.036403485 0.08448064 0.018958377
-0.020441256 0.0875881 0.09401352 -0.023334675 -0.015208379 0.08003135 -0.07481206 0.06240858
0.09276105 0.06544037 0.039260752 0.052706763 -0.12748729 0.18980841 0.052929934 0.14542374
0.14899302 0.11848687 -0.09845101 -0.003478695 0.020294674 -0.00465047 -0.09727726 -0.062355086

conv_block2.0.weight f4 [32, 32, 10]
00000000: b600 13bd b612 77bd 0e33 62bc 14f5 91bd
00000010: 7daf 663b 173a 033d b227 0f3c 72c6 f93d
00000020: 470e c83d 8ceb bd3d 7eaf ab3d 4bc5 013e
00000030: 2df6 d93d e68f 5f3c 1d18 8d3d 40e0 d83d
00000040: 1e56 323d 226b f53d 13c8 5c3d 719a 8ebb
00000050: eb7b a63a 1198 ba3c 6c42 fabc d153 533c
00000060: 241e 26bd 9b68 8e3d e99c 423d 8335 54bd
00000070: a532 f73c 79ec a5bd f79a fdbd 6363 213d
00000080: b835 2fbd 507e d5bd f6e5 b5bd edcd 7f3d
00000090: 4975 19bd c5a2 4bbd dae3 d1bc c5cf fbbc
000000a0: b95b 6f3d 350e 523c 8329 083e 0cce cc3d
000000b0: 13a1 96bd b2a4 2e3e ac7e 6cbd 83c5 fd3d
000000c0: c44d fa3c f671 b33d ccff febb 1734 dc3c
000000d0: e9cf b03c 7e8f 943d c1a5 09bc 900e 483d
000000e0: 1347 d2bb f436 aa3d ba2f 043e b65d ec3d
000000f0: 7e85 903d 7256 6a3d 74f6 0e3e d036 263e
00000100: 9077 823e 1896 933d c8d1 bc3d f8e5 2f3e
00000110: 0c8e e23b 7f38 9c3d 9013 673e a345 8a3d
00000120: 1d13 5b3d 1ff4 7c3d 6964 c73d d80c c63d
00000130: 30fe a43d 5306 b03d f070 183e 5639 253e
00000140: 4fbb 943d b5a2 bb3d cc1b 0d3d 67d8 31bd
00000150: a36c c33d 5c55 b7bd 4d9c 5c3b 1438 34bc
00000160: aa4a ad3c d124 c7bb 9c41 eebb 19b1 94bc
00000170: 7eaa 8d3b f858 e6bd 4ceb 03be 4dd9 17be
00000180: 0d92 0dbe f0c6 513c a16c 0fbe b8d2 a4bc
00000190: 0d5e 073e f6de 0a3e cd3d 4d3e b0cd 6b3c
000001a0: 77e8 3a3e c315 813c 472f 083e 7ff6 d63d
000001b0: 7a42 8cbd 7db5 0c3e 9346 9d3c 96d5 bdbd
000001c0: d2b3 c13d 74a6 ac3d 1729 9d3d 4c04 6b3d
000001d0: 4731 51bd 9682 d23d 7af6 87bd 5cc6 e4bc
000001e0: 0a05 ecbd e57f 8ebd 5f52 7cbd e296 093c
000001f0: 5858 04be afe3 1ebe 3378 4bbc 34ce 383d
00000200: 1367 fe3b 5ea0 27be fbce e9bd b5d9 f6bd
00000210: dc83 babd b8d8 f4bd f2c5 2bbe bcfe 00be
00000220: e599 9ebd 1111 17bc f998 1bbd ee45 03be
00000230: 82c4 893d 44e1 a53d 9885 fb3d f301 203e
00000240: 1a1c 043e c610 b03d 29a8 31bd fa2c c33d
00000250: d468 283d b30c 133e ee47 e63d 01e5 933d
00000260: a7b2 b8bd 6df3 8ebb 4286 a03d 3dbc 853d
00000270: 9ea7 51bd 9c7a 8b3c b09a 8b3d 550f 7abc
00000280: c061 943d ecbb 86bd 16ef 94bd 3984 223c
00000290: b46b e63d 2935 363d 00b9 8d3d d191 57bd
000002a0: 9bad a83d 3e80 cf3b fb9f a43b 91f3 143e
000002b0: 6461 323e 8f85 f53d 6a96 193d 67cd 303e
000002c0: a6e0 0e3d 59d8 5d3d 43ce 873d 0611 bdbc
000002d0: 0ee0 44bd d4d9 48bc d229 09be ce81 c3bb
000002e0: 7f7c f9bc a514 eebd afb8 67bd b405 aebd
000002f0: 8b59 b3bc 6c4f 6fbd efe2 7abb e1b7 1b3e
00000300: 1084 0e3c 9007 6c3d 1790 76bd 5ce2 b8bc
00000310: fbcd ff3c 3c76 d33d 6047 bd3c 3663 3c3d
00000320: 10cc 3ebd 45ce 63bb 36b5 de3c 5d86 d7bc
00000330: 475d efbc ea53 7bbd 45b5 2fbd 425e 193d
00000340: ef3c 5eba 7a21 cbbb 5036 86bd dbd7 7d3d
00000350: c5ef 44bd f605 82bd cc5a 0fbd f201 4dbd
00000360: 235b bcbc a11e e23d 2b4d c23c 32c5 9abd
00000370: 6cb7 553d 17ae 693d 35fa 633d cf6f 0e3e
00000380: c55f 033d f26f 44bc 6edd 0f3e 0f43 913d
00000390: eade 153e 7dc1 3e3d 7c97 d33c 1b88 b53d
000003a0: 3a9c 383e 04f0 653e 9645 aa3d b8a8 923d
000003b0: 3c5f 153e d382 363e 1af8 0b3e 5fe1 bc3d
000003c0: b034 e73d 0f8b 003e 95c1 82bd c15a 0cbd
000003d0: 4019 3abd 5dfa ba3d f4dd bbbd c98b 2fbd
000003e0: 0f64 ef3d b049 ba3c 4a55 f6bd f76a fbbd
000003f0: 4485 d5bc bcec 24be 0c9e c9bd f3bd b23c
-0.03588935 -0.06032058 -0.013806118 -0.07126823 0.0035199814 0.03203782 0.008737491 0.121960536
0.09768348 0.092734426 0.08383082 0.12672918 0.106426574 0.013645148 0.06889365 0.10589647
0.04353916 0.119833246 0.053901743 -0.004351907 0.0012701725 0.022777589 -0.03054925 0.012898401
-0.040556088 0.06953546 0.047512922 -0.051808845 0.030175516 -0.08101744 -0.12383073 0.039401423
-0.04277584 -0.10424483 -0.08881752 0.062452246 -0.037465367 -0.049715776 -0.025621343 -0.03073872
0.058437083 0.01282077 0.13297085 0.10000238 -0.07354941 0.17055014 -0.05773799 0.12391188
0.03055466 0.08761971 -0.007781958 0.026880307 0.021583514 0.072539315 -0.008401335 0.048842013
-0.006417164 0.08311263 0.12908831 0.115413114 0.070567116 0.057211347 0.13961202 0.16231847
0.25481844 0.072063625 0.092197 0.1717757 0.006913906 0.07627963 0.22566056 0.067515634
0.053485025 0.06175625 0.097359486 0.096704185 0.08056295 0.08594956 0.14886832 0.16135153
0.07262289 0.09161893 0.034450337 -0.043419268 0.09542205 -0.08951828 0.0033662498 -0.010999698
0.021153767 -0.006077387 -0.007271005 -0.018150853 0.004323303 -0.11247438 -0.12882727 -0.14828987
-0.13825245 0.012803778 -0.14006282 -0.02012001 0.13219471 0.13561615 0.20043106 0.014392301
0.18252741 0.015757447 0.13299285 0.10496234 -0.06848617 0.13741107 0.019198691 -0.09269254
0.09458126 0.08430186 0.07673853 0.057377145 -0.051072385 0.102788135 -0.066388085 -0.027926616
-0.115243986 -0.06957988 -0.061601993 0.00839779 -0.12924325 -0.15516542 -0.012418794 0.045118526
0.0077637522 -0.16369769 -0.114164315 -0.12053243 -0.091071814 -0.11955398 -0.16774729 -0.12597173
-0.07744197 -0.009220378 -0.037987683 -0.12819645 0.06726934 0.08099607 0.1228134 0.15625744
0.12901345 0.08596949 -0.04337326 0.09530063 0.041115597 0.14360313 0.11244188 0.072214134
-0.0901845 -0.0043625147 0.07838108 0.06530044 -0.051185243 0.017026238 0.06816614 -0.0152624445
0.07245207 -0.06578812 -0.072721645 0.00991922 0.112510115 0.04448429 0.069200516 -0.052629296
0.082362376 0.0063324263 0.005023954 0.14546038 0.17419964 0.11988365 0.03749696 0.17265855
0.03488221 0.054161403 0.06631138 -0.023079406 -0.048065238 -0.0122589655 -0.1339486 -0.0059664017
-0.030454872 -0.116250314 -0.056572612 -0.084971815 -0.021893283 -0.058425352 -0.0038282236 0.15206863
0.008698478 0.0576244 -0.06019601 -0.022568874 0.031226149 0.10325286 0.023105323 0.045993052
-0.046581328 -0.0034760397 0.027186017 -0.026309187 -0.029219283 -0.061359324 -0.04289748 0.037443407
-0.0008477708 -0.006199059 -0.06553328 0.061973434 -0.048080225 -0.06348793 -0.0349987 -0.050050683
-0.022992676 0.11040998 0.023718437 -0.07557143 0.052176878 0.05705079 0.055658538 0.13909839
0.032073755 -0.0119895805 0.14049312 0.070928685 0.14635816 0.046571244 0.02582907 0.08863851
0.18028346 0.2245484 0.08314054 0.07161087 0.1458711 0.17823343 0.13668862 0.092226736
0.11289346 0.12553047 -0.06384579 -0.034266237 -0.045434237 0.09129784 -0.091731936 -0.04285792
0.116890065 0.022740215 -0.12027986 -0.12276261 -0.026064523 -0.16105932 -0.09844598 0.02181909

gru.weight_ih_l0 f4 [96, 32]
00000000: dbdc 733d 454f 043e 0fe6 e33c 5f1c d53e
00000010: 43ae 2ebc e571 2dbe e638 9e3e ade1 c1bc
00000020: 33e7 153d 9d49 9a3d 80a8 013e 0d6e 553e
00000030: 599b 31bc b9d8 4b3e 54cc 2fbe 4bca d13d
00000040: 91d6 2c3e 916c f93e 195c b7bd a457 0fbd
00000050: 7e57 0d3d 32ae 923e fb17 11be d08a d93d
00000060: a3b2 e33b 0f57 313e 58da 573e f82e 87bd
00000070: 8f32 eebc ff24 763e 5fa6 923d 958c 8a3d
00000080: 1163 813e 4f51 953d 7d61 aa3c eda5 72be
00000090: ed16 843e d881 d53c f70e 763e 617c a0bc
000000a0: 9e76 983c ce89 b5bd d917 cabd 7cdd bfbd
000000b0: ffb7 86bd 247f 163e eedd d83c 072d 12bd
000000c0: f153 813e 18c1 0d3e a80e d7bb d05d e13d
000000d0: 987a b9bc 1d1b 783d e64c 11bd 5f95 163e
000000e0: bec8 7c3d a65d e73d d5cc 233d 5962 3d3e
000000f0: 627a c5bd 9a66 4a3e c3f7 45bd 18ec 403d
00000100: b42a b43d 8b01 043e 787c cf3c 9ba7 b13d
00000110: 6b3e 193d 0e42 8cbe bc5a 9c3c 5c5f 5c3e
00000120: 7581 19be a661 853e 620b 253e c5ad 063e
00000130: 9fd4 1a3d cf78 4f3d f4eb 9eba a52d 0abe
00000140: 0659 2d3e 918c 943b cd3c 813e 4b7b 19be
00000150: 2a2f 9ebd 6892 313c b3eb 37be 99cc 953b
00000160: 51d5 793e b905 c4bd 9803 82be 019d 4dbc
00000170: 3f83 c33d 66cd d03d 5e5b a7be ba7d 703e
00000180: 2b1f 94bd b792 87bc ec32 26bd 5e0c 4ebe
00000190: 4130 50bd 1e3d 423d bb6d b23d d5aa f5bd
000001a0: f962 5a3e 48be af3d ca17 efba cbf1 80bd
000001b0: 0d49 04be 77ed eb3d 0091 873d a5ee 733e
000001c0: 6b3a f53d f57b 3fbd 2794 9dbe 746c 4c3e
000001d0: fe85 11be f8d3 1d3e 9d34 e9bc 3f24 6dbc
000001e0: 1dea 86bd 47bb 08bd f6da 4c3c 6bd2 4f3e
000001f0: 3bd9 9dbd 1be9 123e 1660 593e 288e ee3c
00000200: 10f5 f0bd c66c 8a3b ef99 733d 59b9 4bbe
00000210: c84c 45bd 9bf5 fabd 53a7 de3d 188a 7dbd
00000220: 2512 593c c9a1 0fbe c524 083e cffc 083e
00000230: 67ac ef3d d1ae 173e 3b07 5a3d 9a33 2e3b
00000240: 902c 943c 18d0 243e 1acc 5dbd a017 3f3e
00000250: 4ff4 e3bc d99d 3e3e fc20 243b bacd 753d
00000260: 7086 8a3c cc69 893e 6c9a 803e 3d82 73bd
00000270: 340c e7bd ae32 1f3d 61d2 1bbe c9c8 153d
00000280: dc47 363e 620a 963e d7ce 343d be89 e83e
00000290: 334d 9bbd d1db fb3c 2115 0f3e f457 8f3e
000002a0: ff0b 413d 6f1d 933e 1f97 603e b1d5 4d3e
000002b0: 1124 83bd 3b8a 883e 0949 11be 41af 65bd
000002c0: 0ae4 c73e c443 a83e f4af 4f3e ecaf 6c3e
000002d0: 7279 a03e 38e3 133e 0353 babd 844c 613e
000002e0: f654 9e3d e2a4 45be 8a70 8abd d610 693d
000002f0: 8adf 5f3e 5e76 853e 1087 01be 4c66 033e
00000300: bc94 0ebe 1b7b 57bd 1db5 73be 5d40 94be
00000310: 27b8 483e 2806 a83e db55 87bc 5638 1bbe
00000320: 503d 5aba 5103 9abc d058 8e3c 6ea3 653d
00000330: cd36 ef3d d3e6 e1bc 9a10 4c3e f8cb 073e
00000340: b38d 08bd df7a 3abe 4c5c dbbe 3877 443e
00000350: e1c5 91be 1df7 91bc 267d 453e 5936 5dbe
00000360: aeaa 98be 3826 733e 15bd 9d3e caf2 0cba
00000370: 3b32 04be 73ea 32be 856e 193e e52d bbbe
00000380: 7026 823d de7c f6bd bb2d 023e 196a 6bbe
00000390: 10e5 3fbe c67a 30bd 2b6c 9dbc 5f18 303e
000003a0: ea3e 9bbd 3c09 1e3e 53ad 0fbe 506c a2bc
000003b0: d1af 9abd 4f18 373d 4b54 12bd 80b0 393e
000003c0: 0a92 d53d 39ff 0fbe 4977 2f3e 38f5 033e
000003d0: ef9f 103e 8c5d 623d e2d2 853d 0111 5c3e
000003e0: 4805 b8bd c863 063e 89b6 0ebe bbcc 723d
000003f0: 24fa 7b3e 5254 13be c3e2 4f3d f134 68bc
0.059536796 0.12920864 0.027819661 0.41623208 -0.010661664 -0.16937979 0.30902785 -0.02366718
0.036597442 0.07533572 0.12661934 0.20842762 -0.01084026 0.19906892 -0.17167789 0.102436624
0.16878726 0.48715642 -0.08953113 -0.03499569 0.034507267 0.28648525 -0.14169304 0.106221795
0.0069487854 0.17318366 0.21079385 -0.066007555 -0.029076843 0.2403755 0.07160639 0.06765095
0.25270894 0.07290899 0.02079844 -0.23696108 0.2579874 0.02606289 0.24029146 -0.019590558
0.018611249 -0.08864175 -0.0986783 -0.09368417 -0.06578063 0.14696938 0.026473012 -0.035687473
0.25259355 0.1384319 -0.0065630265 0.110042214 -0.022641465 0.060572732 -0.035473727 0.14705418
0.06171488 0.11297159 0.039990265 0.18494548 -0.09642483 0.19765702 -0.048331987 0.047100157
0.087972075 0.12891214 0.025327906 0.08674546 0.037413042 -0.27394146 0.019086234 0.21520752
-0.1499079 0.26051062 0.16117623 0.13152225 0.037800428 0.05065232 -0.0012124763 -0.13493975
0.16928491 0.0045333584 0.252417 -0.14988439 -0.077238396 0.010838129 -0.17961006 0.004571509
0.2439778 -0.09571404 -0.25393367 -0.01254964 0.095465176 0.10195427 -0.32686895 0.23485461
-0.07232507 -0.016549451 -0.040575907 -0.20121905 -0.05082727 0.047421567 0.08712336 -0.11995474
0.21326818 0.08581215 -0.0018241343 -0.06296118 -0.12918492 0.11519902 0.066194534 0.23821504
0.11974033 -0.046749074 -0.30777094 0.19963247 -0.1421127 0.15412891 -0.02846747 -0.014473974
-0.06587622 -0.033381727 0.012503376 0.20295112 -0.07707449 0.14346735 0.2122806 0.02912052
-0.11765492 0.0042243926 0.059472974 -0.19894923 -0.048168927 -0.12253877 0.10871758 -0.061899275
0.013248955 -0.1402656 0.13295276 0.13377689 0.11702805 0.14812781 0.05322955 0.002658105
0.018087655 0.16095006 -0.054149725 0.18661356 -0.027826456 0.18614902 0.0025044074 0.06001065
0.016909808 0.2683853 0.25117815 -0.059450377 -0.112816244 0.03886669 -0.15216972 0.036568437
0.1780085 0.29304796 0.04414257 0.4541759 -0.07583084 0.030744465 0.13972904 0.2799679
0.04713058 0.28733394 0.21932648 0.20101048 -0.064033635 0.2666796 -0.14188017 -0.05607534
0.39041167 0.328642 0.20281965 0.23113984 0.31342655 0.14442146 -0.090978645 0.22001845
0.07731049 -0.19301179 -0.067597464 0.05690082 0.21862617 0.2606687 -0.12649179 0.12831992
-0.13923925 -0.052607637 -0.23799558 -0.28955355 0.19601499 0.32817197 -0.016520431 -0.15158209
-0.00083251763 -0.01880041 0.017376333 0.05606406 0.11680374 -0.027575886 0.19928208 0.13261402
-0.03333826 -0.18210934 -0.42843854 0.19186103 -0.28471282 -0.017818028 0.19286022 -0.21602763
-0.29817718 0.23745048 0.3080832 -0.00053767546 -0.12909786 -0.17472248 0.14983566 -0.36558452
0.063549876 -0.12035535 0.12712757 -0.22989692 -0.18739724 -0.043085836 -0.019216618 0.17196797
-0.07580359 0.1543321 -0.14030962 -0.019827038 -0.075530656 0.044700917 -0.03572492 0.18133736
0.10428245 -0.14062203 0.17135347 0.12886512 0.1412351 0.055264995 0.06534363 0.21490861
-0.08985382 0.13124001 -0.13936819 0.059277277 0.2460714 -0.14387634 0.050753366 -0.014172778

gru.weight_hh_l0 f4 [96, 32]
00000000: 8226 fabd 5ff0 a43d cbb1 22be 49ef 42be
00000010: 12ad 8f3e bb71 233d bd5a 603d c9a4 2c3d
00000020: c8e2 52bc c615 6ebe e21b 3abe 0e19 973d
00000030: 1817 adbc 7f50 9dbe f200 2e3d 14aa 283e
00000040: 54bf 90bd f669 d23c 7a67 be3d 09f1 d03c
00000050: b5a6 e7bd a2e9 223e 3180 bfbc 3f35 acbd
00000060: f5e1 41bd 5d2b ebbc 915e e23d 4d5b 2fbe
00000070: c468 ee3d 3dd4 fdbd c013 9e3d 7350 86bd
00000080: 8870 11bd d43c c93c 6626 53bd e8cd 0f3e
00000090: 0ad9 513e d3d7 20bd 419f ac3e cd8e 1b3e
000000a0: 2161 9e3d dda1 ec3c 7223 a73e c5e5 153e
000000b0: ec3f 26bd 18e6 38be a0b9 14bd 357f 36be
000000c0: e223 553e e101 f4bb 88dc 22be 9509 d03e
000000d0: df91 6dbc b692 4abe 3eb1 41be 759f 123e
000000e0: 4c96 99bd 9464 583d 79b0 11be ff45 efbb
000000f0: 10d9 e93d dd67 8b3d 99a8 88bd 6e8d f73d
00000100: 3fa6 f93d e7e1 ab3e 649a 99bd 6802 6ebe
00000110: 7e36 193d 50d5 c5bc 311d 0bbc d3cb 25be
00000120: 61fd ccbc b8e9 16bd 14bf e5bd c9ff fbbd
00000130: a983 adbe ecee e5bc 5580 e5bd 9e20 313e
00000140: 85b8 82be 9004 933e ab29 10bc 5d02 bdbd
00000150: cc68 9439 df1e 46be 22c3 30be 51bb 9abc
00000160: 72e7 1fba 66f4 613d b4db f4bd 981f 06be
00000170: c94c 023d 0e06 9e3d 6144 2a3e 78fe 643e
00000180: b8af 7a3d 241d 5fbe 719a 9dbd 73d7 bd3d
00000190: fd87 0b3d ef01 e7bd 7fe2 b4bc 8a95 17bd
000001a0: 5129 0dbe 7308 353d f99f 3fbd 0b5c 093e
000001b0: e45c 23be 1557 9dbd ab1a b33d 0d9a 8d3e
000001c0: 8a82 3d3b dc84 9fbe a082 1e3e 63a2 c7bd
000001d0: 381b c0ba b61c d83d 0ca6 42be cc02 32bd
000001e0: b350 a13d bc6b 803d 55da 7cbd a47c 143d
000001f0: 0433 c6bd 2b13 04be 3b51 c23d 7327 8d3c
00000200: 6f39 77be 888d 3f3e 25f4 fcbd 8d45 0d3d
00000210: b7e9 4fbc 65af 63be d18b d83d 405c e53c
00000220: 0420 433e 24f1 163e 134d 093e c577 203d
00000230: cf2f 57be 4326 79bc 2665 02be 85df 66bd
00000240: 6980 7dbe 45be d0bd b79e d43a 8040 d53d
00000250: 2ca8 11be d734 8bbd 9d07 52be 7467 443e
00000260: 695e 12be caa1 16bd f95a e0bd 2b42 6abe
00000270: 4bc8 6c3d 30a2 bc3d f6cf 373e e86e f0bd
00000280: 7c3c 72bd 62d5 603e e266 f33d a858 b0bd
00000290: bfd9 353e 1b68 e63a a1b8 0b3d 34df 183e
000002a0: fa4b 0ebd 12aa 81bd 9a0b 153d d37d 68bd
000002b0: 0f64 41be 4063 ea3d 0419 8f3e c5d2 11be
000002c0: e1c8 2abe f40b 3fbe 54d7 74be 14c4 65bd
000002d0: fe35 9d3d fb42 8cbd 8add 76bd c7b7 d13c
000002e0: 22ee 413d a6d4 a1be 4e90 d43c 351f 423e
000002f0: 2299 3cbe 9b00 99bd f7a5 6fbe 16e0 a63c
00000300: f9c0 ef3c a09c 423d 2567 86bb 19e4 00bd
00000310: 853a 14be 5625 e0bc 9808 14be 9ad0 caba
00000320: b5fb 2a3e 232d 22be 29ac 40be 0f48 02bd
00000330: 511a 603e fa8a 103e 62f4 33bd 6b55 d9bd
00000340: 7b9a 213e b60c c5ba 6689 e73d 2342 e5bc
00000350: 390d 833b ef69 cebd e05e 3dbe 92e4 b53d
00000360: fa83 b23d 687c 883e 0dc5 e4bd 1df5 bf3d
00000370: 59b3 f33d 5894 a53d 1cc5 02be 2ab6 c3bd
00000380: f3c9 1a3c 3454 1d3e 1d60 eb3d 5199 793d
00000390: 37f8 22be e8a5 3a3e c0ab cbbb cf7e bf3b
000003a0: e2dc 4a3e b2e0 4b3e 22b4 b1bc 8d13 ef3c
000003b0: b29f 47bc ad78 633e ac67 22bd 757e 21be
000003c0: f5ae 5abc 514b aabd f148 1cbe 5610 6bbd
000003d0: 3e2b 243d 0e0e 3abe 28eb b03c 57b0 893e
000003e0: 5714 11bd a65f 53be 26ef ccbd 51c0 013e
000003f0: 01b9 6dbe 4c6d 193d d86e a3bd 1130 10be
-0.12214376 0.0805366 -0.15888135 -0.19036593 0.2806173 0.039903384 0.054774035 0.04214934
-0.012871452 -0.23250493 -0.18174699 0.07377826 -0.021129176 -0.30725476 0.04248137 0.1647113
-0.07067743 0.025685292 0.0929708 0.02550556 -0.11311094 0.15909436 -0.023376556 -0.084085934
-0.04733463 -0.0287072 0.11053193 -0.17124672 0.11641076 -0.12393997 0.07718611 -0.06558313
-0.03550771 0.024565138 -0.05155029 0.14043391 0.2049295 -0.039268326 0.3371525 0.15191193
0.077333696 0.028885776 0.3264423 0.14638431 -0.040588304 -0.18056524 -0.03630984 -0.17821963
0.2081447 -0.007446513 -0.15904438 0.4063231 -0.01450011 -0.19782528 -0.18915269 0.1431864
-0.0749937 0.052830294 -0.14227475 -0.0073020454 0.114183545 0.0680692 -0.066727825 0.120875224
0.12189912 0.33570787 -0.07500151 -0.23243105 0.037405483 -0.024149567 -0.0084908465 -0.16191034
-0.025023164 -0.036843985 -0.11218086 -0.123046465 -0.3388951 -0.028068028 -0.11206118 0.17297599
-0.25531402 0.28714418 -0.008798997 -0.092289664 0.0002830684 -0.19347714 -0.17261937 -0.018888148
-0.00060998567 0.055164717 -0.119559675 -0.1309799 0.03181151 0.077159986 0.16627647 0.22362697
0.061202735 -0.2178846 -0.07695473 0.09269609 0.034065235 -0.11279666 -0.022080658 -0.037007846
-0.13785292 0.04419751 -0.04678342 0.13414018 -0.15953404 -0.07682625 0.08745321 0.27656594
0.0028916919 -0.3115605 0.15479517 -0.0974777 -0.0014656549 0.10552351 -0.19008654 -0.0434597
0.0787672 0.06270549 -0.061731655 0.03625168 -0.09677699 -0.12897937 0.0948815 0.017230725
-0.24143003 0.18706334 -0.123512544 0.034490157 -0.012689999 -0.22234876 0.10573543 0.02799809
0.19055182 0.14740425 0.13408308 0.03917672 -0.21014331 -0.015206876 -0.12733898 -0.05636551
-0.24756016 -0.10192541 0.0016221617 0.10412693 -0.14224309 -0.06797188 -0.20510717 0.19180089
-0.14293827 -0.036775388 -0.10954852 -0.22876804 0.0578082 0.09210622 0.17950425 -0.11739904
-0.059139714 0.21956399 0.11884858 -0.0861066 0.17758845 0.0017578633 0.034111623 0.14928895
-0.034740426 -0.063312665 0.036388017 -0.05676062 -0.18885826 0.11444712 0.27948773 -0.14240558
-0.16678192 -0.18656904 -0.23910266 -0.056095198 0.07676314 -0.06848713 -0.06026987 0.025600327
0.04734624 -0.3160755 0.025947716 0.18957217 -0.1841779 -0.074708186 -0.23403154 0.020370524
0.029266821 0.04751265 -0.0041016513 -0.03146753 -0.14475448 -0.027361553 -0.14456403 -0.0015473545
0.16697581 -0.15837531 -0.18815674 -0.031807 0.21885039 0.14115515 -0.043934233 -0.10611995
0.15781586 -0.0015033695 0.113055035 -0.027985638 0.003999379 -0.10078799 -0.18493223 0.08881487
0.08716579 0.26657414 -0.11170397 0.093729235 0.11899442 0.08084935 -0.12770504 -0.095562294
0.0094475625 0.15364152 0.114929415 0.06093723 -0.15914999 0.1822735 -0.0062155426 0.005843974
0.19810823 0.19909933 -0.02169234 0.029184127 -0.01218407 0.22214003 -0.03964965 -0.15770896
-0.013347377 -0.08315147 -0.152622 -0.057388626 0.0400803 -0.18169424 0.021596506 0.2689235
-0.03541979 -0.20641956 -0.100065514 0.12671019 -0.23215105 0.03745775 -0.07980126 -0.14080836

gru.bias_ih_l0 f4 [96]
00000000: e060 033e df15 3abd 8281 523e 9300 a5bd
00000010: e9c9 bd3d 8980 333a 5935 26be ff87 46bd
00000020: 2da3 953e b831 69bc cdf5 7c3d cafd 8abb
00000030: 06c1 f7bd f1db 093e e996 0cbe a702 02bd
00000040: 4b41 943d 34c5 c3bd 9504 433d 13f4 adbc
00000050: f052 ef3d 9d06 5abd fc8f 893e 638e 013e
00000060: 7eb1 0d3c bbed 09be a408 223e 57ea 613c
00000070: 99d2 453e 2016 213e 2e88 aa3d 42ef c83e
00000080: b4a3 2abe 9fc4 853d f0b3 e9bc 5d26 503e
00000090: 2c2d 8b3d 6821 0cbe 6d15 333e dd20 0cbc
000000a0: bb76 543d a52a b73d d513 a83e a078 5f3e
000000b0: f349 ab3d 40e5 893d f8ad 5fbd 10d4 96bd
000000c0: ac7d d33d cf48 653e 3067 103c 7a33 663e
000000d0: dfbb 44bd 803d e0bd eb5c 92b9 a538 5ebd
000000e0: 29b6 613e 0c3e b1bb 5bb5 5d3d b911 04be
000000f0: 8233 b93c 6d3b 863e a219 f0bd e089 53bd
00000100: 669c 5b3c 1044 2f3e 766d 283d 047c aebc
00000110: 7153 403d 8618 54be 9bb1 b13d d104 56be
00000120: cfc2 dfbd 87c4 933b c069 433e 62d2 723e
00000130: 7496 edbc d9cd bcbd feb9 cc3c a94e 783d
00000140: 45bb 61be 2a96 1ebe 1709 36bd 29cd e4bd
00000150: 1f4b 72be 15cb c03d 5d79 cb3d d4c4 06be
00000160: ffc6 ad3b 468b a63b 5286 09bd 2969 1bbe
00000170: 0271 093e b466 a2bc 768f cf3d 08f0 133e
0.12829924 -0.045431014 0.20557216 -0.0805675 0.09267027 0.00068474613 -0.16231288 -0.04846954
0.29226056 -0.014233045 0.06175785 -0.00424168 -0.12097363 0.13462807 -0.13729443 -0.03174081
0.07239016 -0.09559098 0.04761179 -0.021234548 0.11685741 -0.053228963 0.26867664 0.12651972
0.0086482745 -0.13469593 0.15823609 0.013788781 0.19318618 0.15731096 0.083267555 0.3924504
-0.1666401 0.06531643 -0.028528184 0.20327134 0.06795725 -0.13684618 0.17488642 -0.008552757
0.051871043 0.08943681 0.3282763 0.21823359 0.08363714 0.06733179 -0.05460927 -0.073646665
0.103267044 0.22391056 0.008813664 0.22480574 -0.04803073 -0.1094923 -0.0002791652 -0.05425324
0.22042145 -0.005409008 0.054128032 -0.12897386 0.022607569 0.26217213 -0.11723639 -0.05164516
0.0134039875 0.17115808 0.041120015 -0.02129937 0.046954576 -0.2071248 0.08676454 -0.20900275
-0.10925829 0.004509512 0.19083309 0.23713067 -0.029002406 -0.0921895 0.024991032 0.06062189
-0.22044094 -0.1548697 -0.044442263 -0.11171944 -0.23661469 0.09413735 0.099352576 -0.13161021
0.005303263 0.0050825207 -0.033575363 -0.15176834 0.13422015 -0.019824363 0.10134785 0.14447033

gru.bias_hh_l0 f4 [96]
00000000: 2ccb a6bc 41e4 683e 167a 7a3e ab6d e23d
00000010: f6b4 a8bd c5b5 afbc 733a cebd d029 143e
00000020: f127 6e3d 259a 803e 4386 3e3e 18f2 ec3d
00000030: 80b5 38bc 0d0e 903e 9fcc f6bd a350 2e3d
00000040: 57c7 843e 4d9f 4c3d 3de9 403d 2d02 f83c
00000050: 7610 903e d848 673e 397c 8f3e c852 623e
00000060: bb0a 69bd eecf 783d 320d d73d 0375 673d
00000070: d2c9 0e3d 1cbb 233d 8f54 a83d f7f9 ad3e
00000080: 8483 70bd b59d 643e f9ac 563e bdec 0a3d
00000090: 7f95 883e 8f67 d0bd 4546 593d 8b52 46be
000000a0: 449c 12bc d622 ba3c c7e2 7d3e 6356 1a3e
000000b0: 10af 663e 212a cebd a53d 19be e522 173e
000000c0: 18bf 113d 5e5e 473d 4148 e5bd 7227 fb3b
000000d0: 3d47 f0bb 6fb4 04be 3aba 10be 206a 343e
000000e0: a59c e4bd a005 183e e9a7 49bd fe0a 033e
000000f0: e5f5 72bd c160 173e c16a 21be 7e68 9a3c
00000100: 1da9 f8bd 977a 513d 98e9 e1bd 82cc e7bd
00000110: 12f9 993d 0aa3 aa3d 2958 1a3e e10a 83bc
00000120: 7077 10be f92b 00be c7ca 44bc 24dc 973d
00000130: 4f89 e0bd 38bf 71bd aa0d 3dbe 8cc6 643e
00000140: 536c 31be 7dc8 80bd 5bd9 723e d6e3 4dbd
00000150: eb22 3b3d 0f95 afbd 6b25 4abe cd84 02bd
00000160: 800f d73d 2cde a5bd 9510 2f3e ac51 11be
00000170: 04ca 423e 9fd8 8dbd 2016 673d 7d50 173e
-0.020360552 0.22743322 0.24460635 0.11056074 -0.082376406 -0.02144898 -0.10069742 0.14469075
0.05814356 0.25117603 0.18605904 0.11569613 -0.011273742 0.2813572 -0.12050747 0.04255737
0.25933334 0.04995661 0.047097433 0.030274475 0.2813756 0.22586381 0.28024462 0.22101891
-0.056895 0.060745172 0.10500564 0.056508075 0.03486044 0.039973363 0.08219253 0.3397977
-0.058719173 0.22325785 0.20964421 0.033917177 0.26676556 -0.10176002 0.05304553 -0.19367425
-0.008948389 0.02272169 0.2479354 0.15072016 0.22527719 -0.10066629 -0.14964922 0.14759405
0.03558263 0.04867398 -0.11195422 0.0076646144 -0.007332711 -0.12959455 -0.1413354 0.17618608
-0.1116269 0.14845896 -0.049232397 0.12797162 -0.059316535 0.14783002 -0.1576338 0.018848654
-0.12141631 0.0511423 -0.110308826 -0.11318304 0.075182095 0.083318785 0.15072693 -0.015996398
-0.14108062 -0.12516774 -0.0120112365 0.07415035 -0.109636895 -0.05902025 -0.18462244 0.22341365
-0.17326479 -0.0628824 0.23715727 -0.05026611 0.045687597 -0.085733525 -0.19740836 -0.03186493
0.10501003 -0.080990165 0.1709617 -0.14191312 0.19022375 -0.06926083 0.056417584 0.14776798

gru.weight_ih_l0_reverse f4 [96, 32]
00000000: 8e00 463e d310 453e 1a1e 28bd 3f7f 9a3e
00000010: 99a9 c13d aaaf 313e 7bcf 5a3e 57b9 73bd
00000020: 7aae 6e3d 770e af3c 9e61 c43d 13b4 90bd
00000030: 956f 6bbd db63 3e3e e441 403e f335 213e
00000040: 3ce4 023e 5546 7b3e b92b 593e 8d2f 063e
00000050: 9871 c3bc 3b9c 873d 1d2c 74bd ee68 713d
00000060: cef2 e4bd 99b0 473e d01a 303e ec22 623e
00000070: 35e1 823c 9cf1 f33d cffc 8dbd 226e abbd
00000080: 032a 8bbd 9470 5a3c 7eca c2bd eb25 10be
00000090: 905a a93d 605f 9c3e cc21 e9bd efbf b63d
000000a0: 42e1 14bd 47cb 8e3d 31f6 c9bd 16a4 1d3e
000000b0: aa83 3b3d dfdf 00be 294b 243e 0b32 df3d
000000c0: 7c61 3ebe 0baa 41be 0f40 f1bd 8237 843d
000000d0: bfca 22be 9d34 0e3e 3958 693e c2da b53d
000000e0: 333b 72bc 731c b83d d8bc fc3d 6e3f 5e3d
000000f0: 3b9f b4bd 085e 533c f68e 1b3e eba1 80be
00000100: 1508 003e a75d 663e 1964 9a3e 169b 5dbd
00000110: 7350 2e3e 3ecc 803e 8d72 713e 5aad 243e
00000120: 697c d23c 6fab 933e e03c 433d 8642 453e
00000130: 8ea6 e13c 9add c33e 2f87 b03e 6691 32bd
00000140: 710b 013e 4f2c 953e c4e3 89bc 3520 603d
00000150: 3ba8 6a3e a62d fd3d 33cf e83d 4d47 ad3d
00000160: b94f 283e c9aa 873e 1e9c 773e a4e1 a23d
00000170: 945c 8c3e a1fa b53e 8a62 563e d03b b63e
00000180: 9be3 1cbd 216e 243e d0cf afbd 1d6d 3fbe
00000190: 0d00 0dbe 879d 863d 41b2 21bd 2404 573d
000001a0: d94f 7a3e a82d 37be db8d b53b a0d7 b1bd
000001b0: 2df1 23bd 3164 1fbe 8bc1 f8bc 53c3 173e
000001c0: d9c1 323d cefb a6bc 6893 f0bd 4700 6c3d
000001d0: f933 d23b 0ba4 aa3d 2acf 4d3e f985 2cbe
000001e0: b708 bf3d e97f 733d b818 043e 22cb 82bd
000001f0: e799 3ebd 99bb 2d3d 5e8e 183e 924f e4bd
00000200: e428 253e 126b 293e e635 083c 2b09 3fbe
00000210: 5a3e 0b3e 4c95 2fbe 8e5e b9bd 949a 1f3e
00000220: 4368 523e f14c 293e 97e0 79bd 0914 743e
00000230: 6e0f e13d e770 a0bd db46 00be cc80 393d
00000240: 4375 f83d 5a80 18bd ae98 a4bb 1f24 5abd
00000250: 7b9f bb3d c03c 6cbd 742c 013e 030f 8a3e
00000260: d612 27bc 8105 5b3d 2a91 c03d 77b3 8fbb
00000270: c6aa 663e 8e8c 99bd 65f9 f7bd 334b cebd
00000280: d833 8f3d c122 07be afa3 2c3e 1cfa 38be
00000290: 7e0d 84bc add4 ba3b 401c 0d3c 58d3 abbd
000002a0: 77f7 8cbe 800d 11bd cd15 89bd 494c 33be
000002b0: 1b8b 6e3d 19c3 bfbd a518 28be efbb d5bd
000002c0: ecfd c13d 4720 59be cc47 3b3e 5b62 073e
000002d0: eb87 c9bd a657 33be 6142 74be 7959 4bbc
000002e0: a85c c9bd cf7a 5ebd 0682 a3be 0da3 c23c
000002f0: 7f7c 443e 1cde a83d 2ce1 8dbe 52f4 873d
00000300: e9b7 b83d 785d 7e3d 3785 e3bc 4788 813b
00000310: 4699 5fbd 36da 4cbe 8503 1c3e 3997 223d
00000320: 6575 fcbd 6d2b c6bc d190 f6bd ded8 0abe
00000330: d8e9 37bd 1fcf c4bd d0ca c83c 088e 48bd
00000340: 4918 8d3c 9b9a 27be aa75 88bc 6c66 743c
00000350: 28f6 4a3d 0881 d6bd ad63 aebc 39e5 553d
00000360: 75c3 05be 6e5b 7ebd 0646 783d 041d 9abd
00000370: 8a7a 11bd 7bac 0e3d 623e 3a3c bb09 0cbd
00000380: 48e3 913e a9e1 db3e f41e 863e 71d3 ba3e
00000390: 85c2 543e fba4 183d a00e 7b3e be6d cc3e
000003a0: 8f51 873e 96dd af3e 3a6b 483d 0b6a 4c3e
000003b0: ecb5 323d bac4 5f3e d366 c03e 2fa3 303b
000003c0: 4871 d83e 80e3 263e 6967 9a3e 68cc cf3e
000003d0: 3953 bc3e a68b 3b3e 5e32 c73d 2652 ba3e
000003e0: d004 9e3e 3b12 133e d456 a13e 0de2 8f3e
000003f0: ce1e 5f3e ac4e c73d e86f 103e c519 0d3f
0.19336149 0.19244699 -0.041044332 0.30175206 0.09456176 0.17352167 0.2136821 -0.059502926
0.058271863 0.021369202 0.095889315 -0.070655964 -0.05747946 0.1859278 0.18775135 0.15743236
0.12782377 0.24538548 0.21208085 0.13104077 -0.023857877 0.066215955 -0.059612382 0.05893796
-0.11179124 0.1950096 0.17197728 0.22083634 0.015976528 0.11911318 -0.06932985 -0.083706155
-0.067951225 0.013332505 -0.095112786 -0.14076965 0.082692266 0.30541515 -0.11383399 0.08923327
-0.036347635 0.06972366 -0.098614104 0.15394625 0.04577986 -0.125854 0.16044296 0.10898217
-0.18591875 -0.18912522 -0.11779796 0.064559 -0.15897654 0.13887258 0.2278756 0.08879615
-0.014784622 0.08989801 0.123407066 0.05425971 -0.08819433 0.012900837 0.15191254 -0.25123534
0.12503083 0.22496663 0.30154493 -0.05410298 0.17022876 0.25155824 0.23578854 0.16081753
0.025694089 0.2884173 0.047665477 0.19263658 0.02754524 0.38255006 0.34478137 -0.043595694
0.12602021 0.29135367 -0.01683224 0.054718215 0.22915737 0.123622224 0.11367645 0.08460865
0.16436662 0.26497486 0.24180648 0.07953194 0.27414382 0.35542777 0.20936027 0.35592508
-0.038303 0.16057636 -0.08584559 -0.18693967 -0.1376955 0.06573015 -0.039476637 0.052494183
0.24444522 -0.1788851 0.005540592 -0.08683705 -0.040024925 -0.15565564 -0.030365726 0.14820604
0.0436419 -0.020383742 -0.117468655 0.057617452 0.006414887 0.0833207 0.20098558 -0.16847982
0.09327834 0.059448157 0.12900054 -0.06386401 -0.04653349 0.042415235 0.14898059 -0.11147989
0.1612888 0.1654475 0.008313632 -0.18655841 0.13598004 -0.17146796 -0.09051238 0.1558631
0.20547585 0.16533257 -0.0610052 0.23835768 0.10989271 -0.078340344 -0.12527029 0.045288846
0.12131741 -0.03723178 -0.0050230836 -0.053257104 0.09161278 -0.057675123 0.12614614 0.26964578
-0.010197362 0.053472046 0.09402688 -0.0043854075 0.22526082 -0.07497512 -0.12108115 -0.10072937
0.0699231 -0.13196851 0.16859315 -0.18064159 -0.016119715 0.0057016225 0.008612692 -0.0838992
-0.2753255 -0.035413265 -0.06693611 -0.17509569 0.05823813 -0.09363384 -0.16415651 -0.10436236
0.0947226 -0.21203719 0.18289107 0.13221113 -0.098403774 -0.17513904 -0.23853447 -0.012411469
-0.09832126 -0.05431634 -0.31935138 0.02375939 0.19188116 0.08245489 -0.27710855 0.06638397
0.09019453 0.062100857 -0.027773483 0.003953013 -0.054589532 -0.20005116 0.15235718 0.039695
-0.12327079 -0.024190629 -0.1203934 -0.13559291 -0.044900745 -0.09609818 0.024510771 -0.048963577
0.017223494 -0.16367571 -0.01665767 0.014916997 0.04955116 -0.104738295 -0.021287763 0.052220557
-0.13062842 -0.062098913 0.060613655 -0.075250655 -0.035517253 0.03483246 0.011367412 -0.034188967
0.28493714 0.42945603 0.2619549 0.36489442 0.20777328 0.037266713 0.24517298 0.39927477
0.26429412 0.34348744 0.048930384 0.19962327 0.043630525 0.21852389 0.3757845 0.0026952734
0.42273927 0.16297722 0.3015702 0.40585637 0.36782244 0.1831499 0.09726404 0.363908
0.30863047 0.14362423 0.31511557 0.2810215 0.21789095 0.09731802 0.14105189 0.55117446

gru.weight_hh_l0_reverse f4 [96, 32]
00000000: 5120 573e 914f 123e 954d 6b3d cc28 243e
00000010: e282 413e d35b 20be 34a2 843c 1908 53bd
00000020: 83de 0ebc 5022 b33d e206 6dbe 1a11 643e
00000030: 2a06 aa3d 5e8e 65bb 192e 6e3d a2e8 2cbd
00000040: 24f9 b1bd b2cf 123e 21cf 03be d42e 5abc
00000050: 4485 903d 65ad 063e 8091 0a3d f0be a4be
00000060: 5ee6 18be b46d c33d 6ac3 963d 92e7 e03d
00000070: 3cc1 b1bd 7a5a 5b3e a390 873e 338e 0d3e
00000080: 72a8 3e3d 7b78 143e 366e c1bc a8f6 313e
00000090: 59c2 143e bbc3 9bbd 270e acbd c4cd a1be
000000a0: 86df 3abe fdf6 d03e a54b 7abe a4df 823d
000000b0: fc4e 093d e652 513c 8a9d 3abe 3118 413e
000000c0: 34e9 cd3d c6c9 76bd 4f35 0fbe 301e 36be
000000d0: 7a98 3ebe a5de 553e 53f4 4fbd 0be1 9cbe
000000e0: a55e 65be 404d 05be fdbd cd3d 849a bf3b
000000f0: 876d d0bd 1cee f73d fad2 9a3e 964c 26bc
00000100: b19f c23d 8cbc c3bd 1659 4dbd 6281 f7bd
00000110: de0f cf3d 20fc db3d 58bc 27bb 661b 3e3d
00000120: 5907 74be 979f 633d 2261 36be e35a 8f3d
00000130: 420f a13d 1bea 5cbd eca1 6cbe d14f f7bc
00000140: 10ff 45bc 992c 903d dd8a a43d 1bd0 16be
00000150: b851 b33d 90b0 3b3e b106 04be 921b 903d
00000160: 25e8 f7bd dd29 72be a0b5 bfbd 42b0 673c
00000170: e592 dd3d 9e1d 993d 5a20 16be 04a5 3cba
00000180: 4e61 683e d708 363e b61c 79be 79c5 d43d
00000190: 89ba fbbb 0a2e e2bc 4ab2 483e 58a5 abbe
000001a0: 3531 2ebe 2a90 de3d 6305 89bb 1a31 053e
000001b0: 7894 0bbd b4cf 0f3e 2bee 7fbe 6765 353d
000001c0: b3c8 78bc 40a3 84bd be19 943c 8984 d8bd
000001d0: 4c14 733c 771c 23ba e730 2cbb 4b1d f3bd
000001e0: 860e 863d c1f0 4bbe 8ba2 13be cf84 8bbc
000001f0: 1d35 bd3d d2f2 263e 455c dd3d bb9f 4a3e
00000200: 4a83 fc3d 4dab d5bc 62ab 173c 6ce4 3b3e
00000210: e141 c4bd 8c08 c4bd 2dc9 a63d 80d1 80be
00000220: 27b7 573d bd77 493e 7900 eabc c664 343b
00000230: 3a71 37be 8614 943d 11b2 833c 387a 4d3d
00000240: 9319 073e 90de 37bc b47b e0bd e333 43bd
00000250: d1d8 0fbd f457 f83b 4ea8 c23b 0339 6cbe
00000260: 7c8e 67bd e448 06bd 41cd d63d 2526 8bbd
00000270: 26d4 1e3d 2aa3 933d 5a7c 653e f56a 983d
00000280: b186 be3d f395 3e3c 59d5 533e 026a 563e
00000290: 83c5 2f3b 9bfc dabd 49a4 113e 6545 a9bc
000002a0: 127a d63d 015a 8b3d 0278 c0bd bf39 843e
000002b0: 39fd c13b 3f23 08be 3885 87bd bf18 303e
000002c0: 6e90 d8bb 3e4f b0bb d36a 483d 6b15 18be
000002d0: f4b2 45bc e29c 11bd 3fa7 003e 04a5 3d3d
000002e0: 51cc 953d ba0b e83d 62bb 3ebe b567 d53d
000002f0: 8ccb 1abc 2667 6fbd d5b3 2d3e 5812 07bd
00000300: 45db e63d 8a44 853d 3323 44bd aea4 bd3d
00000310: 35ab 4dbd 9bf0 4dbe 75ea d63d 72e7 a8be
00000320: e588 09bd 069d 31bd 3058 13be f57c 2d3e
00000330: ef46 a8bc 8297 0dbe 2bad 74be 5c11 b6bd
00000340: 87ce 23bc 5163 ca3d c40f 73bd f6de 2c3d
00000350: 5b79 493c 07a9 e73d 0cd2 b7bd a809 2dbd
00000360: 4509 ff3d e323 743d eca5 b63d 9448 2abc
00000370: e100 c73b c56c 833e 6df2 1c3e bf2c 30bb
00000380: 36eb 15b9 9fde eb3d c993 a23d a632 4fbd
00000390: e4f5 f1bd db82 c03d 4208 533e 478f be3d
000003a0: 30b2 cdbd a642 173e 06ba 41be 3ad4 31bd
000003b0: 374a 64bd 174a d33d ed20 d1bd eb74 11be
000003c0: 4ba5 1bbe e744 213b 6b1c fabd b164 e83c
000003d0: 384e abbd b302 9c3c a8e0 92bd de9f 7bbe
000003e0: db34 ef3d ce0c 813d 16ba 653d 27d7 b2bd
000003f0: 1842 253d 2bd4 1fbd c355 0e3c e680 143e
0.21008421 0.14288165 0.057447035 0.16031188 0.18897584 -0.15660028 0.016190626 -0.051521394
-0.008720043 0.08746779 -0.23147157 0.22272149 0.08301957 -0.0035027484 0.05814943 -0.042214043
-0.08690098 0.14337042 -0.12871982 -0.013316829 0.070566684 0.13152082 0.033830166 -0.32176924
-0.14931628 0.095424086 0.07361491 0.109816685 -0.08679435 0.21421233 0.26477537 0.13823776
0.04654736 0.14499085 -0.023612123 0.17379248 0.14527263 -0.07605692 -0.08401137 -0.316023
-0.1824933 0.40813437 -0.24442919 0.06390312 0.03352259 0.012776112 -0.18224159 0.18856885
0.100542456 -0.06025102 -0.1398518 -0.17784953 -0.18612853 0.20885713 -0.050770115 -0.30640444
-0.22399385 -0.1301775 0.10046003 0.005847277 -0.10177141 0.12105963 0.30239087 -0.010150095
0.09503115 -0.09557447 -0.050133787 -0.12085225 0.10110448 0.107414484 -0.002559444 0.046412848
-0.23830928 0.05557212 -0.1781049 0.06999757 0.07864238 -0.053934198 -0.23108643 -0.030189427
-0.012084737 0.07039756 0.080342986 -0.14727823 0.08755821 0.18329072 -0.12893178 0.070365086
-0.12104825 -0.23648782 -0.09360814 0.014141144 0.108190335 0.07476352 -0.14660779 -0.000719622
0.22693369 0.1777681 -0.24327359 0.103892274 -0.007682149 -0.027609844 0.19599262 -0.33524585
-0.17010958 0.10867341 -0.0041815504 0.13007012 -0.034077138 0.14044076 -0.24993198 0.044286158
-0.015184569 -0.0647645 0.018078681 -0.10572154 0.014836382 -0.0006222198 -0.0026274265 -0.118708216
0.06545739 -0.19916059 -0.14417474 -0.017031102 0.09238646 0.16303566 0.10808615 0.19787495
0.12329729 -0.02608266 0.009257169 0.18348855 -0.09582878 -0.09571943 0.0814384 -0.25159836
0.052664902 0.19674583 -0.028564679 0.0027525886 -0.17914286 0.07230477 0.01607612 0.050165385
0.1319335 -0.011222497 -0.109610945 -0.047656905 -0.03511888 0.007578844 0.0059404736 -0.23068623
-0.056532368 -0.032784358 0.10488368 -0.06794385 0.03877654 0.072088555 0.22410718 0.074422754
0.09303034 0.01163243 0.20686854 0.20938876 0.0026820607 -0.10692712 0.14222826 -0.020662973
0.10472502 0.06804276 -0.0939789 0.25825307 0.005920079 -0.13294695 -0.06617206 0.1719694
-0.0066090142 -0.00538054 0.04893 -0.1485192 -0.0120665915 -0.035550006 0.125638 0.04629995
0.07314361 0.11330362 -0.18626168 0.10420171 -0.009447943 -0.05844798 0.16963132 -0.03297648
0.11272291 0.065072134 -0.04788513 0.09259926 -0.050212104 -0.20111315 0.10493938 -0.3298908
-0.03357782 -0.04336264 -0.1438911 0.16942199 -0.020541636 -0.13827327 -0.23894183 -0.0889003
-0.00999797 0.09882224 -0.059341207 0.04220482 0.012297 0.11311536 -0.0897561 -0.042245537
0.1245294 0.059604537 0.08918366 -0.010393281 0.006073103 0.25668922 0.15326853 -0.002688214
-0.0001429737 0.11517071 0.07938344 -0.05058541 -0.11814478 0.09399959 0.20608619 0.09304672
-0.10043752 0.14771518 -0.18918619 -0.043415286 -0.05573484 0.10316866 -0.10211358 -0.14204757
-0.15199773 0.002460772 -0.122124515 0.028368326 -0.083645284 0.019044256 -0.07171756 -0.24572703
0.11680003 0.063012704 0.05608567 -0.08732443 0.040346235 -0.0390207 0.008687439 0.14502296

gru.bias_ih_l0_reverse f4 [96]
00000000: 7664 ab3d 7284 303e ca0f 5b3e 5803 193e
00000010: 09aa a83d 7034 dbbd 0520 38bd 70ce 69bd
00000020: a847 dabd 8a02 663e 8e5d 6c3d 1056 2b3e
00000030: 6b6c 853d 1b62 9abc 8f13 153c 1731 ab3d
00000040: f652 ac3d e672 c43d bd64 6b3e 6e86 acbd
00000050: 6c63 183d e69c 2c3e 16de 72bb 6460 563e
00000060: 2beb 9a3d 1838 aabd 2401 123e 8c9f 06bd
00000070: 8226 cd3c ccf4 b2bd bbcb 21bd d2fa 633e
00000080: 7fc7 afbd fa0c 603e 1e27 a73d ffdf 053e
00000090: acb3 8a3e 5f93 62bd 9322 4e3e 898d 193e
000000a0: ad06 aa3b 17c2 853e 3348 deba 5784 27bc
000000b0: 944b aa3e 1b5d 063e 61cf 3f3e 0b33 d7bb
000000c0: fdc3 023d b152 053e 5f0b f4bb 9275 253b
000000d0: 0ba0 843e e99d f53d 7cd6 a9bb 388d 7b3e
000000e0: 78de 043e cb81 06bc e389 503d 7a1b b8bd
000000f0: 4928 1c3e 9360 a23e c716 223e 884c b43e
00000100: e183 823e a947 323e 472d 49bd ebb6 3e3e
00000110: f95c 013e 4686 b8bd a521 2d3e 8e04 d13b
00000120: 5f0f 29be 5a1f 193e 763b 3dbe 73f2 d13d
00000130: cf2e abbd 3605 9abd d2ac e3bd 4b8a 0a3e
00000140: 35bf a83d 1e1d 0e3e ed3a f9bd 0aaa 27be
00000150: 20d9 12bd 5ab7 603d 67ee 64be 9aaf 36be
00000160: 25e1 033d 62e5 46be bb65 c43d 4d2f 2abe
00000170: a93c 073e 3190 e73d 37b1 5b3d 0de4 c33d
0.08368771 0.17238024 0.21392742 0.14942682 0.08235557 -0.10703361 -0.04495241 -0.05708164
-0.106581986 0.22461906 0.05770641 0.16732049 0.0651482 -0.018845608 0.009098901 0.083589725
0.08414261 0.09592228 0.22987647 -0.08424078 0.03720419 0.16856727 -0.0037058643 0.20935208
0.07564386 -0.0831148 0.14258248 -0.032867 0.025042776 -0.087380975 -0.039500933 0.22263649
-0.08582973 0.2187995 0.08161758 0.13073729 0.27090204 -0.055316325 0.20130377 0.14995398
0.005188784 0.2612464 -0.0016958773 -0.010224423 0.33260787 0.13121454 0.18731453 -0.006567364
0.03192519 0.13019826 -0.0074476446 0.002524708 0.25903353 0.119930096 -0.0051830392 0.2456559
0.1297549 -0.008209656 0.05091275 -0.08989616 0.15249743 0.31714305 0.15829001 0.3521464
0.2549124 0.17410149 -0.049115445 0.18624465 0.12633123 -0.090099856 0.16907366 0.006378717
-0.1650977 0.14953366 -0.18479714 0.10251322 -0.083585374 -0.07520525 -0.11116947 0.13529317
0.08239595 0.13878295 -0.12169442 -0.16373459 -0.035851598 0.054862358 -0.22356568 -0.17840424
0.032197136 -0.1942344 0.09589716 -0.16619606 0.13206734 0.11306799 0.053635802 0.095649816

gru.bias_hh_l0_reverse f4 [96]
00000000: 2475 673e 0a72 e83d 5d7a 123d b166 d83d
00000010: ecf5 4c3d 0c02 6f3c 1dac 1a3e 3c00 5abd
00000020: d6b8 77bc a52a 203d ee2f 693d 1c95 5f3d
00000030: 6a72 2f3e f2d9 0c3d 75d9 eebc 1914 343e
00000040: 48dd 2b3e a51f 333d 3596 5a3d b63b 7d3e
00000050: 8b57 1a3d 797f 0cbd ff0c ea3d 568a 97bc
00000060: 1b8e 3c3d 0cb4 293e 57fd 2c3b 429b 5e3c
00000070: 6058 febb 7fc9 2c3e 95bf 89bc 174a 623e
00000080: ecff b6bd 48a0 8ebd d618 a33e 1276 8e3e
00000090: 7d45 0f3d 065b c6bd 3bbe 823d 7356 2d3e
000000a0: 1eb9 11be 7783 1a3e e914 e2bd 8453 1fbe
000000b0: 4678 6c3d e03a 1d3e cc26 0b3d 776b 063e
000000c0: 82c2 3b3e fbf6 013e abbb eb3c 94bb 993e
000000d0: 7fbe 753e a868 bc3d 71b7 3e3e 547e b9bc
000000e0: a4d3 91bd e5d6 f3bd 810a b33d a446 92bd
000000f0: 7247 523d d9b8 a73e f14e 243e b36b 7d3e
00000100: ad27 69bd 617d c53d 5452 363d f312 103c
00000110: e279 133e 7632 46be 6201 07bd cdf4 4cbd
00000120: e0a3 d3bd 374f 02be d193 4fbc 250f 1bbd
00000130: c15e 0f3c d0fa 0d3e 01fa a3bd bffa 32bc
00000140: 460b 39bc 7645 0fbe 69c9 edbc 6952 4dbe
00000150: fae2 41be 68fc f6bd cefb 1dbd 7ef3 953d
00000160: 5e14 853d 1f18 393d 926f 5fbd 60b2 b73b
00000170: f966 d83d 2cfa d63d 469b 203e 0dad 5ebc
0.2260328 0.11349876 0.035761226 0.10566462 0.050039217 0.01458789 0.15104719 -0.05322288
-0.015119752 0.03910317 0.056930475 0.05458556 0.17133489 0.034387536 -0.029156426 0.17585792
0.16783631 0.04373135 0.053365905 0.24729809 0.037681144 -0.034301255 0.1142826 -0.01849858
0.04603396 0.16572589 0.002639612 0.013586821 -0.007762 0.1687374 -0.016814986 0.22098576
-0.08935532 -0.06964165 0.31854886 0.27824455 0.03497838 -0.0968533 0.0638394 0.16927509
-0.14230773 0.15089212 -0.110391445 -0.15559202 0.05773189 0.1535449 0.033972546 0.13126932
0.18335918 0.12691872 0.02877601 0.30025923 0.2399845 0.09199649 0.18624665 -0.022643246
-0.07120445 -0.11906222 0.08742238 -0.0714238 0.051337667 0.32758215 0.16045739 0.24748115
-0.056922603 0.09643055 0.044512108 0.00879358 0.14401963 -0.19355187 -0.032960303 -0.050038148
-0.10333991 -0.1272553 -0.0126695195 -0.03785624 0.008750618 0.13865209 -0.08006669 -0.01092404
-0.011294192 -0.13991341 -0.029026704 -0.20050968 -0.18934241 -0.120598614 -0.038570218 0.07321833
0.06498025 0.04518902 -0.05454976 0.0056059808 0.105665155 0.10496935 0.15684232 -0.013591063
