logs/exp0/weights/epoch15.pt (torch, 348934 bytes, 45 tensors)

conv_block1.0.weight f4 [32, 4, 10]
000000 98 4f 91 3d 57 68 00 be 14 22 06 3e c0 66 aa 3c
       0.070952594 -0.12539802 0.13098937 0.020800948
000010 ab 54 41 3d 16 3c f6 3d a6 ca be 3b 19 57 b9 bd
       0.047199886 0.12023179 0.0058224974 -0.09049816
000020 26 42 0d 3e e3 12 9d bd 82 3a ad 3d 27 f0 3d bd
       0.13794765 -0.07669618 0.08458425 -0.046371605
000030 dd 7c 20 3d ae 98 94 3d 6a 64 10 bd b2 a4 fe 3d
       0.03918158 0.07255684 -0.035252012 0.12433757
000040 26 04 ab 3d 0e 8c 28 3d db 61 7f ba 05 74 27 bd
       0.083504006 0.04114919 -0.00097420596 -0.04088213
000050 42 6e 01 be da 48 96 3d ec 32 4a 3d a6 a6 c7 bc
       -0.12639716 0.07338114 0.04936497 -0.024371456
000060 ec 8d 01 3d e2 93 a6 bd cb dc 67 3d cc ee ac 3d
       0.031629488 -0.08133675 0.05660705 0.084439844
000070 30 86 16 be 17 d6 c8 bc 66 e3 03 be 2e e6 d3 3d
       -0.14699626 -0.024516148 -0.12879714 0.10346638
000080 b8 cc 43 3d c0 38 85 bc f9 66 19 bd e5 69 9f bd
       0.047802657 -0.016262412 -0.037451718 -0.0778387
000090 3b d9 4e bd 7a 1a 8d 3d c1 20 19 bc 3f d5 4b 3d
       -0.050500136 0.06889816 -0.009346188 0.049763914
0000a0 cb 1e 26 3a 3f b8 81 bd fe 37 45 3d e8 34 c1 bd
       0.0006336986 -0.0633397 0.0481491 -0.09433919
0000b0 88 64 13 3d 10 a5 2a 3e 03 49 59 bd 5d 1f d2 3b
       0.035984546 0.16664529 -0.053048145 0.00641243
0000c0 b9 4f 12 3e 79 4c ab bc a3 11 be 3d 74 1b b0 3d
       0.14288224 -0.020910488 0.09280708 0.08598986
0000d0 b1 c1 f7 bd 75 de e4 3d 85 c4 02 be af c5 72 3c
       -0.120974906 0.11175243 -0.12770279 0.014817639
0000e0 9d ef ed bc f8 f3 11 bd be 37 30 ba ed 8a 17 3d
       -0.02904492 -0.035633057 -0.00067221734 0.036997724
0000f0 30 45 e2 bd 90 56 59 bc 15 a0 34 bd 79 49 0f bd
       -0.11048353 -0.013265267 -0.04409798 -0.03498218
000100 30 19 8b bd b0 4c 3d bc 77 6f 88 bd ba 7f b6 3d
       -0.067919135 -0.011553928 -0.06661885 0.08911081
000110 dc 95 ed bd c0 e8 18 3d e9 7e f6 3d f1 74 c7 3d
       -0.11600849 0.037331343 0.12035925 0.09739102
000120 0c 4e 54 3d d1 d5 0b bd ef 6d 5c bc 9e 26 c1 3b
       0.051832244 -0.034139458 -0.013453945 0.005894496
000130 39 0b 6e bd 89 92 00 3d 81 3b 86 bd 26 1a d9 3d
       -0.05811617 0.031389747 -0.06554318 0.106006905
000140 f0 05 78 3d fa 77 d6 bd 37 cd cf bd 04 a1 a7 bd
       0.060552537 -0.104721025 -0.101465635 -0.08185008
000150 75 5e 12 3e c5 7c 9b bd 23 43 79 bd 5b 1b fe 3d
       0.14293845 -0.07592157 -0.060855042 0.124075614
000160 bf 3d fc bd d4 8e 0e bc 2c bf 52 3d f9 6b 47 3d
       -0.12316465 -0.008701045 0.051451847 0.048686955
000170 74 43 27 3c 66 81 a6 3d f9 83 92 bc c8 7c c4 3d
       0.010208953 0.081301495 -0.017885195 0.09594113
000180 03 9b 21 3e ea 84 04 3e ab c5 1c 3e f1 c9 2c bd
       0.15781789 0.12941328 0.1530978 -0.042184774
000190 a8 69 a4 3d 54 82 e3 bd 42 3c 88 3d b0 70 fb bd
       0.08027965 -0.111088425 0.06652118 -0.12277353
0001a0 90 02 84 3c 27 1f cc 3d 82 d3 01 3e 1e 0b 5b bd
       0.016114503 0.09966879 0.1267834 -0.0534774
0001b0 1c 26 1c 3d e6 07 0c bd f2 22 e0 bd 96 8b 00 be
       0.03812228 -0.03418722 -0.10944165 -0.12553248
0001c0 f8 70 c4 3d 00 a5 3c 3d e8 de e3 bc e2 0f d5 bd
       0.095918596 0.046055794 -0.02781625 -0.1040342
0001d0 77 48 68 3d 40 73 d9 3c 9c da 07 bd 79 61 90 3c
       0.056709733 0.026544213 -0.033167467 0.017624604
0001e0 ff be 94 3d 73 c6 a2 bd f4 48 f1 bc 02 89 b8 bc
       0.07262992 -0.079480074 -0.029453732 -0.022526268
0001f0 a6 dc 6d bc 7e c5 8b 3d 56 07 87 bd 9b fa de bd
       -0.014517939 0.06824778 -0.06593196 -0.10887643
000200 97 aa ae 3d 31 9f 4d 3d 47 c3 ec bc d0 47 e9 bd
       0.08528631 0.050200645 -0.02890171 -0.1139065
000210 40 86 0b be 65 ba 12 be ea f4 c5 bd 56 5d 9d bd
       -0.13625431 -0.14328916 -0.09665854 -0.07683818
000220 c1 5c 9e 3d 4d 22 1c bd 5f a6 a1 bd 7f f4 90 3d
       0.07732535 -0.03811865 -0.07893061 0.07077884
000230 74 99 99 bc ff 27 41 bc cd cf 22 3d f2 92 10 3e
       -0.01874993 -0.011789321 0.039748956 0.14118555
000240 db a0 b6 bd 9e 96 ce 3d f8 0e 13 3e 4f 1c 57 bd
       -0.089173995 0.10087322 0.14361179 -0.05251723
000250 af ee f3 3d b6 ae 77 3c b9 e2 1c 3d 97 2e 55 3d
       0.1191076 0.015117338 0.038302157 0.052046385
000260 fb b2 b8 3d f3 f2 e2 3c 31 6f 32 bd ac 95 7a 3d
       0.09018513 0.027703738 -0.04356307 0.061177894
000270 c9 3b 9e 3d 0d b7 9b 3d d9 09 8b 3d 33 9e bd 3d
       0.07726247 0.076032735 0.06788988 0.0925869
000280 8a 44 e7 bc 73 4c 61 3b f4 9d 9b 3c b9 96 c7 bc
       -0.028230924 0.0034377843 0.018996216 -0.024363862
000290 24 18 d0 3b 49 db d9 3d e1 67 7c bd 75 27 1d 39
       0.006350534 0.106375284 -0.061622504 0.00014987386
0002a0 62 62 3d 3d 64 63 3b bc 4a e4 a1 3d d1 0b 8b 3d
       0.046236403 -0.011437271 0.07904871 0.06789363
0002b0 25 22 b0 bc 59 47 e5 3d f9 d4 4e 3c 8b 7a 9d bd
       -0.021500656 0.11195249 0.012624019 -0.07689389
0002c0 48 b1 70 bb 72 11 f6 3d ae 4a f6 bd eb d2 f0 3d
       -0.0036726762 0.12015046 -0.12025963 0.117589794
0002d0 29 ea d0 bd 82 b8 74 3d e3 42 44 be 53 8d 8e 3d
       -0.102009125 0.059746273 -0.1916614 0.06960549
0002e0 7c c0 0e bd aa a3 44 3d 9e 94 28 be ba 7d ab 3d
       -0.034851536 0.048007645 -0.16462943 0.0837359
0002f0 bd ae dc bd 20 9b 7d 3d 94 fa 74 3d b9 8c b9 bc
       -0.10775516 0.061915517 0.059809282 -0.02265011
000300 40 0d ae bd 19 1f 2d bd 40 1a 01 be f0 fe 57 3c
       -0.08498621 -0.042265985 -0.1260767 0.01318334
000310 13 00 c2 3d a2 62 b3 3d be d5 fe bd c6 66 aa 3d
       0.094726704 0.08759047 -0.12443112 0.08320384
000320 0a 90 96 3d 04 26 bd 3d 02 9b 32 bd 63 f8 7e bd
       0.07351692 0.092357665 -0.04360486 -0.0622486
000330 5e c2 e3 3c a2 8b d1 bd 52 46 1e 3e 74 ea 22 3e
       0.027802642 -0.10231711 0.15456513 0.1590975
000340 46 21 c6 bd 78 c0 7b bd 79 17 cd 3d fa 47 34 3d
       -0.09674315 -0.06146285 0.10014243 0.044013955
000350 73 5c e8 bd c1 27 95 3d 9e 45 8e 3d 42 ff 0d 3e
       -0.11345758 0.07282973 0.06946872 0.13866904
000360 29 de 68 bc 62 9d 82 bd ad 71 ff 3d 10 20 b8 bd
       -0.014213123 -0.06377675 0.12472854 -0.089904904
000370 b5 a7 0f bd 86 d6 7e bd 1c 1e a6 3d 18 80 b7 bd
       -0.035072047 -0.062216304 0.08111212 -0.08959979
000380 90 8b 15 be f9 03 f5 bd b8 6d bd 3b ab 73 3d be
       -0.1460402 -0.11963648 0.0057809018 -0.18501155
000390 2a ab d3 bd 2f 3b 1f 3d af cc ac 3d af 3b 62 3d
       -0.10335381 0.0388748 0.08437478 0.0552327
0003a0 9f 08 a7 bd e9 d9 a8 3d fb 2c b8 3d 64 aa 9c 3c
       -0.08155941 0.08244688 0.08992954 0.019124217
0003b0 50 8c 83 bd 73 17 ce 3d b7 08 c1 3c 9a 1c 84 3d
       -0.06423247 0.10063066 0.023563726 0.06450768
0003c0 a3 ef f7 3d 0f 01 2e 3d 7e 91 35 3d 4a 14 32 3d
       0.12106254 0.04248148 0.044328205 0.04347638
0003d0 dc 08 84 bd ba 60 23 3e 84 df 6c 3d 24 d7 c5 3d
       -0.06447002 0.15954867 0.05783035 0.096601754
0003e0 5e 6a fe 3d f9 ce c0 3d c2 63 3f bc 57 a6 ef 3c
       0.12422632 0.09414477 -0.011681499 0.029254122
0003f0 7a 91 52 3d b7 e1 03 bb be b9 a8 bd 03 30 96 bd
       0.05140827 -0.002012355 -0.082385525 -0.07333376

conv_block2.0.weight f4 [32, 32, 10]
000000 8f 7f 70 3a 86 cc f3 bc 06 1e 56 3c aa 14 5b bd
       0.0009174281 -0.02976061 0.013068682 -0.053486504
000010 2e 35 96 3c c7 f6 5a b9 71 26 5d 3a 70 b7 e5 3d
       0.018335905 -0.00020882032 0.0008436209 0.112166286
000020 31 c2 a0 3d 88 f5 a6 3d f3 dd 8e 3d 15 bb f3 3d
       0.07849539 0.081523 0.06975927 0.119009174
000030 8e d3 02 3e ca c3 32 3b 31 f7 89 3c c8 07 97 3d
       0.12776014 0.0027277344 0.016841503 0.07374531
000040 48 63 65 3d 1f b7 8c 3d bc dd 4c 3d 88 49 36 bd
       0.056002885 0.06870865 0.05001615 -0.04450372
000050 20 7e ef bc 88 0c 9c 3c c3 0b 65 bd 5b aa 00 3d
       -0.029234946 0.019048944 -0.05591942 0.031412464
000060 a4 60 8f bc 52 80 95 3d 3f 7c 8c 3d 20 cf 41 bd
       -0.017502137 0.07299866 0.068596356 -0.04731667
000070 21 3d 26 3b 69 88 bf bd 09 57 8b bd 5a 74 66 3d
       0.0025366026 -0.0935219 -0.0680371 0.056263305
000080 97 3a 9d 3b a4 15 5c bd 2a 27 20 bd e3 32 ae 3d
       0.004798244 -0.053731576 -0.03909985 0.085057996
000090 d9 9a 22 bd 28 17 a0 bd 90 76 9b bd d6 d7 c3 3c
       -0.039698455 -0.07816917 -0.075909734 0.02390663
0000a0 36 5a fd 3c 79 cf 58 3c 5d 5e ed 3d 5e c4 b9 3d
       0.030926805 0.013233059 0.11590264 0.09070657
0000b0 f6 8b 72 bd 73 5b d7 3d d3 34 dd bc 99 5e a8 3d
       -0.05921551 0.105154894 -0.027002728 0.08221168
0000c0 83 52 72 bc 57 1f 68 3d 28 fc b4 bc ad 6c 94 3c
       -0.01479018 0.056670513 -0.022092894 0.018118227
0000d0 03 53 3b 3b 95 20 d4 3d 54 02 8b bd c9 e4 4a 3d
       0.0028583414 0.10357777 -0.067875534 0.049534593
0000e0 b8 f3 33 bd f0 44 82 3a 61 6f bb 3d 2b 60 e1 3d
       -0.0439336 0.0009938758 0.09152103 0.11004671
0000f0 32 89 6c 3c eb 49 16 3d 1a 36 69 3d 7c 74 0f 3e
       0.014437007 0.036691587 0.05693636 0.14009279
000100 59 db 18 3e 02 b2 45 3d 28 61 2d 3d 9e 67 09 3e
       0.14927424 0.048265465 0.042328984 0.13418433
000110 cc 34 37 3b 32 3b ba 3c 73 3a 15 3e 44 15 ee ba
       0.0027955053 0.022733305 0.14573078 -0.0018164297
000120 88 45 2e bc 5f 46 a6 3b 00 7d 41 bc 7a 47 99 3d
       -0.010636695 0.005074307 -0.0118095875 0.07484336
000130 7c 7f 4e 3d eb d3 a5 3d 69 1e e4 3d 9b 8b 03 3e
       0.050414547 0.08097061 0.11138613 0.12846224
000140 d4 63 29 3c 21 52 8e 3d fe 91 28 3d 78 5e 5b bc
       0.010338742 0.069492586 0.041154854 -0.013389222
000150 7f 19 23 3d c5 50 75 bd 7a 51 2c bd fb 99 27 bc
       0.039819237 -0.05989148 -0.04206989 -0.010229583
000160 b9 93 b8 3b d2 22 2d bd a0 48 0c 3d e9 87 ac 3c
       0.0056328443 -0.042269535 0.034248948 0.0210609
000170 dc 79 6d 3d de c9 7c bd 41 60 f0 bd cb b2 f1 bd
       0.057977542 -0.061715953 -0.11737109 -0.1180168
000180 46 77 d7 bd f4 da 3c 3c 46 03 e4 bd a7 b4 10 3d
       -0.105207965 0.011526812 -0.11133437 0.035328534
000190 b8 f2 57 3d 74 ad 82 3d ba 83 bb 3d 53 0c fb bc
       0.05272171 0.0638074 0.09155984 -0.030645525
0001a0 08 22 cc 3d 8b 7e 63 bd 1d 5c 52 3d 68 f1 d3 3d
       0.099674284 -0.055540603 0.051357377 0.10348779
0001b0 9f 84 46 bd 20 c9 bc 3d 92 87 34 3d ed ac 5a bd
       -0.04846632 0.09218049 0.044074602 -0.05338757
0001c0 fe 95 e0 3d 02 47 c9 3d a8 f6 d0 3d 8d 27 83 3d
       0.10966109 0.09827997 0.10203296 0.06404028
0001d0 d2 37 48 bc 9e 27 db 3d a6 36 48 bd 26 68 a1 bc
       -0.01222034 0.10700916 -0.04888024 -0.019702982
0001e0 83 50 b5 bd 0f fb c2 bc b4 ff a5 bc 76 05 13 3d
       -0.08853247 -0.023801355 -0.02026353 0.03589388
0001f0 17 05 c4 bd b1 e8 fa bd 5a 2f a0 3c 0f 0f 20 3d
       -0.09571283 -0.122514136 0.019553829 0.03907686
000200 7f 54 94 bc 43 17 f3 bd 97 05 ea bd 21 5c cb bd
       -0.018106697 -0.11869671 -0.114268474 -0.099296816
000210 79 38 c3 bd ad 77 cf bd 16 9a 0d be df 0d 80 bd
       -0.09532256 -0.10130248 -0.1382831 -0.06252646
000220 6a 80 bb bd 4c f6 40 3c 86 81 21 bd 0d 11 09 be
       -0.091553524 0.011777472 -0.039430164 -0.1338541
000230 f1 de 5c 3d 2d 25 05 3d 1c 44 ae 3d 5b 00 ec 3d
       0.05392355 0.032506157 0.085090846 0.11523505
000240 5e f6 b0 3d 27 3c 33 3d 59 44 71 bd 4e 5f 89 3d
       0.08640741 0.043758538 -0.058903072 0.06707631
000250 9d 83 80 bc 14 d9 ca 3d 6b 88 94 3d 44 b7 96 3d
       -0.015687758 0.099046856 0.07252582 0.07359174
000260 ab b5 a3 bd 01 43 99 3c df c2 36 3d 08 fa 5e 3d
       -0.07993635 0.018708708 0.044619437 0.054437667
000270 6b ee 5d bd e2 23 b3 3b e3 0b bd 3d 50 f9 97 3c
       -0.05418245 0.005466924 0.09230783 0.018551499
000280 42 5b 8f 3d 35 ea 87 bd 82 62 58 bd 4d d2 c5 3a
       0.06999828 -0.06636468 -0.05282832 0.0015092582
000290 aa d3 ea 3d 77 13 43 3d 63 7f 86 3d 2b 67 59 bd
       0.11466153 0.047625985 0.06567266 -0.053076904
0002a0 07 47 6a 3d 2a 22 27 bd 74 5d b5 bc 94 e0 fb 3d
       0.057196643 -0.040804066 -0.022139288 0.12298694
0002b0 2f a5 04 3e 10 89 7c 3d 1e a5 31 bd ef 8e 09 3e
       0.12953638 0.06165415 -0.04337036 0.13433431
0002c0 cf 9e 94 ba 8c 3f 81 3c 6a b0 84 3d 43 13 e2 bc
       -0.0011338833 0.015777372 0.06478961 -0.027597075
0002d0 e9 a4 a4 3b e6 33 b5 3c c1 bb a0 bd 03 24 8c 3d
       0.0050245416 0.022119474 -0.07848311 0.06842806
0002e0 93 34 57 3d 1c e5 86 bd 55 5d 66 3b f6 25 8a bd
       0.052540373 -0.06586668 0.0035150845 -0.06745522
0002f0 f5 e7 c8 3b 9f bb 9c bc dc b4 cd bc 7e cb d4 3d
       0.006131167 -0.019132433 -0.025110655 0.103903756
000300 73 21 2b bd 95 f1 30 3c 0a 93 5b bd db 62 bc bc
       -0.041779947 0.010799785 -0.053607024 -0.022996357
000310 93 07 21 3d a8 fe d3 3d df a1 8d bb 27 5f 5f bb
       0.039313864 0.10351306 -0.004322275 -0.0034083815
000320 65 91 23 bd 1a b4 b5 bc fa b2 21 3c 27 1b 37 bd
       -0.03993358 -0.022180606 0.0098693315 -0.04470363
000330 7c 9a 20 bd 69 ba 6f bd 78 c1 3e bd c2 29 42 3d
       -0.039209828 -0.058527384 -0.046571225 0.047403105
000340 38 2d 0f bc 74 a9 bb bc c9 52 84 bc 24 72 b5 3d
       -0.008738808 -0.02290795 -0.016152756 0.08859661
000350 5f 2b d4 bc 05 1d 02 bd 35 e4 15 bd c4 81 0e bd
       -0.025899587 -0.031765956 -0.03659459 -0.034791723
000360 44 56 b0 bb 4d 93 fb 3d 58 8f e6 3c af 5e 62 bd
       -0.0053813774 0.12283955 0.028144524 -0.05526608
000370 06 06 f8 3c d3 52 34 3d 65 2b 59 3d 28 dd 04 3e
       0.03027631 0.0440243 0.0530199 0.1297499
000380 9b 9e 05 bd 3e fe 1d bd 61 19 da 3d 4e e9 51 3d
       -0.03262196 -0.038572542 0.10649372 0.051247887
000390 01 3b 12 3e 2f ee 2c 3d 3a 7a 96 3b c8 3e 88 3d
       0.1428032 0.042219337 0.0045922073 0.066525996
0003a0 63 5c 90 3d 5a 73 f1 3d 90 0d c2 ba 07 3d 0a bc
       0.07048871 0.1178958 -0.0014805067 -0.008437402
0003b0 58 86 08 3e 30 6a 01 3e 71 0d e7 3d cf 85 e6 3c
       0.13332498 0.12638164 0.112818606 0.028139977
0003c0 08 f6 e1 3c 6c 41 bc 3d da b3 88 bd 7a c2 29 bd
       0.027583137 0.09192166 -0.06674929 -0.041445233
0003d0 2c cf 04 bd ed d4 7b 3d e3 04 ac bd 9b a4 9a bc
       -0.032424137 0.06148236 -0.083993696 -0.018877318
0003e0 fa 66 a1 3d c6 e1 12 bc 80 6b 5a bd 74 f7 ea bd
       0.07880969 -0.008964961 -0.053325176 -0.11472979
0003f0 70 07 a1 bc 9e fb e6 bd 04 a4 d1 bd 1b b5 41 3d
       -0.019656867 -0.11278461 -0.102363616 0.047291856

gru.weight_ih_l0 f4 [96, 32]
000000 e1 ef 2c 3d ea 3b 1c 3e 4c 69 82 3d 3a 6e 81 3e
       0.042220954 0.1525723 0.0636774 0.2527941
000010 46 83 ab bc 04 4c 0b be df eb 79 3e 8e bc 56 3c
       -0.02093662 -0.13603216 0.24406384 0.013106478
000020 ed 96 fc 3c 16 63 c1 3d 6b 29 b2 3d 83 41 fd 3d
       0.030833686 0.09442727 0.08699306 0.12366011
000030 83 1b d9 bc 8e c4 5b 3e 05 1d 35 3a cb f6 00 3e
       -0.026502376 0.21461698 0.00069089263 0.12594144
000040 55 b4 66 3d c8 8e 92 3e 41 d9 9f bc ac c7 91 3c
       0.05632432 0.28624558 -0.019512774 0.017795406
000050 30 17 b0 3d bd 37 75 3e 7d 49 0c be 8c fa 28 3e
       0.08598173 0.23947044 -0.13699909 0.16501826
000060 c9 35 4d 3d 72 97 42 3e e7 bf 53 3e b2 6f 8f 3d
       0.05010012 0.19003084 0.20678674 0.07003726
000070 bb ab 8c 3c ad 33 01 3e 2d fc 59 3d 18 66 e0 3d
       0.017171731 0.12617369 0.05321901 0.10956973
000080 bb f5 46 3e ea 1a 2d 3b a6 45 35 3d b2 1e da bd
       0.19429676 0.0026413747 0.044255875 -0.10650386
000090 a1 85 33 3e 4e b1 37 bd 3d f0 37 3e 73 fe 2b 3b
       0.17531444 -0.044846825 0.17962737 0.0026244193
0000a0 21 17 63 bc c4 11 d6 bd 1e 9a 3c be 3f 8b 1e be
       -0.013860495 -0.10452607 -0.18418166 -0.15482806
0000b0 1b fa 1d be ba 32 e0 3d cf 27 2a 3d cf bb 0b be
       -0.15427439 0.10947175 0.04154187 -0.13645862
0000c0 d2 4b 36 3e 29 a9 e0 3d b7 f9 27 3e 42 34 e1 3c
       0.1780236 0.10969765 0.16403852 0.027490739
0000d0 3f e1 a4 bc b4 e0 4b bc 90 69 80 3d 29 e5 22 3e
       -0.020126937 -0.01244371 0.062701344 0.1590773
0000e0 a5 15 a0 3d c2 a7 c4 3d 72 16 f5 bc 56 4a 19 3e
       0.07816628 0.0960231 -0.02991793 0.14969763
0000f0 33 3b 98 bd ab ca 00 3e 8d f9 4a bd 67 d4 bf 3d
       -0.07433166 0.12577312 -0.049554396 0.093666844
000100 41 0a 74 3c a3 eb 00 3e 03 36 df 3c 8a 29 69 bc
       0.014895023 0.12589888 0.027247434 -0.014231095
000110 a0 3f 92 3c f6 f9 4a bd f5 ee 07 3d a8 94 3c 3e
       0.017852604 -0.049554788 0.03318687 0.18416083
000120 3b 51 6d bd 1c 57 3a 3e bd d9 00 3e 64 19 96 3d
       -0.057938796 0.18197292 0.1258306 0.073290616
000130 d1 99 ff 3c ae d3 04 bc 15 91 ae 3d 94 ba 92 3b
       0.031201275 -0.008107109 0.08523766 0.0044778083
000140 2d c5 07 3e d1 60 6b bd 77 2f ed 3d 39 06 2b be
       0.1325881 -0.05746538 0.11581319 -0.16701593
000150 6a 75 ec bd af 49 8a bc e1 f8 5e bc f7 46 e2 bc
       -0.115458325 -0.016880838 -0.013609142 -0.02762173
000160 b8 c5 4f 3e e1 56 99 bd 5e a7 29 be 97 49 00 3c
       0.20290267 -0.07487274 -0.16567752 0.007830045
000170 ef ce d8 3d 96 8f 82 3a 04 56 3c be 62 a6 5d 3e
       0.105863445 0.0009961005 -0.18392187 0.21645501
000180 a6 92 98 bd a4 a3 68 bd c0 1b ba bd 08 31 b1 3b
       -0.07449846 -0.056796685 -0.09087324 0.0054074563
000190 52 28 af bd 04 75 03 be 88 ce 5b 3d c7 5e 17 be
       -0.08552612 -0.12837607 0.05366376 -0.14782248
0001a0 86 4a ce 3d 24 26 b9 3d 07 57 1a bd 1b 01 d7 bd
       0.10072808 0.09040478 -0.037680652 -0.10498258
0001b0 cf 80 2c be 84 f7 c0 3d 8f 35 2b bd 55 6f fe 3d
       -0.16846012 0.0942221 -0.041799124 0.12423579
0001c0 69 6b ea 3d 6c fe 94 bd e3 ab 28 be 3e de 19 3e
       0.11446268 -0.072750896 -0.1647182 0.15026185
0001d0 0a 81 34 be ff a3 0b 3e 81 37 32 be 07 01 65 bd
       -0.1762735 0.13636778 -0.17403986 -0.055909183
0001e0 dc 66 cc bd 87 94 24 be 01 0a df bd 76 ca 08 3e
       -0.09980556 -0.16072284 -0.1089058 0.13358483
0001f0 02 c3 f3 bd c2 65 10 3e dd 33 bd 3d 25 45 56 3d
       -0.11902429 0.14101318 0.09238408 0.052312035
000200 c5 06 29 be ec 6a ad bd 3b 3f 38 3d c8 a4 9e bc
       -0.16506489 -0.08467659 0.044982176 -0.019365683
000210 9a 55 1c be c4 13 0a be c6 82 42 3d dd 4e 32 bd
       -0.1526703 -0.13484102 0.047487997 -0.04353224
000220 0a fb 98 bd 8e 81 37 be 7a 9d 89 3c a6 0c e2 ba
       -0.07469757 -0.17920515 0.016798723 -0.0017246201
000230 e7 7b 99 3c 4b f2 db 3d b8 df 75 3c 79 cd 90 bd
       0.018735839 0.10739573 0.015006952 -0.07070441
000240 7a c8 40 bd 1f 0d 11 3d 73 1c 49 3d c2 0d e2 3d
       -0.04706619 0.035412904 0.049099397 0.1103778
000250 40 20 1e bd b3 13 d4 3d ee 23 a0 bd 87 2c 52 3d
       -0.038604975 0.1035532 -0.07819353 0.051311996
000260 69 77 aa 3c 32 26 fe 3d 0f a1 14 3e 48 11 13 be
       0.020808892 0.12409629 0.14514564 -0.14362061
000270 e2 84 d3 bd da 59 17 bd a2 15 38 be e1 b9 9f 3d
       -0.1032808 -0.036950924 -0.17977002 0.077991255
000280 28 24 1d 3d 6e 69 7b 3e ee 00 d8 bc e4 9b 7a 3e
       0.03836456 0.24551937 -0.02636763 0.2447353
000290 72 b6 ab bd 9f 25 35 3b 71 16 cf 3d b0 e6 2c 3e
       -0.08384408 0.0027640832 0.10111702 0.16884875
0002a0 a8 26 3f 3d 06 76 27 3e 61 2b 39 3e 63 26 3e 3e
       0.046667725 0.16353616 0.18082954 0.18569331
0002b0 98 d9 d4 bd 17 2b 27 3e 57 9a a3 bd c5 95 91 bd
       -0.10393065 0.16325031 -0.07988422 -0.071086444
0002c0 bd 6f 91 3e 74 ee 68 3e ef 62 86 3d 45 03 4b 3e
       0.28405562 0.22747213 0.06561839 0.19825466
0002d0 99 2c 7a 3e 5a 52 53 3d 80 88 36 be 5f 9c 26 3e
       0.24431075 0.05159221 -0.17825508 0.16270588
0002e0 98 fa 27 bd eb 67 33 be 6c aa f1 bd 20 ff db 3d
       -0.04101047 -0.1752011 -0.118000835 0.107420206
0002f0 d6 21 0f 3e 21 8d f4 3d 70 1b 05 be cb ef 5a 3b
       0.13977751 0.11940981 -0.12998748 0.0033407088
000300 08 cb aa bd ac 2c ec bd d3 4b 6d be cf a4 71 bd
       -0.083395064 -0.11531958 -0.23173456 -0.058995064
000310 5c 84 7b 3d 6e 85 c4 3d 95 4d e4 bd 69 d2 d1 bd
       0.061405525 0.09595762 -0.1114761 -0.10245211
000320 a4 b5 3b be 98 be ef 3c cf 7e 83 bd bb cc 6f bd
       -0.18331009 0.029265687 -0.06420671 -0.058544856
000330 77 57 6b 3b 6c 87 72 3c bb 7b b1 3d 81 3f 37 bd
       0.0035910287 0.014802795 0.08666178 -0.044738296
000340 a1 32 25 bc 26 09 63 be 08 41 24 be ac 9a d1 3d
       -0.010082872 -0.22171459 -0.16040432 0.102345794
000350 83 1a 86 be a1 67 79 bd 6e 8b 0a 3d 63 7a 3d be
       -0.26192102 -0.060889844 0.033824377 -0.18503718
000360 89 36 87 be 94 14 ed 3d 87 ca 00 3e 5a d1 fb bd
       -0.26408795 0.115761906 0.12577258 -0.1229579
000370 70 f4 fd bd a3 ff 0b be 99 5e 31 bd b2 41 84 be
       -0.124001384 -0.13671736 -0.043303106 -0.25831372
000380 7d 55 83 3d 29 2f f7 bd cb 2d 92 3d 49 f7 c9 bd
       0.0641279 -0.12069542 0.071376406 -0.09861619
000390 29 11 26 be 65 cd 1b be c8 a0 ff 3c 9e 29 15 3e
       -0.16217484 -0.1521507 0.031204596 0.14566657
0003a0 bd 12 41 bd 9b 99 27 3e 6f c3 e8 bd 82 00 db 3c
       -0.04713701 0.1636719 -0.11365401 0.02673364
0003b0 7d 39 07 bd 5e e7 46 3d aa 13 01 be 85 f9 c1 3d
       -0.03301381 0.048560493 -0.12605157 0.0947142
0003c0 9a 27 ee 3d d4 46 a9 bd 68 02 27 3e 2d 70 07 3e
       0.11628647 -0.082654625 0.16309512 0.13226385
0003d0 e8 97 91 3d e5 b6 f5 3d 94 d9 2a 3d 1f 2c 30 3e
       0.07109052 0.11997775 0.041711405 0.17204331
0003e0 1b 4f 08 be 3a 2c 99 3d d8 be 19 be 27 1a 2d 3d
       -0.13311426 0.07479139 -0.15014207 0.04226127
0003f0 bb bd 47 3e d0 a0 f9 bd 35 e1 15 3d ca b1 41 bd
       0.1950597 -0.12188876 0.036591727 -0.047288693

gru.weight_hh_l0 f4 [96, 32]
000000 99 05 e6 bd 97 f7 85 3d 4c e3 83 bd 8a a1 32 be
       -0.112315364 0.06541365 -0.06439838 -0.17444435
000010 93 7d 73 3e 79 96 99 bb d4 58 fb 3c 91 54 9a bc
       0.23778372 -0.004687127 0.030682005 -0.018839153
000020 1a 9c b9 3d 0a 17 fd bd e6 2f ec bd 53 d7 a1 3d
       0.09062977 -0.1235791 -0.115325734 0.07902398
000030 73 c0 87 bd 0a 6d 67 be 2f 8f c0 bc 5a e0 c0 3d
       -0.06628504 -0.22600189 -0.023505775 0.09417792
000040 7e ab 77 bd 39 86 e5 3d 60 06 fd 3c 7e 15 5b 3d
       -0.060466282 0.112072416 0.030886829 0.053487293
000050 97 0b 12 be b9 55 bc 3d 3b 04 82 bd 3f f9 d8 bc
       -0.14262234 0.09196038 -0.06348463 -0.026486037
000060 d2 ac bb bd cb d4 2d bc e5 e7 b7 3c 51 f9 49 be
       -0.09163822 -0.010609816 0.022449443 -0.19724013
000070 df f8 0d 3d f4 45 97 bd 99 63 ac 3c 39 b0 da bd
       0.03466117 -0.073863894 0.021043586 -0.10678143
000080 79 e0 ef 3d 9e 09 6b 3d 7f 83 9e bd 0b a2 b0 3d
       0.11712737 0.05738222 -0.07739925 0.08624657
000090 79 4a 26 3e 26 5f 2a 3d 36 b3 2a 3e d6 26 15 3e
       0.16239347 0.041594647 0.16669926 0.14565596
0000a0 78 be e5 3b cc 8e 3c bd 18 52 6d 3d 6a c3 9a 3d
       0.007011231 -0.04603462 0.05793962 0.075568035
0000b0 24 fb 33 bc 08 b0 17 be b5 32 8a 3d 21 d2 3d be
       -0.01098517 -0.14813244 0.06747953 -0.18537189
0000c0 09 83 81 3d 14 40 eb bc df 7b e0 bd de c3 4a 3e
       0.06323821 -0.028717078 -0.109611265 0.1980128
0000d0 6c bc 84 3d 33 38 21 be 1b 3e c4 bd 74 fc ac 3d
       0.06481251 -0.15744095 -0.09582158 0.08446589
0000e0 02 24 79 bd f7 61 6e bd 14 0b bc bd dd b7 50 3d
       -0.060825355 -0.058198895 -0.091818005 0.050956596
0000f0 e4 81 1e 3e 49 7a 18 3d ec 5c b2 3c 8f 08 b3 3d
       0.15479237 0.037225995 0.021772824 0.08741867
000100 f8 ab f5 3d ed 3f 37 3e df 8b 61 bd 13 47 05 be
       0.11995691 0.1789548 -0.055065032 -0.13015394
000110 86 4c 4d 3c a1 91 40 bc cb 0d 14 bc d0 99 40 be
       0.012530452 -0.011753471 -0.009036492 -0.18808675
000120 35 7e bd bc 09 e1 3d bb 61 c7 67 bd c5 b7 0c be
       -0.02313147 -0.0028973243 -0.056586627 -0.13741978
000130 ec ae e0 bd 8b 2b 48 bc 9c a2 0d be 6a 22 44 3e
       -0.10970864 -0.012217413 -0.13831562 0.19153753
000140 3e d0 57 bd 2e ad 11 3e 41 4c 5a 3a 61 e8 02 be
       -0.05268883 0.14226219 0.0008327403 -0.12783958
000150 6d 08 66 3d 46 d3 fb bd 6a cb 1e be a7 44 bb bd
       0.05616038 -0.122961566 -0.15507284 -0.09143954
000160 04 6a 0a 3d 8c 1a ac 3d de 85 03 be 2e 8a d9 bd
       0.03379251 0.08403501 -0.12844035 -0.10622059
000170 b9 27 ab 3d ee b4 0d bd 80 2a 4c 3e 17 db 58 3e
       0.08357186 -0.034596376 0.19938087 0.21177326
000180 98 81 f5 3d 6c 2d e4 bd 1e 18 0b be fe fb 50 bd
       0.11987609 -0.11141476 -0.13583419 -0.05102157
000190 e9 e5 4e bc d1 73 88 bd 42 1f a2 bd 33 38 01 3d
       -0.012628057 -0.06662715 -0.07916118 0.031547736
0001a0 5f 74 45 be 14 59 cf bb 39 3e 09 be 2b 20 b0 3d
       -0.19282673 -0.0063277576 -0.13402642 0.085998856
0001b0 cd d2 03 be be f4 0e bc 18 f9 0f 3e 5d 93 7c 3e
       -0.12873383 -0.008725343 0.14059865 0.2466559
0001c0 ee be bf bd 4f 98 2e be 29 1e 34 3e b1 5c 10 be
       -0.09362589 -0.17050289 0.1758963 -0.14097859
0001d0 b9 26 a0 3c 1f a6 fe 3d 99 0a 0e be 20 d0 2b bd
       0.019549714 0.12434029 -0.1387123 -0.04194653
0001e0 5e 81 c3 3d 21 ba 1f bb 49 18 85 bc 22 fd ae 3d
       0.09546159 -0.0024372416 -0.016246932 0.08544375
0001f0 46 ec a9 bd 61 dd c0 bd 78 ac fe 3d 89 9f 76 3b
       -0.08297019 -0.09417225 0.124352396 0.0037631711
000200 a8 fa fd bd f6 a7 30 3e 22 c4 2c be ff 75 f2 3c
       -0.124013245 0.17251572 -0.16871694 0.02959728
000210 0c 33 74 bc 62 d5 1a be 9d 34 3a 3c de 81 f1 bb
       -0.014904749 -0.15120462 0.011365083 -0.0073702177
000220 00 9e e4 3d 77 3d ab 3d 15 0a ab bc e0 3e 0b 3d
       0.111629486 0.08361333 -0.02087883 0.03399551
000230 6a 84 e4 bd bf 3d 1e bc fb 9b 4d bd 6e ee 1e bd
       -0.111580685 -0.009658276 -0.050197583 -0.038801603
000240 4f 2c 47 be 2d 23 18 be a4 6c 52 3d 74 44 46 bd
       -0.19450496 -0.14857168 0.05137314 -0.048405126
000250 67 ce e3 bd 8a 74 a8 bc 88 10 00 be 35 57 00 3e
       -0.111233525 -0.020563383 -0.12506306 0.12533267
000260 17 cd 9b bd 7d b7 00 be 91 33 3e bd 69 bb 3e be
       -0.07607477 -0.12569995 -0.046435896 -0.18626179
000270 fa a6 f0 3d ee 8c 54 3a e9 f3 62 3e f4 17 e5 bd
       0.11750598 0.00081081584 0.22163357 -0.11186209
000280 11 22 7e bd 59 ae 4d 3e ca a9 0e 3e 6c 0b 3a bd
       -0.062044207 0.2008604 0.13931957 -0.04542105
000290 ba 5f 17 3e 4b 32 ce bd 21 94 5c 3d 52 44 fd 3d
       0.1478261 -0.10068186 0.053852204 0.12366547
0002a0 0b 5f 9e 3c f1 56 de bc ee fb 96 3d 9d 63 b5 bd
       0.01933243 -0.027141066 0.073722705 -0.0885689
0002b0 1a 2a 2e be 69 85 14 3e f3 47 5d 3e 9d e3 26 be
       -0.17008248 0.14504017 0.21609478 -0.16297765
0002c0 a7 d0 40 be 78 d0 02 be e2 80 8d be e3 b5 a3 bd
       -0.18829595 -0.12774837 -0.27637392 -0.079936765
0002d0 98 70 b0 3d 83 e4 bf bd a0 2f 89 bd ff 4a 91 3d
       0.086152256 -0.09369757 -0.06698537 0.070943825
0002e0 d4 c3 41 3d 7e a3 9e be a9 ba 8e bc 38 a0 48 3e
       0.047305897 -0.3098411 -0.01742299 0.19592369
0002f0 58 e8 5f be f9 96 ea bc 46 65 87 be ed 6e 5c bc
       -0.21865976 -0.028636442 -0.26444453 -0.013454181
000300 c2 7e 69 3d 64 ef 1d 3e e6 cd 62 bd 89 71 c3 bd
       0.05700565 0.15423352 -0.05537214 -0.095431395
000310 3f 64 fa bd ab 36 8b 3b b6 70 23 be d4 71 2a bb
       -0.12226152 0.0042484603 -0.15960965 -0.0026007788
000320 d4 97 03 3e 46 30 51 be db c0 56 be 7a 78 ca bb
       0.12850887 -0.20428571 -0.20972006 -0.0061789127
000330 9b 33 66 3e 56 5c f1 3d 1a eb eb 3c 87 ac aa bd
       0.22480623 0.1178519 0.028798629 -0.08333688
000340 d6 0f 68 3d 6c e0 f8 bb 65 a2 18 3e b3 4c 8b bd
       0.056655727 -0.0075951125 0.14905699 -0.068017386
000350 03 39 b2 bc 14 7b 8e bd 6a 9a 23 be ab 39 89 3d
       -0.0217557 -0.06957069 -0.15976873 0.067004524
000360 b4 fc fe 3d 16 e7 22 3e 6f c2 84 bd a2 d3 9f 3d
       0.12450543 0.15908465 -0.06482398 0.07804038
000370 40 3f 1e 3e 55 a0 8e 3d 2a e0 d0 bd 7b 05 8a bd
       0.15453815 0.06964175 -0.10199006 -0.067393266
000380 76 2c 27 bd 9a a8 8f 3d 3b 5c 08 bd 74 74 c9 3d
       -0.040813886 0.0701458 -0.033291083 0.09836665
000390 c9 9b 18 be dc a1 04 3e 17 11 2b 3d d7 42 52 3d
       -0.14903177 0.1295237 0.041764345 0.051333275
0003a0 c7 72 8c 3d 8e bc 17 3e a4 ba c2 bd b1 87 46 bd
       0.068578295 0.14818022 -0.09508255 -0.04846925
0003b0 a0 29 36 bd 20 42 14 3e 94 9a ea 3a a7 d2 06 bc
       -0.04447329 0.1447835 0.0017898851 -0.008228934
0003c0 9a 21 a2 bd 63 f9 96 bd 21 65 f0 bd 21 05 a3 bc
       -0.07916565 -0.073717855 -0.11738039 -0.019899907
0003d0 a6 d5 01 bc 35 a8 bc bd 95 9c ee bc 9d 51 51 3e
       -0.007924473 -0.092117704 -0.029127399 0.20441289
0003e0 ed 12 df bb 9b 70 17 be dc 72 28 bd 54 57 c7 3d
       -0.006807676 -0.1478905 -0.041125163 0.097334534
0003f0 e8 d5 25 be ce bc 01 bd 1c da a8 3c e9 36 1f be
       -0.1619488 -0.0316742 0.020611815 -0.1554829

gru.bias_ih_l0 f4 [96]
000000 6e 08 0d 3e 99 4d b3 bd 7c 7f 34 3e 87 5b 04 be
       0.13772747 -0.08755035 0.17626756 -0.1292554
000010 8d 1f b3 3d d4 53 80 bc b5 c0 0f be e1 47 67 bd
       0.08746252 -0.015664972 -0.14038356 -0.056465033
000020 06 c1 57 3e 89 97 a1 bd 2e 73 37 bc 0b ca 68 bd
       0.21069726 -0.07890231 -0.011196895 -0.05683331
000030 6e 48 6e bd 52 5e bf 3d 70 1e f3 bd 21 06 ff bc
       -0.058174543 0.09344162 -0.1187104 -0.031130852
000040 d1 41 10 bd 47 94 de bd 85 6a f8 bc 66 16 1d bd
       -0.035219017 -0.108681254 -0.03032423 -0.03835144
000050 f8 83 4b 3c eb 37 d7 bd 56 76 37 3e d7 4d d7 3d
       0.0124216005 -0.105087124 0.17916235 0.10512894
000060 8a e0 93 ba 19 3d d9 bd b8 e7 fd 3d fe 44 88 bd
       -0.0011282128 -0.106073566 0.123977125 -0.06653784
000070 eb 64 fa 3d fb e9 f8 3d 60 5e 9f 3c a9 92 86 3e
       0.1222628 0.12154003 0.019454181 0.26283768
000080 73 cd d3 bd 0a 6d a1 3d f7 87 0d be 9b 75 3c 3e
       -0.10341921 0.07882126 -0.13821398 0.18404238
000090 41 e1 ce 3c f3 77 0f be 49 a9 26 3e 7f dc 8a bd
       0.025253894 -0.14010601 0.16275515 -0.067803375
0000a0 f4 bf 17 bd 2c 60 5c bb 77 34 9a 3e bb 60 11 3e
       -0.037048295 -0.003362666 0.30118152 0.14197056
0000b0 af c2 6f 3d ce 55 c1 3d ba 95 30 bd 1d 68 d0 bd
       0.058535274 0.09440194 -0.04311154 -0.10176108
0000c0 cb 93 90 3d df 89 6f 3e 24 99 90 bd 23 90 22 3e
       0.07059439 0.23392437 -0.07060459 0.15875296
0000d0 79 5d d3 bc 11 e8 ce bd 19 1d 42 3d 2f 47 a6 bd
       -0.025801407 -0.10102857 0.04739103 -0.08119046
0000e0 43 f7 25 3e e6 51 93 bd 1d 46 49 bc 4b 3f f2 bd
       0.16207604 -0.07193355 -0.012284783 -0.118284784
0000f0 ab 9b c7 bc a1 d5 6d 3e 2e 5c ae bd 7a 1b a1 bd
       -0.02436622 0.23226024 -0.08513676 -0.07866569
000100 d2 c5 38 3c fb 05 28 3e 16 6d e6 3c ef c0 06 bc
       0.011277633 0.16408531 0.028128188 -0.00822471
000110 13 fc 68 3d c4 81 55 be b2 7f c5 3d 50 a9 49 be
       0.05688102 -0.20850283 0.096434966 -0.19693494
000120 0f fb be bd 47 27 ab 3c 11 ba 11 3e ee 6e 51 3e
       -0.093252294 0.020892752 0.14231135 0.20452473
000130 9c 80 bf 39 0f ee 8a bd 39 c7 fb 3c 31 29 81 3d
       0.0003652618 -0.06783687 0.030734645 0.06306685
000140 77 a7 65 be 1a 7a 10 be fb b6 bf bc 5d a2 c8 bd
       -0.22427164 -0.14109078 -0.023402682 -0.09796593
000150 ba 02 6a be a4 a0 a2 3d 21 75 e0 3d 74 94 fe bd
       -0.22852603 0.07940796 0.109598406 -0.12430659
000160 39 fc 3d 3c 40 12 ea bb db 7a 67 bd 2e ea 19 be
       0.011595779 -0.007143289 -0.05651365 -0.15030739
000170 f5 6d e0 3d 93 c8 97 bc 28 84 b5 3d cb 7c f8 3d
       0.10958473 -0.018528258 0.088630974 0.12133177

gru.bias_hh_l0 f4 [96]
000000 d6 1e 33 bc b9 c2 3d 3e de 77 5c 3e 3e 6e 7d 3d
       -0.010932645 0.18531312 0.215301 0.061872713
000010 ca 5e b3 bd 8e d2 1a bd b8 51 a1 bd 32 f9 0b 3e
       -0.08758314 -0.037798457 -0.07876915 0.13669279
000020 9b d7 bf bc 6b fb 3e 3e 56 a3 e7 3d c4 3c 81 3d
       -0.023418238 0.18650596 0.11310451 0.06310418
000030 17 0b 53 3d 3b ef 75 3e 26 be d0 bd c1 d0 30 3d
       0.051524248 0.2401704 -0.10192518 0.043167833
000040 5f 5d 1b 3e a9 00 17 3d 30 a1 fc bc f3 90 57 3c
       0.15172337 0.036865864 -0.030838579 0.013157117
000050 29 31 35 3e 92 2d 32 3e 1b 4f 43 3e f9 6a 4c 3e
       0.17694534 0.17400196 0.19073145 0.19962682
000060 b3 8a 88 bd be 05 b7 3d 81 e3 90 3d 4e 1e c3 bc
       -0.0666708 0.08936642 0.07074643 -0.023818161
000070 7f b7 13 bd 9c c1 89 3b 23 90 96 3c b4 3a 57 3e
       -0.036063667 0.0042039882 0.018379277 0.21018487
000080 07 77 93 3b e2 71 72 3e bf b7 cc 3d b7 ad 70 3c
       0.004500273 0.23676255 0.09995984 0.014689854
000090 cc 70 65 3e 53 14 d7 bd 36 97 27 3d 9f 7f 81 be
       0.2240631 -0.105019234 0.04091569 -0.2529268
0000a0 bb 6e c8 bd 88 84 8f bd 22 24 62 3e 40 7c 98 3d
       -0.09786745 -0.070077 0.22084096 0.07445574
0000b0 a3 fa 4c 3e 93 b9 96 bd a5 77 0d be ae b2 f4 3d
       0.20017485 -0.07359614 -0.13815172 0.11948143
0000c0 17 ad 3e 3b 3b 61 70 3d 02 f8 43 be c5 28 6f bd
       0.0029094869 0.058686476 -0.19137576 -0.05838849
0000d0 40 10 74 3c 29 14 f8 bd 70 d3 bf bd 7b d4 18 3e
       0.014896452 -0.1211322 -0.093665004 0.14924805
0000e0 27 0d 2e be de cc a7 3d 56 d7 ec bd 3d fd 0d 3e
       -0.16997205 0.08193372 -0.115645096 0.13866134
0000f0 e1 ae d9 bd 6a 7f f1 3d 27 8c 00 be a9 e2 05 bc
       -0.10629059 0.117918804 -0.12553464 -0.008171716
000100 dd 08 fb bd 74 ee 53 3d 4b 79 ea bd 23 8e d4 bd
       -0.1225755 0.05174108 -0.11448916 -0.10378673
000110 2c f3 a9 3d b2 e0 9e 3d 2c bf 24 3e 7d 07 8e 3b
       0.082983345 0.07757701 0.16088551 0.0043343888
000120 7f 79 0a be 9e 6d d4 bd 76 ad 18 bd e4 45 39 3d
       -0.1352291 -0.1037247 -0.0372748 0.04523267
000130 43 b7 ae bd 0b b0 14 bd ae bf 3d be 65 68 61 3e
       -0.08531048 -0.0363007 -0.18530151 0.2201248
000140 96 44 3a be fd 52 5f bd 2f 4b 67 3e 58 de 17 bd
       -0.18190226 -0.054522503 0.22587274 -0.037077278
000150 94 44 50 3d fa 18 c0 bd 62 c1 45 be aa 8b d4 bc
       0.05084665 -0.09379764 -0.19312051 -0.025945503
000160 e0 eb c6 3d 10 11 c8 bd cf 34 11 3e 20 31 15 be
       0.09712958 -0.097688794 0.14180301 -0.14569521
000170 97 1b 2d 3e f9 d2 8b bd f9 f5 40 3d 76 be 02 3e
       0.16905056 -0.06827349 0.047109578 0.12767968

gru.weight_ih_l0_reverse f4 [96, 32]
000000 bc 42 25 3e a8 ca 1b 3e b0 73 53 bd 56 b4 dc 3d
       0.16138738 0.15214026 -0.051624 0.10776584
000010 4b 57 fa 3c a9 3e 36 3e 68 50 2f 3e c0 36 7b bd
       0.030559203 0.1779734 0.17120516 -0.06133151
000020 f9 68 0c 3d 71 1e 08 bc 8b cd 18 3d a8 c9 fc bd
       0.034279797 -0.008308039 0.037305396 -0.123431504
000030 28 d4 da bd c1 a4 16 3e ef 9a 27 3e 1c 71 b5 3d
       -0.10684997 0.14711286 0.16367696 0.088594645
000040 b1 c5 8f 3d 5b ae 4c 3e 61 25 06 3e 89 25 b6 3d
       0.070201285 0.19988386 0.13100196 0.08893878
000050 c1 d5 1d bd 47 0b 7f 3c 28 ed 1c bd 26 90 22 3d
       -0.03853393 0.015566654 -0.038312107 0.039688252
000060 b6 9e de bd d6 48 d9 3d 24 89 09 3e 5f f6 4e 3e
       -0.108701155 0.106095955 0.13431221 0.2021117
000070 c1 d4 82 3c f6 ea a3 3d cd 49 93 bd 95 a3 bb bd
       0.01597059 0.080037996 -0.07191811 -0.0916206
000080 bc 62 ad bc b0 a4 95 3c 3d 18 7c bd 20 72 66 bb
       -0.021165244 0.018267006 -0.061546553 -0.0035163239
000090 40 91 77 3d 5a b8 52 3e 5d 6e eb bd 5a b9 08 3e
       0.060441256 0.20578137 -0.114956595 0.13351956
0000a0 7e 05 95 bd 0a 0b ca 3d 60 22 e5 bd a1 5d 1a 3e
       -0.07276438 0.09865387 -0.11188197 0.15074779
0000b0 e5 98 d3 3c a2 d5 ab bd 13 f9 ff 3d 97 cc 85 bc
       0.025829742 -0.083903566 0.12498679 -0.016332908
0000c0 c6 89 0b be a9 82 2e be 1e 9d 14 be 8c 68 3a 3d
       -0.13626775 -0.1704203 -0.1451306 0.04550986
0000d0 d3 5c 03 be 00 84 18 3e 36 36 47 3e af a8 e2 3d
       -0.12828378 0.14894104 0.19454274 0.1106733
0000e0 57 f8 b3 3c f6 97 cc 3b c5 a3 6e 3d 89 80 19 3d
       0.021969004 0.006243701 0.05826165 0.037476096
0000f0 53 18 55 bd 13 db 3d 3d b1 90 fb 3d 18 cc 5a be
       -0.05202515 0.046351504 0.12283457 -0.21366918
000100 b4 65 56 bb 9d b8 d8 3d a3 0f 3a 3e 24 61 97 bc
       -0.0032714428 0.10582087 0.18170027 -0.018478937
000110 7b 8a 87 3d 5a 86 43 3e 23 45 c6 3d 0a a6 fa 3c
       0.0661821 0.1909422 0.096811555 0.030596752
000120 03 fb b6 bd ed 27 20 3e fe b1 99 bd 82 36 aa 3d
       -0.089345954 0.1564023 -0.075046524 0.08311178
000130 80 e4 bc bd d2 2d 5f 3e a9 a7 54 3e 30 bb f1 bd
       -0.092232704 0.21794823 0.20767082 -0.11803281
000140 65 89 81 3c 47 c7 46 3e c4 ce b0 3c 53 bb 9e bd
       0.015812585 0.19411956 0.021582969 -0.07750573
000150 cd 31 d0 3d 04 21 3c bc 89 77 28 bd a5 53 6b bd
       0.10165749 -0.011482481 -0.041129623 -0.057452817
000160 55 1f cb 3c d3 18 0f 3e 07 b7 04 3e 76 c7 40 bd
       0.024795214 0.13974313 0.12960444 -0.04706522
000170 c8 3e 09 3e a0 d0 6a 3e bb 79 a9 3d 65 d8 81 3e
       0.13402855 0.22931147 0.08275171 0.25360408
000180 ad f3 09 bd 9b dc 16 3e cf 46 db bd 1e fd dd bc
       -0.033679653 0.14732592 -0.10706865 -0.027098235
000190 fc 97 29 be 99 8d 93 bd 0b 15 8f bd 0b f0 83 3d
       -0.16561884 -0.07204742 -0.069864355 0.06442269
0001a0 13 30 44 3e 98 c7 2e be 2e 21 85 bc cb a7 dd bd
       0.19158964 -0.17068326 -0.016251173 -0.108230196
0001b0 5f 45 85 bd 00 18 29 be 6e c5 85 bd cf e8 cc 3c
       -0.06507372 -0.16513062 -0.06531797 0.025013356
0001c0 54 ed 27 3d 2a 79 f3 bc b7 ff f5 bd e7 c1 f5 3c
       0.040997818 -0.029720861 -0.12011664 0.029999686
0001d0 40 04 8c ba 1d 4d 94 3d d1 f8 f0 3d e8 e9 36 be
       -0.0010682419 0.07241271 0.11766208 -0.17862666
0001e0 fa 5b e8 3d 86 c8 d1 bb 70 9a 2d 3d a8 7f d4 bd
       0.11345668 -0.006402078 0.04238361 -0.10375911
0001f0 c7 af 51 bd ad 69 5f 3d 14 0a af 3d 9a 27 d8 bd
       -0.051193025 0.05454414 0.08546844 -0.105544284
000200 4c 0b 0b 3e 8a fb 18 3e 58 7d 9d 3b 46 94 d4 bd
       0.13578528 0.14939705 0.004806202 -0.103798434
000210 12 ab d2 3d 7e 0e 11 be 88 9c f2 bd fd 31 1c 3e
       0.10286535 -0.14165685 -0.11846262 0.15253444
000220 d2 08 57 3e 16 c7 14 3e 4e 68 d2 bd a1 25 57 3e
       0.20999458 0.1452907 -0.10273801 0.21010448
000230 37 d7 b6 3d 2a f6 ee bd d9 5d 14 be c4 a1 93 3d
       0.08927768 -0.11668046 -0.14488925 0.07208589
000240 c3 95 c6 3d 12 89 7f bd 0e 3e 4f 3e c3 c4 ad bd
       0.096965335 -0.06238658 0.20238516 -0.08484795
000250 17 0b ad 3d 28 8b bb bd 8a 9d 12 3e 4b a4 76 3e
       0.08449381 -0.09157401 0.14317909 0.2408611
000260 da f4 02 bc ad d9 01 3c 33 9a c0 3d 24 fa 98 bc
       -0.0079929475 0.007925433 0.09404411 -0.018673964
000270 ab a1 62 3e af 70 db bd d5 02 09 be d7 95 51 bd
       0.22131984 -0.10714852 -0.13379987 -0.05116829
000280 c3 b4 66 3d 37 4a 05 be 97 45 1b 3e 68 53 1a be
       0.05632473 -0.13016592 0.15163265 -0.1507088
000290 af 09 df 3c 90 8a a2 3d 17 c3 0a bc ef eb d0 bd
       0.027226297 0.07936585 -0.008469365 -0.10201251
0002a0 f2 49 44 be 55 98 4e bd f3 36 38 bd e2 a5 0c be
       -0.19168833 -0.050438244 -0.04497428 -0.13735154
0002b0 2f f6 ab 3d f4 4f dc bd ee c6 bc bd fe c0 8b 3c
       0.08396565 -0.10757437 -0.0921763 0.0170598
0002c0 4c 55 81 3d 98 ad 53 be 60 14 14 3e 4c e8 17 3e
       0.06315097 -0.2067169 0.14460897 0.14834708
0002d0 1d 52 d7 bd cd 7c 24 be c8 bb 37 be 78 68 d2 bc
       -0.10513709 -0.16063233 -0.17942727 -0.02568458
0002e0 4f ee f4 bd 1d c4 96 3d 8f 1c 0d be c7 ab 54 3d
       -0.11959516 0.073616244 -0.13780425 0.051921632
0002f0 1c 7e 3b 3e 1a c0 93 3d b3 74 43 be 3e 99 d8 3c
       0.18309826 0.07214375 -0.19087486 0.02644026
000300 6a b8 a9 3d c7 8f 6d 3d 76 d8 bf bc f0 02 31 bd
       0.08287127 0.057998445 -0.023418646 -0.043215692
000310 82 e7 bb bd c3 c5 92 bd a4 1f 18 3e 2e a8 8b 3d
       -0.09175016 -0.07166626 0.1485582 0.06819187
000320 38 68 d8 bd 46 92 35 bd b1 b6 1d be 3d ea 21 be
       -0.10566753 -0.04432895 -0.15401722 -0.15812011
000330 43 58 85 bd 6e f6 da bd 36 e6 17 3d 38 99 97 bb
       -0.06510975 -0.10691534 0.03708478 -0.0046264194
000340 e2 99 09 3c 39 1a 36 be df 1f 7c bd 67 43 cb bb
       0.008398505 -0.1778344 -0.061553832 -0.0062031033
000350 b7 98 68 3d e4 ca 02 be 7c ab 01 3d 4c 14 43 3d
       0.056786265 -0.12772709 0.03165768 0.04762678
000360 64 33 e7 bd b8 bc cc bd ea 6b aa 3d 0f f7 a7 bd
       -0.11289099 -0.09996933 0.08321364 -0.082014196
000370 62 6e a9 bc d8 6f 8f 3c 4d b6 1f 3d f9 38 27 bc
       -0.020682517 0.017509386 0.038992215 -0.010206454
000380 e1 bc f5 3c 52 c2 75 3e cd 00 4a 3d 0f d9 e4 3d
       0.029997291 0.23999909 0.04931717 0.11174213
000390 17 0d e8 3d 2f 40 5e bd 48 2e bf 3d 0e 43 d5 3d
       0.11330622 -0.05426043 0.09334999 0.1041318
0003a0 8e 2c b9 3d 4e 5e 2d 3e e1 26 c0 bd 5a 16 77 3d
       0.09041701 0.16930506 -0.093824156 0.06032405
0003b0 c0 1e a0 bd 32 ab aa ba 37 fb 68 3e 3b a5 a0 bd
       -0.07818365 -0.0013020991 0.22752081 -0.07844015
0003c0 6e 7c 2f 3e 53 88 98 3c 58 0f 17 3e 68 f4 7e 3e
       0.1713731 0.018619692 0.14751947 0.24897921
0003d0 13 48 09 3e f9 d6 b6 3c 90 c1 1c bd 34 14 11 3e
       0.134064 0.022319304 -0.038270533 0.14167863
0003e0 a1 14 a4 3d 53 11 75 bb de f4 3c 3e e6 fd be 3d
       0.08011747 -0.003739436 0.18452784 0.09325771
0003f0 35 09 1e bc 57 fb a5 bd 85 20 52 3c 17 65 76 3e
       -0.00964575 -0.0810458 0.012825136 0.24062

gru.weight_hh_l0_reverse f4 [96, 32]
000000 7d 9f 53 3e 22 4f 06 3e 67 4e 12 3d e7 9f fb 3d
       0.20666309 0.13116124 0.0357193 0.12286358
000010 4f 4b 35 3e 9b 2b 24 be 32 98 41 3c 9c 6b c7 3d
       0.17704509 -0.16032259 0.011816071 0.09737322
000020 dd 68 33 3c 4b 5f 46 bd 47 41 49 be d2 e1 39 3e
       0.010950294 -0.048430722 -0.19653808 0.1815255
000030 ec a5 95 3d 94 4d 91 3d 78 81 97 3d ed dd 3f bd
       0.07307038 0.07094875 0.07397741 -0.046842504
000040 b7 4e 4f bd 66 57 2b 3e 41 c3 01 be 2a b9 39 bc
       -0.050612178 0.16732559 -0.1267214 -0.01133565
000050 ab 5a 9c 3d 19 6f fe 3d 77 4d 94 3d 32 a0 3e be
       0.07634481 0.12423534 0.07241338 -0.18615797
000060 b1 f3 9f bd 3e 7d b6 3d ae cd b7 3d 0a df 71 3d
       -0.07810152 0.08910607 0.08974777 0.059050597
000070 df ca db bd 78 d9 26 3e 5a 5b 46 3e 02 d7 20 3e
       -0.10732054 0.16293895 0.19370785 0.15707019
000080 68 f6 b5 3d 6b c4 41 3e 61 4e 6f bd a7 f0 38 3e
       0.08884889 0.18922584 -0.058424357 0.18060552
000090 26 11 31 3e e8 5f d7 bd 15 21 52 bd 60 4e 44 3c
       0.17291698 -0.105163395 -0.05130108 0.011981577
0000a0 2f bd 48 be a9 96 0a 3e 79 5c 66 be dd 9e 8e 3d
       -0.19603418 0.13534035 -0.22496213 0.069638945
0000b0 3d 35 0a 3d 72 0b c7 3d 28 82 4f be 75 d3 66 3e
       0.03374218 0.0971898 -0.20264494 0.22541602
0000c0 19 ca 71 3d 59 3d cc bb 98 29 3d be 24 59 6e be
       0.059030626 -0.006232899 -0.18472898 -0.23276192
0000d0 c6 dc 71 be d3 3a 0a 3e 18 b2 5e bd 3c ef 2d be
       -0.23619375 0.13499002 -0.054369062 -0.16985792
0000e0 8f e8 87 bc a5 e6 23 be e5 66 e5 3d 55 1b b0 bd
       -0.016590385 -0.16005953 0.11201266 -0.08598963
0000f0 3f 8b 8d bd 3f ea 06 3e f6 5d 6d 3e 0b fc 74 3d
       -0.06911325 0.13175295 0.23180375 0.05981068
000100 fd 0d 4d 3d 79 4d 05 be 22 31 02 bd a0 b4 11 be
       0.05006217 -0.13017835 -0.031785138 -0.14229059
000110 c8 d9 a2 3d 63 fb 06 3e 52 ce 35 bd 64 98 c9 bb
       0.07951695 0.13181834 -0.044386216 -0.0061521996
000120 1f e4 44 be 9b 64 bf 3d 76 00 16 be ee db bb 3d
       -0.19227646 0.09345361 -0.14648613 0.09172808
000130 20 5e b1 3d 04 11 0d be 49 4d 44 be 17 74 a5 bd
       0.08660531 -0.13776022 -0.19170107 -0.08078783
000140 c0 88 15 3b 69 b6 3b bd f4 a9 04 3e 9f 8d eb bd
       0.0022817105 -0.045828257 0.12955457 -0.115016215
000150 b5 52 fc 3d 9f 25 49 3e 32 94 ae bd 38 ab 19 3d
       0.123204626 0.19643258 -0.0852436 0.037516803
000160 43 e9 23 be 3c b6 2a be 91 5f bf bd 46 b7 25 3d
       -0.16006951 -0.1667108 -0.093444 0.040457986
000170 dd ad a1 3d a5 de 83 3d ce f0 9a bd 91 1b 09 bd
       0.0789449 0.064389504 -0.07565461 -0.033473555
000180 9f 7e 66 3e 0b 72 d9 3d 6e ac 5e be 4d e1 5f bd
       0.2250924 0.10617455 -0.21745464 -0.054658223
000190 c9 d6 0e bc ca b5 3a bd 53 d0 4a 3e 51 15 01 be
       -0.008718201 -0.045583524 0.19806032 -0.12605788
0001a0 13 2a 11 be 5a 61 1b bd e6 c5 ab 3c f3 ec 14 3e
       -0.14176206 -0.03793464 0.020968389 0.14543514
0001b0 af 2a 4f bd 96 35 0e 3e d8 3e 7e be 26 bc 13 3d
       -0.050577816 0.13887629 -0.2482866 0.036068104
0001c0 60 89 94 3d f1 6f 31 bd 17 f4 aa 3c eb 14 db bd
       0.07252765 -0.043319646 0.020868344 -0.10697349
0001d0 7a 8f d9 3c eb 4e 46 3d 14 28 1f 3d 32 51 a9 3c
       0.026557673 0.048415106 0.03885658 0.0206686
0001e0 0c 6c 09 3e c9 d2 33 be 46 ab 19 be 72 77 d6 bc
       0.13420123 -0.17560877 -0.15006742 -0.026180003
0001f0 90 a2 18 3d b7 36 14 3e a3 0b 85 3c 27 ab 5b 3e
       0.037264407 0.14473997 0.0162409 0.21452008
000200 b1 cd cf 3d f6 04 a2 bd d7 f1 bb 3d 51 bd eb 3d
       0.101466544 -0.079111025 0.09176987 0.115107186
000210 53 6e 9a bd 28 1e e9 bd ec 9d 90 3d 94 dd 4a be
       -0.07540574 -0.11382705 0.07061371 -0.19811088
000220 d9 04 b4 3d 3a 33 2d 3e b6 d4 89 bb ea 79 fc 3b
       0.08789987 0.16914073 -0.0042062653 0.007704963
000230 8e 5b 46 be ec c2 19 3d 24 39 b2 3c b1 32 c0 3c
       -0.19370863 0.037539408 0.021755762 0.023461672
000240 ed 1f 3b 3e da e8 7a bc 09 db b6 bd 28 0a 46 bd
       0.18273897 -0.015314305 -0.089284964 -0.04834953
000250 d7 50 7f bc 46 a1 e2 3c c3 df 06 3d 4d 84 d8 bd
       -0.015583239 0.027664792 0.03292824 -0.10572109
000260 fc b3 7b bd 69 30 26 bc 66 ac 57 3d 78 78 64 bd
       -0.061450943 -0.010143378 0.052654646 -0.05577895
000270 35 46 84 3c 2d 6c 5a bd 17 3e aa 3d 18 cb 3d 3d
       0.016146759 -0.05332582 0.08312624 0.046336263
000280 bc f9 fd 3d 83 57 32 3d ee 00 bf 3d 3d 14 61 3e
       0.12401149 0.04354049 0.09326349 0.21980377
000290 92 e4 88 bd 7b 70 1f 3d c1 51 dc 3d 4a 07 12 bd
       -0.06684221 0.03892563 0.10757781 -0.035651483
0002a0 f5 55 c3 3d bd 3b 9e 3d 27 09 a8 bd dc 69 c1 3d
       0.095378794 0.07726238 -0.08204871 0.09444019
0002b0 2d 85 21 3d 09 db ee bd fe c9 53 bd ae 1f 31 3e
       0.039433647 -0.116628714 -0.051706307 0.17297241
0002c0 5f 04 04 bd 70 69 a6 3a 9c f2 88 3d 38 2e fb bd
       -0.03223073 0.0012696218 0.06686899 -0.12264675
0002d0 23 59 65 3d 26 96 87 bd 22 d8 b0 3d 57 b1 a7 bc
       0.05599321 -0.066204354 0.08634974 -0.020470304
0002e0 46 ed 73 3d f6 78 89 3d 40 29 50 be 44 b5 b1 3d
       0.059552453 0.067125246 -0.20328236 0.08677152
0002f0 cc 35 be 3d d9 6a de bd 03 ff 0c 3e e9 ad 18 3d
       0.09287605 -0.10860223 0.13769154 0.03727523
000300 12 50 d2 3d f3 27 a6 3c 09 24 a2 3c ba c1 d6 3b
       0.102691785 0.020282721 0.019792574 0.0065538557
000310 dd 99 28 bd e2 73 5b be 6b bf d9 3d c5 2e 50 be
       -0.04116236 -0.21430925 0.10632213 -0.20330341
000320 ec 16 88 bc e2 f8 f4 bd e9 29 0e be 67 1a f2 3d
       -0.016612493 -0.11961533 -0.13883175 0.11821442
000330 f3 66 e2 bb ac 29 03 be 80 84 67 be b5 2a bf bd
       -0.006909245 -0.12808865 -0.22609138 -0.093343176
000340 1e e9 ac 3d ee a7 04 3e da ba 53 bd 64 55 40 3d
       0.08442901 0.12954685 -0.051691867 0.046956435
000350 96 c0 d6 3c 79 ea 19 3e 28 20 88 bd 55 da 99 3d
       0.026214879 0.1503085 -0.06646758 0.07512347
000360 e4 81 12 3e 18 b1 6d 3d 55 d8 9f 3d b4 08 af bc
       0.14307362 0.058030218 0.07804934 -0.021366455
000370 8a 81 2d bd 57 ca c2 3d 8c ae 34 3c 0d 6c 77 bc
       -0.042359866 0.095112495 0.011027943 -0.015101445
000380 ee bb b6 bc 49 e1 cb 3d 63 76 10 3e c5 6b 80 bd
       -0.022306409 0.09955079 0.14107661 -0.062705554
000390 3b 86 05 be 32 b8 cb 3d 50 30 3d 3e 1a 82 70 3d
       -0.13039486 0.09947242 0.18475461 0.058717825
0003a0 f7 45 95 bd 0b 27 2f 3e 53 86 39 be 6a 6b e1 3c
       -0.07288735 0.17104737 -0.18117647 0.02751704
0003b0 d1 9b 74 bd 71 20 e8 3c 3a 78 b5 bd be af 2b be
       -0.05971891 0.028335782 -0.08860822 -0.16766259
0003c0 e9 86 05 be 5f 3b 81 bd 5a 0f c7 bd 3a 2b 34 3d
       -0.13039745 -0.06310152 -0.09719725 0.043986537
0003d0 c9 2b 83 bd 54 2c 1c 3d f6 d7 39 bd 30 9c 2f be
       -0.06404836 0.038128212 -0.045371972 -0.17149425
0003e0 f9 14 c4 3d 4f 4f e0 3d bb c4 56 3d 71 5c 85 bd
       0.09574313 0.10952627 0.05243371 -0.065117724
0003f0 c5 d1 6d 3c bc 2f 13 bd 5d ad 94 3d 6b 52 f9 3d
       0.014515345 -0.035934195 0.07259629 0.12173923

gru.bias_ih_l0_reverse f4 [96]
000000 a3 39 88 3d 59 61 3d 3e 06 90 27 3e b5 7d 01 3e
       0.06651618 0.18494166 0.16363534 0.1264561
000010 db 68 5f 3d 88 31 01 be b6 36 2c bd a9 18 aa bd
       0.054543357 -0.12616551 -0.042044364 -0.08305485
000020 9f b4 f4 bd b0 41 50 3e 66 80 17 3d 8d 68 df 3d
       -0.11948513 0.20337558 0.036987685 0.10908613
000030 40 0a 1c 3d ed 66 f1 ba 4a db e8 3b b7 39 4e 3d
       0.038095713 -0.0018417515 0.0071062194 0.05034801
000040 f7 16 5a 3d 83 c6 83 3d 72 f4 3e 3e 3b 81 9f bd
       0.053244557 0.064343475 0.18647936 -0.07788321
000050 7e b0 46 3d 41 15 52 3e 23 6d 1d bd 0c dd 04 3e
       0.04850816 0.2051592 -0.03843416 0.12974948
000060 4f 0e 5f 3d a5 8f 15 be 72 84 b3 3d 39 93 45 bc
       0.054457005 -0.14605577 0.08765496 -0.012059026
000070 71 62 60 3d 8b 11 e4 bd 01 f7 05 bd 00 d0 49 3e
       0.05478138 -0.111361586 -0.032706264 0.19708252
000080 9d e7 23 be 5d 31 57 3e b3 3a a1 bd 36 bb 9b 3d
       -0.16006322 0.21014924 -0.07872524 0.07604067
000090 40 f7 56 3e fb 32 ec bd 6d 1f 69 3e bc 1c c7 3b
       0.20992756 -0.11533161 0.22765894 0.0060764235
0000a0 0c e2 1d bd a9 70 33 3e 9b 50 50 3c 23 a7 c2 bc
       -0.038545653 0.17523445 0.01271453 -0.023761338
0000b0 68 65 3b 3e a4 ca ec 3a b3 35 10 3e ad c9 a1 3b
       0.18300402 0.0018065763 0.14082985 0.0049373717
0000c0 37 fb f7 bc 7c b3 b1 3d 1d ef 2f bd 4e 31 a6 bd
       -0.030271156 0.08676812 -0.042952646 -0.08114873
0000d0 be 69 82 3e 83 c4 51 3d 6a 59 87 bc 65 8a 75 3e
       0.254713 0.0512128 -0.016522128 0.23978575
0000e0 b4 2a 00 3e 91 6d e0 bc 90 f5 03 3d 8b 74 a3 bd
       0.1251629 -0.027395995 0.03221661 -0.07981213
0000f0 75 bd 20 3d 48 37 7c 3e 45 de d8 3d a1 30 48 3e
       0.03924318 0.24630463 0.105892695 0.195498
000100 7b 79 66 3e 4e f5 25 3e bc 2c a7 bd 2c ec 3f 3e
       0.22507279 0.16206858 -0.08162829 0.18742436
000110 6d dd f6 3d 41 2c 91 bd 7f 22 23 3e 7c 44 1a 39
       0.12053952 -0.07088519 0.15931128 0.00014712097
000120 d5 ef 27 be bf 9f f8 3d da 15 31 be a9 b1 9f 3d
       -0.16400082 0.12139844 -0.17293492 0.07797558
000130 3e 04 a2 bd 61 cc 8e bd 75 01 cc bd 6c f1 d2 3d
       -0.079109654 -0.06972576 -0.099612154 0.10299954
000140 3d ce b1 3d a1 40 08 3e e0 e3 ca bd 09 6a 23 be
       0.08681915 0.13305904 -0.09906745 -0.15958418
000150 07 5f a8 bc b2 48 78 3d 0a a3 53 be 4b 5d 2f be
       -0.020553125 0.060616203 -0.20667663 -0.17125432
000160 3e d1 45 3d ce 61 2c be 2d f7 da 3d ec 12 2a be
       0.048295252 -0.16834185 0.10691676 -0.1660878
000170 3c 67 f7 3d 75 55 e3 3d e7 69 63 3d f5 6f cf 3d
       0.12080237 0.11100284 0.05552092 0.10128776
