logs/exp0/weights/epoch30.pt (torch, 348934 bytes, 45 tensors)

conv_block1.0.weight f4 [32, 4, 10]
0.05457616 -0.15584232 0.13958034 0.01674038 0.034705434 0.12088617 -0.011333811 -0.11083198
0.13622148 -0.08946195 0.07925106 -0.05849726 0.027750295 0.06371247 -0.06369893 0.113586724
0.08179408 0.02918597 -0.020387173 -0.04756033 -0.120004945 0.07814283 0.03343007 -0.0251425
0.034692626 -0.0981512 0.05491497 0.08483223 -0.15787199 -0.023074342 -0.1458503 0.086954415
0.03491474 -0.03559874 -0.04198548 -0.08488373 -0.07106181 0.05599488 -0.011227125 0.031974625
0.0022442278 -0.060867682 0.066088334 -0.086119905 0.029580083 0.17958452 -0.0642409 0.010566579
0.13501923 0.012921169 0.09052847 0.08300767 -0.14493789 0.10986408 -0.15229742 0.0071503753
-0.015875407 -0.05411402 -0.0062984983 0.042952515 -0.10781658 -0.004498662 -0.044833306 -0.03957715
-0.049639717 -0.024064709 -0.07522404 0.097000636 -0.11594669 0.022686254 0.10523982 0.061082676
0.033930503 -0.049597837 -0.041902296 -0.0034427487 -0.08915624 0.00312714 -0.060351595 0.08520273
0.050910383 -0.108501196 -0.10608856 -0.08725756 0.14988641 -0.09827932 -0.07494835 0.12915911
-0.14150898 -0.011307066 0.051835727 0.04323159 0.010132479 0.06929121 -0.024038553 0.099492006
0.14692324 0.1296056 0.15503433 -0.04973343 0.08125838 -0.105727494 0.07245612 -0.114158735
0.013669415 0.10573346 0.13932988 -0.051651727 0.03744903 -0.021411238 -0.112349324 -0.12993957
0.08767582 0.047237556 -0.049548503 -0.106546134 0.05475725 0.010723213 -0.032845095 0.008824983
0.063337564 -0.09225242 -0.03929577 -0.0417527 -0.019418055 0.059454042 -0.063397504 -0.11960577
0.06358383 0.043637887 -0.037757814 -0.13554907 -0.14306074 -0.14046511 -0.09724729 -0.07135534
0.06703871 -0.04059763 -0.081112176 0.066055045 -0.03315517 -0.011650843 0.032408416 0.14357553
-0.09393082 0.09379114 0.13355309 -0.050841294 0.12358662 0.0076468363 0.056729544 0.06200114
0.09508337 0.023745771 -0.04633354 0.06445893 0.08866786 0.073673666 0.07867501 0.09731046
-0.033124857 -0.0058092233 0.024525436 -0.03670763 -0.018037632 0.1202717 -0.06584097 -0.027186284
0.053343594 -0.027386751 0.07656594 0.06492125 -0.034656413 0.10938975 0.0070798406 -0.0994184
-0.0006942275 0.11039494 -0.13895418 0.11788073 -0.09630311 0.060615685 -0.18693168 0.05988522
-0.017546002 0.03391474 -0.17519057 0.09384814 -0.11068245 0.056478914 0.048184447 -0.03745861
-0.099835426 -0.035842784 -0.1513887 0.0007506189 0.085434966 0.074689254 -0.14544821 0.07834458
0.072486654 0.10401993 -0.033132862 -0.061597716 0.049229015 -0.12956516 0.14199904 0.16579157
-0.16219552 -0.075401746 0.07042148 0.02219069 -0.15101136 0.042523775 0.047536213 0.12835774
-0.041645236 -0.09537417 0.13314675 -0.1163942 -0.02100334 -0.05728039 0.07628043 -0.06534423
-0.16341825 -0.10405993 0.011737186 -0.18946354 -0.119026154 0.040803302 0.067057855 0.024295643
-0.08968164 0.05950631 0.086099975 -0.018359473 -0.08184706 0.09075193 -0.01572737 0.052338053
0.12503213 0.06642436 0.0452222 0.048691485 -0.06528201 0.18492423 0.0697681 0.13187821
0.11346767 0.10630667 -0.02648204 0.031343974 0.052386303 0.006002734 -0.08853747 -0.054155644
00000000: 408b 5f3d 2195 1fbe 26ee 0e3e 1f23 893c
00000010: 4927 0e3d 2b93 f73d 73b1 39bc e1fb e2bd
00000020: a57d 0b3e d437 b7bd 614e a23d d39a 6fbd
00000030: 9654 e33c af7b 823d 9674 82bd 28a0 e83d
00000040: a883 a73d 6a17 ef3c 0003 a7bc 9fce 42bd
00000050: 27c5 f5bd 5909 a03d f8ed 083d a5f7 cdbc
00000060: db19 0e3d 7f03 c9bd 85ee 603d 85bc ad3d
00000070: 32a9 21be 6706 bdbc c859 15be 2815 b23d
00000080: c202 0f3d fccf 11bd f7f8 2bbd 85d7 adbd
00000090: db88 91bd e35a 653d faf1 37bc d3f7 023d
000000a0: e513 133b 6450 79bd 5259 873d a25f b0bd
000000b0: ee51 f23c 01e5 373e bc90 83bd 721f 2d3c
000000c0: 7b42 0a3e 50b3 533c fe66 b93d edff a93d
000000d0: 996a 14be 6b00 e13d dbf3 1bbe b24d ea3b
000000e0: 240d 82bc aaa6 5dbd a263 cebb faee 2f3d
000000f0: f0ce dcbd 8369 93bb 21a3 37bd a61b 22bd
00000100: 0453 4bbd 5a23 c5bc 100f 9abd 45a8 c63d
00000110: 7575 edbd 86d8 b93c fa87 d73d d431 7a3d
00000120: b6fa 0a3d 1a27 4bbd bea1 2bbd bd9f 61bb
00000130: 8c97 b6bd b4f0 4c3b 3c33 77bd c57e ae3d
00000140: 6887 503d e035 debd f544 d9bd 17b4 b2bd
00000150: d37b 193e ab46 c9bd 857e 99bd 4942 043e
00000160: bbe7 10be 4641 39bc b351 543d 9c13 313d
00000170: b202 263c 8de8 8d3d 80ec c4bc 77c2 cb3d
00000180: 0c73 163e 55b7 043e 52c1 1e3e 48b5 4bbd
00000190: cb6a a63d a887 d8bd e063 943d 0ecc e9bd
000001a0: aff5 5f3c c98a d83d 7eac 0e3e c390 53bd
000001b0: 2764 193d 9f66 afbc 6717 e6bd e10e 05be
000001c0: 618f b33d 2b7c 413d 5ff3 4abd dc34 dabd
000001d0: 2349 603d 6ab0 2f3c 9488 06bd a996 103c
000001e0: 20b7 813d d6ee bcbd 9af4 20bd e104 2bbd
000001f0: 9d12 9fbc 1586 733d 8dd6 81bd dff3 f4bd
00000200: 3d38 823d a4bd 323d f0a7 1abd 60cd 0abe
00000210: 847e 12be 16d6 0fbe 9629 c7bd c022 92bd
00000220: 974b 893d b349 26bd 241e a6bd de47 873d
00000230: b7cd 07bd 2de3 3ebc b0be 043d 7705 133e
00000240: cd5e c0bd 9215 c03d 24c2 083e f63e 50bd
00000250: fb1a fd3d 5092 fa3b 3d5d 683d e8f4 7d3d
00000260: 12bb c23d 7e86 c23c 3dc8 3dbd 0b03 843d
00000270: 7f97 b53d 38e2 963d 5d20 a13d b54a c73d
00000280: eead 07bd 4c5b bebb 91e9 c83c bd5a 16bd
00000290: a8c3 93bc 0251 f63d a1d7 86bd c5b5 debc
000002a0: d07e 5a3d 2e5a e0bc 9bce 9c3d 6ff5 843d
000002b0: e2f3 0dbd bc07 e03d 02fe e73b e09b cbbd
000002c0: d2fc 35ba be16 e23d 014a 0ebe 746b f13d
000002d0: 913a c5bd 2748 783d 056b 3fbe 344a 753d
000002e0: a2bc 8fbc 2fea 0a3d 2865 33be 7433 c03d
000002f0: 7bad e2bd 6f56 673d 0e5d 453d 336e 19bd
00000300: 8476 ccbd e2cf 12bd a405 1bbe 2fc5 443a
00000310: 87f8 ae3d aef6 983d 60f0 14be 2073 a03d
00000320: e273 943d 6708 d53d 53b6 07bd e34d 7cbd
00000330: 5da4 493d bbac 04be 3268 113e 44c5 293e
00000340: 9516 26be 3b6c 9abd 2339 903d 40c9 b53c
00000350: b9a2 1abe 692d 2e3d 55b5 423d 3670 033e
00000360: 3294 2abd 8853 c3bd 9f57 083e 1560 eebd
00000370: 320f acbc d89e 6abd ea38 9c3d 32d3 85bd
00000380: 1d57 27be 5f1d d5bd 544d 403c bb02 42be
00000390: fcc3 f3bd 5d21 273d a155 893d a807 c73c
000003a0: 02ab b7bd e3bc 733d 2f55 b03d 9b66 96bc
000003b0: 6e9f a7bd 26dc b93d afd6 80bc 6d60 563d
000003c0: 6c08 003e 7f09 883d ea3a 393d b970 473d
000003d0: 93b2 85bd c75c 3d3e 94e2 8e3d 150b 073e
000003e0: bd61 e83d 50b7 d93d ddf0 d8bc 8a62 003d
000003f0: 0593 563d 95b2 c43b 2253 b5bd 4fd2 5dbd

conv_block2.0.weight f4 [32, 32, 10]
-0.00036381322 -0.025614014 0.019113982 -0.046658207 0.025152976 0.01529367 0.010008682 0.118392155
0.0871933 0.089909226 0.07680393 0.12589549 0.14055419 0.016239287 0.039151926 0.08562825
0.06603914 0.09395815 0.060432885 -0.02740525 -0.028799685 0.017408438 -0.05146384 0.023516364
-0.024420418 0.068435356 0.063145615 -0.051497884 0.0029620528 -0.08917153 -0.0938985 0.042228688
-0.008306711 -0.064859256 -0.055431176 0.07344095 -0.040534083 -0.07763922 -0.068782836 0.014792396
0.04407364 0.015754646 0.121507056 0.09665575 -0.061605442 0.115366586 -0.027560737 0.086587965
-0.0073020263 0.060852487 -0.024255695 0.013872328 0.005367385 0.10476154 -0.055069633 0.054843057
-0.034888238 0.010124966 0.10285915 0.108718246 0.042480092 0.054268852 0.0949963 0.17209847
0.19430195 0.078140505 0.07724959 0.16454089 0.024144944 0.039948575 0.15581161 0.01700078
0.0011144457 0.014136292 0.02020711 0.08348 0.06418739 0.097344525 0.11994075 0.14486799
0.021364845 0.08272084 0.044906605 -0.0036200606 0.05092338 -0.049054023 -0.02751042 -0.0006389356
0.01807344 -0.032279972 0.031053195 0.021291433 0.057195984 -0.059329506 -0.11595394 -0.12503561
-0.106928185 0.009566141 -0.11631041 0.035664152 0.076280795 0.070086494 0.106788754 -0.01972294
0.10637796 -0.04088575 0.06473525 0.11074299 -0.05895992 0.09725171 0.01774668 -0.08420781
0.07761091 0.08089856 0.0841843 0.049419213 -0.030059159 0.09878001 -0.066860735 -0.033314783
-0.087046005 -0.022409795 -0.024705967 0.03790966 -0.10040394 -0.12239244 0.01620765 0.03951843
-0.0133092785 -0.12586248 -0.112549804 -0.09116137 -0.08764096 -0.0967918 -0.13883214 -0.06515596
-0.08839146 0.0109439315 -0.039447267 -0.1352609 0.052059926 0.028975038 0.08161783 0.12176055
0.08489696 0.05422523 -0.057187792 0.06642866 -0.019446038 0.10069235 0.085255295 0.08467304
-0.074560896 0.02169257 0.05619271 0.062408593 -0.049320925 0.010831123 0.09654011 0.02326181
0.051303543 -0.080967836 -0.067906395 -0.012191205 0.10882565 0.046143413 0.062278382 -0.054836642
0.058450382 -0.043151565 -0.0051401537 0.13302207 0.15150589 0.09220309 -0.008695154 0.16152993
0.02504002 0.04466429 0.089216255 -0.017199883 -0.02704901 -0.0019945672 -0.11340461 0.032654826
0.027409414 -0.089010164 -0.023516541 -0.08727679 -0.012279914 -0.030330421 -0.012095482 0.11513768
-0.028282033 0.019482663 -0.050609358 -0.014923398 0.043732584 0.10610988 0.002028583 0.009800864
-0.040353358 -0.017087655 0.009614001 -0.046883132 -0.04542372 -0.060282115 -0.04771968 0.038626794
-0.011824976 -0.022032186 -0.04793017 0.06183624 -0.055613652 -0.048949495 -0.05623913 -0.056338713
-0.02106824 0.11653449 0.0068133054 -0.08165443 0.034156706 0.03938737 0.052900348 0.13229483
-0.015015869 -0.02792697 0.117833845 0.06035654 0.14302371 0.04016684 0.027326277 0.07787556
0.085286595 0.14835703 0.019213818 0.012670492 0.15110259 0.14417726 0.12340079 0.03436073
0.037771273 0.09953743 -0.06889203 -0.03299467 -0.039697513 0.06870712 -0.07591366 -0.026364272
0.091024294 0.00078059966 -0.06304539 -0.11880454 -0.021050127 -0.12054193 -0.10693209 0.04028686
00000000: 2fbe beb9 7bd4 d1bc ed94 9c3c ad1c 3fbd
00000010: 9d0d ce3c 4d92 7a3c 74fb 233c 9677 f23d
00000020: 6792 b23d 5422 b83d 614b 9d3d bfea 003e
00000030: 70ed 0f3e 4108 853c c55d 203d dd5d af3d
00000040: 873f 873d 216d c03d 7988 773d fa80 e0bc
00000050: 51ed ebbc 249c 8e3c bfcb 52bd 64a5 c03c
00000060: 540d c8bc d627 8c3d 7d52 813d 72ef 52bd
00000070: 001f 423b 909f b6bd db4d c0bd fdf7 2c3d
00000080: df18 08bc eed4 84bd cd0b 63bd 3568 963d
00000090: 1107 26bd 5001 9fbd 04de 8cbd ce5b 723c
000000a0: 9086 343d e30f 813c b1d8 f83d 73f3 c53d
000000b0: fd55 7cbd 5145 ec3d 0ec7 e1bc 0855 b13d
000000c0: d645 efbb 7540 793d e1b3 c6bc c348 633c
000000d0: e4e0 af3b 388d d63d b290 61bd 1da3 603d
000000e0: f8e6 0ebd 2fe3 253c d1a7 d23d aca7 de3d
000000f0: 9bff 2d3d 0449 5e3d 6c8d c23d 953a 303e
00000100: 17f7 463e 2108 a03d 0835 9e3d 687d 283e
00000110: 9ecb c53c 1ea1 233d 148d 1f3e 3845 8b3c
00000120: 9812 923a e89b 673c 6289 a53c 90f7 aa3d
00000130: ae74 833d 915c c73d 7fa3 f53d 4658 143e
00000140: 5405 af3c 8b69 a93d fdef 373d 8a3e 6dbb
00000150: 0995 503d dfec 48bd 885d e1bc 3e7e 27ba
00000160: c00e 943c 0138 04bd 4563 fe3c 5f6b ae3c
00000170: 5646 6a3d 7f03 73bd 4279 edbd 5609 00be
00000180: 2afd dabd 4ebb 1c3c 2734 eebd 9314 123d
00000190: 1b39 9c3d 8289 8f3d 10b4 da3d 0192 a1bc
000001a0: b0dc d93d d177 27bd ea93 843d 39cd e23d
000001b0: f57f 71bd e82b c73d 7c61 913c 2575 acbd
000001c0: 78f2 9e3d 25ae a53d d168 ac3d cd6b 4a3d
000001d0: a03e f6bc 2d4d ca3d 48ee 88bd 1575 08bd
000001e0: 2d45 b2bd bf94 b7bc 2b64 cabc 2947 1b3d
000001f0: 95a0 cdbd e3a8 fabd e8c5 843c 14de 213d
00000200: 290f 5abc 18e2 00be 8380 e6bd d0b2 babd
00000210: 1b7d b3bd c73a c6bd 032a 0ebe 7d70 85bd
00000220: 9506 b5bd 2d4e 333c 7593 21bd d581 0abe
00000230: ca3c 553d 0f5d ed3c 4027 a73d 985d f93d
00000240: 75de ad3d 461b 5e3d bf3d 6abd c00b 883d
00000250: 4c4d 9fbc ca37 ce3d 549a ae3d 0f69 ad3d
00000260: 62b3 98bd 9eb4 b13c 542a 663d 27a0 7f3d
00000270: bd04 4abd 0675 313c d2b6 c53d 8d8f be3c
00000280: aa23 523d 77d2 a5bd 8212 8bbd 9fbd 47bc
00000290: fbdf de3d e000 3d3d 9e17 7f3d 639c 60bd
000002a0: ab69 6f3d b2bf 30bd bc6e a8bb f036 083e
000002b0: 5c24 1b3e f9d4 bc3d 1f76 0ebc 1a68 253e
000002c0: ba20 cd3c e7f1 363d 03b7 b63d c5e6 8cbc
000002d0: e395 ddbc 49b7 02bb ad40 e8bd 11c1 053d
000002e0: b589 e03c f64a b6bd c3a5 c0bc 2cbe b2bd
000002f0: b131 49bc 8177 f8bc 212c 46bc 4ecd eb3d
00000300: b9af e7bc 1b9a 9f3c c24b 4fbd 4581 74bc
00000310: f020 333d 2350 d93d faf1 043b ce93 203c
00000320: 9049 25bd 69fb 8bbc 0b84 1d3c 8708 40bd
00000330: 390e 3abd 61ea 76bd b675 43bd 2137 1e3d
00000340: 8bbd 41bc d87c b4bc 6d52 44bd ff47 7d3d
00000350: 24cb 63bd 447f 48bd 015b 66bd 6cc3 66bd
00000360: 4d97 acbc a2a9 ee3d 2642 df3b 703a a7bd
00000370: e7e7 0b3d a754 213d 09ae 583d 4c78 073e
00000380: 1f05 76bc 1ac7 e4bc df52 f13d 6b38 773d
00000390: cf74 123e fc85 243d 5bdb df3c 397d 9f3d
000003a0: bdaa ae3d e8ea 173e 4c66 9d3c e597 4f3c
000003b0: a3ba 1a3e 34a3 133e 8eb9 fc3d d6bd 0c3d
000003c0: 0db6 1a3d 48da cb3d 4417 8dbd 6b25 07bd
000003d0: dc99 22bd 52b6 8c3d 9f78 9bbd e3f9 d7bc
000003e0: f26a ba3d 28a1 4c3a f11d 81bd cb4f f3bd
000003f0: 5171 acbc b0de f6bd 36ff dabd d603 253d

gru.weight_ih_l0 f4 [96, 32]
0.05276608 0.13665006 0.0455644 0.3339834 0.008951223 -0.12459136 0.25073135 -0.0032024176
-0.002509541 0.09422345 0.12027574 0.17563063 -0.007237473 0.20582649 -0.06896919 0.13280928
0.082225196 0.35432032 -0.045525163 0.009620442 0.06603289 0.24567653 -0.1622773 0.13635898
0.028178409 0.21925928 0.2077703 0.005731046 -0.0027715198 0.17183112 0.03643487 0.08898256
0.2303596 0.032824073 0.08165959 -0.14275515 0.1928199 -0.023162143 0.21287966 0.039815295
0.010534041 -0.07477067 -0.16253065 -0.13869561 -0.13456193 0.1464432 0.06601653 -0.119330324
0.20942692 0.12501182 0.15942983 0.060163695 0.011791246 0.014421875 0.08371769 0.19676067
0.11845343 0.11308147 -0.013747824 0.18358928 -0.03848392 0.15274504 -0.026709888 0.12450797
0.040308688 0.13379802 0.034586363 0.048894506 0.051315248 -0.10235094 0.058253605 0.1925683
-0.07366907 0.22014804 0.15297073 0.11989533 0.057533465 0.01930501 0.07195863 -0.0045077167
0.15723898 -0.008436676 0.15025231 -0.14176624 -0.102704875 0.011125826 -0.057748027 -0.018682823
0.21864752 -0.05170244 -0.1770856 0.0111896815 0.1132428 0.057762768 -0.19726734 0.23134741
-0.07051628 -0.050214723 -0.08331487 -0.09861795 -0.08032 -0.08497869 0.05990552 -0.14492743
0.12409059 0.088195525 -0.029222116 -0.095855266 -0.1575128 0.09970723 -0.014034388 0.1569992
0.11228143 -0.06867675 -0.19936717 0.15932852 -0.17157078 0.14418784 -0.14278659 -0.050292823
-0.09615387 -0.12386731 -0.07837118 0.14837448 -0.111606896 0.1424596 0.120412916 0.045609098
-0.14906538 -0.064982906 0.056974996 -0.01283312 -0.13032025 -0.103459 0.06915212 -0.0341715
-0.0402689 -0.16500103 0.040064007 0.021935644 0.043818984 0.1233267 0.037980285 -0.024771916
-0.031924836 0.060224257 0.0433481 0.13256374 -0.028548742 0.12224134 -0.034035794 0.061928105
0.032891694 0.18121569 0.18686712 -0.12166289 -0.090226434 -0.016944278 -0.14561191 0.08156501
0.075850874 0.24216582 -0.015192407 0.34812188 -0.0917497 -0.026976144 0.09576771 0.18851984
0.006177219 0.1936571 0.154875 0.18121637 -0.13299954 0.1722627 -0.13941564 -0.1102406
0.32225236 0.25259224 0.10650443 0.17345305 0.25251803 0.05990767 -0.20224626 0.15236211
-0.016489742 -0.20920098 -0.15180701 0.04224804 0.15486 0.16531402 -0.16498172 0.03264294
-0.10855951 -0.098370284 -0.24421301 -0.13901807 0.07910385 0.1779363 -0.098438755 -0.12820765
-0.12830853 -0.0064294185 -0.04390726 -0.04701102 0.027530087 -0.007962433 0.13067165 0.019305864
-0.033780795 -0.23168777 -0.21174993 0.120627254 -0.27319503 -0.055853 0.09500842 -0.20356558
-0.28397003 0.1764375 0.19143613 -0.08950489 -0.13239269 -0.16764586 0.011589718 -0.28751975
0.08934212 -0.085395746 0.1123324 -0.14112192 -0.14250268 -0.12859046 0.048594855 0.17842013
-0.03344816 0.18891141 -0.09723589 0.033793222 -0.01774912 0.07554468 -0.09383211 0.11108823
0.1318819 -0.07678567 0.17907515 0.1586427 0.117911495 0.14207016 0.047141895 0.21257287
-0.09065113 0.10336909 -0.12710881 0.07778682 0.23860912 -0.104814634 0.051990826 -0.02147138
00000000: 3f21 583d feed 0b3e bca1 3a3d dfff aa3e
00000010: 27a8 123c c129 ffbd dc5f 803e a7df 51bb
00000020: 1d77 24bb 39f8 c03d 2153 f63d 84d8 333e
00000030: 5328 edbb 2ec4 523e b83f 8dbd 28ff 073e
00000040: af65 a83d 7969 b53e 9878 3abd 0f9f 1d3c
00000050: 403c 873d a192 7b3e 052c 26be b0a1 0b3e
00000060: 68d6 e63c 8185 603e bdc1 543e 80cb bb3b
00000070: 63a2 35bb 7ff4 2f3e bb3c 153d 7d3c b63d
00000080: 63e3 6b3e 8972 063d 253d a73d 682e 12be
00000090: 9472 453e 89be bdbc 20fd 593e 5d15 233d
000000a0: f896 2c3c 5d21 99bd 6f6e 26be 3906 0ebe
000000b0: 9aca 09be 35f5 153e ad33 873d 7563 f4bd
000000c0: 0374 563e 1903 003e 9341 233e 356e 763d
000000d0: 1230 413c ba49 6c3c 2e74 ab3d a17b 493e
000000e0: b697 f23d 4297 e73d 8e3e 61bc d4fe 3b3e
000000f0: 51a1 1dbd 3269 1c3e b2ce dabc 09fe fe3d
00000100: b91a 253d 5902 093e 6eaa 0d3d 9b45 483d
00000110: f02f 523d 5f9d d1bd 559b 6e3d a030 453e
00000120: cfdf 96bd 7d6e 613e 5ca4 1c3e af8b f53d
00000130: 36a8 6b3d 8a25 9e3c 0c5f 933d 78b5 93bb
00000140: 4103 213e fc39 0abc bedb 193e 2b2b 11be
00000150: ef56 d2bd 1949 363c 3289 6cbd b80c 99bc
00000160: 23e5 5f3e f0c5 53bd ed55 35be ed54 373c
00000170: d7eb e73d a798 6c3d 7300 4abe 56e6 6c3e
00000180: d76a 90bd f4ad 4dbd fda0 aabd 35f8 c9bd
00000190: d07e a4bd 4f09 aebd 7e5f 753d db67 14be
000001a0: 3523 fe3d db9f b43d 3863 efbc c44f c4bd
000001b0: 094b 21be 4e33 cc3d 7df0 65bc 66c4 203e
000001c0: cef3 e53d 65a6 8cbd e826 4cbe 0427 233e
000001d0: 40b0 2fbe faa5 133e a636 12be d9ff 4dbd
000001e0: 52ec c4bd 25ae fdbd 1281 a0bd 7bef 173e
000001f0: 2892 e4bd eee0 113e 0c9b f63d 9bd0 3a3d
00000200: 98a4 18be c215 85bd 9d5e 693d 0242 52bc
00000210: ac72 05be 50e2 d3bd a09f 8d3d 6af7 0bbd
00000220: 01f1 24bd 08f6 28be 281a 243d 61b2 b33c
00000230: 897b 333d b592 fc3d 3791 1b3d 79ee cabc
00000240: 9ec3 02bd b6ad 763d c78d 313d cabe 073e
00000250: 0ddf e9bc ab59 fa3d 1e69 0bbd 53a8 7d3d
00000260: 71b9 063d 9b90 393e 185a 3f3e 652a f9bd
00000270: a3c8 b8bd bace 8abc 4a1b 15be 8e0b a73d
00000280: b457 9b3d 51fa 773e 93e9 78bc 083d b23e
00000290: 44e7 bbbd 13fd dcbc dc21 c43d 580b 413e
000002a0: 456a ca3b 0c4e 463e 8d97 1e3e c990 393e
000002b0: 0831 08be a265 303e f9c2 0ebe d3c5 e1bd
000002c0: 43fe a43e c553 813e ff1e da3d ad9d 313e
000002d0: 0b4a 813e bf61 753d a519 4fbe d004 1c3e
000002e0: 7f15 87bc c838 56be 4c73 1bbe 480c 2d3d
000002f0: 9f93 1e3e 1448 293e f8f0 28be 9ab4 053d
00000300: 7354 debd 5c76 c9bd fa12 7abe c15a 0ebe
00000310: 3301 a23d ef34 363e 429a c9bd de48 03be
00000320: 5063 03be dfad d2bb 19d8 33bd a18e 40bd
00000330: c786 e13c dd74 02bc cace 053e 5527 9e3c
00000340: bb5d 0abd 8f3f 6dbe f9d4 58be 6c0b f73d
00000350: 38e0 8bbe 1ec6 64bd c693 c23d 7f73 50be
00000360: 8564 91be 08ac 343e d507 443e 574e b7bd
00000370: f391 07be 5bab 2bbe cde2 3d3c ca35 93be
00000380: 00f9 b63d f7e3 aebd 880e e63d 4482 10be
00000390: 39ec 11be 38ad 03be 660b 473d c4b3 363e
000003a0: f000 09bd fe71 413e 9c23 c7bd c36a 0a3d
000003b0: 9a66 91bc 2bb7 9a3d 0d2b c0bd 3a82 e33d
000003c0: 0c0c 073e ce41 9dbd 7a5f 373e 3b73 223e
000003d0: 957b f13d d77a 113e dc17 413d b4ac 593e
000003e0: 4da7 b9bd 2cb3 d33d d028 02be b24e 9f3d
000003f0: f355 743e 0ea9 d6bd 55f4 543d bfe4 afbc

gru.weight_hh_l0 f4 [96, 32]
-0.11145576 0.08134058 -0.13396566 -0.18822491 0.24267736 0.019314151 0.04354855 0.014208065
0.014924677 -0.1696476 -0.16451699 0.08539693 -0.031550635 -0.26682892 0.025774507 0.13987486
-0.079881735 0.052331015 0.07003653 0.038623877 -0.14097446 0.1374824 -0.045708887 -0.07021924
-0.05251385 -0.018001808 0.08074353 -0.19595793 0.08923148 -0.13491863 0.054447703 -0.1007249
0.07852278 0.06902831 -0.04278262 0.080775775 0.18940347 0.005352755 0.19589877 0.11010825
0.04389651 -0.014264361 0.141767 0.096153565 -0.07153046 -0.15067816 0.028287638 -0.21630062
0.05885403 0.0090589225 -0.13768043 0.2437574 0.026306447 -0.18959694 -0.13862419 0.1315225
-0.090789996 -0.028890226 -0.13040003 0.020353327 0.12239456 0.08576677 -0.030129777 0.10591231
0.10696398 0.20730682 -0.049576942 -0.14464204 0.031925716 -0.038413532 0.012533543 -0.1780467
-0.011893685 0.0019033415 -0.028147263 -0.13412005 -0.19108826 -0.018712092 -0.14965181 0.18250576
-0.05925646 0.18568943 0.003248793 -0.06563464 0.028633488 -0.15847147 -0.19068705 -0.06335041
0.029858997 0.0860975 -0.1333609 -0.12558086 0.053901706 0.025505787 0.18802284 0.21054754
0.10827086 -0.123954505 -0.12227454 -0.027486585 -0.0034915882 -0.076851204 -0.06895719 0.015896827
-0.18301657 0.0053003826 -0.10300166 0.080557436 -0.19705838 -0.01856806 0.12722152 0.25094932
-0.08884573 -0.16378282 0.17196617 -0.124137744 0.012519117 0.12207135 -0.1501734 -0.017840771
0.0885542 0.022356033 -0.028968249 0.07667601 -0.07878804 -0.077495806 0.108151756 -0.012780968
-0.15452525 0.19806512 -0.15889448 0.017399294 0.007008783 -0.17608134 0.04031879 -0.026120346
0.12460817 0.0892818 0.038967475 0.05785158 -0.12701172 -0.025881797 -0.0742543 -0.039207205
-0.19810997 -0.13961308 0.04985214 -0.027638908 -0.1345897 -0.025932413 -0.15269478 0.13259321
-0.0807727 -0.1035101 -0.058198445 -0.2124913 0.110726476 0.01970233 0.22045675 -0.08904606
-0.03249958 0.21942724 0.13155168 -0.051781483 0.1356097 -0.05723707 0.029607628 0.15666
0.010200128 -0.027227217 -0.008617699 -0.099436715 -0.16939516 0.15368842 0.2521257 -0.168264
-0.20031758 -0.1273412 -0.28156185 -0.07904407 0.10168175 -0.09706582 -0.037111998 0.07400883
0.042752124 -0.33710426 -0.015262849 0.21245503 -0.22388299 -0.03148339 -0.2698108 -0.022787126
0.058079723 0.14031306 -0.052637912 -0.08550536 -0.122593805 0.006814847 -0.16013305 -0.0041985353
0.12972043 -0.20153244 -0.20049231 -0.005830986 0.23328714 0.11752015 0.022842916 -0.081870385
0.061193857 -0.010514077 0.14791317 -0.07147406 -0.019381497 -0.06867348 -0.15511866 0.06502054
0.12292102 0.1839482 -0.06814846 0.07907439 0.15687379 0.06349125 -0.10179013 -0.067163385
-0.04836231 0.14523189 0.028921044 0.04350147 -0.10858568 0.095979325 0.051687527 -0.034284703
0.1461875 0.15249322 -0.09141865 -0.0064252964 -0.08257504 0.15315329 -0.02608227 -0.07494014
-0.14463276 9.4854986e-05 -0.16031824 -0.048671376 -0.061646294 -0.14735806 -0.058609407 0.26373985
-0.054269407 -0.17019634 -0.11280668 0.06409796 -0.2422446 0.055322457 -0.016993951 -0.11083171
00000000: eb42 e4bd e495 a63d 4b2e 09be 08be 40be
00000010: 6a80 783e b638 9e3c f75f 323d f2c8 683c
00000020: a286 743c 1ab8 2dbe 2477 28be 96e4 ae3d
00000030: 3d3b 01bd cd9d 88be 0f25 d33c 5b3b 0f3e
00000040: 0999 a3bd 0c59 563d 506f 8f3d 1234 1e3d
00000050: 9c5b 10be 30c8 0c3e 3e39 3bbd 1bcf 8fbd
00000060: c318 57bd 8778 93bc dd5c a53d 32a9 48be
00000070: ffbe b63d 1c28 0abe 8e04 5f3d db48 cebd
00000080: 8dd0 a03d b75e 8d3d d43c 2fbd c56d a53d
00000090: fcf2 413e 2a66 af3b b099 483e 6f80 e13d
000000a0: d4cc 333d 11b5 69bc 5e2b 113e 29ec c43d
000000b0: 907e 92bd 604b 1abe 7abb e73c e97d 5dbe
000000c0: ec10 713d e06b 143c 19fc 0cbe 8a9b 793e
000000d0: 9e80 d73c b325 42be 80f3 0dbe d6ad 063e
000000e0: 1bf0 b9bd 32ab ecbc 9687 05be 05bc a63c
000000f0: 00aa fa3d 7da6 af3d b9d2 f6bc 8ee8 d83d
00000100: ee0f db3d 3d48 543e 3111 4bbd 0b1d 14be
00000110: 8ac4 023d 8257 1dbd 7d59 4d3c e051 36be
00000120: bbdd 42bc 8b79 f93a 1795 e6bc c456 09be
00000130: a4ac 43be 1a4a 99bc 533e 19be cae2 3a3e
00000140: e7b6 72bd 5f25 3e3e b4e9 543b 746b 86bd
00000150: c790 ea3c 5846 22be 7743 43be dcbd 81bd
00000160: db9a f43c e353 b03d c38f 08be 4598 00be
00000170: 09c8 5c3d 83f1 d03c 0f89 403e c699 573e
00000180: 1dbd dd3d dcdb fdbd 136b fabd 8c2b e1bc
00000190: 21d3 64bb 2a64 9dbd 6d39 8dbd 103a 823c
000001a0: b268 3bbe d5ae ad3b 89f2 d2bd 4cfb a43d
000001b0: acc9 49be 0b1c 98bc 5c46 023e 6e7c 803e
000001c0: c0f4 b5bd afb6 27be e617 303e ee3b febd
000001d0: fc1c 4d3c 8b00 fa3d 0ec7 19be cf26 92bc
000001e0: e85b b53d 0024 b73c d24e edbc 5008 9d3d
000001f0: a05b a1bd 1fb6 9ebd ab7e dd3d 4467 51bc
00000200: de3b 1ebe 95d1 4a3e 3cb5 22be f788 8e3c
00000210: efa9 e53b ab4e 34be 5125 253d 56fa d5bc
00000220: 9132 ff3d 60d9 b63d 5c9c 1f3d c7f5 6c3d
00000230: 5c0f 02be 1006 d4bc a312 98bd bc97 20bd
00000240: 57dd 4abe bbf6 0ebe c231 4c3d fe6a e2bc
00000250: e2d1 09be 3670 d4bc 055c 1cbe 84c6 073e
00000260: 286c a5bd 1afd d3bd 7e61 6ebd 5297 59be
00000270: 90c4 e23d c866 a13c 6abf 613e c85d b6bd
00000280: 481e 05bd 89b1 603e 7cb5 063e d218 54bd
00000290: 45dd 0a3e 6b71 6abd b28b f23c 7b6b 203e
000002a0: 701e 273c 9d0b dfbc 4031 0dbc 7aa5 cbbd
000002b0: ed75 2dbe 7f60 1d3e 9f16 813e 664d 2cbe
000002c0: 0d20 4dbe bb65 02be e028 90be dbe1 a1bd
000002d0: 853e d03d 72ca c6bd c002 18bd f191 973d
000002e0: da1c 2f3d ee98 acbe 0711 7abc d08d 593e
000002f0: 9541 65be baf4 00bd a424 8abe 11ac babc
00000300: 01e5 6d3d 3aae 0f3e da9a 57bd 6f1d afbd
00000310: 7612 fbbd 144f df3b ebf9 23be de93 89bb
00000320: 6fd5 043e 855e 4ebe db4d 4dbe db11 bfbb
00000330: d3e2 6e3e 68ae f03d 1121 bb3c a9ab a7bd
00000340: 69a6 7a3d 3c43 2cbc 8d76 173e fe60 92bd
00000350: f2c5 9ebc aea4 8cbd 6dd7 1ebe 7d29 853d
00000360: 04be fb3d eb5c 3c3e 6b91 8bbd c1f1 a13d
00000370: 86a3 203e b307 823d 5877 d0bd f58c 89bd
00000380: 8f17 46bd abb7 143e d3eb ec3c 992e 323d
00000390: 2b62 debd cf90 c43d 4db6 533d 1e6e 0cbd
000003a0: 2db2 153e 2f27 1c3e b339 bbbd 4b8b d2bb
000003b0: 1a1d a9bd 37d4 1c3e 7caa d5bc 377a 99bd
000003c0: 9c1a 14be e2ec c638 772a 24be a35b 47bd
000003d0: d380 7cbd 08e5 16be 6b10 70bd e908 873e
000003e0: 9949 5ebd f347 2ebe 3007 e7bd cb45 833d
000003f0: f80e 78be cd99 623d e636 8bbc bcfb e2bd

gru.bias_ih_l0 f4 [96]
0.14539543 -0.059399027 0.19883488 -0.12062414 0.10698215 -0.029262709 -0.14050744 -0.014695145
0.21563144 -0.057414863 0.0019234625 -0.03349472 -0.08347929 0.13015877 -0.10759768 -0.025111914
0.041285817 -0.080959626 -0.0041075773 -0.014191281 0.088720545 -0.084649175 0.23065254 0.123533435
0.0016655425 -0.104378104 0.13243271 -0.007644312 0.13768463 0.16028917 0.04423484 0.29314342
-0.11697523 0.08611735 -0.06500014 0.18110926 0.044084717 -0.13295348 0.1598786 -0.0619807
-0.015624027 0.045497138 0.31461507 0.16886061 0.053819805 0.07372721 -0.050080363 -0.12245258
0.1070483 0.21441871 -0.058865055 0.20734067 -0.033548225 -0.12411082 0.033621695 -0.08471991
0.1469324 -0.072677344 0.029849345 -0.12811407 0.019666342 0.22673643 -0.11680374 -0.05807003
-0.0039001775 0.1610646 0.03424223 -0.013489819 0.05746323 -0.22204758 0.097022526 -0.21717653
-0.08323333 0.016492974 0.16423725 0.2089284 -0.023737786 -0.07265108 0.029189713 0.06459121
-0.21636373 -0.14249747 -0.022883406 -0.10694269 -0.2392536 0.08602949 0.097580135 -0.13141696
0.0155987805 -0.0038859188 -0.05335081 -0.16225561 0.108922765 -0.02869749 0.10630419 0.119516455
00000000: 8ae2 143e 654c 73bd 5f9b 4b3e ca09 f7bd
00000010: 7519 db3d 59b8 efbc 2fe1 0fbe e8c3 70bc
00000020: 7dce 5c3e d92b 6bbd b11c fc3a c231 09bd
00000030: 31f7 aabd 5748 053e 2c5c dcbd 80b7 cdbc
00000040: 511b 293d 29ce a5bd db98 86bb 8c82 68bc
00000050: 1eb3 b53d 8c5c adbd 2e30 6c3e 19ff fc3d
00000060: 554e da3a 30c4 d5bd 719c 073e 237d fabb
00000070: 33fd 0c3e d822 243e 972f 353d e516 963e
00000080: b690 efbd 4b5e b03d cb1e 85bd b574 393e
00000090: 2d92 343d f524 08be 37b7 233e 79df 7dbd
000000a0: ebfb 7fbc 355b 3a3d 3a15 a13e cce9 2c3e
000000b0: 2872 5c3d 4bfe 963d 1121 4dbd 6bc8 fabd
000000c0: 243c db3d 9490 5b3e 7c1c 71bd 1d51 543e
000000d0: dd69 09bd d02d febd e7b6 093d a281 adbd
000000e0: 7275 163e dcd7 94bd 9d86 f43c 5630 03be
000000f0: 4f1b a13c 982d 683e cd36 efbd d7da 6dbd
00000100: 1f9a 7fbb 1eee 243e 9541 0c3d 6704 5dbc
00000110: 905e 6b3d 7160 63be bfb3 c63d 8663 5ebe
00000120: 3c76 aabd 461c 873c cf2d 283e 54f1 553e
00000130: bf75 c2bc 17ca 94bd 441f ef3c 6548 843d
00000140: 748e 5dbe dbea 11be fb75 bbbc c504 dbbd
00000150: e5fe 74be 3b30 b03d 18d8 c73d 2b92 06be
00000160: 0792 7f3c e6aa 7ebb 6186 5abd 5626 26be
00000170: e612 df3d 0017 ebbc 03b6 d93d 0bc5 f43d

gru.bias_hh_l0 f4 [96]
-0.0032644237 0.21346532 0.23786832 0.0705041 -0.06806351 -0.051396303 -0.07889319 0.17846204
-0.018483415 0.20799252 0.12622495 0.08644271 0.026219672 0.27688816 -0.09081246 0.04918695
0.22822839 0.064587735 -0.004621934 0.037317235 0.25324416 0.19444051 0.24222164 0.21803178
-0.063876905 0.09106188 0.0792015 0.035075407 -0.020642055 0.042953353 0.043159932 0.2404904
-0.009056014 0.24405862 0.1731729 0.011756013 0.24289463 -0.09786742 0.03803885 -0.24710423
-0.07644323 -0.021217197 0.23427252 0.10134459 0.1954595 -0.09427087 -0.14512078 0.09878993
0.03936305 0.039179936 -0.17963487 -0.009801206 0.007149549 -0.14421487 -0.10743385 0.14571868
-0.1851157 0.08118993 -0.07351103 0.12883191 -0.06225788 0.11239495 -0.15720129 0.012424079
-0.13597946 0.050670896 -0.11134851 -0.10279527 0.08415497 0.06566995 0.16288163 -0.013794564
-0.12640059 -0.11055295 -0.02284369 0.050475303 -0.10376144 -0.040252633 -0.18912421 0.22254688
-0.17421763 -0.054614373 0.24791686 -0.04742802 0.04123262 -0.08685424 -0.20145166 -0.033024464
0.10348962 -0.09874183 0.14774178 -0.15141816 0.17135729 -0.07745824 0.06086917 0.12811606
00000000: f1ef 55bb a796 5a3e c193 733e 7464 903d
00000010: e264 8bbd ee84 52bd c192 a1bd c1be 363e
00000020: 886a 97bc fefb 543e 1d41 013e e008 b13d
00000030: a3ca d63c 49c4 8d3e e2fb b9bd 4178 493d
00000040: b4b4 693e 9346 843d 9873 97bb f5d9 183d
00000050: 38a9 813e 6a1b 473e f308 783e b943 5f3e
00000060: e5d1 82bd a77e ba3d 6534 a23d 3bab 0f3d
00000070: 8719 a9bc dbef 2f3d 78c8 303d 1e43 763e
00000080: ad5f 14bc 81ea 793e 3d54 313e 4b9c 403c
00000090: 5fb9 783e b76e c8bd a0ce 1b3d e408 7dbe
000000a0: 458e 9cbd b0cf adbc 23e5 6f3e c18d cf3d
000000b0: 8926 483e 1611 c1bd 8b9a 14be 6052 ca3d
000000c0: 263b 213d 247b 203d 34f2 37be 3d95 20bc
000000d0: c446 ea3b 10ad 13be 4706 dcbd 4737 153e
000000e0: f88e 3dbe e846 a63d f38c 96bd 83ec 033e
000000f0: 1e02 7fbd 532f e63d 60f9 20be 5d8e 4b3c
00000100: 333e 0bbe 498c 4f3d b00a e4bd 5486 d2bd
00000110: 7159 ac3d f77d 863d 71ca 263e 9802 62bc
00000120: 286f 01be 9669 e2bd b122 bbbc 31bf 4e3d
00000130: e180 d4bd f2df 24bd c7a9 41be 54e3 633e
00000140: 1b66 32be 52b3 5fbd ebdd 7d3e e243 42bd
00000150: 89e3 283d a3e0 b1bd 5849 4ebe a944 07bd
00000160: 5ef2 d33d 2839 cabd 9f49 173e 5d0d 1bbe
00000170: 4978 2f3e 6da2 9ebd f351 793d db30 033e

gru.weight_ih_l0_reverse f4 [96, 32]
0.16681316 0.15370537 -0.047849793 0.13206136 0.03703187 0.16625872 0.17663309 -0.05472692
0.028009031 0.00066345686 0.04181388 -0.11777053 -0.10073067 0.15459388 0.16126949 0.08325001
0.0797091 0.20936978 0.14475778 0.09502548 -0.035020776 0.022026401 -0.049019378 0.045643464
-0.10594727 0.110875584 0.12991272 0.20150772 0.0179572 0.08696805 -0.08072468 -0.08529314
-0.035975274 0.0127576245 -0.07891085 -0.07748372 0.061279826 0.21117875 -0.11824219 0.115682304
-0.071279705 0.09174293 -0.114122584 0.15021205 0.026375754 -0.10041661 0.13283804 -0.007850372
-0.15144253 -0.1758638 -0.17407772 0.04656717 -0.14227283 0.14364167 0.19013461 0.09849087
0.006329474 0.020013146 0.068421565 0.036439832 -0.067217775 0.03817636 0.12124056 -0.2303211
0.0054280437 0.11618929 0.19624673 -0.024213973 0.07048941 0.2143102 0.106865935 0.04105263
-0.07133165 0.16288526 -0.06647926 0.086304136 -0.08551797 0.23418571 0.22749701 -0.10211704
0.02146602 0.19487096 0.010490535 -0.06751594 0.11222881 -0.00085915765 -0.015633045 -0.045470417
0.037597287 0.15620182 0.14514798 -0.033280227 0.15063141 0.2352137 0.10462912 0.2632896
-0.028174374 0.15577224 -0.10022145 -0.088218875 -0.15513872 -0.038538992 -0.059761934 0.06954546
0.20387499 -0.16232218 -0.0067552063 -0.1028113 -0.05312439 -0.15929137 -0.043448824 0.045172863
0.04530637 -0.02582421 -0.12236899 0.04315734 0.0073414324 0.080527104 0.13555418 -0.16952848
0.11675976 0.017927924 0.06548113 -0.08965334 -0.04375881 0.05492942 0.09610239 -0.09699551
0.1437094 0.15224214 0.010739341 -0.12872973 0.11287457 -0.15361372 -0.11040064 0.15605134
0.21536896 0.15281178 -0.09270051 0.21711 0.09887019 -0.10644829 -0.13506198 0.07334624
0.10733021 -0.05142241 0.17197458 -0.07740924 0.09110003 -0.08153607 0.14158364 0.24481644
-0.0034571947 0.018014893 0.09275756 -0.011592696 0.22846656 -0.09985549 -0.13088821 -0.052664112
0.061413027 -0.12590645 0.1574608 -0.14794663 0.02896904 0.059303273 -0.0020969058 -0.094520725
-0.20250781 -0.041136306 -0.044011846 -0.1404184 0.08328498 -0.100910425 -0.103489794 -0.008637005
0.07286353 -0.20558862 0.16152768 0.15135553 -0.099070854 -0.15950331 -0.19384588 -0.019426769
-0.11141779 0.037003357 -0.16276936 0.052146427 0.18840155 0.075576395 -0.20888777 0.040613838
0.09171873 0.06114951 -0.016125854 -0.031569645 -0.07915193 -0.09369205 0.15844075 0.071201354
-0.10863409 -0.034463044 -0.14444844 -0.1479285 -0.056035504 -0.096485 0.032583844 -0.012921827
0.021927636 -0.16433072 -0.056245785 0.002414935 0.060249433 -0.11746067 0.017176474 0.054226186
-0.10874951 -0.09962659 0.073385976 -0.07566799 -0.016326983 0.026911464 0.031029942 -0.0051804613
0.11117091 0.32719815 0.14385894 0.19295385 0.18668948 0.04739695 0.17476575 0.19760944
0.1838496 0.24355154 -0.012176553 0.13426252 0.0004030041 0.08178622 0.32388294 0.012402203
0.24789467 0.08605439 0.21946087 0.3325709 0.22357783 0.10467876 0.062252916 0.22875622
0.16919297 0.08976752 0.2738425 0.18378414 0.087494075 -0.00953578 0.10514904 0.33284053
00000000: 12d1 2a3e f164 1d3e 25fe 43bd 183b 073e
00000010: bbae 173d ba3f 2a3e 4edf 343e 5629 60bd
00000020: 3273 e53c d6eb 2d3a 0845 2b3d ad31 f1bd
00000030: e24b cebd dc4d 1e3e d423 253e fb7e aa3d
00000040: 863e a33d 0865 563e 623b 143e b89c c23d
00000050: f271 0fbd b670 b43c 8bc8 48bd a4f4 3a3d
00000060: e2fa d8bd bd12 e33d d707 053e 0a58 4e3e
00000070: fa1a 933c 4e1c b23d fb52 a5bd 2bae aebd
00000080: cf5a 13bd 5b05 513c 039c a1bd c9af 9ebd
00000090: 8e00 7b3d 3e3f 583e f628 f2bd d8ea ec3d
000000a0: 18fb 91bd b8e3 bb3d 1ab9 e9bd 30d1 193e
000000b0: f711 d83c 39a7 cdbd b206 083e d99e 00bc
000000c0: c013 1bbe a415 34be 6e41 32be 38bd 3e3d
000000d0: f8af 11be cd16 133e a6b2 423e 95b5 c93d
000000e0: 7a67 cf3b 9cf2 a33c 9b20 8c3d ef41 153d
000000f0: 79a9 89bd d15e 1c3d f94c f83d 4bd9 6bbe
00000100: bbdd b13b a7f4 ed3d e7f4 483e 625c c6bc
00000110: c05c 903d 2274 5b3e 87dc da3d cd26 283d
00000120: 5416 92bd 65cb 263e 4726 88bd 39c0 b03d
00000130: 0c24 afbd 61ce 6f3e faf4 683e bd22 d1bd
00000140: 82d9 af3c 418c 473e 7ee0 2b3c cc45 8abd
00000150: 38d8 e53d 1839 61ba df10 80bc 303f 3abd
00000160: 9dff 193d 5ff3 1f3e aca1 143e d950 08bd
00000170: 1f3f 1a3e dcdb 703e cb47 d63d e5cd 863e
00000180: f2cd e6bc c282 1f3e e740 cdbd 19ac b4bd
00000190: afdc 1ebe 10db 1dbd eec8 74bd da6d 8e3d
000001a0: 9bc4 503e c937 26be c75a ddbb bb8e d2bd
000001b0: f698 59bd 471d 23be 65f7 31bd 2e07 393d
000001c0: 2c93 393d 4b8d d3bc 989c fabd c0c5 303d
000001d0: 6690 f03b 65eb a43d b7ce 0a3e e098 2dbe
000001e0: be1f ef3d 95dd 923c f81a 863d 2c9c b7bd
000001f0: 703c 33bd acfd 603d 54d1 c43d 95a5 c6bd
00000200: 8f28 133e 5de5 1b3e 10f4 2f3c bad1 03be
00000210: c82a e73d ea4c 1dbe bb19 e2bd eccb 1f3e
00000220: ae89 5c3e b17a 1c3e c4d9 bdbd 1552 5e3e
00000230: 747c ca3d 9001 dabd b04d 0abe 8e36 963d
00000240: f1cf db3d 4ea0 52bd 1b1a 303e bc88 9ebd
00000250: a792 ba3d 62fc a6bd 4dfb 103e 29b1 7a3e
00000260: 1a92 62bb f893 933c adf7 bd3d 4bef 3dbc
00000270: 23f3 693e 0981 ccbd 8f07 06be 53b6 57bd
00000280: 3a8c 7b3d 9fed 00be 673d 213e 527f 17be
00000290: 7b50 ed3c fde7 723d 3e6c 09bb 1594 c1bd
000002a0: 355e 4fbe 8b7e 28bd c445 34bd d7c9 0fbe
000002b0: 5191 aa3d 20aa cebd 75f2 d3bd 3a82 0dbc
000002c0: 7939 953d d385 52be 8367 253e f2fc 1a3e
000002d0: a9e5 cabd d654 23be 897f 46be e324 9fbc
000002e0: 032f e4bd d590 173d 03ad 26be 7e97 553d
000002f0: 56ec 403e ccc7 9a3d ade6 55be b25a 263d
00000300: 08d7 bb3d e977 7a3d 5e1a 84bc 2c4f 01bd
00000310: 681a a2bd 9ee1 bfbd 4b3e 223e 04d2 913d
00000320: 8d7b debd 1f29 0dbd 4bea 13be 927a 17be
00000330: 7c85 65bd ed99 c5bd a376 053d 12b6 53bc
00000340: 96a1 b33c 5046 28be fb61 66bd e343 1e3b
00000350: 1cc8 763d 388f f0bd adb5 8c3c 471c 5e3d
00000360: 10b8 debd 0709 ccbd 634b 963d d2f7 9abd
00000370: 2ac0 85bc 6e75 dc3c 8132 fe3c dcc0 a9bb
00000380: 93ad e33d 8486 a73e c24f 133e b295 453e
00000390: 872b 3f3e 4e23 423d cbf5 323e 215a 4a3e
000003a0: 1243 3c3e 9365 793e 2a80 47bc 1d7c 093e
000003b0: 4b4a d339 897f a73d fcd3 a53e 9c32 4b3c
000003c0: 1ad8 7d3e 493d b03d 5aba 603e bc46 aa3e
000003d0: 96f1 643e d161 d63d eafc 7e3d 123f 6a3e
000003e0: ec40 2d3e 09d8 b73d 1635 8c3e e931 3c3e
000003f0: 1830 b33d f63b 1cbc 6158 d73d 136a aa3e

gru.weight_hh_l0_reverse f4 [96, 32]
0.2113728 0.13755895 0.053529162 0.13385811 0.18719225 -0.16830535 0.017870609 0.06827375
0.0064171366 -0.019483102 -0.21700454 0.1995502 0.06681075 0.057095952 0.06557244 -0.042775102
-0.049484022 0.16052878 -0.13202028 -0.017236354 0.067049116 0.1303776 0.06612703 -0.20475511
-0.091793664 0.090095066 0.083344385 0.07218988 -0.1010497 0.16553494 0.216015 0.15777676
0.07894938 0.1772273 -0.035489034 0.18344635 0.17374721 -0.09924472 -0.057661664 -0.062561825
-0.1912171 0.22026415 -0.24186806 0.07136119 0.024040762 0.06730273 -0.19755666 0.21426965
0.08921377 -0.011862905 -0.17352569 -0.21807115 -0.2291649 0.15388173 -0.049426086 -0.18707274
-0.051315576 -0.15042397 0.107015684 -0.08684115 -0.07529301 0.12734899 0.2567469 0.04582574
0.054231197 -0.12753001 -0.044574935 -0.14585932 0.07047816 0.13697404 -0.042154796 -0.003910513
-0.19557819 0.09350849 -0.14502776 0.078306936 0.09597032 -0.12761916 -0.19121014 -0.075848415
0.0066601723 -0.033329405 0.12597245 -0.114058174 0.124537036 0.20519662 -0.08888986 0.0433926
-0.15989716 -0.17769441 -0.08257909 0.046543155 0.079786636 0.060601078 -0.09426949 -0.035283417
0.23810348 0.13694184 -0.20666936 0.0100338515 0.0069848415 -0.044242837 0.20871262 -0.14788115
-0.15445726 -0.0052065165 0.002319206 0.14133681 -0.0530372 0.13551547 -0.25740546 0.046484757
0.044791993 -0.04004996 0.012888993 -0.11903009 0.0075620627 0.039950214 0.025292467 -0.0050985306
0.12368954 -0.18502197 -0.15735395 -0.025265705 0.06407576 0.1569141 0.049869947 0.23112671
0.10935947 -0.0645359 0.0808544 0.13303295 -0.07618465 -0.1100966 0.07353009 -0.21790427
0.07917004 0.19837265 -0.01989233 0.0016186107 -0.1873317 0.04169641 0.016960183 0.031575307
0.17738986 -0.013543398 -0.09528225 -0.051122226 -0.023726616 0.030300712 0.023311056 -0.14867973
-0.06990867 -0.017859437 0.06561731 -0.04814416 0.02852034 -0.023128333 0.13391991 0.051328287
0.1356986 0.07626017 0.113782205 0.27507874 -0.04951717 0.0056344597 0.12009983 -0.03153102
0.090844095 0.09048339 -0.08925958 0.12477934 0.025166797 -0.1255012 -0.059817404 0.1805738
-0.07156934 -0.009270875 0.06097592 -0.14587495 0.02497461 -0.07616604 0.07947015 -0.02980651
0.06115242 0.068321936 -0.22539093 0.10201017 0.12769136 -0.07806624 0.16720414 0.05132151
0.11083726 0.037752192 0.025485441 0.033565823 -0.030498922 -0.21971588 0.11197144 -0.2302088
-0.024829583 -0.07754122 -0.15909679 0.13022749 -0.007154053 -0.12869969 -0.23436673 -0.0854699
0.07158088 0.12719257 -0.058794506 0.038974468 0.011594207 0.15117884 -0.0765737 0.041181054
0.13005517 0.055713136 0.07993899 -0.007997352 -0.02623119 0.11952362 0.05357693 -0.0049030706
-0.016023824 0.10363721 0.096960895 -0.06033756 -0.13067491 0.10857892 0.18743743 0.063846
-0.08195665 0.16487911 -0.1832794 -0.025458982 -0.049494892 0.050707567 -0.08823203 -0.1604661
-0.13862993 -0.03250361 -0.10143334 0.043977987 -0.06573826 0.03487311 -0.05599276 -0.24940552
0.09428695 0.08858599 0.060638838 -0.07332547 0.02330558 -0.027469931 0.09004924 0.1272833
00000000: 1c72 583e 41dc 0c3e 6541 5b3d 1a12 093e
00000010: 53af 3f3e 3d58 2cbe 6265 923c 1cd3 8b3d
00000020: d846 d23b 079b 9fbc 7036 5ebe e356 4c3e
00000030: 13d4 883d 72dd 693d d84a 863d f234 2fbd
00000040: c2af 4abd a861 243e 5330 07be 4133 8dbc
00000050: 0c51 893d b581 053e 9c6d 873d 53ab 51be
00000060: 51fe bbbd c383 b83d 76b0 aa3d 4ad8 933d
00000070: 25f3 cebd fe81 293e 0933 5d3e 3b90 213e
00000080: 36b0 a13d 137b 353e f35c 11bd 5cd9 3b3e
00000090: caea 313e d140 cbbd a32e 6cbd 6a20 80bd
000000a0: 6ace 43be ed8c 613e 43ac 77be d125 923d
000000b0: 22f1 c43c 04d6 893d 4b4c 4abe 8169 5b3e
000000c0: b6b5 b63d a15c 42bc b8b0 31be 0b4e 5fbe
000000d0: 34aa 6abe 2c93 1d3e 0273 4abd ff8f 3fbe
000000e0: 4830 52bd be08 1abe 0a2b db3d c6d9 b1bd
000000f0: 3933 9abd c667 023e 5474 833e c5b3 3b3d
00000100: 8821 5e3d 3a97 02be 3594 36bd 255c 15be
00000110: db56 903d ec42 0c3e 82aa 2cbd c323 80bb
00000120: a645 48be 6181 bf3d 2882 14be 635f a03d
00000130: 168c c43d 99ae 02be 97cc 43be 6a56 9bbd
00000140: 933d da3b 6a84 08bd ecfe 003e 5597 e9bd
00000150: 460d ff3d 101f 523e e30b b6bd 70bc 313d
00000160: 15bc 23be 86f5 35be 3a1f a9bd 09a4 3e3d
00000170: 2d67 a33d d638 783d 5d10 c1bd 5885 10bd
00000180: 66d1 733e 7b3a 0c3e 22a1 53be 0665 243c
00000190: 19e1 e43b fa37 35bd c3b8 553e 286e 17be
000001a0: 0b2a 1ebe 6d9b aabb d2fd 173b 99ba 103e
000001b0: 893d 59bd 91c4 0a3e a6ca 83be cd66 3e3d
000001c0: cf77 373d 6d0b 24bd 5b2c 533c 0cc6 f3bd
000001d0: 2ecb f73b d6a2 233d 2632 cf3c 9311 a7bb
000001e0: f150 fd3d 6676 3dbe 6521 21be 06fa cebc
000001f0: 273a 833d 17ae 203e 6e44 4c3d 7bac 6c3e
00000200: dcf7 df3d 662b 84bd fe96 a53d ca39 083e
00000210: b306 9cbd 547a e1bd f296 963d 4c22 5fbe
00000220: e723 a23d 3322 4b3e 3df5 a2bc 9027 d43a
00000230: e2d3 3fbe dbc9 2a3d 15f0 8a3c 1c55 013d
00000240: b0a5 353e 21e5 5dbc 5723 c3bd 8a65 51bd
00000250: 525e c2bc 3339 f83c d4f6 be3c 803f 18be
00000260: 472c 8fbd f44d 92bc 5e62 863d d032 45bd
00000270: 7da3 e93c a177 bdbc 4d22 093e 9c3d 523d
00000280: 93f4 0a3e 4b2e 9c3d a506 e93d 1fd7 8c3e
00000290: 84d2 4abd 46a1 b83b e6f6 f53d ac26 01bd
000002a0: 780c ba3d 5b4f b93d bacd b6bd 508c ff3d
000002b0: 992a ce3c 6383 00be 1803 75bd 57e8 383e
000002c0: f292 92bd dee4 17bc e3c1 793d 3e60 15be
000002d0: 8e97 cc3c f1fc 9bbd 3fc1 a23d c82c f4bc
000002e0: f67a 7a3d 5fec 8b3d e1cc 66be b5ea d03d
000002f0: 86c1 023e 31e1 9fbd 9037 2b3e 8136 523d
00000300: a5fe e23d 0ba2 1a3d d8c6 d03c 517c 093d
00000310: e0d8 f9bc 33fd 60be 4851 e53d dbbb 6bbe
00000320: 6967 cbbc eecd 9ebd 45ea 22be 5b5a 053e
00000330: 8c6c eabb dac9 03be d5fd 6fbe d80a afbd
00000340: ff98 923d c53e 023e 82d2 70bd b1a3 1f3d
00000350: a1f5 3d3c a0ce 1a3e acd2 9cbd 77ad 283d
00000360: 2f2d 053e 7533 643d 0eb7 a33d 5307 03bc
00000370: cbe2 d6bc cdc8 f43d 7c73 5b3d f0a9 a0bb
00000380: 6544 83bc bf3f d43d 6f93 c63d 8424 77bd
00000390: a5cf 05be a05e de3d 99ef 3f3e b1c1 823d
000003a0: e3d8 a7bd 12d6 283e 98ad 3bbe 5b8f d0bc
000003b0: 28bb 4abd bdb2 4f3d ffb2 b4bd 3a51 24be
000003c0: 01f5 0dbe 8122 05bd 48bc cfbd 4322 343d
000003d0: c8a1 86bd 1bd7 0e3d aa58 65bd 2964 7fbe
000003e0: 8419 c13d 926c b53d 6e60 783d aa2b 96bd
000003f0: 58eb be3c 9f08 e1bc bc6b b83d 8e56 023e

gru.bias_ih_l0_reverse f4 [96]
0.06912327 0.17992997 0.16690502 0.13794267 0.061700936 -0.121670954 -0.036542304 -0.07492627
-0.11965212 0.21677342 0.042863864 0.12008113 0.04791538 0.005728718 0.012215252 0.054271556
0.06774537 0.06826166 0.18051223 -0.07906098 0.04229186 0.20960844 -0.033504415 0.12846906
0.06508816 -0.14858164 0.097352 0.010663372 0.05935575 -0.116015196 -0.03528782 0.20897807
-0.15110756 0.19907328 -0.0023952175 0.08879192 0.22386529 -0.10103169 0.21953194 0.075752236
-0.054893136 0.21866816 0.03913175 -0.020296255 0.30037442 0.0899267 0.1745566 -0.02391776
-0.013923724 0.14413181 -0.03982657 -0.058341432 0.26902246 0.10322185 -0.013975773 0.23789456
0.112172104 -0.01618183 0.044177607 -0.08987004 0.09083926 0.25095132 0.112680055 0.3070321
0.2285231 0.16345198 -0.08708719 0.18714938 0.116684616 -0.07291744 0.16070479 0.0029300563
-0.16786952 0.12558287 -0.18580835 0.074078165 -0.07669325 -0.06064216 -0.09945322 0.110827364
0.08287677 0.12519711 -0.10139278 -0.16094518 -0.021803316 0.046095047 -0.21005285 -0.17828332
0.04568477 -0.17936397 0.10570198 -0.1623152 0.120010234 0.11645948 0.054329373 0.09863874
00000000: 8090 8d3d 903f 383e 26e9 2a3e d840 0d3e
00000010: 1fba 7c3d 9f2e f9bd 62ad 15bd f272 99bd
00000020: 2c0c f5bd daf9 5d3e 0592 2f3d 18ed f53d
00000030: eb42 443d f8b7 bb3b 7b22 483c da4b 5e3d
00000040: 16be 8a3d c5cc 8b3d 33d8 383e b9ea a1bd
00000050: 3b3a 2d3d 98a3 563e ed3b 09bd 658d 033e
00000060: f14c 853d c925 18be 7c60 c73d 6db5 2e3c
00000070: 041f 733d 6099 edbd f689 10bd 59fe 553e
00000080: f1bb 1abe ded9 4b3e 15f9 1cbb 8ad8 b53d
00000090: f13c 653e b4e9 cebd fbcc 603e fd23 9b3d
000000a0: a0d7 60bd 8cea 5f3e 9d48 203d 5544 a6bc
000000b0: adca 993e 7d2b b83d f7be 323e 2eef c3bc
000000c0: 5520 64bc 4a97 133e 2f21 23bd 6df7 6ebd
000000d0: 50bd 893e fa65 d33d a4fa 64bc a29a 733e
000000e0: 7dba e53d c28f 84bc 94f3 343d c90d b8bd
000000f0: ef09 ba3d b17c 803e cdc4 e63d 5033 9d3e
00000100: f601 6a3e f55f 273e c55a b2bd 16a4 3f3e
00000110: 58f8 ee3d bd55 95bd cc8f 243e 3006 403b
00000120: fde5 2bbe cc98 003e 8b44 3ebe 4bb6 973d
00000130: 5a11 9dbd ea63 78bd 21ae cbbd 75f9 e23d
00000140: 4cbb a93d ac33 003e 05a7 cfbd d0ce 24be
00000150: de9c b2bc 29ce 3c3d 1818 57be e78f 36be
00000160: f41f 3b3d 30ab 37be 487a d83d f535 26be
00000170: edc7 f53d 4f82 ee3d 7a88 5e3d 1c03 ca3d

gru.bias_hh_l0_reverse f4 [96]
0.21146831 0.12104966 -0.011261646 0.09418085 0.029384216 -4.9887e-05 0.15945663 -0.07106763
-0.028189195 0.031255767 0.04208793 0.007344862 0.15410131 0.05896198 -0.026039988 0.14653857
0.15143886 0.016070882 0.0040010586 0.2524752 0.042768866 0.0067394515 0.08448438 -0.099380635
0.03547796 0.10025796 -0.04259121 0.0571176 0.026550401 0.14010252 -0.012602009 0.20732734
-0.15463315 -0.08936699 0.23453756 0.23630026 -0.012056741 -0.14256798 0.08206827 0.09507389
-0.20239046 0.1083147 -0.06956329 -0.16566361 0.0255024 0.112258635 0.021216145 0.11391933
0.13751018 0.14085156 -0.0036031462 0.23939118 0.24997136 0.07528824 0.17745362 -0.030406028
-0.0887875 -0.12703377 0.080687515 -0.071397685 -0.010319529 0.26139042 0.1148477 0.20236596
-0.08155211 0.08268923 0.014610325 0.009499934 0.137327 -0.16847381 -0.048565198 -0.053941716
-0.100496836 -0.15130444 -0.005626766 -0.059057858 0.02248944 0.15491588 -0.07526128 -0.032994453
-0.011410262 -0.15203284 -0.020982357 -0.20033251 -0.18016572 -0.1286269 -0.028001357 0.08226848
0.072070785 0.06488574 -0.047456555 0.007890482 0.09223856 0.105978884 0.1565872 -0.029648218
00000000: 268b 583e e2e8 f73d c482 38bc e4e1 c03d
00000010: 2bb7 f03c c23d 51b8 9948 233e e88b 91bd
00000020: 07ed e6bc 0c06 003d 6564 2c3d 2bad f03b
00000030: bccc 1d3e 1e82 713d d051 d5bc 350e 163e
00000040: ca12 1b3e 15a7 833c 501b 833b 6e44 813e
00000050: 682e 2f3d 9ed6 dc3b 2606 ad3d 1388 cbbd
00000060: 5651 113d 0c54 cd3d 1f74 2ebd 25f4 693d
00000070: 3a80 d93c 0977 0f3e a878 4ebc 9e4d 543e
00000080: 2758 1ebe 0a06 b7bd 9d2a 703e b2f8 713e
00000090: a389 45bc 57fd 11be 6913 a83d 1ab6 c23d
000000a0: 723f 4fbe 19d4 dd3d 3377 8ebd b9a3 29be
000000b0: 69ea d03c dbe7 e53d 7bcd ad3c 8a4e e93d
000000c0: 78cf 0c3e 643b 103e c322 6cbb f622 753e
000000d0: 7ef8 7f3e b930 9a3d 67b6 353e 1016 f9bc
000000e0: 39d6 b5bd 2415 02be 7f3f a53d f338 92bd
000000f0: 3e13 29bc f7d4 853e 4535 eb3d 0639 4f3e
00000100: cb04 a7bd f958 a93d 2560 6f3c 9ca5 1b3c
00000110: 739f 0c3e 6684 2cbe 4dec 46bd fdf1 5cbd
00000120: 49d1 cdbd 8def 1abe bc60 b8bb a7e6 71bd
00000130: c63b b83c 45a2 1e3e 9622 9abd 3125 07bd
00000140: 1cf2 3abc 7fae 1bbe 31e3 abbc f723 4dbe
00000150: 5d7d 38be c5b6 03be 1a63 e5bc 607c a83d
00000160: d999 933d d1e2 843d ce61 42bd 1547 013c
00000170: 92e7 bc3d 750b d93d 6558 203e d2e0 f2bc
