logs/exp0/weights/epoch20.pt (torch, 348934 bytes, 45 tensors)

conv_block1.0.weight f4 [32, 4, 10]
0.0681277 -0.13367029 0.13630153 0.0222654 0.04462373 0.12344784 0.0046231174 -0.09420949
0.14050402 -0.07751131 0.08238341 -0.05150447 0.03612365 0.06986672 -0.04323581 0.12168882
0.08318325 0.03810466 -0.009378815 -0.0421048 -0.123634286 0.07644796 0.04401925 -0.024513079
0.032898862 -0.087713964 0.05550294 0.08545184 -0.15064318 -0.02298463 -0.13318704 0.098849595
0.043796074 -0.021728395 -0.03799046 -0.081514776 -0.055924527 0.06452457 -0.008893936 0.043184876
0.0021291294 -0.0654812 0.05755586 -0.089349195 0.032853942 0.171826 -0.05594461 0.0057448065
0.14342889 -0.010346905 0.09171106 0.08240181 -0.13345297 0.109316155 -0.13777333 0.009547268
-0.026252873 -0.045065194 -0.0051379027 0.037027925 -0.11091506 -0.007393343 -0.045637727 -0.03698434
-0.061599683 -0.017604107 -0.0707751 0.09179265 -0.11765823 0.032552622 0.112978056 0.082123786
0.04405888 -0.037267152 -0.022815412 0.006121152 -0.06726943 0.023844544 -0.066845015 0.100040995
0.057387274 -0.10489662 -0.09949516 -0.08195724 0.1466222 -0.082805775 -0.06269108 0.1259171
-0.1286212 -0.008710697 0.051607426 0.047535483 0.008989888 0.0777569 -0.022820327 0.09701719
0.15365393 0.1284573 0.15348999 -0.046433534 0.082742095 -0.1094856 0.06937183 -0.11984213
0.01606029 0.10247475 0.12942788 -0.051304717 0.039233405 -0.029106677 -0.11213111 -0.1278318
0.092134975 0.045920003 -0.035516184 -0.10640622 0.056227405 0.021700293 -0.03471557 0.013913891
0.07061338 -0.083072014 -0.032467153 -0.028815627 -0.01539306 0.06538441 -0.06517401 -0.1124838
0.079250135 0.048445806 -0.031973664 -0.1204163 -0.14008926 -0.14302425 -0.097382165 -0.07505092
0.073907495 -0.039196987 -0.0786513 0.068882056 -0.023749312 -0.012379664 0.0371822 0.14157759
-0.091469005 0.09749104 0.13962689 -0.053016044 0.11923272 0.0119859055 0.043307662 0.05516799
0.09232162 0.026972838 -0.045080435 0.06281606 0.081832305 0.075595476 0.0708499 0.093908295
-0.027181849 0.0028303703 0.022785315 -0.02625862 -0.00067976705 0.11268054 -0.061767146 -0.0072323377
0.04975145 -0.015529249 0.07941495 0.06590951 -0.026448876 0.111596674 0.010694551 -0.08379267
-0.002441269 0.11697748 -0.1275606 0.11735774 -0.1014503 0.060461476 -0.19059761 0.06636631
-0.028903743 0.043837536 -0.16695254 0.08709525 -0.108141676 0.060803924 0.05430378 -0.028493453
-0.09073169 -0.04104545 -0.13537206 0.0068082674 0.09110375 0.083142586 -0.13228291 0.08121694
0.07852978 0.09801704 -0.04040799 -0.059678685 0.039389674 -0.10893845 0.15388863 0.16250068
-0.111083314 -0.06479752 0.089557946 0.03812967 -0.12305706 0.06412123 0.062020294 0.13655873
-0.024825722 -0.07459827 0.12591617 -0.09787765 -0.03068465 -0.063476615 0.079895414 -0.08352253
-0.15279739 -0.1154451 0.007540196 -0.18776588 -0.10466829 0.03881952 0.07870098 0.046984006
-0.08736601 0.0758941 0.08773448 0.0050822883 -0.06990663 0.09799272 0.010814391 0.062461525
0.12340627 0.0510767 0.045788113 0.04608478 -0.06011066 0.16874301 0.060894463 0.11316455
0.11950704 0.09929301 -0.0168513 0.031641074 0.052703746 0.0007675894 -0.08387688 -0.06265305
00000000: 8986 8b3d dde0 08be a192 0b3e ee65 b63c
00000010: 5fc7 363d 39d2 fc3d 857d 973b e8f0 c0bd
00000020: 49e0 0f3e 40be 9ebd a2b8 a83d 5af6 52bd
00000030: 64f6 133d 4816 8f3d 0818 31bd fd37 f93d
00000040: fb5b aa3d a213 1c3d 9aa9 19bc 1576 2cbd
00000050: f933 fdbd c090 9c3d 874d 343d a7cf c8bc
00000060: f5c0 063d 61a3 b3bd 0d57 633d 6001 af3d
00000070: 3542 1abe 434a bcbc 2f62 08be a871 ca3d
00000080: 8363 333d bfff b1bc e29b 1bbd 38f1 a6bd
00000090: 1e11 65bd 7525 843d dfb7 11bc a0e2 303d
000000a0: dd88 0b3b 021b 86bd b2bf 6b3d b6fc b6bd
000000b0: db91 063d 28f3 2f3e 2d26 65bd ee3e bc3b
000000c0: 06df 123e 1186 29bc 02d3 bb3d 48c2 a83d
000000d0: e5a7 08be 26e1 df3d 7414 0dbe 256c 1c3c
000000e0: 4410 d7bc 4896 38bd da5b a8bb 98aa 173d
000000f0: 6f27 e3bd db43 f2bb a0ee 3abd e47c 17bd
00000100: f34f 7cbd 7d36 90bc 89f2 90bd c9fd bb3d
00000110: ccf6 f0bd e655 053d 0a61 e73d 8430 a83d
00000120: 1677 343d 71a5 18bd 63e7 babc f293 c83b
00000130: 8ec4 89bd a255 c33c 0ae6 88bd 4be2 cc3d
00000140: eb0e 6b3d 0ad4 d6bd 1ec4 cbbd 33d9 a7bd
00000150: 2124 163e 1396 a9bd 2e64 80bd 6af0 003e
00000160: 47b5 03be 50b7 0ebc 4f62 533d 91b4 423d
00000170: 534a 133c 023f 9f3d b2f1 babc f3b0 c63d
00000180: 7557 1d3e 4f8a 033e 7b2c 1d3e 1731 3ebd
00000190: b074 a93d fc39 e0bd d112 8e3d ca6f f5bd
000001a0: df90 833c 48de d13d be88 043e e524 52bd
000001b0: 35b3 203d 2071 eebc ffa4 e5bd 57e6 02be
000001c0: 43b1 bc3d 9d16 3c3d 6b79 11bd 81eb d9bd
000001d0: b54e 663d d0c4 b13c ea31 0ebd 17f7 633c
000001e0: bf9d 903d a921 aabd 47fc 04bd c00e ecbc
000001f0: 2c33 7cbc 43e8 853d f479 85bd e85d e6bd
00000200: e54d a23d 1c6f 463d d1f6 02bd d29c f6bd
00000210: 8f73 0fbe f374 12be 4d70 c7bd 4cb4 99bd
00000220: d05c 973d 058d 20bd ef13 a1bd 0912 8d3d
00000230: eb8d c2bc 13d4 4abc 5d4c 183d b7f9 103e
00000240: 1a54 bbbd 62a9 c73d 5afa 0e3e 5a27 59bd
00000250: 4930 f43d 8860 443c 6063 313d d5f7 613d
00000260: 1e13 bd3d 24f6 dc3c 43a6 38bd b5a5 803d
00000270: b297 a73d cdd1 9a3d c119 913d fe52 c03d
00000280: 78ac debc bc7d 393b 45a8 ba3c 511c d7bc
00000290: 6532 32ba 0ec5 e63d 8cff 7cbd 3ffd ecbb
000002a0: 2dc8 4b3d 646e 7ebc 4ea4 a23d 91fb 863d
000002b0: 50ab d8bc cc8c e43d 3338 2f3c 7e9b abbd
000002c0: b3fd 1fbb e491 ef3d 3f9f 02be 4159 f03d
000002d0: 2dc5 cfbd 74a6 773d 052c 43be 0feb 873d
000002e0: 8bc7 ecbc fd8e 333d 9bf5 2abe ff5e b23d
000002f0: 6279 ddbd 890d 793d a46d 5e3d 1a6b e9bc
00000300: 89d1 b9bd 461f 28bd f99e 0abe e317 df3b
00000310: 9a94 ba3d a946 aa3d 2c75 07be 1155 a63d
00000320: 39d4 a03d 28bd c83d d982 25bd a371 74bd
00000330: 1157 213d 1f1b dfbd fb94 1d3e 9466 263e
00000340: a67f e3bd 90b4 84bd 286a b73d db2d 1c3d
00000350: 5705 fcbd fe51 833d fe08 7e3d 0dd6 0b3e
00000360: 505f cbbc fac6 98bd 2bf0 003e 1474 c8bd
00000370: 605e fbbc 0700 82bd 35a0 a33d dc0d abbd
00000380: eb76 1cbe 7b6e ecbd c013 f73b b345 40be
00000390: 545c d6bd 3801 1f3d fb2d a13d 4d72 403d
000003a0: f3ec b2bd 5e6e 9b3d 23ae b33d 5389 a63b
000003b0: 352b 8fbd 68b0 c83d d82e 313c a8d7 7f3d
000003c0: 6dbc fc3d cd35 513d 518c 3b3d 65c3 3c3d
000003d0: 9836 76bd f8ca 2c3e 796c 793d d1c2 e73d
000003e0: 1bc0 f43d 225a cb3d bd0b 8abc 129a 013d
000003f0: e2df 573d 0d38 493a a4c7 abbd 3e50 80bd

conv_block2.0.weight f4 [32, 32, 10]
0.0043669897 -0.026872763 0.019672317 -0.050362036 0.0228142 0.005847112 0.004496989 0.11731221
0.08429085 0.086002015 0.07377362 0.12505163 0.13189203 0.010543107 0.027561603 0.08103425
0.066537574 0.08193795 0.05420276 -0.03792498 -0.027901696 0.018092426 -0.05374295 0.029339552
-0.021359595 0.07075423 0.06653419 -0.049908984 0.002536716 -0.09206257 -0.07707894 0.052739844
0.00085023814 -0.054593176 -0.039403625 0.08453404 -0.038553663 -0.07403987 -0.06903219 0.022722533
0.031584162 0.015834615 0.12209636 0.09424642 -0.05866437 0.107877575 -0.024430918 0.085116416
-0.010723992 0.05803243 -0.020364333 0.02009888 0.006934559 0.106360555 -0.06431649 0.053819872
-0.038479265 0.0033596077 0.09700336 0.11174179 0.025361914 0.044547897 0.07216002 0.15365906
0.1661833 0.0624524 0.05732245 0.1466327 0.013745076 0.02738542 0.15278178 0.0053103315
-0.0020226713 0.010209739 -0.0029007264 0.081913926 0.05815906 0.08962951 0.1126388 0.13061774
0.013666906 0.07355665 0.04677693 -0.01014418 0.04270431 -0.0562611 -0.03628509 -0.0075523555
0.011695726 -0.038328957 0.03199799 0.020786336 0.05703266 -0.060481418 -0.118461266 -0.12183099
-0.105866484 0.010038737 -0.114299 0.03443948 0.06185571 0.06507827 0.09853303 -0.022720037
0.10326731 -0.050830923 0.057703234 0.10799792 -0.051759847 0.09244198 0.03677716 -0.062189866
0.09899906 0.09646224 0.10014251 0.06305626 -0.015030044 0.107118435 -0.052336317 -0.019460166
-0.08776845 -0.02353543 -0.022635115 0.034459814 -0.09914635 -0.124015644 0.016876977 0.03823578
-0.017195933 -0.1240536 -0.1146792 -0.09754797 -0.09270604 -0.10189477 -0.1400585 -0.065153435
-0.093513384 0.0110532185 -0.04035896 -0.1334674 0.05569977 0.03329895 0.0888786 0.11714752
0.08645896 0.05094769 -0.056651745 0.07023072 -0.016988385 0.10060014 0.07998757 0.079053275
-0.07701504 0.02107514 0.050109103 0.058966227 -0.0519316 0.007533603 0.094576895 0.02023257
0.06454962 -0.07027495 -0.054550022 0.00017646022 0.11580632 0.053298373 0.06969336 -0.050361324
0.05834508 -0.04258933 -0.01542038 0.1292818 0.13894074 0.07336816 -0.02736695 0.14757842
0.012115492 0.028450826 0.07427134 -0.021141304 -0.0059483233 0.014155938 -0.091115974 0.05526299
0.043700147 -0.07234368 -0.0027789702 -0.06974207 0.0016423439 -0.018742 -0.020609125 0.10771678
-0.036309224 0.014230488 -0.053273406 -0.02082219 0.04120741 0.10494588 -0.0025673162 0.0020425392
-0.040808655 -0.019576352 0.01008783 -0.045041885 -0.04233335 -0.061430566 -0.048643738 0.043866318
-0.009742903 -0.023071973 -0.021878783 0.08124499 -0.03509411 -0.032454785 -0.039698746 -0.03815341
-0.0034814796 0.12812571 0.022047853 -0.060875807 0.033579566 0.046878666 0.055411175 0.13153909
-0.021869441 -0.033286277 0.11516818 0.059731644 0.14411257 0.043920767 0.015120339 0.075049914
0.07699803 0.1303949 0.009543638 -0.0005653216 0.1402509 0.13331588 0.11963771 0.03218572
0.0325759 0.09647498 -0.06642143 -0.041130766 -0.037338678 0.06193983 -0.07918376 -0.02174688
0.0793157 -0.0070452997 -0.058421206 -0.11872207 -0.021937395 -0.117579184 -0.10594465 0.04220609
00000000: f718 8f3b 4524 dcbc d727 a13c 6c48 4ebd
00000010: d8e4 ba3c 2199 bf3b 7a5b 933b 6241 f03d
00000020: aea0 ac3d d321 b03d a016 973d 890d 003e
00000030: b40e 073e ffbc 2c3c dfc8 e13c 49f5 a53d
00000040: da44 883d 15cf a73d b703 5e3d 3957 1bbd
00000050: 1992 e4bc 9136 943c 9121 5cbd 8059 f03c
00000060: 51fa aebc 98e7 903d 1443 883d 5d6d 4cbd
00000070: 083f 263b 4d8b bcbd 90db 9dbd bc05 583d
00000080: 84e2 5e3a 189d 5fbd b265 21bd 2f20 ad3d
00000090: 72ea 1dbd 37a2 97bd c060 8dbd 9b24 ba3c
000000a0: 655e 013d 98b7 813c a80d fa3d 4404 c13d
000000b0: 0d4a 70bd ebee dc3d 5923 c8bc 8451 ae3d
000000c0: afb3 2fbc 6ab3 6d3d 1ad3 a6bc 68a6 a43c
000000d0: 4c3b e33b 90d3 d93d 5db8 83bd 3a72 5c3d
000000e0: 6f9c 1dbd dd2c 5c3b b3a9 c63d e1d8 e43d
000000f0: cac3 cf3c db77 363d a2c8 933d cd58 1d3e
00000100: f42b 2a3e 16ce 7f3d f2ca 6a3d e226 163e
00000110: 0733 613c 6357 e03c d472 1c3e 4a02 ae3b
00000120: cb8e 04bb c046 273c 1d1a 3ebb 7dc2 a73d
00000130: 3238 6e3d ad8f b73d 2caf e63d a8c0 053e
00000140: 29eb 5f3c dea4 963d 2b99 3f3d c633 26bc
00000150: b7ea 2e3d 0a72 66bd ad9f 14bd c079 f7bb
00000160: 6e9f 3f3c d3fe 1cbd 5310 033d 1b48 aa3c
00000170: 149b 693d 5dbb 77bd d29b f2bd 8782 f9bd
00000180: 87d0 d8bd 8479 243c 9815 eabd 6a10 0d3d
00000190: 6a5c 7d3d c247 853d afcb c93d 5f1f babc
000001a0: d07d d33d 1634 50bd 3a5a 6c3d 032e dd3d
000001b0: 2202 54bd 3952 bd3d a6a3 163d cdba 7ebd
000001c0: 05c0 ca3d ff8d c53d 8417 cd3d a423 813d
000001d0: 9340 76bc e960 db3d 9b5e 56bd ed6a 9fbc
000001e0: f2bf b3bd 60cd c0bc 476d b9bc bc25 0d3d
000001f0: 3e0d cbbd eafb fdbd 9641 8a3c 1f9d 1c3d
00000200: 7cde 8cbc d00f febd eedc eabd 3bc7 c7bd
00000210: aadc bdbd 35ae d0bd 7f6b 0fbe 2a6f 85bd
00000220: f283 bfbd 8f18 353c 704f 25bd aeab 08be
00000230: 7125 643d 7b64 083d fc05 b63d 0aeb ef3d
00000240: 6511 b13d 86ae 503d a90b 68bd 20d5 8f3d
00000250: 3a2b 8bbc 7207 ce3d 86d0 a33d afe6 a13d
00000260: 10ba 9dbd c6a5 ac3c 343f 4d3d 9286 713d
00000270: 3bb6 54bd 71dc f63b 88b1 c13d c6be a53c
00000280: 9732 843d 50ec 8fbd d86f 5fbd 2e08 3939
00000290: dd2b ed3d 654f 5a3d 64bb 8e3d ad47 4ebd
000002a0: 40fb 6e3d 2672 2ebd c3a5 7cbc 7362 043e
000002b0: 7b46 0e3e 0c42 963d a730 e0bc cc1e 173e
000002c0: 0e80 463c b511 e93c 931b 983d 8730 adbc
000002d0: 27ea c2bb 4fee 673c 039b babd 725b 623d
000002e0: edfe 323d ec28 94bd 621f 36bb eed4 8ebd
000002f0: eb43 d73a d388 99bc 78d4 a8bc 9d9a dc3d
00000300: fbb8 14bd fe26 693c 3735 5abd 4c93 aabc
00000310: 1ac9 283d deed d63d 6b40 28bb 1fdc 053b
00000320: fa26 27bd 965e a0bc 6d47 253c d77d 38bd
00000330: bc65 2dbd 9e9e 7bbd a83e 47bd 2bad 333d
00000340: b2a0 1fbc 6f01 bdbc 223b b3bc c663 a63d
00000350: d7be 0fbd 4fef 04bd 279b 22bd c046 1cbd
00000360: 8929 64bb 6333 033e b39d b43c e958 79bd
00000370: ba8a 093d d803 403d d4f6 623d 2fb2 063e
00000380: 8b27 b3bc 3157 08bd 4bdd eb3d 2ba9 743d
00000390: 3f92 133e 43e6 333d 4cbb 773c c5b3 993d
000003a0: 25b1 9d3d 3e86 053e eb5c 1c3c 1732 14ba
000003b0: ef9d 0f3e f583 083e 9e04 f53d 2cd5 033d
000003c0: 4f6e 053d ad94 c53d f507 88bd bc78 28bd
000003d0: 71f0 18bd 9fb4 7d3d 182b a2bd 8326 b2bc
000003e0: 4570 a23d 42dc e6bb 134b 6fbd 8e24 f3bd
000003f0: 0db6 b3bc 5bcd f0bd 82f9 d8bd 4be0 2c3d

gru.weight_ih_l0 f4 [96, 32]
0.04808984 0.1426415 0.057396308 0.29024842 -0.017697835 -0.12877473 0.24324901 0.008982528
0.0072983704 0.09442363 0.09444345 0.13939665 -0.019701077 0.21245489 -0.015899088 0.13199653
0.063824564 0.31458247 -0.029686185 0.013771438 0.08037071 0.24515174 -0.15282749 0.14868551
0.042174816 0.20347132 0.21311858 0.044025507 0.010458791 0.14164624 0.04441787 0.10116569
0.2072448 0.011229724 0.057105694 -0.11527276 0.18104 -0.03818009 0.18943624 0.017363194
-0.006850328 -0.09551191 -0.17789316 -0.14904119 -0.14915136 0.12379992 0.048961572 -0.13007085
0.1887617 0.11404263 0.16172402 0.036969956 -0.0077571184 -0.0041748313 0.07061441 0.17396864
0.091997415 0.10230764 -0.025199762 0.16021217 -0.0605468 0.13368519 -0.042476974 0.10332412
0.040686682 0.13814904 0.046924744 0.039508462 0.034050893 -0.06310769 0.0499249 0.20519309
-0.058375835 0.20788102 0.14220992 0.09572268 0.046171278 0.018217338 0.085863195 0.0058420347
0.1589224 -0.029090703 0.13996367 -0.1515556 -0.09410437 0.0057995985 -0.024265233 -0.00673076
0.22483864 -0.062485047 -0.16644117 0.01621494 0.12483325 0.032793637 -0.18371579 0.23954338
-0.073228866 -0.054264903 -0.08863488 -0.05093035 -0.08283863 -0.11372672 0.056687083 -0.14759411
0.10973679 0.0900469 -0.03360731 -0.10089933 -0.16399941 0.0962983 -0.030187154 0.13560387
0.1128554 -0.071159616 -0.17966846 0.15396655 -0.17526393 0.13968727 -0.16179962 -0.054212496
-0.098630495 -0.14725535 -0.09771152 0.13980886 -0.11674769 0.14188145 0.10398141 0.049654182
-0.16118999 -0.0794778 0.049302123 -0.020221151 -0.14776488 -0.12577458 0.05243311 -0.03964269
-0.063872635 -0.175649 0.022057889 0.0033924954 0.02492713 0.1117476 0.025354581 -0.05639887
-0.044109784 0.03913465 0.04782649 0.11609578 -0.035293665 0.10807099 -0.06453364 0.055185135
0.024461683 0.13574028 0.15668973 -0.13704833 -0.098417886 -0.032969177 -0.16598566 0.08144059
0.074705556 0.2568947 -0.0011033033 0.3279475 -0.08920637 -0.016787363 0.10247857 0.19875076
0.025841495 0.19316526 0.16933823 0.1858331 -0.1181658 0.18587218 -0.11097522 -0.094596975
0.32443422 0.24987607 0.09603947 0.19085951 0.26384172 0.06736174 -0.18845205 0.17395765
-0.008378156 -0.20565957 -0.1479157 0.085976414 0.16808923 0.15006329 -0.14832744 0.034525353
-0.10548741 -0.11235229 -0.24551433 -0.12506048 0.06407374 0.1265224 -0.10970927 -0.122808024
-0.16534549 0.008902138 -0.05925905 -0.061798703 0.00947434 -0.0043265997 0.105490044 -0.022209167
-0.033702336 -0.23410438 -0.18970478 0.106463075 -0.2734929 -0.06604641 0.056950763 -0.19720405
-0.27984914 0.13610646 0.14903836 -0.11250243 -0.1345367 -0.15484351 -0.023501094 -0.27765518
0.07681627 -0.105485864 0.08613956 -0.123018645 -0.14914866 -0.14465293 0.045413386 0.1554783
-0.03690637 0.17496891 -0.0993964 0.03685796 -0.022213835 0.061463382 -0.11249631 0.10231733
0.12664412 -0.077876106 0.16327372 0.1463159 0.08989414 0.13208443 0.04796123 0.18948188
-0.117257275 0.082489885 -0.14425021 0.059028376 0.21313946 -0.10883278 0.045465827 -0.03913189
00000000: daf9 443d 9d10 123e 6418 6b3d 719b 943e
00000010: 0dfb 90bc 86dd 03be 4516 793e 742b 133c
00000020: 2b27 ef3b 2d61 c13d 916b c13d ffbd 0e3e
00000030: 2764 a1bc c68d 593e ce3e 82bc 192a 073e
00000040: 74b6 823d f410 a13e 7130 f3bc 99a1 613c
00000050: 6699 a43d 0f09 7b3e cf7e 1cbe 0441 183e
00000060: 80bf 2c3d c95a 503e c23b 5a3e 1754 343d
00000070: 595b 2b3c b60b 113e 83ef 353d f52f cf3d
00000080: fb37 543e e0fc 373c a9e7 693d 2014 ecbd
00000090: 8d62 393e ba62 1cbd 93fb 413e 423d 8e3c
000000a0: b778 e0bb c09b c3bd a029 36be 419e 18be
000000b0: 22bb 18be d08a fd3d ee8b 483d 4b31 05be
000000c0: bf4a 413e 2f8f e93d fb9a 253e cf6d 173d
000000d0: 6d2f febb 06cd 88bb 4a9e 903d d624 323e
000000e0: 2469 bc3d ab86 d13d bb6f cebc a90e 243e
000000f0: ecff 77bd c5e4 083e 56fc 2dbd 999b d33d
00000100: 14a7 263d f176 0d3e 2934 403d a0d3 213d
00000110: f378 0b3d 9b3e 81bd 0d7e 4c3d 231e 523e
00000120: 801b 6fbd c3de 543e 7a9f 113e 410a c43d
00000130: 181e 3d3d 873c 953c 0bd9 af3d 8a6e bf3b
00000140: 8ebc 223e a04f eebc a352 0f3e 6431 1bbe
00000150: cbb9 c0bd 8f0a be3b e2c7 c6bc b58d dcbb
00000160: 1a3c 663e 52f0 7fbd 8e6f 2abe 32d5 843c
00000170: 93a8 ff3d 9f52 063d fe1f 3cbe dc4a 753e
00000180: 04f9 95bd e044 5ebd 3486 b5bd 589c 50bd
00000190: 4da7 a9bd 8ee9 e8bd b730 683d e922 17be
000001a0: afbd e03d 826a b83d d2a7 09bd 4fa4 cebd
000001b0: 76ef 27be 0b38 c53d 0d4b f7bc bedb 0a3e
000001c0: bb20 e73d 22bc 91bd 02fb 37be 68a9 1d3e
000001d0: 6378 33be 2e0a 0f3e cdae 25be ec0d 5ebd
000001e0: c9fe c9bd 1bca 16be fa1c c8bd 0e2a 0f3e
000001f0: 6a19 efbd 5f49 113e 35f4 d43d 2f62 4b3d
00000200: fd0e 25be 42c5 a2bd 06f1 493d d4a6 a5bc
00000210: ad4f 17be 0dcb 00be 1ac4 563d 6060 22bd
00000220: a8cf 82bd 55dd 33be bfb2 b43c a154 5e3b
00000230: fb33 cc3c eddb e43d 69b4 cf3c 8002 67bd
00000240: 76ac 34bd a84b 203d b6e5 433d a0c3 ed3d
00000250: 1790 10bd 5354 dd3d 372a 84bd cf09 623d
00000260: de63 c83c 80ff 0a3e 4673 203e 6656 0cbe
00000270: 518f c9bd b00a 07bd 25f8 29be 53ca a63d
00000280: 3aff 983d b487 833e b79c 90ba bce8 a73e
00000290: d4b1 b6bd a785 89bc 49e0 d13d 5285 4b3e
000002a0: 8bb1 d33c 1dcd 453e 0067 2d3e 084b 3e3e
000002b0: e900 f2bd 4755 3e3e fa46 e3bd 0fbc c1bd
000002c0: 3e1c a63e 83df 7f3e 57b0 c43d ad70 433e
000002d0: 4316 873e f4f4 893d 93f9 40be f421 323e
000002e0: 8944 09bc 6c98 52be 3777 17be 6714 b03d
000002f0: 951f 2c3e 31aa 193e 26e3 17be 756a 0d3d
00000300: c909 d8bd f518 e6bd 1c68 7bbe db0f 00be
00000310: 1839 833d 178f 013e 41af e0bd c682 fbbd
00000320: 5450 29be 46da 113c 9eb9 72bd a320 7dbd
00000330: 433a 1b3c 26c6 8dbb 2a0b d83d 00f0 b5bc
00000340: 760b 0abd 0fb9 6fbe f841 42be 5009 da3d
00000350: 4307 8cbe 5743 87bd 3445 693d dcef 49be
00000360: 6348 8fbe 7e5f 0b3e 839d 183e ad67 e6bd
00000370: fdc3 09be 4c8f 1ebe 5e85 c0bc d228 8ebe
00000380: d951 9d3d f908 d8bd f069 b03d 33f1 fbbd
00000390: 6dba 18be e61f 14be 6303 3a3d b435 1f3e
000003a0: 222b 17bd 0d2b 333e 5790 cbbd 5ff8 163d
000003b0: caf9 b5bc 07c1 7b3d 7764 e6bd c08b d13d
000003c0: ffae 013e 827d 9fbd 3a31 273e d6d3 153e
000003d0: 6b1a b83d 2441 073e ff72 443d 8a07 423e
000003e0: 9524 f0bd 75f0 a83d 54b6 13be bdc7 713d
000003f0: 3b41 5a3e b8e3 debd 603a 3a3d c348 20bd

gru.weight_hh_l0 f4 [96, 32]
-0.11541181 0.08441741 -0.10002545 -0.19169706 0.24749857 0.008982279 0.037126783 -0.015782988
0.040598765 -0.15707986 -0.14480953 0.095650226 -0.04616711 -0.24956201 0.0055868584 0.118431665
-0.07492462 0.07455669 0.05519963 0.037789214 -0.15515685 0.11864371 -0.056614272 -0.06071088
-0.06815395 -0.017930094 0.054345854 -0.208265 0.06892035 -0.11304134 0.045625202 -0.090772614
0.107859336 0.06147355 -0.06664341 0.08530823 0.17131002 0.03170854 0.17536837 0.13469736
0.019249307 -0.037623473 0.083009265 0.079934895 -0.037154004 -0.15106754 0.056448042 -0.19892655
0.055965193 -0.015216458 -0.12086662 0.20988275 0.054055125 -0.1688142 -0.109637976 0.103888005
-0.073863275 -0.05298153 -0.10545932 0.043861315 0.14184347 0.055496234 0.0041994415 0.092842795
0.10601601 0.19436797 -0.05414387 -0.14357181 0.034963846 -0.029913962 0.009957891 -0.19124843
-0.018311927 -0.0038778258 -0.03139548 -0.12536071 -0.13816825 -0.025841165 -0.14619595 0.19354734
-0.06809083 0.15720256 0.008766584 -0.099785194 0.030059189 -0.13420016 -0.18497269 -0.08484656
0.03693048 0.085323684 -0.13088825 -0.12590685 0.07748079 -0.007127164 0.19953582 0.22157134
0.11276424 -0.11424421 -0.13010132 -0.042887386 -0.008766984 -0.07278295 -0.07428588 0.023133976
-0.1884848 -0.00035118597 -0.115680635 0.082220055 -0.16811943 -0.0117072845 0.13289876 0.24770503
-0.09239602 -0.16292816 0.17527783 -0.13226329 0.013771068 0.123083934 -0.14607328 -0.025850479
0.09375837 0.012967057 -0.02137977 0.08046864 -0.082320355 -0.08347584 0.11707818 -0.005186216
-0.13167459 0.18498717 -0.16591446 0.020969223 -0.007737648 -0.1589371 0.018985914 -0.01579851
0.11526612 0.08421081 0.0031976977 0.041775934 -0.11705745 -0.01521139 -0.05844721 -0.038727768
-0.20102908 -0.14626713 0.051114533 -0.044788893 -0.11788336 -0.021813178 -0.13333888 0.12733783
-0.0765355 -0.1229777 -0.049631026 -0.19290711 0.11643221 0.007363831 0.22180375 -0.104513325
-0.042948507 0.22479506 0.1333096 -0.06009108 0.14592788 -0.073732816 0.040216718 0.13717511
0.012157653 -0.032712717 0.021988109 -0.09106435 -0.17456856 0.14852194 0.24420731 -0.1679192
-0.20130523 -0.13008632 -0.27755654 -0.087397285 0.09207474 -0.09649701 -0.049805466 0.06864556
0.044611756 -0.34168774 -0.015353755 0.20318836 -0.21979447 -0.03161696 -0.26472563 -0.0153879365
0.054695055 0.15081596 -0.055826902 -0.093277656 -0.12085082 0.002596327 -0.15792203 -0.0061080195
0.12706546 -0.20507957 -0.19973738 -0.004036898 0.22969507 0.11588233 0.023485871 -0.08077138
0.057357978 -0.010732968 0.15060443 -0.07204955 -0.022837518 -0.06695617 -0.16013159 0.06430416
0.12603205 0.17461295 -0.06388745 0.07632587 0.15743627 0.06498941 -0.09992716 -0.06547051
-0.054508615 0.09727282 -0.0061008185 0.08350915 -0.13065585 0.10131972 0.055802193 0.02303766
0.11793436 0.16955832 -0.08283158 -0.042230137 -0.09426411 0.14324537 -0.02203139 -0.043896843
-0.107730485 -0.017108092 -0.14369935 -0.008500584 -0.045078315 -0.12398065 -0.059428316 0.2705501
-0.032974135 -0.1521914 -0.07533571 0.07852363 -0.2218505 0.02039301 -0.011717587 -0.14725547
00000000: 075d ecbd 09e3 ac3d 25da ccbd 3c4c 44be
00000010: 4470 7d3e 692a 133c 4112 183d 534b 81bc
00000020: e44a 263d 8bd9 20be f348 14be 44e4 c33d
00000030: b919 3dbd 2f8d 7fbe f711 b73b 4d8c f23d
00000040: 1472 99bd 2eb1 983d 0219 623d ddc8 1a3d
00000050: 70e1 1ebe 79fb f23d 5ee4 67bd f9ab 78bd
00000060: 4c94 8bbd 22e2 92bc c299 5e3d 6c43 55be
00000070: 1d26 8d3d 3882 e7bd 7ee1 3a3d fee6 b9bd
00000080: 5be5 dc3d b0cb 7b3d 577c 88bd 15b6 ae3d
00000090: e56b 2f3e d0e0 013d c493 333e 1bee 093e
000000a0: b9b0 9d3c 121b 1abd c300 aa3d e8b4 a33d
000000b0: cc2e 18bd 73b1 1abe 1036 673d 67b3 4bbe
000000c0: c23b 653d 734e 79bc eb88 f7bd 81eb 563e
000000d0: e868 5d3d a1dd 2cbe e089 e0bd 3cc3 d43d
000000e0: a145 97bd 2903 59bd 0efb d7bd eca7 333d
000000f0: 6a3f 113e 0550 633d 789b 893b 5d24 be3d
00000100: ec1e d93d 6608 473e f6c5 5dbd 7d04 13be
00000110: 4036 0f3d 200e f5bc 6c26 233c a1d6 43be
00000120: e502 96bc 1f23 7ebb 8c98 00bd 8f5e 00be
00000130: fa7b 0dbe dab0 d3bc 64b4 15be 4631 463e
00000140: 3573 8bbd b5f9 203e b8a1 0f3c 2e5c ccbd
00000150: b03e f63c c46b 09be 7b69 3dbe 09c4 adbd
00000160: 6a44 173d 2fbe ae3d 9207 06be baed 00be
00000170: 40ae 9e3d fc8a e9bb 1e53 4c3e 99e3 623e
00000180: f0f0 e63d def8 e9bd 4839 05be afaa 2fbd
00000190: 65a3 0fbc 3a0f 95bd 3223 98bd 7783 bd3c
000001a0: 2902 41be 621f b8b9 f8e9 ecbd fd62 a83d
000001b0: 8027 2cbe e9cf 3fbc 9d16 083e 63a6 7d3e
000001c0: 203a bdbd a4d6 26be 087c 333e 0770 07be
000001d0: 0ca0 613c 6e13 fc3d 3c94 15be 62c4 d3bc
000001e0: 6304 c03d c773 543c a124 afbc becc a43d
000001f0: 9397 a8bd 62f5 aabd afc6 ef3d 22f1 a9bb
00000200: b4d5 06be 476d 3d3e 7be5 29be a6c7 ab3c
00000210: 198c fdbb 68c0 22be 5988 9b3c e06b 81bc
00000220: a510 ec3d b876 ac3d 7790 513b 3e1d 2b3d
00000230: d1bb efbd 3239 79bc 5766 6fbd 02a1 1ebd
00000240: 91da 4dbe 0dc7 15be 795d 513d 8f74 37bd
00000250: d56c f1bd 8db1 b2bc fd89 08be d964 023e
00000260: a5be 9cbd bbdb fbbd e749 4bbd 7189 45be
00000270: 0374 ee3d 4b4c f13b 8620 633e 150b d6bd
00000280: c6ea 2fbd ad30 663e 5082 083e 1022 76bd
00000290: 1e6e 153e 3b01 97bd 49ba 243d a277 0c3e
000002a0: e530 473c c5fd 05bd 6820 b43c f27f babd
000002b0: 1ac2 32be 2316 183e 7b11 7a3e 03f3 2bbe
000002c0: f522 4ebe 5935 05be e41b 8ebe 59fd b2bd
000002d0: ae91 bc3d 39a0 c5bd d100 4cbd 0b96 8c3d
000002e0: d1ba 363d b2f1 aebe 518e 7bbc 9c10 503e
000002f0: cd11 61be c980 01bd 1e8a 87be af1d 7cbc
00000300: ec07 603d 806f 1a3e c0aa 64bd 5b08 bfbd
00000310: a280 f7bd 2427 2a3b 50b6 21be c825 c8bb
00000320: 731d 023e 6100 52be f587 4cbe f447 84bb
00000330: 2f35 6b3e b753 ed3d 7165 c03c 776b a5bd
00000340: 33f0 6a3d 55d9 2fbc 0c38 1a3e b78e 93bd
00000350: bf15 bbbc 5120 89bd 89f9 23be e6b1 833d
00000360: 8c0e 013e bdcd 323e 6cd7 82bd bd50 9c3d
00000370: f936 213e 2b19 853d 9ca6 ccbd 6715 86bd
00000380: 6d44 5fbd f936 c73d 60e9 c7bb d806 ab3d
00000390: a6ca 05be b780 cf3d d790 643d 7ab9 bc3c
000003a0: 9287 f13d b2a0 2d3e 9aa3 a9bd 82f9 2cbd
000003b0: 8b0d c1bd eaae 123e 2c7b b4bc 2dcd 33bd
000003c0: cda1 dcbd 4526 8cbc ec25 13be 0946 0bbc
000003d0: 0aa4 38bd 91e9 fdbd 1b6b 73bd 8b85 8a3e
000003e0: e30f 07bd 10d8 1bbe 9c49 9abd ffd0 a03d
000003f0: c72c 63be 3e0f a73c 1ffb 3fbc 23ca 16be

gru.bias_ih_l0 f4 [96]
0.14932296 -0.07856991 0.19944352 -0.12487579 0.09434285 -0.019444877 -0.13870129 -0.037446253
0.22049531 -0.06873706 -0.0067653116 -0.04091795 -0.06393395 0.11742511 -0.10597366 -0.02849622
-0.01508538 -0.083092436 -0.027618298 -0.029552538 0.036736447 -0.09428777 0.20937802 0.11769814
0.002362894 -0.10013246 0.12999971 -0.055895936 0.12753233 0.15519492 0.026664011 0.27303654
-0.11008629 0.0797536 -0.06295185 0.1804839 0.06056468 -0.13103689 0.1656431 -0.061098382
-0.014191508 0.01998722 0.3122048 0.15876682 0.055387393 0.08436331 -0.042634584 -0.11224093
0.08724593 0.22070304 -0.06832767 0.17571244 -0.030932222 -0.10437208 0.04531884 -0.08621698
0.15482299 -0.078953445 0.012840319 -0.12781014 0.0098411655 0.2286271 -0.10566932 -0.06868153
0.0015045622 0.16171308 0.026599823 -0.009782121 0.057872534 -0.21672715 0.0972307 -0.20837718
-0.09237962 0.02029708 0.15011197 0.2073526 -0.009423258 -0.06863416 0.031151926 0.06357104
-0.22230572 -0.141061 -0.025579207 -0.10197292 -0.23480098 0.0828576 0.10569574 -0.1276237
0.014464473 -0.004503576 -0.05373231 -0.15405084 0.109892815 -0.024155574 0.094104715 0.119195774
00000000: 1ee8 183e 43e9 a0bd ec3a 4c3e e1be ffbd
00000010: d336 c13d dd4a 9fbc b607 0ebe 3e61 19bd
00000020: 86c9 613e 04c6 8cbd 8caf ddbb 9599 27bd
00000030: ceef 82bd 937c f03d b808 d9bd e870 e9bc
00000040: ab28 77bc 5e2c aabd c53f e2bc 2a18 f2bc
00000050: f578 163d f219 c1bd 3167 563e b90b f13d
00000060: c8da 1a3b 3f12 cdbd a51e 053e 23f3 64bd
00000070: d697 023e 6beb 1e3e 7c6e da3c 72cb 8b3e
00000080: ec74 e1bd db55 a33d e6ec 80bd c5d0 383e
00000090: ab12 783d 892e 06be 589e 293e 4c42 7abd
000000a0: 8083 68bc 3dbc a33c 4fd9 9f3e c593 223e
000000b0: e4dd 623d acc6 ac3d 9aa1 2ebd 93de e5bd
000000c0: ffad b23d faff 613e 61ef 8bbd f6ed 333e
000000d0: 9265 fdbc 07c1 d5bd 3fa0 393d 8792 b0bd
000000e0: eb89 1e3e 58b2 a1bd 3460 523c a9e0 02be
000000f0: d73c 213c 391d 6a3e 2869 d8bd e7a8 8cbd
00000100: bb34 c53a 1d98 253e dfe7 d93c 3045 20bc
00000110: c00b 6d3d b9ed 5dbe e420 c73d d460 55be
00000120: 8731 bdbd 1046 a63c f4b6 193e 3d54 543e
00000130: 0264 1abc 1190 8cbd 5332 ff3c 8931 823d
00000140: 1ca4 63be 4b72 10be 7c8b d1bc 2ed7 d0bd
00000150: ab6f 70be 3fb1 a93d 0277 d83d caaf 02be
00000160: 66fc 6c3c bc92 93bb 6916 5cbd 81bf 1dbe
00000170: 7c0f e13d e9e1 c5bc f9b9 c03d ea1c f43d

gru.bias_hh_l0 f4 [96]
0.00066260324 0.1942935 0.23847696 0.0662524 -0.08070281 -0.041578263 -0.07708683 0.15571159
-0.013620416 0.19667102 0.117536366 0.079019606 0.045764826 0.26415396 -0.08918844 0.045802504
0.17185731 0.062454894 -0.02813265 0.021956101 0.20126018 0.18480119 0.22094712 0.21219657
-0.063179746 0.09530753 0.076768845 -0.013176191 -0.030794045 0.037859116 0.025589107 0.22038303
-0.0021668884 0.23769458 0.17522185 0.011131113 0.2593737 -0.095949925 0.043803915 -0.24622175
-0.07501064 -0.046727072 0.23186368 0.09125214 0.1970272 -0.08363477 -0.13767496 0.10900158
0.019560795 0.04546469 -0.18909852 -0.04142959 0.009765667 -0.124475904 -0.095737286 0.14422156
-0.1772251 0.07491383 -0.090519786 0.12913601 -0.07208308 0.11428602 -0.14606686 0.0018126373
-0.13129994 0.050368574 -0.11788061 -0.10455864 0.08439447 0.07011066 0.16340148 -0.007198656
-0.1345565 -0.10541617 -0.03161728 0.048430156 -0.09411249 -0.036554117 -0.18461514 0.22123757
-0.17975469 -0.05375204 0.23144381 -0.04230668 0.044968244 -0.089846015 -0.19447441 -0.029258167
0.10177264 -0.09747004 0.14604926 -0.14443468 0.17072195 -0.072697915 0.051175624 0.12724599
00000000: 8db2 2d3a e0f4 463e 4e33 743e 57af 873d
00000010: 8447 a5bd f84d 2abd b3df 9dbd dc72 1f3e
00000020: 2a28 5fbc 2164 493e e8b6 f03d 08d5 a13d
00000030: e673 3b3d 303f 873e 6ea8 b6bd 689b 3b3d
00000040: 5dfb 2f3e b4d0 7f3d 7176 e6bc 48dd b33c
00000050: 2617 4e3e 863c 3d3e f63f 623e 0f4a 593e
00000060: 6264 81bd 9830 c33d fc38 9d3d f3e0 57bc
00000070: cb43 fcbc 2912 1b3d 3fa0 d13c 17ac 613e
00000080: 5b02 0ebb 3566 733e 5b6d 333e 465f 363c
00000090: a1cc 843e 6581 c4bd bc6b 333d 8e21 7cbe
000000a0: 2e9f 99bd e364 3fbd ac6d 6d3e 67e2 ba3d
000000b0: 80c1 493e b548 abbd aafa 0cbe 383c df3d
000000c0: f63d a03c 2f39 3a3d 0ba3 41be 13b2 29bd
000000d0: 2d00 203c 39ed febd e911 c4bd d1ae 133e
000000e0: 7f7a 35be 6c6c 993d 7062 b9bd 3b3c 043e
000000f0: 4ba0 93bd ca0e ea3d 8d92 15be 0496 ed3a
00000100: 7e73 06be 474f 4e3d 646b f1bd d722 d6bd
00000110: 02d7 ac3d 2d96 8f3d b852 273e b4e2 ebbb
00000120: 2ec9 09be 6fe4 d7bd 1f81 01bd b35e 463d
00000130: 0dbe c0bd c5b9 15bd c00b 3dbe 1a8c 623e
00000140: 9d11 38be 192b 5cbd 9bff 6c3e c549 2dbd
00000150: 9f30 383d 3001 b8bd 4d24 47be d3ae efbc
00000160: 2d6e d03d 5f9e c7bd f08d 153e afe6 13be
00000170: bcd1 2e3e a5e2 94bd 889d 513d c64c 023e

gru.weight_ih_l0_reverse f4 [96, 32]
0.16423836 0.15214518 -0.049999714 0.12014128 0.031188453 0.16949554 0.17171319 -0.057342343
0.029038182 -0.0049667694 0.037889246 -0.12220719 -0.10610842 0.15009093 0.15960148 0.08147395
0.074190564 0.20231889 0.13771068 0.09044232 -0.0359548 0.017343238 -0.0465913 0.042417347
-0.106443875 0.103241794 0.12698647 0.2013187 0.018041344 0.08303076 -0.07727898 -0.08751169
-0.025754225 0.016844423 -0.06971657 -0.021569185 0.060670376 0.20683384 -0.116163775 0.12774755
-0.072880626 0.096524656 -0.11237479 0.15053467 0.026260655 -0.090418525 0.12818763 -0.015430706
-0.14023504 -0.17204684 -0.15465218 0.045580104 -0.13250491 0.14755385 0.19171092 0.10572444
0.016303789 0.008938128 0.060254645 0.036608636 -0.057729192 0.04490298 0.12312317 -0.21843766
-0.00063697604 0.10799586 0.1868271 -0.020328905 0.06913918 0.19882302 0.0990957 0.034306142
-0.083998874 0.15738809 -0.07281154 0.08442224 -0.090545006 0.2232204 0.21404615 -0.11246017
0.016691875 0.19383198 0.019066773 -0.07543217 0.105412744 -0.0075112083 -0.03185155 -0.053586934
0.02870239 0.14436346 0.13534275 -0.042818673 0.1401791 0.23016569 0.08967246 0.2564019
-0.031612393 0.15015844 -0.10700106 -0.047003828 -0.16146722 -0.064963594 -0.06585875 0.06510777
0.19548716 -0.16813028 -0.012324572 -0.10542992 -0.060449004 -0.16444653 -0.05776508 0.028770642
0.043386433 -0.028044023 -0.12433084 0.034425426 0.0014394548 0.07577499 0.12221644 -0.17687708
0.11341135 0.000121027246 0.04813908 -0.09867854 -0.049817033 0.05581 0.08939915 -0.10439729
0.13930249 0.15168042 0.0073733395 -0.10231137 0.10583712 -0.14641537 -0.11604787 0.15551043
0.2108254 0.1497171 -0.09899654 0.21230116 0.09081591 -0.11238865 -0.14192607 0.06964977
0.10078527 -0.05882422 0.19433008 -0.08235284 0.08799856 -0.086679704 0.14097601 0.24347338
-0.0047724326 0.008834914 0.09093529 -0.015560974 0.22580563 -0.10431108 -0.13400054 -0.048576582
0.058734477 -0.12835863 0.15400688 -0.15010005 0.028887425 0.068630844 -0.0052408553 -0.098113365
-0.19429857 -0.046449363 -0.043702062 -0.13646758 0.08411116 -0.1052174 -0.09906787 0.006529144
0.06729079 -0.20523591 0.14989467 0.14997691 -0.101897374 -0.15872367 -0.18628098 -0.02318035
-0.115862705 0.061033268 -0.14652644 0.05321514 0.1858277 0.073916264 -0.19907054 0.0315191
0.08613316 0.057912298 -0.020970862 -0.036723863 -0.08943097 -0.0826351 0.15073192 0.07093287
-0.1089518 -0.04051972 -0.15179633 -0.15531814 -0.063957036 -0.1034735 0.032174274 -0.011808268
0.013259213 -0.17403111 -0.059472628 -0.0043352447 0.058546677 -0.12453665 0.022408135 0.04975912
-0.110531755 -0.10233384 0.074785225 -0.0810062 -0.018717775 0.020825502 0.033563677 -0.008209537
0.05059374 0.26140866 0.0755692 0.1456758 0.13109276 -0.02573905 0.11189568 0.13023609
0.11498348 0.18625163 -0.0743678 0.07761542 -0.059086453 0.019111343 0.2521521 -0.053915396
0.1889154 0.032978 0.17187715 0.26990998 0.15798639 0.04320195 -0.010216264 0.1651805
0.104569726 0.018468888 0.2083877 0.116710775 0.018331459 -0.06519389 0.03635109 0.2676912
00000000: 1a2e 283e f2cb 1b3e 80cc 4cbd a20c f63d
00000010: ed7e ff3c 3d90 2d3e 95d5 2f3e cedf 6abd
00000020: 7be1 ed3c 48c0 a2bb c131 1b3d c347 fabd
00000030: 5f4f d9bd 70b1 193e 926e 233e d0db a63d
00000040: 39f1 973d af2c 4f3e 0704 0d3e d339 b93d
00000050: 5745 13bd 6813 8e3c 85d6 3ebd d0bd 2d3d
00000060: 3fff d9bd 6f70 d33d be08 023e 7d26 4e3e
00000070: 71cb 933c 080c aa3d 7144 9ebd 5439 b3bd
00000080: 86fa d2bc 51fd 893c 90c7 8ebd dcb1 b0bc
00000090: 8081 783d 40cc 533e 46e7 edbd 41d0 023e
000000a0: 7042 95bd b8ae c53d c124 e6bd c325 1a3e
000000b0: 9620 d73c 592d b9bd 9e43 033e 12d1 7cbc
000000c0: c699 0fbe 0c2d 30be 245d 1ebe 34b2 3a3d
000000d0: 5eaf 07be 5b18 173e de4f 443e 0e86 d83d
000000e0: 868f 853c 3a71 123c 93cd 763d f0f2 153d
000000f0: 7275 6cbd 30ec 373d 0028 fc3d 1fae 5fbe
00000100: bdfa 26ba ef2c dd3d 9a4f 3f3e ce88 a6bc
00000110: d898 8d3d 4398 4b3e b0f2 ca3d 9984 0c3d
00000120: 9a07 acbd 582a 213e 371e 95bd 91e5 ac3d
00000130: a96f b9bd e393 643e ea2e 5b3e 8551 e6bd
00000140: 66bd 883c e47b 463e ec31 9c3c 2e7c 9abd
00000150: a3e2 d73d 9520 f6bb c576 02bd f97d 5bbd
00000160: 4621 eb3c 04d4 133e 4a97 0a3e a262 2fbd
00000170: 1c8b 0f3e 8eb0 6b3e 32a6 b73d 1c47 833e
00000180: ff7b 01bd 22c3 193e 5f23 dbbd 1687 40bd
00000190: aa57 25be a20b 85bd f4e0 86bd 3957 853d
000001a0: c92d 483e 582a 2cbe 00ed 49bc a4eb d7bd
000001b0: 6099 77bd ac64 28be 149b 6cbd 69b0 eb3c
000001c0: f9b5 313d 94bc e5bc 2ba1 febd ad01 0d3d
000001d0: 17ac bc3a eb2f 9b3d 9d4c fa3d 441f 35be
000001e0: 3644 e83d 02d0 fd38 7c2d 453d f917 cabd
000001f0: f20c 4cbd 0799 643d e716 b73d 3fce d5bd
00000200: 50a5 0e3e 1d52 1b3e 0e9c f13b a088 d1bd
00000210: 22c1 d83d e9ed 15be 81aa edbd 203e 1f3e
00000220: 9de2 573e 714f 193e b3be cabd 7a65 593e
00000230: b1fd b93d 052c e6bd 1155 11be 8aa4 8e3d
00000240: 8268 ce3d aaf1 70bd 77fe 463e 9ba8 a8bd
00000250: 9738 b43d 2185 b1bd 045c 103e 1651 793e
00000260: 1162 9cbb 51c0 103c 483c ba3d 75f3 7ebc
00000270: 9739 673e 0ca1 d5bd 7037 09be 3df8 46bd
00000280: 9093 703d 7270 03be fbb3 1d3e d4b3 19be
00000290: 52a5 ec3c 548e 8c3d 7bbb abbb a9ef c8bd
000002a0: 34f6 46be b041 3ebd ef00 33bd 28be 0bbe
000002b0: 7942 ac3d 387c d7bd 18e4 cabd 6ef2 d53b
000002c0: c1cf 893d 5d29 52be fd7d 193e 8c93 193e
000002d0: 92af d0bd 7588 22be 71c0 3ebe b8e4 bdbc
000002e0: 6d49 edbd 05fe 793d 070b 16be 1ef8 593d
000002f0: 9e49 3e3e 6961 973d 26d9 4bbe 2c1a 013d
00000300: 9566 b03d 7235 6d3d 16cb abbc c36b 16bd
00000310: 9627 b7bd 973c a9bd 7859 1a3e 4145 913d
00000320: 1f22 dfbd 02f8 25bd 7f70 1bbe b80b 1fbe
00000330: e8fb 82bd eae9 d3bd 2cc9 033d 7777 41bc
00000340: 2c3d 593c 3635 32be 9299 73bd ab0e 8ebb
00000350: a4ce 6f3d 120d ffbd 4491 b73c 38d0 4b3d
00000360: 795e e2bd 6894 d1bd ff28 993d 94e6 a5bd
00000370: 0556 99bc 3e9a aa3c 117a 093d 4b81 06bc
00000380: 623b 4f3d 5bd7 853e 06c4 9a3d 092c 153e
00000390: 2e3d 063e b3da d2bc 9029 e53d 9c5c 053e
000003a0: 757c eb3d bfb8 3e3e 254e 98bd d5f4 9e3d
000003b0: a304 72bd 648f 9c3c 141a 813e 64d6 5cbd
000003c0: 0a73 413e f013 073d 9000 303e a431 8a3e
000003d0: 2fc7 213e 87f4 303d 1e62 27bc 1425 293e
000003e0: a728 d63d 114c 973c 9663 553e 0f06 ef3d
000003f0: db2b 963c 6084 85bd e1e4 143d d20e 893e

gru.weight_hh_l0_reverse f4 [96, 32]
0.20665608 0.13058576 0.04300181 0.12372504 0.1794265 -0.16328163 0.0134334685 0.08698114
0.010310991 -0.03532727 -0.20197675 0.1880664 0.071160816 0.069565535 0.07186331 -0.04671456
-0.045377664 0.16660391 -0.12816441 -0.012250102 0.07405016 0.13004999 0.07185297 -0.19020139
-0.083503135 0.090413496 0.08982105 0.06672602 -0.108318806 0.15920295 0.19978312 0.15531182
0.08501183 0.18397129 -0.052452285 0.18143912 0.17403352 -0.104464196 -0.053373907 -0.004229737
-0.19428094 0.16031952 -0.2291358 0.06937565 0.030679261 0.09163516 -0.2001304 0.22124483
0.072762676 -0.007374062 -0.1809899 -0.22732075 -0.23363638 0.14019206 -0.052479308 -0.17279086
-0.019131536 -0.15766768 0.111647695 -0.08801196 -0.072157174 0.12659734 0.23828411 0.056311205
0.048124533 -0.13238937 -0.03623012 -0.14651072 0.07293297 0.13667355 -0.04670059 -0.010399069
-0.19048908 0.09745985 -0.14337724 0.08707606 0.09255056 -0.13814911 -0.18873885 -0.0823584
0.006349254 -0.040444303 0.13122562 -0.111732945 0.12644607 0.20262277 -0.08390165 0.038886644
-0.16437499 -0.16776991 -0.08805977 0.04492305 0.07721836 0.060673032 -0.08275561 -0.037417404
0.2289327 0.115212694 -0.21435615 -0.03416908 -0.002994061 -0.042073864 0.20161188 -0.13078882
-0.14584452 -0.029886173 0.015327491 0.14201446 -0.050570898 0.14153303 -0.25099838 0.03911801
0.0669306 -0.040523045 0.018429661 -0.11076379 0.020265825 0.04878476 0.034750562 0.0106690675
0.13302423 -0.17920613 -0.15054138 -0.028969474 0.04276611 0.14879325 0.034553245 0.2206637
0.10182338 -0.0791456 0.088819295 0.1162436 -0.07714186 -0.11234946 0.07027165 -0.20554624
0.085801184 0.18330473 -0.007969353 0.005783019 -0.19081117 0.04051626 0.020813785 0.024581408
0.18732731 -0.012780932 -0.090735696 -0.047482017 -0.016692972 0.034215484 0.031164316 -0.115868755
-0.066395864 -0.01197021 0.05968923 -0.048891373 0.016139043 -0.050031506 0.09731741 0.045123134
0.12789798 0.051562194 0.102719076 0.23594594 -0.059595108 0.02917139 0.11232117 -0.034186468
0.093978144 0.07737487 -0.08453731 0.10823928 0.03436142 -0.12007557 -0.054847997 0.175788
-0.04551204 -0.00025054894 0.06499583 -0.13007732 0.04508362 -0.06640602 0.08308145 -0.0220516
0.0585698 0.06767775 -0.21346784 0.09529704 0.10250186 -0.09835188 0.15169527 0.043524604
0.10279125 0.021187061 0.025238423 0.010515929 -0.038639486 -0.21706222 0.107363895 -0.2114467
-0.018024122 -0.103412546 -0.14317074 0.12441928 -0.00826714 -0.12730567 -0.2280464 -0.092694215
0.08666408 0.12981275 -0.05317441 0.045986157 0.022761276 0.15666537 -0.06820418 0.06698813
0.13831103 0.058599867 0.08062908 -0.013257478 -0.041893244 0.09622268 0.02491822 -0.014965116
-0.017748594 0.10335538 0.12813635 -0.05954039 -0.1280186 0.10097679 0.18804432 0.0629548
-0.07812596 0.1658532 -0.18468134 0.013369637 -0.057857305 0.03761752 -0.09073366 -0.16296577
-0.1362715 -0.053072494 -0.10089 0.041394033 -0.06718011 0.03487557 -0.05134203 -0.191883
0.096108824 0.1002258 0.052470177 -0.070570655 0.020190958 -0.029971901 0.081835866 0.12594672
00000000: a79d 533e 46b8 053e aa22 303d 8e63 fd3d
00000010: 95bb 373e 4d33 27be 0d18 5c3c 2b23 b23d
00000020: 6eef 283c 54b3 10bd fed2 4ebe 7a94 403e
00000030: c3bc 913d 6078 8e3d 122d 933d c457 3fbd
00000040: eedd 39bd 379a 2a3e 883d 03be a7b4 48bc
00000050: 9ca7 973d d32b 053e a627 933d 27c4 42be
00000060: b103 abbd b62a b93d 19f4 b73d a7a7 883d
00000070: 40d6 ddbd 1906 233e f293 4c3e 100a 1f3e
00000080: af1a ae3d f862 3c3e 35d8 56bd 2dcb 393e
00000090: d835 323e 53f1 d5bd 999e 5abd 9b99 8abb
000000a0: 95f1 46be cd2a 243e 93a2 6abe d214 8e3d
000000b0: 1353 fb3c 37ab bb3d fcee 4cbe 018e 623e
000000c0: 9904 953d 1ea2 f1bb 6b55 39be c5c6 68be
000000d0: 603e 6fbe 828e 0f3e 8bf4 56bd 16f0 30be
000000e0: bdb9 9cbc a373 21be 8ca7 e43d 9d3f b4bd
000000f0: 24c7 93bd bca2 013e c000 743e 94a6 663d
00000100: 3b1e 453d 1491 07be 0966 14bd e806 16be
00000110: e25d 953d 27f4 0b3e 1e49 3fbd db60 2abc
00000120: 920f 43be 0899 c73d 7cd1 12be ef54 b23d
00000130: 268b bd3d f676 0dbe c244 41be 85ab a8bd
00000140: 670d d03b eda8 25bd 0260 063e 3ed4 e4bd
00000150: 147b 013e 587c 4f3e a1d4 abbd 9a47 1f3d
00000160: eb51 28be e0cb 2bbe ae58 b4bd 3b01 383d
00000170: a924 9e3d 4984 783d c67b a9bd fe42 19bd
00000180: 556d 6a3e a2f4 eb3d 2e80 5bbe e1f4 0bbd
00000190: 0238 44bb a555 2cbd 5873 4e3e 81ed 05be
000001a0: 4458 15be d9d3 f4bc 2820 7b3c 3d6c 113e
000001b0: 6e23 4fbd 09ee 103e dc82 80be 353a 203d
000001c0: e912 893d 7efb 25bd cdf9 963c 20d8 e2bd
000001d0: 8404 a63c 87d2 473d 9b56 0e3d 50cd 2e3c
000001e0: 8137 083e d081 37be 8527 1abe 6451 edbc
000001f0: 842b 2f3d 425d 183e b487 0d3d aaf5 613e
00000200: c788 d03d 1717 a2bd e4e6 b53d 2011 ee3d
00000210: 8dfc 9dbd 7917 e6bd 95ea 8f3d b77a 52be
00000220: 88b8 af3d 3cb4 3b3e e491 02bc 7b7f bd3b
00000230: 0164 43be 61f4 253d ac81 aa3c f35e c93c
00000240: bbd2 3f3e 1d67 51bc a3d3 b9bd 817c 42bd
00000250: b3bf 88bc 8925 0c3d 4f4c ff3c 994c edbd
00000260: 8efa 87bd b31e 44bc b27c 743d 5242 48bd
00000270: 0736 843c d6ed 4cbd 5a4e c73d 09d3 383d
00000280: b0f7 023e e132 533d 615e d23d d09b 713e
00000290: 001a 74bd d7f8 ee3c a408 e63d 1c07 0cbd
000002a0: 9d77 c03d b776 9e3d e621 adbd 8eac dd3d
000002b0: 8fbe 0c3d 2eea f5bd 4ba8 60bd c501 343e
000002c0: d56a 3abd 1c5c 83b9 891c 853d fd32 05be
000002d0: 9aa9 383d e1ff 87bd 9b26 aa3d 8fa5 b4bc
000002e0: e3e6 6f3d a29a 8a3d 5097 5abe 182b c33d
000002f0: 7fec d13d b66c c9bd 0156 1b3e db46 323d
00000300: 3884 d23d 7d90 ad3c cfc0 ce3c 014b 2c3c
00000310: 7044 1ebd 8f45 5ebe 9ae1 db3d 7c85 58be
00000320: 53a7 93bc f5c9 d3bd 5a9b 12be 89cf fe3d
00000330: e672 07bc 6b5c 02be ff84 69be 77d6 bdbd
00000340: f07c b13d a2ed 043e 69cd 59bd fb5b 3c3d
00000350: db75 ba3c e36c 203e a2ae 8bbd 1331 893d
00000360: 68a1 0d3e 6a06 703d dc20 a53d e535 59bc
00000370: 4098 2bbd 6510 c53d 4b21 cc3c 3f30 75bc
00000380: 8065 91bc fcab d33d 2d36 033e a0e0 73bd
00000390: 4f17 03be ebcc ce3d b18e 403e 72ee 803d
000003a0: 8100 a0bd 6cd5 293e 1b1d 3dbe 520c 5b3c
000003b0: c8fb 6cbd d414 1a3d 92d2 b9bd 80e0 26be
000003c0: c28a 0bbe 8b62 59bd 6b9f cebd ca8c 293d
000003d0: ba95 89bd b0d9 0e3d 054c 52bd fa7c 44be
000003e0: b4d4 c43d 2f43 cd3d f8ea 563d 5987 90bd
000003f0: 8267 a53c a287 f5bc 9099 a73d 2df8 003e

gru.bias_ih_l0_reverse f4 [96]
0.066551216 0.18315132 0.16172378 0.12979549 0.056449838 -0.124985605 -0.041220095 -0.07812514
-0.11989014 0.21089229 0.03625725 0.118940845 0.041746605 0.005619967 0.0076840064 0.051361565
0.062749945 0.06307105 0.1827803 -0.07759 0.04658385 0.20956598 -0.034594543 0.124934256
0.05809572 -0.14625905 0.09187623 -0.0078654345 0.056022674 -0.114805505 -0.03373828 0.19920164
-0.1650558 0.2028477 -0.054717373 0.08530999 0.21402301 -0.10875042 0.22681664 0.026704736
-0.04648364 0.20055634 0.023006503 -0.020613784 0.23329997 0.056552466 0.15322603 -0.002686777
-0.026442872 0.10677526 -0.038125403 -0.0706425 0.2687709 0.07625646 -0.019753097 0.23874107
0.11875107 -0.017819522 0.035069413 -0.08386621 0.04609942 0.24204509 0.10798885 0.24804007
0.22548072 0.16252884 -0.085480705 0.18774094 0.118156835 -0.07059001 0.15841979 0.0015693541
-0.16479924 0.11718919 -0.17429805 0.07547688 -0.07836577 -0.06382725 -0.09954817 0.10430247
0.085348465 0.12942314 -0.098754704 -0.1593929 -0.02028698 0.05152718 -0.20666796 -0.17484094
0.049562905 -0.17211197 0.1067757 -0.16511604 0.12020839 0.111934 0.054642614 0.100286394
00000000: 014c 883d 058c 3b3e eb9a 253e 1ce9 043e
00000010: f237 673d 74f8 ffbd 67d6 28bd 1300 a0bd
00000020: f688 f5bd 26f4 573e 7b82 143d 4297 f33d
00000030: 7dfe 2a3d b327 b83b 1eca fb3b 8160 523d
00000040: 0b83 803d 652b 813d c22a 3b3e 82e7 9ebd
00000050: b5ce 3e3d 7798 563e 02b3 0dbd 88dd ff3d
00000060: c7f5 6d3d efc4 15be 9b29 bc3d 06de 00bc
00000070: 0878 653d 261f ebbd 2731 0abd 84fb 4b3e
00000080: 6304 29be 4fb7 4f3e 531f 60bd 01b7 ae3d
00000090: d928 5b3e 8ab8 debd 9f42 683e e4c3 da3c
000000a0: a165 3ebd a45e 4d3e 2278 bc3c 3dde a8bc
000000b0: 30e6 6e3e 8fa3 673d 49e7 1c3e a314 30bb
000000c0: b99e d8bc fdac da3d 6229 1cbd 04ad 90bd
000000d0: 579c 893e 592c 9c3d 3fd1 a1bc 8a78 743e
000000e0: c333 f33d 3ffa 91bc f2a4 0f3d 0cc2 abbd
000000f0: bfd2 3c3d abda 773e 4229 dd3d 37fe 7d3e
00000100: 6be4 663e f66d 263e 8210 afbd 293f 403e
00000110: 36fc f13d 7f91 90bd cc38 223e c9b2 cd3a
00000120: 22c1 28be e300 f03d 307b 32be 9f93 9a3d
00000130: 3c7e a0bd dcb7 82bd e9df cbbd 899c d53d
00000140: 2dcb ae3d 8087 043e e83f cabd e437 23be
00000150: e130 a6bc 2a0e 533d c4a0 53be 8109 33be
00000160: 7902 4b3d 1f3e 30be 38ad da3d 2e14 29be
00000170: d12f f63d a73d e53d efd0 5f3d f462 cd3d

gru.bias_hh_l0_reverse f4 [96]
0.2088964 0.12426997 -0.016442679 0.086033806 0.024133177 -0.0033641246 0.15477811 -0.0742665
-0.028427253 0.025375145 0.035481315 0.0062045385 0.14793216 0.05885306 -0.030571338 0.1436284
0.14644362 0.0108802505 0.006269226 0.2539463 0.047060855 0.006697315 0.08339428 -0.102915496
0.02848535 0.10258038 -0.048066176 0.038588863 0.023217143 0.14131206 -0.011052579 0.19755091
-0.16858138 -0.08559314 0.18221553 0.23281732 -0.02189837 -0.15028624 0.089353055 0.046026573
-0.19398114 0.090203166 -0.0856887 -0.16598052 -0.04157159 0.078884415 -0.000114964816 0.13515046
0.124990694 0.10349476 -0.0019020152 0.22708958 0.24971984 0.048322897 0.17167643 -0.029559383
-0.08220854 -0.12867215 0.071579516 -0.06539385 -0.055059165 0.2524849 0.11015649 0.1433733
-0.08436021 0.0813283 0.016539624 0.010770011 0.13902687 -0.16178091 -0.051002968 -0.05571959
-0.09760275 -0.16017951 0.006053627 -0.05754338 0.022174774 0.15116304 -0.07566699 -0.038865827
-0.00909858 -0.14619862 -0.018566338 -0.19947536 -0.17935845 -0.1233095 -0.024878722 0.08468081
0.071814924 0.07157872 -0.046681553 0.004748318 0.092819825 0.10120137 0.15686372 -0.028495047
00000000: f0e8 553e 4181 fe3d ccb2 86bc 7e32 b03d
00000010: f1b2 c53c a578 5cbb 277e 1e3e 0919 98bd
00000020: 45e0 e8bc 89df cf3c db54 113d 714f cb3b
00000030: 877b 173e e80f 713d be70 fabc 5313 133e
00000040: 51f5 153e 1443 323c 146e cd3b 4005 823e
00000050: e2c2 403d 2675 db3b 9fca aa3d 5cc5 d2bd
00000060: 1c5a e93c aa15 d23d 0ae1 44bd 5b0f 1e3d
00000070: e131 be3c 1cb4 103e e015 35bc c94a 4a3e
00000080: 99a0 2cbe 754b afbd b596 3a3e aa67 6e3e
00000090: 3664 b3bc a3e4 19be bcfe b63d 5c86 3c3d
000000a0: fea2 46be 70bc b83d 8f7d afbd ccf6 29be
000000b0: f946 2abd 278e a13d 4419 f1b8 e264 0a3e
000000c0: 1ffb ff3d 10f5 d33d 0a4d f9ba 2c8a 683e
000000d0: 8fb6 7f3e 3bee 453d f2cb 2f3e 8526 f2bc
000000e0: f35c a8bd a2c2 03be 4898 923d 36ed 85bd
000000f0: b885 61bd b345 813e ba99 e13d 73d0 123e
00000100: 0cc5 acbd 748f a63d 1b7e 873c b374 303c
00000110: 0f5d 0e3e e5a9 25be 7de8 50bd 3a3a 64bd
00000120: f3e3 c7bd 1906 24be 815d c63b 9bb2 6bbd
00000130: dfa7 b53c 7cca 1a3e 4bf7 9abd c631 1fbd
00000140: 3612 15bc 17b5 15be 6f18 98bc 4543 4cbe
00000150: bea9 37be b189 fcbd 76ce cbbc 226d ad3d
00000160: b413 933d dd97 923d 2835 3fbd c797 9b3b
00000170: 5218 be3d aa42 cf3d e2a0 203e 726e e9bc
